maml_model/maml_OpenDoorLoc_7_3_500_50_encoder.pth (torch, 24608 bytes, 6 tensors)

net.0.weight f4 [32, 36]
00000000: c0a4 543c a0d4 a9bc a882 0bbe 10ee 14be
00000010: db50 f1bd cbcf 14be 2b44 523d 6fb5 233e
00000020: b6cc 9a3c d3d9 b33d d4b9 00be f43f 083e
00000030: 808c e2bc cb7b 043d 0091 cfbc de09 ae3d
00000040: 5686 c4bd 477c 22be 3666 1e3e 6e63 c6bd
00000050: e337 dcbd 10ad 2cbd 1b5c 603d 06da ac3d
00000060: b844 853d 6b69 7b3d 8042 0ebc 4b60 da3d
00000070: 5614 7dbb 9329 0e3e a004 d33c 9a57 2a3e
00000080: 9330 163e 56bd 61bd 0e66 883d 160c 53bd
00000090: c01e acbc a6e6 17be 904f ffbd 8001 fe3d
000000a0: 6b5b d23c 20d8 423d ced8 a93d 080b 9dbd
000000b0: c0c8 843d de86 203e 9389 dfbd c86e b73d
000000c0: 408a 92bd 3be3 cfbd 0049 a53b bb97 523d
000000d0: fbb6 6fbd db21 9dbd d658 f53b 8603 1f3d
000000e0: d0b8 e8bd 4051 32bd 9024 1f3e 46a5 243e
000000f0: e8d3 ba3d 5095 f1bd 5b54 1c3e ab81 6ebc
00000100: 4627 443d 20e6 b6bc 8b82 2b3d bf24 1fbe
00000110: e033 8abd bb69 0c3d 28e3 063e e0f4 f8bc
00000120: 1aa4 173e 0ac8 213e 80fb 543d d69b 7ebd
00000130: 8b6d d7bd f390 94bd 40fd 483c 96c3 6f3c
00000140: 98f1 963d 0bfb d6bc 4872 c9bd 18c0 fd3d
00000150: 5840 983d 56ec e23c 7624 f23d ab9a 493c
00000160: 8b0c 823c 40e9 b43c a69f 583d 5b0d 0fbe
00000170: ae77 8bbd 48c2 ebbd 6b65 0bbe 489c ec3d
00000180: 486b afbd f0c0 02be 4b47 103e 70ed 29be
00000190: f87a adbd b8fb ea3d 977d 213e c73d 0abe
000001a0: 1cdf 13be a06d 8b3c 5e72 eabd 2b80 283d
000001b0: a4cd 21be 6ba4 3b3c 3640 4e3d db50 24bd
000001c0: 76ed bdbc ab98 cfba e6dc 28bd a00f 493d
000001d0: 56ed 8bbd f0c2 ed3d b456 27be 2bd1 8b3d
000001e0: 1be9 d93d 906f c43d 8be3 20be 76df fe3d
000001f0: 0ee4 023e 96f0 85bd fc7f 24be fe40 22be
00000200: 30d0 d0bd 6baa 1f3e fbe8 c3bd 7376 973d
00000210: c8f5 243e a69e bbbd 96fd 3dbc 2b30 583c
00000220: 4ac5 0b3e 1683 1dbc b36d 813d a012 eb3d
00000230: 22aa 0dbe 688b 1bbe 0b7f d53c b6d9 f13c
00000240: 461a 21bd 461c b3bd 86f6 27bd e331 cc3d
00000250: d6cf 8c3d 2646 f8bd 0613 1abd 66d0 2ebd
00000260: 98df ccbd 2755 01be 4040 aabd 401e 3c3c
00000270: 8aae 1e3e 804c c7bb 36c8 233e 16b6 a7bd
00000280: 4091 c43c 6e6d c4bd 30ba 65bd 1627 e5bc
00000290: 6fe5 0bbe db97 0d3e 8374 103e c710 233e
000002a0: 238e 05be 0b2e 153d 8099 5dbd 2300 0fbe
000002b0: 906b 5c3d 40fa 233c 6332 823d 6b92 b1bd
000002c0: 56b3 b3ba 9b94 0d3e de1b dd3d 60a0 86bd
000002d0: 803b d3bd 56c7 9cba cba0 2c3d 8ee1 a3bd
000002e0: 38c5 9abd 8bb5 18be 8c52 2a3e 56df 1b3c
000002f0: b715 29be e00f 7e3d 5814 063e 8090 4cbd
00000300: 787c e7bd f870 283e b8ee 13be 5011 a1bd
00000310: 0052 a13a 0fc1 01be c06e 423d 4a8c 17be
00000320: 7036 04bd 209e e8bc 00fd febc 4b24 123d
00000330: 229b 1c3e aba0 f83a 2b83 a53b af7d 103e
00000340: 40a8 9abc e3e9 e43d bbc3 253e 707e 56bd
00000350: cbd5 c03d 60bd b6bc abe5 943c 8837 11be
00000360: 7ff6 153e f39c 133e 7b5b 8f3d 0bd0 123e
00000370: 5634 39bd 8bef e83d cb8c dc3c 9bdc 57bd
00000380: 770e 11be c327 28be 3678 1cbe 8021 cb3b
00000390: 9ecf d1bd 3437 12be 164c 373d d85c 98bd
000003a0: 7abb 0a3e a225 273e b31f 8cbd a4a0 00be
000003b0: 3be6 2dbd 0093 ffbb 969f 623d 639a 00be
000003c0: 567c cdbd 36e9 7b3d daf9 043e ebfc 1dbd
000003d0: 8efb 21be 6b70 773d 2ed9 ac3d 1816 933d
000003e0: 303d 20be d831 88bd 8017 45bc e8ff 1cbe
000003f0: 1076 583d 0e94 d93d c617 b63d 4006 273d
0.012978733 -0.02073127 -0.1362406 -0.14543939 -0.11783 -0.14532392 0.05133454 0.1598718
0.018896442 0.08781781 -0.12570888 0.13305646 -0.027654886 0.03234462 -0.025337696 0.08497976
-0.09595935 -0.1586772 0.15468678 -0.096869335 -0.10752847 -0.042157233 0.05477534 0.08440022
0.06507248 0.06137983 -0.008682847 0.10662898 -0.0038616857 0.13883047 0.025759041 0.1663498
0.14666967 -0.055112205 0.066600904 -0.051525198 -0.021010756 -0.14834079 -0.12466347 0.1240263
0.025678357 0.047569394 0.08293305 -0.0766812 0.064836025 0.15676448 -0.10914912 0.08956677
-0.07155275 -0.10150763 0.0050441027 0.051414233 -0.058524113 -0.07672473 0.0074873967 0.03882172
-0.11363375 -0.043534517 0.15541291 0.16078672 0.09122449 -0.11796057 0.15266554 -0.014557282
0.047889017 -0.022326529 0.041872542 -0.15541361 -0.067481756 0.03428052 0.1317259 -0.030390203
0.14808694 0.15798965 0.05199766 -0.062160335 -0.105189405 -0.07254209 0.012267411 0.014634034
0.07370299 -0.026242753 -0.098362505 0.123901546 0.074341476 0.027700584 0.118233606 0.012304942
0.015875122 0.022083879 0.052886628 -0.13969938 -0.068099365 -0.115116656 -0.13612907 0.11553246
-0.08565384 -0.12768912 0.14089696 -0.16594481 -0.0847072 0.11473793 0.15770565 -0.13500129
-0.14440578 0.017020047 -0.11447595 0.041137855 -0.15801102 0.0114527745 0.050354205 -0.040116172
-0.02318452 -0.0015838345 -0.04122629 0.049087167 -0.068323776 0.11609447 -0.16341668 0.06827005
0.106401645 0.09591591 -0.15711801 0.124449655 0.12782308 -0.06540029 -0.16064447 -0.15845105
-0.101959586 0.15592353 -0.09565922 0.07395639 0.16109383 -0.09161119 -0.011596104 0.013195078
0.13649479 -0.009613773 0.063197516 0.11478162 -0.13834432 -0.15189898 0.026061555 0.029522758
-0.039331697 -0.08745627 -0.041006587 0.09970453 0.06875579 -0.12122755 -0.0376158 -0.042679213
-0.100035846 -0.1263014 -0.08313036 0.011481822 0.15496269 -0.0060821176 0.15994343 -0.08189027
0.023995042 -0.095911846 -0.056085765 -0.02797274 -0.1366174 0.1382746 0.14106946 0.15924369
-0.13042502 0.036420863 -0.054101467 -0.13964896 0.053813517 0.010008395 0.06357267 -0.08670505
-0.0013710062 0.1382622 0.10796331 -0.06573558 -0.10314083 -0.0011961262 0.04214553 -0.080020055
-0.07557148 -0.14913003 0.16633052 0.009513697 -0.1651219 0.06202686 0.13093698 -0.049942493
-0.113030374 0.16449344 -0.14446533 -0.0786463 0.0012307763 -0.12671302 0.0474689 -0.1479961
-0.03227848 -0.028395712 -0.0311265 0.035679143 0.15293553 0.0018968781 0.005051037 0.14110444
-0.018879056 0.11177423 0.16187946 -0.052366674 0.09415778 -0.022307098 0.01817592 -0.1418134
0.14644812 0.1441534 0.069998704 0.14337175 -0.045215927 0.11373814 0.026922604 -0.05270062
-0.14165674 -0.16421418 -0.15280232 0.006199062 -0.10244678 -0.14278871 0.044750296 -0.074395835
0.13548079 0.1632295 -0.06841984 -0.1256128 -0.042455893 -0.007799506 0.055327974 -0.12558894
-0.10033481 0.061501704 0.12985936 -0.03857128 -0.15818617 0.060409945 0.08439861 0.071819484
-0.15648341 -0.06650132 -0.012029529 -0.15331995 0.05284697 0.10623942 0.08891253 0.040777445

net.0.bias f4 [32]
00000000: a040 d8bd 3ea4 a3bd e395 203e 6e27 803d
00000010: 40e6 8abd b869 87bd 261e 0c3d 7667 0bbe
00000020: e02c dabd 431e 903d 3611 babd d350 27be
00000030: 9669 26bc 13e2 90bd d60b 073c c333 dabd
00000040: cb0a 10bd 0096 b6bb d6df 113c ebda fdbc
00000050: 3e15 0b3e a221 173e 2e2c d6bd 9847 29be
00000060: f69f 99bd e67f 35bd 5474 013e e80b a43d
00000070: 56b9 df3a 5eed aa3d 2358 a93d 00a2 c23c
-0.10559201 -0.07990311 0.15682177 0.062575206 -0.06782198 -0.06611961 0.03420844 -0.13613686
-0.106530905 0.07037022 -0.09085314 -0.16339426 -0.01015701 -0.0707437 0.008242568 -0.10654404
-0.035166543 -0.0055720806 0.008903464 -0.030988177 0.13582322 0.14758924 -0.10457645 -0.16531217
-0.07501213 -0.044311427 0.12642032 0.080100834 0.0017068784 0.083460554 0.08268764 0.023758888

net.2.weight f4 [64, 32]
00000000: 2489 8e3d e624 ec3d 8b39 13bd 723b b4bd
00000010: 3c77 d53d d3ed acbd 6d22 343e 3275 d8bd
00000020: 2622 e4bd 1376 a43d c19c 1dbe 29c6 08bd
00000030: 7db5 9f3d 9011 a3bd eb1c ae3c ef3e a23d
00000040: 3a42 19be ce79 263e 5699 f33d 60a7 b5bd
00000050: 28e3 323e ef06 3ebd d6aa ed3d 5469 edbc
00000060: 2ef7 93bc 788f 073e c6e5 afbd b10e 7dbd
00000070: 8fa7 07bd 7940 0c3e 1bfb a1bd 0fae 0fbd
00000080: 647e c93d f878 f43d dbc8 1dbd 916a c13d
00000090: f386 123e b389 fcbd bdb5 84bd ec25 0bbe
000000a0: f0bc 023e 714b f43d 2f63 d2bd da82 2ebe
000000b0: 32e5 9dbd cae4 01be e075 2a3e 8b91 09be
000000c0: 6f89 d0bd 90ed 003e d59d 333e 2af4 103e
000000d0: 289a 293e 74fc 2ebd 2552 19be 2921 d63d
000000e0: def1 aebd e272 e33b 3cd8 fe3d 8eb1 5ebd
000000f0: c9e0 843b f9ad 2bbe 4325 a3bc e9f2 b13d
00000100: bfa2 a43c efda 17be 177c 0cbe 0dbd f0bd
00000110: 3f16 0ebe 9233 28be d90d 71bd 3cc3 debd
00000120: ed8f 263e 9eee 133e f256 d63d 5928 ad3c
00000130: f382 9b3d a6a5 403d f05a ab3d f3c2 ff3d
00000140: a9d9 023e 6271 14be 7dff 2ebe e418 213e
00000150: 00ad b0bd 1a8f 033e 9edd c93d bceb 02be
00000160: c3c3 973c 72d2 c7bc 2728 103e 1870 8abd
00000170: 1b5a b23d d4ab a23d 6f95 993d 9668 ca3d
00000180: f843 2cbe 4617 86bd 1b5d 09be 9ded fe3d
00000190: d859 093e 6683 033e ba63 e53d 0b09 943d
000001a0: 5260 083e c6df 2cbe fc65 0fbe 2aa2 1dbe
000001b0: 838c a9bb b691 03be 785d 0bbe fb83 cb3d
000001c0: c47e dcbd 48a4 c6bd 12d4 773d ba06 f23c
000001d0: 33ca e53c d940 debd baf6 a43d e852 46bd
000001e0: e7fb 25bc 623a 3d3c 114f 01be bce9 54bc
000001f0: ef56 0a3d 4c13 0dbe cd1e a03d 4101 083e
00000200: a47a 1abe 481c 2d3d a433 bdbd 876c 1e3d
00000210: 1a4e dd3b 94d9 593d cd59 203e 11ee 97bd
00000220: 205a 24be aa5a 0d3e 466b 06be a7ce b53c
00000230: 782d 0d3e faef 3d3d d9f9 60bc e58b 293e
00000240: 41cb 8ebd 3596 033e f827 2abe 8aa4 b43d
00000250: 6633 3d3a 20ca d63c 7310 0dbd d49d 93bd
00000260: 30de d23d 655d 2c3e 1275 1c3d ea76 ccbc
00000270: 6e25 c43d cd98 f23d 0cb0 4a3d 07aa ccbd
00000280: 090e 2b3e 2fbe a1bd e9de 103d 22f8 213e
00000290: dd9f 28be 9650 98bd e914 01be 1708 2cbd
000002a0: 4402 14be 44bc e83d ffa7 193e 4b85 283c
000002b0: 6a8e 9e3d b41d c13d 01a7 313e c30d 29ba
000002c0: 0c1c 013e bb34 d1bd 40a9 55bd 699d 95bc
000002d0: bd2c 6dbd 2ccc 253e 0f78 253e 2da7 e13c
000002e0: 9fe1 f2bd c149 9d3d 6d83 88bc 0d27 3cbd
000002f0: a7c1 a13d b6d5 763c 55ec 303e 24b1 dd3d
00000300: ad2a 98bd a855 ffbc 114c 87bd 4f2d f2bc
00000310: 9f08 0b3e 92f2 61bd 3132 083e b112 fbbd
00000320: 3677 70bd 47d9 7dbd 55bf 693d d1b9 243c
00000330: 6a18 ffbd d442 27be 6440 c8bd 03df 1ebc
00000340: 355f 543d 03e1 533d da88 b8bd d979 30be
00000350: 6b02 7fbd 6bb3 203e e9a0 f63d 2206 bdbd
00000360: 954f 0dbb f433 1b3d 1323 a1bd d3af 8bbd
00000370: cd57 ad3d a254 a0bc 5767 2e3e 3713 aa3d
00000380: 962b 24be 5715 a13d 9819 1c3e 752a 29be
00000390: d299 163e 9041 323e 6498 443d 3b09 1d3c
000003a0: d437 d03d 3ce6 1ebe b438 e73d bdd5 ebbd
000003b0: e728 263e 0c29 b9bd 4b45 1a3e f03d f43d
000003c0: b61c 053e 8f99 11be 781f 933c 1cb0 853d
000003d0: 58bd 323e 132f cd3d 261d ebbc 3278 c43d
000003e0: 9df7 7eba 1572 d3bb 9e2d 2cbe 2315 04bb
000003f0: d770 503d 00f8 623d a752 af3d 47ea d63d
0.06959751 0.11530475 -0.03594355 -0.08800401 0.10423133 -0.08443799 0.17591257 -0.10569228
-0.11139326 0.08030333 -0.15391828 -0.033392105 0.07798288 -0.07962334 0.021254024 0.0792216
-0.1496667 0.16257402 0.11894481 -0.08869815 0.17469466 -0.04639333 0.1160485 -0.028980888
-0.0180622 0.13238323 -0.08588748 -0.06178159 -0.03311878 0.1369647 -0.07909223 -0.035078105
0.0983856 0.119371355 -0.03852163 0.09444154 0.14309292 -0.123309515 -0.06479976 -0.13588685
0.12767386 0.11928452 -0.10272824 -0.17042103 -0.07709731 -0.12684932 0.16646528 -0.13434426
-0.101824634 0.12590623 0.17540677 0.14155641 0.16562712 -0.042721227 -0.14972742 0.104555435
-0.08542226 0.0069411853 0.12443587 -0.054368548 0.004055117 -0.16765584 -0.019915229 0.086889096
0.020097135 -0.1482961 -0.13719212 -0.117548086 -0.13875674 -0.16425923 -0.058851097 -0.10877082
0.16265841 0.14446494 0.10465802 0.021137403 0.07593336 0.047032975 0.08366954 0.124883555
0.12778343 -0.14496377 -0.17089649 0.15732151 -0.08626747 0.12847558 0.09856723 -0.12785238
0.018525964 -0.02439234 0.14077817 -0.067596614 0.087085925 0.0794293 0.07499205 0.098832294
-0.16822803 -0.06547408 -0.13414423 0.12447665 0.13413179 0.12843093 0.11200662 0.07228287
0.13317993 -0.16882238 -0.14003748 -0.15393892 -0.005174221 -0.12848553 -0.13609874 0.09937283
-0.10766366 -0.09699303 0.06050498 0.029544223 0.028050518 -0.108522125 0.08054872 -0.04841891
-0.010130859 0.011549564 -0.12627818 -0.01299518 0.033774313 -0.13776892 0.07818375 0.13281728
-0.15085846 0.0422633 -0.09238365 0.03867772 0.006753695 0.053186014 0.15659256 -0.074184544
-0.16050005 0.13804117 -0.13126859 0.022193266 0.13786876 0.046371438 -0.013731443 0.16557272
-0.06972361 0.12850268 -0.1661681 0.08820446 0.0007217437 0.026219428 -0.034439515 -0.07207838
0.10296285 0.16832502 0.038197584 -0.024959046 0.09577452 0.11845551 0.049484298 -0.09993368
0.16704573 -0.07897603 0.035368834 0.15817311 -0.16467233 -0.074372455 -0.12605633 -0.041999903
-0.1445399 0.11364034 0.15005492 0.010285686 0.07742007 0.094294935 0.17348863 -0.0006448889
0.12608355 -0.10215136 -0.052163363 -0.018263536 -0.057903994 0.16191167 0.1615908 0.027545536
-0.1185944 0.07680083 -0.016664231 -0.04593568 0.078982644 0.015065601 0.17277654 0.108248025
-0.07430015 -0.031168774 -0.066063054 -0.02956262 0.13577507 -0.055162974 0.13300397 -0.122594245
-0.05870744 -0.06197479 0.057067234 0.010054068 -0.124558285 -0.16334087 -0.097779065 -0.009696725
0.05184861 0.05172826 -0.09010477 -0.17233981 -0.062258165 0.15693443 0.1204241 -0.09229685
-0.0021562327 0.037891343 -0.07868018 -0.06820645 0.08464012 -0.019571606 0.17031609 0.08304446
-0.16032252 0.078653984 0.15244138 -0.16520102 0.14707115 0.17407823 0.047996894 0.00958472
0.10166898 -0.15517515 0.11290112 -0.11515377 0.1622654 -0.09041032 0.15065496 0.11925876
0.12999234 -0.14218734 0.017959341 0.06527731 0.17455041 0.10018744 -0.028700422 0.09593238
-0.00097262283 -0.0064528086 -0.16814277 -0.00201542 0.050888862 0.055412292 0.085606866 0.104939036

net.2.bias f4 [64]
00000000: 2c7b fabd 744f 8a3d 9875 fe3d 4698 673d
00000010: d98a 20be 1103 263e 5796 eb3d 6a48 743d
00000020: f4e8 9d3d ab27 8abd df70 22be 5219 5b3d
00000030: ffaa afbd f69c a73d a876 923d 2800 2c3d
00000040: 2bef a03d 4b6c f73d 17fe 183d 338d 1e3e
00000050: 64e8 96bd 8162 4fbd dc3d c83d cf12 88bd
00000060: e91f aa3d 76fa c3bc 14ab 113e 733e 5a3c
00000070: a67d 04be b462 03bd a7d5 203e 2857 efbb
00000080: f808 c23c 7faf ac3d 29ad f73c 0bbb 1cbe
00000090: 9b37 1a3e 050a 1dbe 1ee7 95bd 6751 cdbd
000000a0: 273d ee3c ebe6 17bd 617a 333e b20a 7c3c
000000b0: 585e 0dbc ff0f 20be 9ace 92bd 200d f8bd
000000c0: 2751 913c d2da 1bbe 80dd 05be 4720 0dbe
000000d0: 6304 f23d d222 f13d c5ce 18be 22df ec3c
000000e0: cce8 903d 1a9a fb3d f78f 803d 9582 f6bd
000000f0: f5bd 2ebe 347f 2c3e 9d61 0e3e 32db 1d3d
-0.122305244 0.06753436 0.12424773 0.056541704 -0.15677966 0.16212107 0.115032844 0.059639372
0.07710448 -0.06745847 -0.1586337 0.053490944 -0.08577537 0.08184235 0.07151538 0.041992337
0.07858118 0.12081202 0.037351694 0.1548355 -0.07368544 -0.05063105 0.09777424 -0.066442125
0.08306868 -0.02392314 0.14225417 0.013320553 -0.12938556 -0.032076553 0.15706502 -0.007304091
0.023685917 0.08431911 0.030233936 -0.15305726 0.15060274 -0.15335853 -0.07319473 -0.10025292
0.029081894 -0.037085455 0.17527153 0.015383409 -0.00862845 -0.15631102 -0.07168312 -0.121118784
0.017738892 -0.15220192 -0.13072777 -0.13781844 0.11817243 0.117742196 -0.14922626 0.028914992
0.070756525 0.12285252 0.06277459 -0.12036625 -0.1706465 0.16845399 0.13904424 0.03853912

net.4.weight f4 [32, 64]
00000000: 569c 913d 6cf8 26bd ecab 2c3d a80c 25bd
00000010: 62c3 d03d a2ec 84bd 0c4a 92bd e497 c43d
00000020: 0c61 f23d d8ac fe3c 586d 113d e0b0 523d
00000030: 1045 093d 261b 84bd f87f 62bd ac69 4fbd
00000040: c21c 963d e4ed 343d e040 363c a4be 753d
00000050: 7228 973d 563f fabd 0c75 bebd 58fb 36bd
00000060: 8063 a43a 4603 aabd 4e23 843d 4244 e03d
00000070: 5c54 65bd 7808 78bd d4d2 69bd 9051 57bc
00000080: f4cd 78bd cac2 dabd 4099 2ebd 1011 c23d
00000090: e662 b33d bcbb 81bd 5ccd 0cbd 507e 72bd
000000a0: 9c3e 48bd 94a2 bbbd 2cc0 643d f608 a33d
000000b0: b87f a13d c0ac 973c d891 f83d 8085 6dbc
000000c0: b0f8 c43d 94eb 17bd 7c66 f2bd 36e7 d83d
000000d0: bc0b 02bd e6ba f03d ec01 ea3d 16dc ff3d
000000e0: fe97 943d 706b bf3c 04fc ddbd 1087 ae3d
000000f0: 40f0 62bc d8da 1b3d 640a 8ebd 8a84 d5bd
00000100: c072 25bc 400b 203b 9844 233d aef1 d0bd
00000110: f0d8 8fbd a6e7 f33d f425 94bd c068 a33b
00000120: 76e2 f9bd 18a4 bd3d 0027 c8bd 4889 a03c
00000130: 78cd 3d3d 9467 af3d 56e2 853d 4c33 f2bd
00000140: a61a d0bd 10fd 45bc c8ee b43d 406a acbc
00000150: 24a0 13bd f842 e0bc b85d c93c d6ba eabd
00000160: 142c c5bd 2254 eb3d 04c0 e13d 1830 d93d
00000170: 2c31 563d 2238 903d 5875 c4bc 6493 1c3d
00000180: cc77 f7bd c0af 32bb 383e 9c3d 5c55 003d
00000190: c0ea 2bbc fc14 77bd 6443 90bd 1849 d83c
000001a0: b2d1 f83d 1e82 b5bd 0084 dfbb fa66 9fbd
000001b0: 9832 0abd b002 103c e285 b93d 4c4d 213d
000001c0: 56b7 bb3d 7403 3b3d 781c c4bc 423f 8e3d
000001d0: d6d4 8c3d e8c6 ce3c ea52 dd3d 5a00 f9bd
000001e0: 8aae 843d 48bf c1bd 987e cf3d 78f9 95bc
000001f0: f8c9 503d 1834 7fbd d0b4 1cbd 2803 83bd
00000200: 2c43 053d 74c9 89bd 10bb debc c08b 36bb
00000210: 6852 ad3c 0070 53b9 206b c43c c09a 773d
00000220: 74ba 713d 400f a9bd be63 eabd 4efe e93d
00000230: ea5f a63d 0036 f0bd 60fe 6a3c ead5 b7bd
00000240: 7a64 d4bd 86a4 97bd 4013 a23c 9860 e9bc
00000250: 908a a4bd 9626 9abd f47b 483d b680 aabd
00000260: 40ed 7e3c 08f9 aa3c 38c5 06bd a0bb bebd
00000270: 9094 e93d b02f c13d b016 14bd 1cd0 263d
00000280: b6a4 cfbd 4c9f d1bd 8cd9 263d ce7e fe3d
00000290: 4681 a6bd 1855 e6bd 58f7 acbc a427 81bd
000002a0: b67d bd3d 9a32 85bd 70ac c63d 08a6 94bd
000002b0: 4066 5c3c 804e 503b 4248 c03d 3690 933d
000002c0: c058 a03c 9028 3ebd ca92 833d f831 40bd
000002d0: c40d 87bd 68e9 fdbd 2878 fabd b4d5 dc3d
000002e0: 40ba 083d 9c37 b2bd 5af2 debd a45c 41bd
000002f0: c09e bdbb 34af febd 0c33 023d ca13 c6bd
00000300: 706f 96bd feb8 d33d 0a4c d63d 1608 dd3d
00000310: 6857 363d f0a4 5dbc 869c d3bd 8095 72bd
00000320: 28ea 5f3d 7842 f4bc 383f bbbd f80c d0bd
00000330: 8019 e63c 1008 a03c fa2f 933d 0a0e d73d
00000340: f89a 15bd 42df 8fbd 30e3 0abc 8048 90bd
00000350: 206b de3b 9079 e53d fa3b c63d 2cfc 61bd
00000360: ac4c 4fbd b8d1 e7bd 9c60 ea3d c82a 993c
00000370: 70af 883c a496 5bbd 18cb ec3c 286d 8a3d
00000380: 5ce0 63bd cc74 323d ac95 27bd 6056 dcbc
00000390: d883 70bd 50cc 66bc 82dc 83bd c816 ff3d
000003a0: 2a26 ccbd 0418 7f3d d04a 8bbc 7c8f bb3d
000003b0: 4079 22bd 62c4 d6bd 9a3f d6bd 6036 b8bd
000003c0: b0dc b03d 4a7b d33d 4a76 9d3d 3483 cf3d
000003d0: 20be 62bc 9e9f e33d ac09 b33d 3452 d93d
000003e0: f003 e9bd 0e07 bd3d 4057 b13b 54c6 103d
000003f0: bade afbd a4c7 9ebd d08d c03c 5432 6b3d
0.07109897 -0.040764257 0.042156145 -0.040295273 0.10193516 -0.064904466 -0.071430296 0.09599283
0.118349165 0.031088278 0.03550467 0.051438212 0.03351313 -0.06450491 -0.05529782 -0.050637886
0.07329704 0.044172183 0.011123866 0.059996262 0.07380761 -0.122191116 -0.09299669 -0.044673294
0.001254186 -0.083014056 0.06452046 0.10950519 -0.055988654 -0.06055495 -0.057085827 -0.013142005
-0.060743287 -0.10681684 -0.04262662 0.09475911 0.08759098 -0.063346356 -0.034375533 -0.059202492
-0.048887834 -0.09161869 0.055847332 0.079606935 0.078856885 0.01851499 0.121371925 -0.014497161
0.09617746 -0.0370899 -0.118359536 0.10590975 -0.031749472 0.11754398 0.11426148 0.1249315
0.07255553 0.02336666 -0.10839084 0.08521855 -0.013851225 0.038050503 -0.069355756 -0.104256704
-0.010098159 0.0024420768 0.039860338 -0.10202347 -0.070237994 0.11909418 -0.072338015 0.0049868524
-0.12201397 0.09259814 -0.09773064 0.01959671 0.04633853 0.08564678 0.06537311 -0.1182619
-0.10161333 -0.012084261 0.088346064 -0.021046758 -0.036041394 -0.027375683 0.024580821 -0.114614174
-0.09627548 0.114906564 0.11022952 0.10604876 0.052292988 0.070419565 -0.023981735 0.0382265
-0.12083396 -0.00272654 0.07629055 0.031331405 -0.0104929805 -0.060322747 -0.07044104 0.026402041
0.12149371 -0.088627085 -0.0068211555 -0.07783313 -0.033739656 0.008789703 0.09058739 0.039380357
0.09165828 0.04565759 -0.023939356 0.06945659 0.06876533 0.02524133 0.1080683 -0.1215827
0.06478603 -0.09460312 0.10131568 -0.018307433 0.050973862 -0.06230554 -0.038258374 -0.063970864
0.032534763 -0.06727877 -0.027188808 -0.0027854294 0.021157458 -0.00020164251 0.023976862 0.060450315
0.059015706 -0.08254862 -0.114448056 0.11425458 0.08123763 -0.1172905 0.014342874 -0.08976348
-0.10370727 -0.07404427 0.01978457 -0.028488442 -0.08034241 -0.07526891 0.048946336 -0.08325331
0.0155594945 0.0208707 -0.032902926 -0.093131304 0.11405289 0.09432924 -0.03615445 0.040725812
-0.10138838 -0.102354616 0.040734813 0.1242653 -0.08130126 -0.11246699 -0.021114036 -0.06306389
0.09252493 -0.06503792 0.097008586 -0.072582304 0.013452113 0.003178507 0.09388782 0.072052404
0.01957357 -0.046425402 0.06424482 -0.046922654 -0.065944225 -0.12398034 -0.12229949 0.10782948
0.033380747 -0.08702013 -0.10886069 -0.04720749 -0.0057867467 -0.12435761 0.031786963 -0.09671743
-0.07345474 0.10338019 0.10463722 0.10792558 0.04451695 -0.013528094 -0.10332589 -0.059224606
0.05466667 -0.029816851 -0.091429174 -0.101587236 0.028088331 0.019535094 0.07186885 0.105007246
-0.036524743 -0.07025005 -0.008477017 -0.07045078 0.0067876726 0.11204827 0.09679408 -0.05517213
-0.05061023 -0.113192976 0.11444208 0.018697158 0.016685218 -0.05361046 0.028905436 0.06759101
-0.055633888 0.043568417 -0.040914223 -0.026896656 -0.058719486 -0.014086798 -0.06438543 0.12455517
-0.09968217 0.062278762 -0.017003447 0.09158227 -0.039666414 -0.10486676 -0.1046135 -0.08994746
0.08635843 0.1032625 0.076885775 0.10132447 -0.013839275 0.11114429 0.08742079 0.10611382
-0.11377704 0.09229861 0.0054120123 0.03534539 -0.085874036 -0.07752922 0.023505121 0.057421044

net.4.bias f4 [32]
00000000: 60d8 8bbc 9091 dcbd 70a6 23bc 8aa5 c43d
00000010: 9035 dd3d 4047 053b 0cc1 d6bd 7207 883d
00000020: c061 6e3d 3eef f43d a2a6 b8bd 04ee d8bd
00000030: 0c30 ecbd 00d0 7c3c f878 613d 8c3d e6bd
00000040: 3c6c 253d 88ef c9bc 6468 c4bd e847 fdbc
00000050: 92a8 d63d 9047 24bc a087 b6bd f8de 37bd
00000060: 1ec1 e8bd 46a9 83bd 30f5 3cbc 54e0 1f3d
00000070: 960e a6bd 30e6 823c 5ae4 aebd 18e7 db3d
-0.01707095 -0.10769951 -0.009988412 0.096018866 0.10801232 0.0020336658 -0.104860395 0.06642045
0.05819869 0.11959694 -0.09016158 -0.10592273 -0.11532602 0.01543045 0.055047005 -0.11242208
0.040386423 -0.02465035 -0.095902234 -0.030918077 0.10481371 -0.010026827 -0.08912587 -0.044890374
-0.11364959 -0.06428771 -0.011533067 0.039032295 -0.08108251 0.015978903 -0.08539648 0.10737437
