maml_model/maml_ActionObjDoor_8_3_300_50_encoder.pth (torch, 24756 bytes, 6 tensors)

net.0.weight f4 [32, 37]
000000 c9 2c d6 bc a3 4d ba bd c6 e5 18 bd 0b c1 cf bb
       -0.026144402 -0.09096839 -0.037328504 -0.006340151
000010 6e 05 0a 3e ff 36 14 bd f4 f0 02 bc 2d 4b 8b bd
       0.13478634 -0.03618526 -0.007992018 -0.06801448
000020 cb 6a 0d bd be 8d 54 3d 13 4b 8b 3d 24 9a 07 bd
       -0.034525674 0.05189299 0.06801429 -0.033105984
000030 18 8c 12 bc d9 f2 58 bd f8 90 ef 3d 8d 48 ea bd
       -0.008944534 -0.052965973 0.116975725 -0.11439619
000040 76 d1 01 be 4f bb 91 bc 72 b6 84 3d 5e 53 99 bc
       -0.1267756 -0.017789511 0.06480111 -0.01871651
000050 25 30 a9 bc b1 a2 27 bd a8 9a e5 3d 6e e4 1b bc
       -0.02065284 -0.04092664 0.11211139 -0.009514911
000060 df dd 8e 3d b5 1c cf bd 78 7f b2 bd a8 7e 4a bd
       0.06975912 -0.10112897 -0.08715719 -0.049437195
000070 79 91 7f 3d a3 d7 0f be fa bc 69 bd 1a 9d b0 bd
       0.062394593 -0.14047103 -0.057064988 -0.08623715
000080 be 46 38 bd 47 43 bc 3d 57 64 09 3c cb c2 ef bd
       -0.04498934 0.0919252 0.008385739 -0.11707076
000090 a3 41 03 be 0a 0a d8 3c db 93 c6 bd eb 83 aa bc
       -0.12818007 0.026371974 -0.0969617 -0.020814857
0000a0 44 06 c1 3d fc 99 04 3e 36 83 14 3e 1d 4d 0f be
       0.09425023 0.12949365 0.14503178 -0.1399426
0000b0 71 5d 79 3b 89 b5 9b 3d 87 33 6c bd 16 33 0e 3e
       0.003805008 0.076029845 -0.057666328 0.13886675
0000c0 f4 73 16 3e 74 33 8d 3d a3 4c 15 be 38 80 eb bd
       0.1469267 0.068945795 -0.14580016 -0.11499065
0000d0 49 0d 58 bd 6f a4 89 3d d8 6a 96 3a 0f 9b 1a 3e
       -0.052747045 0.06720816 0.0011475934 0.15098213
0000e0 b2 ae 00 be b5 9d 0e bd cb 20 98 3d 6a e2 9d 3d
       -0.12566641 -0.03481837 0.0742813 0.07709201
0000f0 0a c5 aa 3d e8 f0 d2 3d f6 f9 17 3e 92 a1 98 3c
       0.083383635 0.102998555 0.14841446 0.01863173
000100 68 3b 00 3e 37 d2 c9 bd 5a 65 da bd e4 44 cf bd
       0.12522662 -0.098545484 -0.106638625 -0.10120562
000110 f1 dc c8 bd 18 74 3a 3d 35 3a 70 bc c5 a3 1a be
       -0.09807766 0.045520872 -0.014662315 -0.15101536
000120 2a 8e fe 3d 76 f0 81 3d 61 56 aa bc c2 f1 04 be
       0.124294594 0.063446924 -0.020793142 -0.12982848
000130 7d 97 97 3d a1 cd 03 be d4 e2 b2 bd b2 d2 d6 3d
       0.07401941 -0.1287141 -0.0873467 0.10489406
000140 aa 37 8b 3d 2a 4d 08 3e 16 1e e6 3d d5 3e 1a 3e
       0.067977265 0.13310686 0.11236207 0.15063031
000150 05 61 80 3d 27 c8 bf bd b1 e6 27 3d cb 90 e0 3d
       0.06268505 -0.09364348 0.04099149 0.10965117
000160 c4 cf 3c 3c 56 7d 21 3e 18 ff 30 bd 07 d3 12 3e
       0.011524145 0.15770468 -0.043212026 0.14338313
000170 f0 dd cf 3d 6e a6 1a 3e 70 44 2c bd 73 1b 21 bd
       0.10149753 0.1510255 -0.042057455 -0.03933282
000180 6c 34 d9 bd 7d c9 9d 3b 27 88 f1 bd 8d e8 5e bd
       -0.10605702 0.004815279 -0.11793547 -0.054420996
000190 37 2a a9 bd f8 61 9e bd 5e 4d ba 3d 99 96 b0 3b
       -0.08260005 -0.0773353 0.09096788 0.0053890464
0001a0 fd b4 03 be 67 98 8a bd eb 23 02 be ad 1e 0d 3d
       -0.1286201 -0.0676735 -0.12709014 0.034453083
0001b0 e2 0c a9 3c 13 33 aa bc d5 f7 63 bc 5c 6c d4 bd
       0.020636026 -0.020776307 -0.013914068 -0.103722304
0001c0 da 26 08 be 9c 2a 7e 3d 68 c3 b5 3d 4f 8c 15 3d
       -0.1329607 0.062052354 0.088751614 0.03651076
0001d0 52 ef 4d bd 6c 6f dc 3d 2d 07 82 3d b6 4b 28 3d
       -0.05027706 0.107634395 0.06349025 0.04108783
0001e0 9f 66 a3 bc de 87 14 3e 26 7d e3 bd a2 54 b0 3d
       -0.019946394 0.14504954 -0.111078545 0.086098924
0001f0 cf 03 21 be 0d 83 0d be e9 f1 51 3d 8f 3e 88 3b
       -0.15724109 -0.13819523 0.051256094 0.004157848
000200 14 5d c1 3d c0 6b 3e bc 2a 1b 0f bc c1 43 77 3d
       0.09441581 -0.011622369 -0.008734504 0.06036735
000210 8a af 01 3e a5 fa b9 3c 0c ad 0b 3d c1 be 44 bc
       0.12664619 0.022702524 0.034100577 -0.01200837
000220 a9 c6 10 be 9c 87 15 be 93 77 00 be f2 d8 dc 3d
       -0.14138283 -0.14602512 -0.12545614 0.107835665
000230 c1 96 f8 3d b1 95 04 3e 67 25 f3 ba 32 25 77 3d
       0.12138129 0.12947728 -0.0018550575 0.060338207
000240 45 87 4a 3d 52 0e 28 be c8 c8 00 3e 7d 1f 23 3e
       0.04944541 -0.16411713 0.12576592 0.1592998
000250 2b da e4 3d cd 9a aa 3d 99 08 b4 bc f2 59 d9 3c
       0.11174425 0.08330307 -0.021976756 0.026532147
000260 dc f9 83 bd c7 f5 02 be 48 ec bf bc 6b c6 e9 bd
       -0.06444141 -0.12789069 -0.023428097 -0.11414798
000270 c9 60 07 3d 45 59 f5 bd 2c 1f c4 bd e8 28 f4 3d
       0.033051286 -0.119799174 -0.09576258 0.11921865
000280 29 9b eb bd d7 bf c6 3b 2c 78 21 3d 98 74 0f 3e
       -0.11504204 0.0060653496 0.039421245 0.1400932
000290 89 14 b6 bb f5 ca c3 bd 23 96 11 be 20 e2 06 3e
       -0.005556647 -0.09560195 -0.14217429 0.13172197
0002a0 1c 6a e8 3d 7b 91 d5 3d 88 06 97 3c 4d 1d ab bd
       0.11348364 0.10428139 0.018435732 -0.08355198
0002b0 a2 ea 9d bd ed e9 36 3d a3 87 92 bd 45 42 2f 3d
       -0.07710768 0.044656683 -0.07154777 0.04278781
0002c0 8c 06 fb bd e1 16 04 3e d8 7b ef bd 79 eb 1c be
       -0.12257108 0.12899353 -0.11693543 -0.153242
0002d0 74 e4 f9 3c b0 96 08 be 45 f8 c4 3d 3b 6d b3 bd
       0.030504443 -0.13338733 0.09617666 -0.087610684
0002e0 2a 50 d1 3d fd 48 1b 3b 76 06 48 bd 7e 5a 27 be
       0.10220368 0.0023694627 -0.048834287 -0.16343114
0002f0 2b 5a aa bd f5 00 1b 3e f0 e6 9a bd d5 62 e2 3d
       -0.083179794 0.15137084 -0.07563579 0.11054007
000300 f0 ff 6e bd 5c 6e c8 3c 75 f8 02 3e 85 b6 20 3e
       -0.05834955 0.024466686 0.12790091 0.15694626
000310 a7 03 09 bd a1 39 a8 bb b7 a1 a6 3c b0 30 8f 3d
       -0.03345075 -0.005133823 0.020340784 0.06991708
000320 03 fd 14 3e 40 6d ce bd 06 b5 cd bd 35 f0 f5 bd
       0.14549641 -0.100794315 -0.10044293 -0.120087065
000330 50 2f 0d be f2 2d 33 3b 1a 0d ee 3d d4 c9 5c 3d
       -0.1378758 0.0027340618 0.11623593 0.053903416
000340 36 80 e1 bb 5b 01 d3 bc 1f 09 04 3e 8b c9 d8 3d
       -0.006881739 -0.025757482 0.12894104 0.10585316
000350 12 ea ce 3d 16 2e 20 be 75 a2 e2 bc 1a 6b 27 be
       0.10103239 -0.1564258 -0.027665356 -0.1634945
000360 15 f1 6e bd db bd 11 3d d3 42 b7 bc 14 28 12 be
       -0.058335382 0.03558145 -0.022370731 -0.14273101
000370 2c 5a 65 bd 7d 12 01 3d 45 ec 9f 3d 56 d4 8c bd
       -0.055994198 0.031511772 0.07808737 -0.06876437
000380 be 7b 00 be fa e9 8a bd f7 27 b0 3d e9 92 03 3e
       -0.12547204 -0.06782909 0.08601373 0.1284901
000390 c9 92 b6 bd ff fc ab 3d 25 dd 18 3e b9 f2 da bc
       -0.08914716 0.083978646 0.1492811 -0.026727067
0003a0 bb 0a 80 bd 0b b1 2e 3c 37 3e 66 3d 3e fd bc 3d
       -0.06252047 0.0106623275 0.056211676 0.092279896
0003b0 1f 6b 1c be 7b 60 bd 3c df bf 21 3d bd 72 56 3b
       -0.15275238 0.023117295 0.039489623 0.0032722198
0003c0 04 2c 17 3c 6e b9 b7 3d c0 a9 28 bd 28 33 a7 bd
       0.009226803 0.08970915 -0.04117751 -0.08164054
0003d0 ae af bd bb 74 84 d2 3d 99 4a fa 3d fa b6 db 3c
       -0.005788765 0.1027917 0.122212596 0.026820648
0003e0 a6 ff 48 3c 78 31 9d bd 87 a1 88 3a b4 71 0a be
       0.012267983 -0.07675451 0.0010424115 -0.13519937
0003f0 aa a2 00 3e 1e 33 04 3e 35 54 0c 3e 54 2e 74 3c
       0.12562051 0.12910125 0.13703997 0.014903624

net.0.bias f4 [32]
000000 7f 7d df 3d 19 e5 34 3d 75 ad 9d bd a8 72 e6 3d
       0.10912608 0.044163797 -0.076991 0.11252338
000010 61 04 25 3e 1b 9f 9c 3c 99 74 e0 bd cc 64 0c be
       0.16114952 0.019118836 -0.10959739 -0.13710326
000020 9a 64 5e 3d 68 25 92 bd 6a b8 67 bb 93 75 a9 3d
       0.05429516 -0.07136041 -0.0035357722 0.08274379
000030 7c 39 ae bc f8 df a6 3d d4 41 11 be 13 77 46 3d
       -0.021267645 0.081481874 -0.14185268 0.0484534
000040 2c 4a 04 be 74 ea 0a 3e b7 4e fc 3b 3b dc 67 3d
       -0.1291892 0.13566 0.007699813 0.056606513
000050 bf 8e 8d bd 7a 0e 07 3e 2e a7 48 bd 2b 22 86 3d
       -0.06911992 0.13189116 -0.04898756 0.06549486
000060 37 c5 18 3e 86 8a 0b 3d ff f6 16 3e 44 87 40 3d
       0.14918981 0.034067653 0.14742659 0.047004
000070 89 93 2e 3c f3 4e c9 3d d5 0f cc 3c 45 ef 16 3e
       0.010655292 0.098295115 0.024909893 0.14739712

net.2.weight f4 [64, 32]
000000 de 17 ac bd 24 d6 29 be cb f9 c0 bd dc 17 1d 3d
       -0.0840299 -0.16585594 -0.09422644 0.038352832
000010 b9 e1 f6 bd af 32 47 bd 80 bb e4 bd 6a 41 17 3e
       -0.12054772 -0.04863232 -0.11168575 0.14771047
000020 23 48 1f 3e b3 bc ae bd 75 b6 a2 3d 6d b8 32 be
       0.15554862 -0.08532085 0.07944957 -0.17453165
000030 a5 ac e3 3d a5 54 95 3d 29 87 65 bc 39 fc 34 3d
       0.11116914 0.07291535 -0.0140092755 0.04418585
000040 64 b0 29 3e fa f8 66 3b 00 22 34 be ac 3f 8d bd
       0.16571194 0.0035243616 -0.17591095 -0.0689691
000050 d2 78 20 be 64 ac d0 bd 89 07 78 3d ff d8 9b 3c
       -0.1567109 -0.10189131 0.06055406 0.01902437
000060 57 82 c6 3d 36 3e 55 3d 99 d8 b0 bd 6c d4 ce bc
       0.09692829 0.052061282 -0.08635063 -0.025247775
000070 b0 8c 21 be 42 0d c4 3d 05 d0 e4 bb 4b e1 1b be
       -0.15776324 0.09572841 -0.0069828057 -0.15222661
000080 ed aa 2e 3e ca b5 7d 3d c0 1c fe 3d ea d2 7d 3d
       0.1705739 0.061940946 0.124078274 0.06196872
000090 00 fa c1 bd cf f6 b4 3b 2c 7d 1f 3e b3 f0 01 3e
       -0.09471512 0.005522586 0.15575093 0.12689476
0000a0 06 91 b7 bd 02 ee fa bd 2a 42 9d bd 31 96 1c 3d
       -0.08963208 -0.12252428 -0.076786354 0.03822917
0000b0 00 6b 00 be 55 7e 8a ba 57 f2 f2 3d e9 52 97 3d
       -0.12540817 -0.0010566214 0.11862629 0.07388861
0000c0 8a b2 a1 bd 1a e4 8c b9 46 d3 06 3d ff 01 f9 bd
       -0.07895382 -0.0002687283 0.03291633 -0.12158584
0000d0 d1 b2 e2 bd 69 7c c5 bc 75 75 ca bd ee 2c b8 3d
       -0.11069263 -0.024107175 -0.098856844 0.08992945
0000e0 a6 1e 5f bd 71 b3 d0 bc 86 0a 6f bc 1f b9 32 3d
       -0.054472588 -0.02547619 -0.014589911 0.043633576
0000f0 45 d6 4b 3d 04 7b 4a bd 0d c9 10 3e d9 9f e8 bd
       0.04976489 -0.049433723 0.14139195 -0.113586135
000100 10 6f 45 3d 98 1c df 3c e1 2d 38 3c d5 df 20 3e
       0.04820162 0.027235314 0.011241407 0.15710385
000110 93 61 30 be 17 bc 31 3e a7 20 ef 3d 4a 5e f4 3d
       -0.17224722 0.17356907 0.1167615 0.11932047
000120 9f 9f 18 be 22 29 24 3e 94 7f df bd 58 f5 c6 bc
       -0.1490464 0.16031316 -0.109130055 -0.02428691
000130 be de 67 bd f3 a6 34 3d ad 8a 27 3e b4 86 0b bd
       -0.056608908 0.044104528 0.16361494 -0.03406401
000140 ac bb 2a 3e 05 37 7d bd a8 65 03 be 88 89 63 bd
       0.16673154 -0.06182005 -0.12831748 -0.055551082
000150 4b 40 25 be 10 c8 81 bd e6 92 14 bd c0 76 f6 3d
       -0.16137807 -0.06336987 -0.036272906 0.120343685
000160 21 01 06 3e b9 85 95 bd 29 3b 0a be d4 48 be bd
       0.13086368 -0.07300896 -0.1349913 -0.092912346
000170 2f 84 ce bd 0e d5 90 bd 21 54 20 be 02 10 0d 3e
       -0.10083806 -0.07071887 -0.15657093 0.13775638
000180 37 73 2c 3e 4b c8 e2 bd 16 d6 44 bd 9e cb dc 3d
       0.16840826 -0.11073359 -0.04805573 0.107810244
000190 42 b5 29 3e 26 27 30 3e 42 0f 1f 3e c5 f7 dc 3d
       0.1657305 0.17202434 0.15533164 0.10789446
0001a0 20 a5 24 3e 8a b0 13 3e 31 a5 f1 3d 0d 9d 49 bd
       0.16078615 0.14422813 0.11799086 -0.04922204
0001b0 0e 39 20 be c2 0a f9 3d 87 e6 ce 3d f8 5e 0c be
       -0.15646765 0.12160255 0.10102563 -0.13708103
0001c0 31 44 f4 3d 10 e9 2f 3e 6f ad 99 3c cb aa 9f bc
       0.11927069 0.1717875 0.018759457 -0.01949062
0001d0 20 4f fd 3c 3a 0e 1a 3e 9d 11 a8 bd 3f 9c 7d 3d
       0.030921519 0.1504449 -0.082064845 0.061916586
0001e0 8e 48 55 bd f2 65 33 3d 05 fd e2 3d f5 f3 9b 3c
       -0.052071147 0.043798395 0.11083416 0.019037226
0001f0 41 b8 ab bd 5d b3 8f 3d 1e 32 80 bd e1 88 55 bd
       -0.08384753 0.07016633 -0.06259559 -0.05213249
000200 43 8c 89 3d a6 3e 34 bd 96 22 09 3e 61 9e 1f be
       0.06716206 -0.04400506 0.133921 -0.1558776
000210 6b 70 0a be 50 a9 33 be e7 ba c5 bc 48 ea fb bd
       -0.13519447 -0.17545056 -0.024136974 -0.12300545
000220 19 01 99 bd 84 05 14 3e 1c 6b 99 3d 93 fe 75 bd
       -0.074709125 0.14455229 0.074911326 -0.060057234
000230 cb 84 8f 3d 5e 4c 8f bd 79 f3 0e bd 90 78 2b be
       0.0700775 -0.06996988 -0.034900162 -0.1674521
000240 32 e6 72 3d fe 97 9a 3d cc a5 9d bd 0e e6 74 3d
       0.059301563 0.075485215 -0.07697639 0.05978971
000250 1d d8 da bd 64 50 ce 3d 15 1e a5 3d 58 c9 0c bd
       -0.106857516 0.10073927 0.08062378 -0.034371704
000260 8f 15 2e 3d 3c d2 17 3d dd c4 ee 3d 95 31 23 3e
       0.04250103 0.03706573 0.116586424 0.15936883
000270 4c 31 33 be 9b 6b 30 be 37 ee 96 3c 9a ca a3 bd
       -0.17499274 -0.17228548 0.018424137 -0.079976276
000280 b7 81 62 bd 20 a8 33 be 06 67 d7 3d ce a2 7e 3d
       -0.055299487 -0.17544603 0.10517697 0.06216698
000290 82 12 b9 3d 0d 9c 2b be db 93 2d 3e eb 8f f6 bd
       0.09036733 -0.16758747 0.16950934 -0.12039169
0002a0 3b 57 01 3e e9 15 2d 3e a2 54 a4 3d a3 d9 7c 3d
       0.12630932 0.1690289 0.08023955 0.061730992
0002b0 35 2b e6 bd f7 fc 2d be d2 a9 8a 3d 93 dd 16 3e
       -0.1123871 -0.1699103 0.06770672 0.14732961
0002c0 aa 48 02 be de ac 8f bb 24 33 05 be 62 c4 bc 3d
       -0.12723032 -0.004384621 -0.1300779 0.092171445
0002d0 b4 08 9c 3d 81 b8 c1 3d be 7d d7 bd f9 d6 f4 3d
       0.076188475 0.094590195 -0.1052203 0.11955065
0002e0 34 35 e9 bb bc 71 20 3d bc 6f 72 bc c4 95 16 be
       -0.007116938 0.039170966 -0.014797147 -0.14705569
0002f0 d4 fc a5 3d 58 b4 ad bd 30 2b 9c 3d 0e e9 17 be
       0.08104864 -0.084816635 0.07625425 -0.14834997
000300 ad 5d 2c 3e 36 85 ee 3d 11 8e 2e 3e e3 fa d5 bd
       0.1683261 0.11646502 0.17046382 -0.104482435
000310 7f 19 ad bb ec 11 78 bd ad 75 1c 3e e8 9c 1f be
       -0.0052825804 -0.060563967 0.15279265 -0.15587199
000320 13 ef 3c 3d 75 f3 f8 bd f7 78 1b bd b4 30 0e 3e
       0.046126436 -0.12155811 -0.037957158 0.13885766
000330 5f 4d 1f 3e bf c5 ce 3d 76 a3 83 bd 92 0b c5 3d
       0.15556858 0.10096311 -0.06427662 0.096213475
000340 f1 3e 96 bc 97 52 3f 3d 19 c9 1e 3e 96 55 03 3e
       -0.01834056 0.046709623 0.155064 0.12825617
000350 41 71 f3 3d 87 84 e1 bd 62 86 c6 bd 28 ef 6c 3d
       0.11886836 -0.11011606 -0.096936 0.057845265
000360 1c b6 b8 bd 81 f5 b8 bc 75 64 d2 3d e8 b4 c2 3d
       -0.090191096 -0.022578003 0.10273067 0.095071614
000370 09 c0 02 3e 32 78 6a bd 83 d6 1f be 57 77 c1 3d
       0.12768568 -0.057243533 -0.15609173 0.094465904
000380 04 8c 85 3d d7 79 02 3e bc 58 c9 3d 02 48 32 be
       0.065208465 0.1274179 0.09831378 -0.17410281
000390 0c cd c4 bd aa 7b 7f 3d eb 4b 8a bd 17 1e ba bb
       -0.09609422 0.062373795 -0.067527615 -0.0056798565
0003a0 bb 87 5d 3c c1 a8 fd bc d5 bd 03 3d f5 21 1d 3e
       0.01352113 -0.030964257 0.03216346 0.15344985
0003b0 81 18 4a 3d 4b fb b6 3d 5c f4 22 3d 8a bd e1 bb
       0.049339775 0.08934649 0.03978382 -0.00688905
0003c0 0f a1 07 3e fe 9d 85 3d 32 b5 87 3d ec de 29 3e
       0.13245033 0.06524275 0.06626357 0.16588944
0003d0 62 1d 08 3e 7b 58 a1 3d 56 b4 06 3d b6 3d 47 bd
       0.13292459 0.078782044 0.032886826 -0.048642837
0003e0 c4 9d 9d bd 4d 6d 98 bd 2a f4 16 be 5c bf 46 3d
       -0.07696107 -0.074427225 -0.14741579 0.04852234
0003f0 47 03 06 be c5 db bd 3d c7 b9 af bc 1e ee c6 bd
       -0.13087188 0.09270433 -0.02145089 -0.09713386

net.2.bias f4 [64]
000000 c0 f3 53 bd c0 9f 0e 3e 4b 1f 22 be 72 39 18 3e
       -0.05174613 0.13928127 -0.1583225 0.14865664
000010 12 4a a2 3d 07 60 71 3d a3 ea 04 3e d1 f2 ed bc
       0.07924284 0.05892947 0.12980132 -0.029046448
000020 07 98 bb 3d e2 ec 19 be f1 02 45 bd 55 83 ad 3d
       0.09159856 -0.1503177 -0.04809851 0.08472315
000030 47 21 74 bd e0 a1 dc 3c ea e9 b8 3d d7 c7 34 3e
       -0.05960205 0.026932657 0.090289906 0.17654358
000040 38 17 f3 3d 21 90 26 3d 79 c3 f4 bd a1 cf a3 bc
       0.11869663 0.040664796 -0.11951346 -0.019996466
000050 48 75 c8 3d a1 b2 03 3d fa 20 d9 3d 5c 99 de bd
       0.097879946 0.032152776 0.10601993 -0.10869095
000060 2f 63 72 bd 3d be 41 bb 2d 65 da bd ca 8e a9 3d
       -0.05917662 -0.0029562854 -0.10663829 0.08279188
000070 75 f7 3f bd 14 d6 4a 3d d0 c0 2c be bc 01 7a 3c
       -0.046866853 0.049520567 -0.16870427 0.015259203
000080 5e 3b c7 3d 6d 0c 1a 3d 89 26 be 3d 26 90 e6 bd
       0.0972812 0.037609506 0.09284694 -0.11257963
000090 52 cd f7 3d 81 c1 1f 3e 4e b6 da 3d d3 b3 30 3e
       0.120997086 0.1560116 0.10679303 0.17256097
0000a0 94 6c c7 3c c3 c5 0c bd 8d 65 1d 3e 0b 98 1a be
       0.024343766 -0.034368288 0.1537077 -0.15097062
0000b0 0c ab 04 3e f6 da 7c 3d e3 3e 8d 3d f3 62 19 3e
       0.12955874 0.061732255 0.0689676 0.14979152
0000c0 0c 44 cc bc a1 b3 23 3e 7a ab dc 3d 38 b4 21 bd
       -0.024934791 0.15986492 0.10774894 -0.03947851
0000d0 06 5d da 3d bd 42 9f 3d df a3 e3 bd 68 a1 2f 3e
       0.10662274 0.07776401 -0.1111524 0.17151415
0000e0 b9 17 ae bd bc 01 5d bb b0 9e b1 bd 2e 86 66 3d
       -0.085006185 -0.0033722958 -0.08672845 0.056280307
0000f0 d0 34 f4 bd e4 83 86 bd ab c6 0b be 55 92 c5 bd
       -0.11924136 -0.06568125 -0.13650005 -0.09647051

net.4.weight f4 [32, 64]
000000 c0 ea 54 bd 60 ea 28 bd 30 de 8d bc 82 b3 9d bd
       -0.051981688 -0.041239142 -0.017317861 -0.07700254
000010 9c 8d 6e bd 2c 00 8f 3d 2a 70 a5 bd 48 64 d2 bc
       -0.058240518 0.06982455 -0.08078034 -0.025682583
000020 00 8b c8 ba e0 05 16 bc 1c cf 8d bd cc bc b7 3d
       -0.0015300214 -0.009156674 -0.069242686 0.08971557
000030 40 b3 f1 3b 7a 0b af 3d f0 ea 0d bd 68 f5 fe 3c
       0.0073761046 0.08547111 -0.034647882 0.031122878
000040 60 05 f9 3d 00 79 a5 ba 90 a4 c5 3c e8 d4 b4 bc
       0.12159228 -0.0012624562 0.024126321 -0.022074178
000050 94 46 22 3d 34 ba 32 bd 52 12 b2 3d d8 3f 30 bd
       0.03961809 -0.04363461 0.086949006 -0.043029636
000060 5c 66 b8 3d c4 07 3f 3d 52 ea d3 3d 20 29 86 3c
       0.090038985 0.046638265 0.103474274 0.016377032
000070 dc 2e 11 3d 9a fd aa 3d 9c 52 bb 3d f8 e7 29 3d
       0.03544508 0.08349152 0.09146616 0.04148099
000080 ee 9c fe bd 98 71 1e 3d 6c c7 79 3d 70 92 8f 3d
       -0.12432276 0.03868255 0.0609812 0.070103526
000090 40 42 35 bb 70 e1 0c bc f2 22 ef bd 24 58 15 3d
       -0.0027657896 -0.00859867 -0.11676587 0.03646101
0000a0 0c 86 9f bd 98 3d 2f 3d 18 81 7f 3d 82 1f fb 3d
       -0.07789239 0.04278335 0.062378973 0.12261869
0000b0 14 39 c6 3d 38 27 56 3d c8 d3 d8 bc 44 e7 01 3d
       0.096788555 0.052283496 -0.026468173 0.031714693
0000c0 e8 a3 c0 3d a8 f0 05 bd a0 5d 73 bd 4a ad 9f bd
       0.09406263 -0.03270021 -0.05941546 -0.07796724
0000d0 46 62 fd bd 98 f0 b3 bc e0 76 81 3b bc 51 69 3d
       -0.1237226 -0.02196531 0.0039509386 0.056962714
0000e0 78 12 1a bd 5c 47 8c bd 08 28 73 bd b4 8c 9c bd
       -0.03761527 -0.06849548 -0.05936435 -0.076440245
0000f0 42 23 a0 bd 40 f2 bd 3c f6 36 ce 3d ba 84 91 3d
       -0.07819225 0.023186803 0.10069077 0.07105394
000100 24 4d 61 3d 96 2c b1 3d a4 d7 3a 3d fc 1e 21 bd
       0.055005208 0.08651082 0.045615807 -0.03933619
000110 bc b5 55 3d 30 cc c4 bc b0 71 6d 3c b0 bb ea 3c
       0.05217527 -0.024023145 0.014492437 0.02865395
000120 a8 4a 67 bd 04 91 fd 3d a0 46 4e bd ac c2 7e bd
       -0.056467682 0.12381175 -0.050360322 -0.062197372
000130 54 41 6e 3d cc 64 dc bd 28 53 2f bd c0 74 e0 bd
       0.05816777 -0.10761413 -0.042803913 -0.10959768
000140 0c af 0e bd 90 fc 69 bc 30 64 cb 3c 88 fb 40 bd
       -0.034834906 -0.014281407 0.024828047 -0.04711488
000150 9c e9 37 bd 28 6b 8b bc c0 69 ac 3b fc fd 46 bd
       -0.04490052 -0.01701887 0.00526163 -0.048582062
000160 fa d6 ac bd a6 90 f9 3d 6e 64 f1 3d d8 b8 1c bd
       -0.08439441 0.121857926 0.117867336 -0.03826222
000170 d4 76 c3 bd 2e c7 9d bd 3c d0 7d 3d aa 37 bb bd
       -0.09544149 -0.07704006 0.061966166 -0.091414765
000180 f0 92 46 3c 8c 36 83 3d 60 ff 95 3c f0 fd 93 3c
       0.012119994 0.06406888 0.018310249 0.018065423
000190 3c b8 c4 3d 00 04 a6 bc 84 ed 7a 3d c4 8b 88 bd
       0.096054524 -0.02026558 0.06126167 -0.06667283
0001a0 5a 22 e6 bd 56 3d a3 bd a4 fa c0 3d 68 d7 a0 3d
       -0.11237021 -0.07970683 0.09422806 0.078535855
0001b0 18 27 77 bd 1a 9b 90 bd 84 b9 ae bd 20 82 e6 3d
       -0.060340017 -0.07060833 -0.08531478 0.11255288
0001c0 60 14 86 bd c0 3c 1f bb 06 07 9f bd 52 99 f2 3d
       -0.06546855 -0.0024297684 -0.077650115 0.1184565
0001d0 40 e5 41 3c 98 e5 28 bd c8 aa 99 3d e4 bf 48 3d
       0.011834443 -0.041234583 0.07503277 0.049011126
0001e0 c4 1d 9b bd ac 2e b9 3d fc e9 e0 3d 5e bc a6 3d
       -0.07574037 0.09042105 0.10982129 0.08141397
0001f0 78 af 34 3d d0 b3 d8 bc 42 67 9a bd 70 49 64 3c
       0.044112653 -0.026452929 -0.07539226 0.0139335245
000200 02 77 c9 bd d0 a0 18 3c 2e 6c 89 3d b0 53 cf 3d
       -0.09837152 0.009315684 0.06710087 0.10123384
000210 08 4f bb bc 70 0d ab bd 78 58 22 bd 72 84 97 3d
       -0.022864833 -0.083521724 -0.03963515 0.07398309
000220 b8 f7 b3 3d 44 3a 36 bd 00 c1 24 ba 24 93 71 bd
       0.08787483 -0.04448916 -0.0006284863 -0.058978215
000230 9a 27 af 3d 44 3a a0 3d f6 b1 99 3d 9c f1 13 bd
       0.08552475 0.07823613 0.075046465 -0.03611909
000240 70 17 10 3d 3e 27 ca 3d e8 c1 b3 3d a0 df 6e 3c
       0.0351786 0.09870766 0.08777219 0.014579684
000250 40 a0 41 3c 58 03 ba 3d 98 bd 9f 3c 20 13 9a bc
       0.011817992 0.09082669 0.019499585 -0.018807948
000260 6c e8 ca bd 4c 2a 46 3d 40 c4 19 3c e0 f8 c8 bd
       -0.09907612 0.04838018 0.009385169 -0.09813094
000270 d0 6c 00 bc d2 17 dd bd 60 a6 38 3c 90 24 51 3c
       -0.007838443 -0.10795559 0.011270136 0.012765065
000280 4c 31 98 bd 10 58 9f bc 9e 5e c4 bd 50 17 1e bc
       -0.07431278 -0.019451171 -0.09588359 -0.009649113
000290 00 24 36 b9 c8 01 9b bc 86 02 c6 3d be 45 8c bd
       -0.00017370284 -0.018921748 0.0966845 -0.0684924
0002a0 40 75 e5 bd 58 ab 25 3d 38 f3 aa 3d f8 6c c9 3c
       -0.11204004 0.04044661 0.083471715 0.024588093
0002b0 7e 0e a5 bd 68 b5 bc 3c 60 48 b9 3c 44 22 ec 3d
       -0.08059405 0.02303572 0.022617519 0.11529973
0002c0 74 3f ca bd a6 9b b1 3d c4 ae 94 bd b8 0b e7 bd
       -0.09875384 0.08672266 -0.072598964 -0.11281532
0002d0 1e 4e 86 bd c4 b7 3c 3d d0 c7 50 bd 70 5f 5f bc
       -0.065578684 0.04607369 -0.050971806 -0.013633594
0002e0 7c f0 d5 3d 38 8a 8f bd 62 57 a8 bd aa af 87 3d
       0.104462594 -0.07008785 -0.08219792 0.06625302
0002f0 a6 94 c4 3d ba c6 e3 3d 76 14 fb bd b0 2f ee bc
       0.09598665 0.111218885 -0.12259762 -0.029075474
000300 90 e1 80 bd 08 bd d0 bd fc 27 c5 bd 88 ff df bc
       -0.06293023 -0.10192305 -0.09626767 -0.027343526
000310 b6 80 ec 3d 54 dc 7a 3d f8 af 17 bd 00 c5 c0 bc
       0.11547987 0.061245278 -0.03703305 -0.023531437
000320 5c 24 cd bd 8c 87 e0 3d 40 70 5a 3c a0 f5 72 bc
       -0.100167006 0.109633535 0.013332427 -0.014829069
000330 b4 b1 3f 3d 64 98 71 3d 60 10 1d bd f8 53 0a 3d
       0.04680033 0.05898322 -0.038345695 0.033771485
000340 60 02 e2 bc 4e 06 de bd a2 c1 cd bd c0 5d 6a 3c
       -0.027589023 -0.10841046 -0.10046698 0.014304578
000350 48 cc 0a 3d 92 f6 f6 bd 50 a0 df bd d0 f7 ee bc
       0.033886224 -0.12058748 -0.10919249 -0.0291709
000360 48 b4 96 3c e2 ba ea 3d 44 a5 63 bd 50 0a ca bc
       0.018396512 0.11461426 -0.05557753 -0.02466312
000370 40 ec 62 3b a6 fc ac 3d e4 29 8d 3d 0a 45 f8 bd
       0.003462568 0.08446626 0.06892756 -0.12122543
000380 b0 0f 09 bd ea 1c c7 bd 56 e2 8d bd 26 ca d9 3d
       -0.033462226 -0.09722312 -0.06927936 0.1063426
000390 60 f9 ec bc 1c 0d 58 bd 34 57 c8 bd a0 b6 4b 3c
       -0.028927505 -0.052746877 -0.09782258 0.012433678
0003a0 78 46 9f bc f0 83 f6 3d 00 ec 29 3b d0 f3 bc bd
       -0.019442782 0.12036884 0.002592802 -0.09226191
0003b0 40 61 7c bb 0e a5 95 3d 78 f6 12 3d 80 38 9e 3b
       -0.0038510114 0.07306872 0.035879582 0.0048285127
0003c0 e0 0d 38 3d b0 45 be 3d dc 55 52 bd 56 7c 87 bd
       0.044935107 0.092906356 -0.051351413 -0.06615512
0003d0 46 c1 8a bd 24 ac dc bd a0 14 0e bd 80 55 be 3d
       -0.06775145 -0.10775021 -0.03468764 0.092936516
0003e0 38 07 eb 3d 94 91 a9 bd 84 35 e7 bd 28 20 be 3c
       0.11475986 -0.0827972 -0.11289504 0.023208693
0003f0 cc 31 c2 3d 92 b4 c4 3d 3c c7 c7 bd 60 dd 27 bd
       0.09482154 0.096047536 -0.09754798 -0.040982604

net.4.bias f4 [32]
000000 26 04 e9 3d d8 08 9d bc c8 7d ea bd 98 1a 42 bd
       0.113777444 -0.019169256 -0.11449772 -0.047388643
000010 40 0c 2e bd 4c e9 ed 3d a0 c8 99 3b 20 c1 2b bc
       -0.04249215 0.116167635 0.004693106 -0.010483056
000020 20 42 eb bb 3e 20 86 bd 36 12 e4 3d 5e 8c c9 3d
       -0.0071795136 -0.065491185 0.11136286 0.09841226
000030 d4 51 57 bd 00 a3 f4 3b dc e9 cf bd ac 4b 74 3d
       -0.05256827 0.00746572 -0.10152027 0.05964248
000040 16 3c b8 bd d8 8c 95 3c 54 da 2d bd f6 40 9a 3d
       -0.089958355 0.018255636 -0.042444542 0.075319216
000050 32 e6 ab 3d b2 27 90 3d 30 6a 05 bc a8 02 43 3d
       0.08393516 0.07038821 -0.008142993 0.047609955
000060 58 ab 7d 3d 58 93 93 3c 8a b2 ed bd 06 50 cc bd
       0.061930984 0.018014595 -0.11606319 -0.09976201
000070 98 8b a3 bc c8 79 ba bd 80 c0 56 bd 40 85 3f bd
       -0.019964024 -0.09105259 -0.052429676 -0.046757936
