maml_model/maml_OpenDoorsOrder_7_3_500_50.pth (torch, 60334 bytes, 6 tensors)

layer1.weight f4 [64, 151]
000000 02 5a f2 3c 3a 52 02 bd f4 02 88 3c 66 0b df 3d
       0.029583935 -0.0318167 0.01660297 0.10890846
000010 e1 0a 0a 3e 27 60 fb bd 0b 0c 08 be b8 2d 2e be
       0.13480712 -0.12274199 -0.13285844 -0.17009628
000020 54 11 2a 3e b6 f4 8f 3d 1e 0a 16 be fa 3f 25 3d
       0.16608173 0.07029097 -0.14652297 0.040344216
000030 34 81 dd 3c b2 13 30 3e 50 d1 15 3e 7d 61 05 be
       0.027039148 0.17195013 0.14630628 -0.1302547
000040 86 dc bc 3c 1b ce 21 3e a8 0b 2e 3a 9e 44 8e 3d
       0.023054373 0.15801279 0.000663931 0.069466814
000050 4d bc 7a bd 57 33 0d 3d bc 92 9e 3d 7a 3b 7d bd
       -0.061214734 0.03447279 0.07742831 -0.0618243
000060 47 96 a8 bd 18 91 09 be 3c 51 99 3d d7 6c 51 bd
       -0.08231788 -0.13434255 0.07486197 -0.05112919
000070 04 e2 c0 bb 78 a1 80 3c a5 f1 2f 3d b3 94 86 3d
       -0.005886318 0.015701994 0.04295506 0.06571331
000080 2e d8 3f 3d 14 dd df 3d 26 94 c5 3c 8a 91 14 3e
       0.046837024 0.10930839 0.024118494 0.14508644
000090 51 75 74 3d b1 6e 9f 3d 36 b0 e8 3d ab bb b9 bd
       0.059682194 0.077847846 0.113617346 -0.09068998
0000a0 dd a3 c6 3d e1 b8 b3 bd 97 15 9a bd 3a d1 2c bd
       0.09699223 -0.08775497 -0.07523649 -0.04219172
0000b0 1c 22 13 3e cf c7 96 3d 10 61 86 bb 0a 9d e5 3d
       0.1436848 0.07362329 -0.004100926 0.112115934
0000c0 63 c1 7b 3c 56 24 2d be 48 fe d3 3d 10 0a cd bd
       0.015365931 -0.16908392 0.10351235 -0.10011685
0000d0 6f 3c 32 be e5 96 1f be 4c 10 b4 bc db 26 9d 3c
       -0.17405866 -0.15584905 -0.021980427 0.019183567
0000e0 aa 49 25 be 34 44 fa 3d 96 8b 97 3d 78 20 0b 3d
       -0.16141382 0.1222004 0.07399671 0.03396651
0000f0 c2 71 92 bd f5 69 c3 bc 97 fb c3 3d 33 f5 79 3d
       -0.07150604 -0.023854235 0.09569471 0.061024856
000100 bb ad 91 3d 88 e6 4b bd 21 02 a0 3d be 60 e5 3c
       0.071132146 -0.0497804 0.07812906 0.028000232
000110 7e 6a 2c 3d 33 92 11 be c2 f2 dd 3c a3 81 43 bc
       0.042093746 -0.14215927 0.027093295 -0.011932763
000120 16 91 bc bd 1b 10 16 be 6a 27 d9 bd 96 ca 31 3e
       -0.092073604 -0.14654581 -0.10603221 0.17362437
000130 88 b4 cd bd 30 e7 77 bd 6b c2 1b be f3 a2 9a 3d
       -0.10044199 -0.060523212 -0.15210883 0.07550611
000140 a6 f3 62 3d d8 9a 11 bd aa 3b 22 3e 7c e5 1b bd
       0.055408143 -0.03554806 0.15843073 -0.03806065
000150 84 8e cd 3c 7d 87 f4 bd 64 ae 1d 3e 59 22 c6 3d
       0.02509237 -0.11939905 0.15398556 0.0967452
000160 45 07 96 bd 5d 67 c9 bc 42 0f 1c be 1d bb 12 3e
       -0.07325605 -0.02458542 -0.15240195 0.1432919
000170 93 fa ae bd 6d 3d 02 3e 0b ff 19 be 57 e6 06 3c
       -0.08543887 0.12718745 -0.15038697 0.008233628
000180 dc 2f 10 3d f0 3a 0a 3e 5d fb 3a bd 89 a8 87 bc
       0.035201892 0.13499045 -0.045649875 -0.016559856
000190 8c 01 22 3e 72 ca 05 3e b6 09 ae 3d 3a 49 12 bc
       0.15820903 0.13065508 0.08497946 -0.008928591
0001a0 01 3b f8 3c 53 13 fa 3d 3a 26 b3 bd f5 f7 51 bd
       0.030301573 0.12210717 -0.087475255 -0.05126186
0001b0 5f 0b 23 3e 57 f4 12 3e b5 ac 68 3b ca cb 2a be
       0.15922306 0.14351021 0.0035503332 -0.16679302
0001c0 a9 76 e0 3d ff 36 e0 bc 63 78 83 3b e7 09 1b 3e
       0.10960133 -0.027369974 0.004012154 0.15140496
0001d0 bd ac 21 bd 98 e4 c1 3d cc 8f 4c 3c 7e 2f 26 be
       -0.039471377 0.09467429 0.012485456 -0.16229054
0001e0 dc 96 c7 bd b9 42 ee bd 9d 37 f2 3d 49 20 fc 3d
       -0.09745571 -0.1163382 0.11827014 0.123108454
0001f0 9e 73 b6 3d e5 e4 1d 3d ba 96 57 3d 0d 19 0b be
       0.08908771 0.03854837 0.05263398 -0.13583775
000200 15 27 25 be ab 4a 97 bd 78 64 e5 bd 22 4f b5 3d
       -0.1612819 -0.07387289 -0.112008035 0.08852984
000210 5e 73 12 3e da b3 16 bb 99 ae 25 be 7e 77 89 3c
       0.14301822 -0.0022995383 -0.16179885 0.016780611
000220 b7 f8 01 bd 39 22 ed 3d cb 08 22 3e 12 c3 fe bc
       -0.031731334 0.11578793 0.15823667 -0.031098876
000230 0d f7 94 3d 11 94 fe bc a6 b4 31 3c 9a 6f e0 3d
       0.07273684 -0.031076463 0.010846293 0.10958786
000240 3f e0 dd bd 5d f8 1f be b7 69 20 bd 12 84 e2 bd
       -0.10833787 -0.15622087 -0.039163318 -0.11060347
000250 33 0c 99 bd 40 37 fa 3b d2 6e 6e bd ce 60 97 bd
       -0.0747303 0.007635981 -0.058211155 -0.07391511
000260 64 61 36 3d 0a d5 27 3d de 93 04 3e 54 1a 0f 3d
       0.044526473 0.040974654 0.12947032 0.034937218
000270 bb dc 9b 3d f2 9a 80 bd e0 34 1a 3e 61 04 b2 3d
       0.0761046 -0.062795535 0.15059233 0.086922415
000280 47 d5 d4 3d c2 38 78 bc cd ea c2 3d 69 8f b5 bd
       0.10392242 -0.015150251 0.09517441 -0.08865244
000290 91 af 26 3e 04 d7 29 3b bb ea ea 3c dc 3d f7 bd
       0.16277911 0.0025915513 0.028676381 -0.120723456
0002a0 9c 92 e9 bd 99 7d 71 bd bc fe 9a bd 39 c2 b7 bc
       -0.11404917 -0.05895767 -0.07568118 -0.02243148
0002b0 78 11 26 be bc 9b e8 bd 43 5e 87 3d db 9f 0f be
       -0.16217601 -0.11357829 0.06609776 -0.14025824
0002c0 82 c2 db 3d 3e cf cb 3d 35 6f b0 3d 64 a4 17 be
       0.10730459 0.09951638 0.08614961 -0.14808804
0002d0 7f 45 1d 3e 5d c5 f3 bd 22 1a e4 bd 6b 13 db 3d
       0.15358542 -0.119028784 -0.11137797 0.10697063
0002e0 22 dc ce 3c 10 2c e1 3d 78 c9 f3 3c 4c 9a 34 3d
       0.025251452 0.109947324 0.029759154 0.04409246
0002f0 13 a5 dc 3d 8c 29 19 be d2 1c e7 bd 8e cf c7 3d
       0.10773673 -0.14957255 -0.11284794 0.09756385
000300 33 9b f4 bd 9b 37 90 3d 83 95 24 3e ec d6 80 3d
       -0.119436644 0.07041856 0.16072659 0.06290993
000310 3e 58 82 bc d5 67 3b bd 3f fb 13 3e a5 37 0c be
       -0.015911218 -0.04575332 0.14451312 -0.13693102
000320 0f fe 7a 3d ce 3a ca 3d 5f 94 a9 3d 07 c7 9c 3c
       0.061277445 0.09874497 0.08280253 0.019137872
000330 7d 0a 6b 3d f1 4b 32 3d 51 53 2e 3e 16 81 b5 bd
       0.05738305 0.043529455 0.1702397 -0.08862512
000340 3c b6 20 bd 07 f3 5d 3d b3 c4 ce 3d 50 36 fc 3c
       -0.039236292 0.054186847 0.10096111 0.030787617
000350 1b f7 99 bd 07 ab d5 3d f5 03 17 be 69 f1 a1 bc
       -0.07517835 0.104330115 -0.14747603 -0.019768434
000360 bd dc 11 be 24 be 40 bd 78 30 97 bc e7 f5 04 3e
       -0.14244361 -0.047056332 -0.018455729 0.1298443
000370 18 72 0f 3b 4f e4 d3 bd e6 55 46 3c f6 b4 14 be
       0.0021888074 -0.10346281 0.012105441 -0.14522156
000380 0f ea 82 bd 86 88 f5 bd e5 38 02 be f2 cc d1 3d
       -0.063922994 -0.119889304 -0.12717016 0.10244168
000390 4a 96 02 3e 28 1f f5 bc e6 58 77 bb 8b 11 9b 3d
       0.12752643 -0.029922083 -0.0037742197 0.075717054
0003a0 04 30 1a 3e 60 fe a6 3b c3 23 25 be d2 c6 d0 3d
       0.15057379 0.005096242 -0.16126923 0.10194172
0003b0 b9 ce fd bb e5 3d e5 3d 43 fc e1 bd 53 9a fe 3c
       -0.0077455905 0.11193446 -0.11034443 0.031079447
0003c0 23 ee 5c bd 2e e1 35 bd c3 01 dc bc 1a 92 85 3d
       -0.053938042 -0.0444042 -0.026856309 0.06522007
0003d0 60 63 f1 bd 50 23 d9 3d 82 de 04 be 67 8c 45 3c
       -0.117865324 0.106024384 -0.12975505 0.0120574
0003e0 cc b7 0f be d1 3f 1c bd 4a e4 3a bd 82 b1 f6 3d
       -0.14034957 -0.038146798 -0.04562787 0.12045576
0003f0 2b 5d 14 3e 02 73 85 3d 42 de 3b 3d 39 61 c9 3d
       0.14488666 0.065160766 0.04586626 0.09832997

layer1.bias f4 [64]
000000 50 22 ef 3c 31 7f a5 3c 72 56 fc 3c d1 1a 1d 3c
       0.029191166 0.020202251 0.03080294 0.009588913
000010 b6 b7 94 39 d7 3a 2d bd c8 dd 11 3c 35 b4 a7 bc
       0.00028365635 -0.042292442 0.008902974 -0.020471672
000020 86 6b 99 bc 48 fd 64 bc 33 fc 1c bc 17 a3 33 bc
       -0.018728029 -0.013976403 -0.009581613 -0.010964177
000030 2c b9 39 3a ed 30 84 bc a4 49 a7 3c 64 99 dd bb
       0.00070847827 -0.01613661 0.020420857 -0.0067626704
000040 fb 2b db 3c e9 5a 80 3c 7e 45 7b bc 39 08 a2 bc
       0.02675437 0.01566835 -0.015336392 -0.019779311
000050 75 86 d6 bc c7 f5 37 3c 5f 83 c7 3b ac 39 31 3b
       -0.026187161 0.0112280315 0.0060886587 0.0027042432
000060 3b ba e0 3b 26 1a 88 bc 78 f2 e0 bc 44 25 de 3b
       0.006858138 -0.016614031 -0.027459368 0.0067793448
000070 e7 04 5e bc 1d 32 26 bd 70 8d b0 bb 93 82 db 3c
       -0.0135509735 -0.040575135 -0.0053879544 0.026795661
000080 64 5e dd 3b be ea 3f ba 61 ad 4b bc 99 f0 c2 3c
       0.006755637 -0.0007321051 -0.0124314735 0.023796367
000090 eb a7 1f 3c a2 2f 37 3b 52 7c 21 3c 30 85 23 bc
       0.009744625 0.0027951975 0.0098563 -0.009980485
0000a0 38 cb 47 bc ff 91 b8 bc a0 9b d1 ba f1 ee 71 3c
       -0.012194447 -0.022530554 -0.0015991814 0.014766441
0000b0 51 6a b7 3c 30 f3 8d 3c 7f a9 95 bc a2 d4 22 3c
       0.022389563 0.017327875 -0.018269299 0.009938391
0000c0 80 a1 e9 39 8d f7 3f 3c 34 64 39 3c 18 f4 ae bc
       0.0004456155 0.011716736 0.011315394 -0.021356627
0000d0 ba 6f 6c 3b 41 6b ce 3c 0e 3d 28 bc 64 d0 e0 bc
       0.0036077336 0.025197627 -0.010268463 -0.027443118
0000e0 7a c5 cd bc fc 08 ee bc b6 fb 90 bc 1e af 59 ba
       -0.025118578 -0.029057018 -0.01769815 -0.00083039876
0000f0 ae ee 60 bc 83 34 59 3a c5 97 17 3c 0b 47 a0 3c
       -0.013728781 0.0008285718 0.009252493 0.019565126

layer2.weight f4 [64, 64]
000000 5a b7 d2 bd cc 74 17 3e f0 d7 a3 3d 53 0b 71 3c
       -0.10288878 0.14790648 0.08000171 0.014712173
000010 8c d4 79 bc 30 8b 98 3c 1d 1d 40 3d ed 8e be 3d
       -0.015248429 0.018621057 0.046902765 0.09304605
000020 ac 94 73 3d 2f 51 f7 3d 86 6a 47 be cd 31 bb bc
       0.059467956 0.120760314 -0.19474229 -0.022850895
000030 35 f6 ca bd 7d fc 28 3e eb 8c 9b bc 3c 6c 92 bd
       -0.099102415 0.16502567 -0.018988093 -0.0714955
000040 dc 53 33 be a5 b7 b5 3d 6b c3 96 3d b9 ac 3d be
       -0.17512459 0.08872918 0.07361492 -0.1852292
000050 d4 85 ee 3d 55 e7 ef 3b 84 d6 08 3e 7d 0a 2e be
       0.116466194 0.007321278 0.13363081 -0.16996188
000060 9b 4c 4c be 9b d1 32 3d 87 7c e9 bc db 08 9f 3c
       -0.19951098 0.043656927 -0.028501762 0.019413402
000070 ca 41 19 3e 66 89 04 3e b3 d8 a1 bd e9 45 10 bd
       0.14966503 0.12943038 -0.0790266 -0.03522292
000080 63 68 04 be 8b 07 3d be 4a 82 d7 3d da 87 ee bc
       -0.12930445 -0.18459909 0.105228975 -0.029117513
000090 6b f3 b4 3d 34 ac d6 3d 27 32 0b 3d 54 55 66 bc
       0.08835491 0.10482064 0.033983376 -0.01405843
0000a0 56 a3 33 bd 61 24 da bc d5 11 09 be 8a 19 39 3e
       -0.04385694 -0.026628675 -0.13385709 0.18076149
0000b0 cd 2c 06 3e 6b 8c d7 3c 11 67 cf bd b0 92 08 be
       0.13103028 0.026312074 -0.1012708 -0.13337207
0000c0 62 cb 0e be 1b 80 ac 3d d5 8b 55 3d 73 fc 07 be
       -0.13944772 0.08422872 0.052135307 -0.13279895
0000d0 21 7c 44 be 93 61 94 3d 89 b8 46 3e ed d8 4b 3d
       -0.19187976 0.07245173 0.19406332 0.049767423
0000e0 fc e4 48 bc 9d 32 72 3d 07 08 05 3d 66 30 05 3d
       -0.012261625 0.0591303 0.03247836 0.03251686
0000f0 4a ae 47 3e c5 67 d1 bd 29 49 4c be df dd 5d be
       0.1950008 -0.102248706 -0.19949783 -0.21666668
000100 65 ad ec bc 73 66 a9 3d 49 99 5d be 55 02 0e 3e
       -0.028891275 0.08271494 -0.21640505 0.13868077
000110 ba 55 0b 3e 7e fe 8e bd f1 9a 63 bd ee 87 35 bc
       0.13606921 -0.06982134 -0.055567686 -0.011079771
000120 c3 c1 4e be ee 8c 1d bd 7e eb 25 3b 91 85 03 bd
       -0.20191102 -0.03846448 0.0025317366 -0.0321098
000130 c1 0b 21 3e 46 2a dc bc 0d 98 18 be f3 31 2e bb
       0.1572714 -0.026875626 -0.14901753 -0.0026580065
000140 62 88 fd 3d 73 ed 53 be 17 08 c9 3d e8 b4 a1 bc
       0.123795286 -0.20696048 0.09815996 -0.019739583
000150 de 6e c8 bd 01 e6 5d 3e 0d 58 ce 3d a4 07 f1 bc
       -0.09786771 0.21669771 0.10075388 -0.029422589
000160 53 ca 0c bd a7 6a 42 be 00 f5 26 3e ce 88 10 be
       -0.03437264 -0.18985997 0.16304398 -0.14114687
000170 5a 1e cf bc 2d fa d8 bd 25 79 24 be a4 72 71 bd
       -0.025283027 -0.10594592 -0.16061838 -0.05894722
000180 f1 13 b9 3d fd de 0a be 8b 9c 02 3e 78 68 5e be
       0.09037007 -0.13561626 0.12755029 -0.21719539
000190 c2 94 47 3e 68 c3 5c bd a6 5a e6 bd e5 e5 e9 3d
       0.1949034 -0.05389729 -0.112477586 0.11420802
0001a0 c1 71 20 3e 49 36 17 3d 08 33 b5 bd 24 73 55 be
       0.15668394 0.036917005 -0.08847624 -0.20844704
0001b0 34 cb 24 ba d0 87 29 be 98 c4 42 be f1 f5 89 bd
       -0.0006286383 -0.16555715 -0.19020307 -0.06736363
0001c0 5c d5 a8 3d b6 04 4b 3d a0 7a e4 38 05 4c 42 3e
       0.0824382 0.04956504 0.00010894728 0.18974312
0001d0 d5 91 e0 3d ed 00 29 3e 72 49 83 3c 36 e6 78 3d
       0.10965315 0.1650426 0.016026232 0.06076642
0001e0 4e e0 c0 bd be 9b 23 be 53 89 18 be ff 6f 32 be
       -0.09417783 -0.1597738 -0.14896135 -0.17425536
0001f0 ed e8 53 be 62 d0 1d bd 2a 2d c5 bc bc 4f b7 3b
       -0.20694323 -0.038528807 -0.024069387 0.005594222
000200 5b 51 43 3d 4d da 37 3e 09 db 2a 3e 0f 16 53 3e
       0.04768501 0.17954369 0.16685118 0.20613883
000210 e0 23 2e be b9 27 27 be 8b c3 37 be 90 e7 47 be
       -0.17005873 -0.16323747 -0.17945687 -0.19521928
000220 cc 87 4f be f2 4a 53 be be 4d 6f bd 59 80 e0 3c
       -0.20266646 -0.20634058 -0.05842375 0.027404951
000230 a7 6d 5c be d6 40 90 bd 24 2b 0b be 77 86 52 be
       -0.21526204 -0.070436165 -0.13590676 -0.20559107
000240 40 90 b8 3c d2 ae b9 3d 31 e0 2c bd 0a 57 2a be
       0.022529721 0.090665475 -0.042205993 -0.16634765
000250 6d 00 25 3e 66 31 5f bd b8 a8 17 3e 71 a7 e0 bd
       0.16113444 -0.05449047 0.14810455 -0.10969437
000260 23 2c b2 bd 01 46 d1 bb 10 51 10 be 8e 04 02 3e
       -0.08699825 -0.006386519 -0.14093423 0.1269705
000270 06 a2 55 3d c3 6c 3e bb 17 38 3e bc 1a 52 51 3c
       0.05215647 -0.0029056526 -0.011610053 0.012775922
000280 02 b6 e4 3c 58 ea a0 3c 81 19 2c bd f1 48 c2 3d
       0.02791882 0.019642994 -0.04201651 0.09486569
000290 5b 39 4c bd de fa f1 bd de 1a 10 3e c2 00 8a 3d
       -0.049859386 -0.11815427 0.14072749 0.06738426
0002a0 82 5e c2 bc 0e 84 e9 3d cc 57 82 3b dd bd 2f 3c
       -0.023726705 0.114021406 0.0039777514 0.010726419
0002b0 a4 59 43 be 74 ae 14 3d f0 b9 2f be 97 a2 52 be
       -0.19077164 0.036299184 -0.17160773 -0.20569836
0002c0 b7 dd c3 3d a1 f7 4a 3e c7 a5 4d 3e b1 0b f1 3d
       0.09563773 0.19821025 0.2008277 0.11769808
0002d0 4c 40 b1 bc f3 99 bd bd 65 9f 28 be c1 50 45 3e
       -0.021637104 -0.09257879 -0.16467054 0.19269086
0002e0 57 12 97 bd 29 c6 9b 3b 70 4f 1b be bd e4 18 be
       -0.07376545 0.004753847 -0.15167022 -0.14931007
0002f0 d6 0f 2a be 47 b3 4f 3e 1a 84 58 bd ba 73 32 be
       -0.16607603 0.20283233 -0.052860357 -0.17426959
000300 84 b9 92 3c 7a 52 3e be 70 59 26 be 6a fc 1c be
       0.017910726 -0.1858615 -0.16245055 -0.15330663
000310 0f e4 3a be 2f d4 80 3c 6e 4e 3d be a4 14 94 bc
       -0.1825106 0.015726177 -0.1848695 -0.018076248
000320 f0 ab 55 be 81 c8 74 bd 07 5d 88 bd 03 31 60 be
       -0.2086637 -0.059761528 -0.066583686 -0.21893696
000330 4d a3 79 bd a8 41 20 3e c9 11 50 be d6 91 21 bd
       -0.06094675 0.15650046 -0.20319284 -0.03944572
000340 33 e6 ba 3d b4 c9 4a 3e 6a 4a da 3d 16 2f f6 3d
       0.09125938 0.19803506 0.106587246 0.120207
000350 95 eb 7b 3d a2 8b 06 3d b5 c2 51 be b9 8b 0a be
       0.061503965 0.032848008 -0.20484431 -0.13529862
000360 18 7c 47 3b bb 61 48 3e 74 a8 9a 3d e0 1e cf 3d
       0.0030438956 0.19568531 0.07551661 0.10113311
000370 33 76 29 be ae a3 56 be 48 7f 11 3e 7b 8e 33 be
       -0.16548996 -0.20960876 0.1420871 -0.1753482
000380 e5 a3 e2 bc fa 56 ef bd 28 ff 42 be 6b db 56 3e
       -0.027666042 -0.11686511 -0.19042647 0.20982139
000390 6e a6 c7 bd 62 0e 49 3e 02 a5 ae 3d 14 fa 37 be
       -0.09748541 0.19634393 0.085275665 -0.17966491
0003a0 0d ea 62 3d 19 4e 72 3d 15 53 d0 3d 28 4b b4 bd
       0.05539899 0.05915651 0.10172097 -0.088033974
0003b0 c7 3e 1e bd 9d 89 91 bd 34 9a b3 bd b5 2d db bd
       -0.038634088 -0.07106326 -0.08769646 -0.10702077
0003c0 45 bb 4b 3e 4b f2 6c bd d5 ca 27 3e 9d 5e 97 3c
       0.19895656 -0.057848256 0.16385968 0.018477732
0003d0 21 40 2d 3e 0c bf 19 3d fc 57 d3 bc 8b bd 40 be
       0.16918994 0.037535712 -0.02579879 -0.18822305
0003e0 45 1a a4 3d 3e 7d 3f 3e a8 93 06 be 7c 08 09 3e
       0.08012823 0.1870012 -0.13142264 0.13382143
0003f0 14 84 8c bc b3 2e d0 bd 8f 64 93 3d fc 2b 36 be
       -0.017152824 -0.10165157 0.071969144 -0.17790216

layer2.bias f4 [64]
000000 0a 1c aa bc 99 9a 4c 3c 82 f2 88 3c 31 ef 29 3c
       -0.020765323 0.012488031 0.0167172 0.010371969
000010 74 46 78 3c 46 6d f4 3c 64 7a 11 bd 93 01 0b bd
       0.015153516 0.029837262 -0.03551711 -0.03393705
000020 74 d5 25 3b 42 c4 ba 3c f9 7c 68 bb d8 04 c2 bb
       0.002530423 0.022798661 -0.003547488 -0.0059209876
000030 5e af f5 3c c2 27 a3 bc 67 a7 6f 3c bc 76 a8 bc
       0.029990848 -0.019916419 0.014627314 -0.02056443
000040 c6 14 1d bb f1 02 19 3c 48 cc 8e bb da f0 ea bb
       -0.002396868 0.00933908 -0.0043578483 -0.007169825
000050 5c 04 57 3c 32 cb 23 3c fe 2e ad 3c 7a 0f 9f 3c
       0.013123598 0.009997176 0.021140572 0.01941656
000060 65 07 9e bc 0b ad 2e bc 0e 0b 6e 3c c0 15 51 b9
       -0.019290635 -0.010661374 0.014529003 -0.00019939896
000070 5b af a8 3c 69 21 bd bb 9f ae fb bb 4f 08 13 bc
       0.020591429 -0.005771805 -0.0076807286 -0.008974149
000080 5a 62 3c bc 8f 07 f2 3b c1 98 2a bb 8a 57 bb bc
       -0.011498058 0.007386155 -0.002603099 -0.02286889
000090 c0 34 81 ba d8 03 2c b9 94 2b e6 bc 8b ff 02 bd
       -0.000985764 -0.0001640463 -0.028096952 -0.031981986
0000a0 f7 15 6b 3c 00 08 62 bc d2 07 12 bd db 79 85 bb
       0.014348499 -0.013795853 -0.03565199 -0.004073364
0000b0 98 dd b6 3c 5c 5d ad bb a7 cd 10 bc d7 d9 62 bb
       0.022322461 -0.0052906703 -0.008838094 -0.0034614706
0000c0 b8 6b 4e bb 30 c4 aa bc 62 5b 2c bb 68 83 aa bc
       -0.003149731 -0.020845503 -0.0026299586 -0.020814613
0000d0 71 17 a3 3c 66 64 41 bc 56 e3 ae 3c 05 32 62 bc
       0.019908639 -0.011803722 0.021348637 -0.013805871
0000e0 4e 11 af 3c 82 64 a9 bc fc bd 06 bc 5b 6e 9c 3b
       0.021370556 -0.020677809 -0.008224007 0.0047738976
0000f0 b9 3d 84 3c d1 ef 90 3c 7d d0 34 3c 22 f9 01 bb
       0.016142713 0.017692478 0.011036036 -0.0019832333

layer3.weight f4 [7, 64]
000000 4e 84 6c 3d 41 09 4e bd ef 43 4f be 7c 4e 47 3e
       0.057743363 -0.050301794 -0.20240758 0.19463533
000010 5f 09 34 3e fa b4 22 3e a4 f1 82 bd 83 f2 8d bd
       0.175817 0.1588935 -0.063937455 -0.06931021
000020 6f 89 f1 bd 9c 8e 8c 3b 4f 1c f4 bd 64 5a 33 3d
       -0.117937915 0.0042894613 -0.11919462 0.043787375
000030 1d a1 0a 3e ce e6 14 be b9 ef 55 bd d7 0c 8f 3d
       0.13538022 -0.1454117 -0.05223057 0.06984871
000040 d8 02 32 bd d1 53 ee 3d ab e2 50 bd 9e e8 e2 3b
       -0.043459743 0.116370805 -0.050997417 0.006924703
000050 4b ed 87 3d 56 6b c9 3c c4 42 66 3d 61 34 64 be
       0.06637057 0.024587315 0.056216016 -0.22285606
000060 45 1f 3f 3b ae 01 8b 3e 9f e8 69 3d fe c9 61 3e
       0.0029162925 0.2714972 0.05710661 0.2204971
000070 54 a8 64 3d de 36 07 3e 24 5f 0d bb ce 0a c7 3d
       0.055824593 0.13204524 -0.00215716 0.09718858
000080 fb 4b 57 be 3e 2c 54 3e f0 5c 85 be 92 ef 5e 3e
       -0.21025078 0.20720002 -0.26047468 0.21771076
000090 08 c1 63 3d 69 2c 9c be 5c 12 de 3d 24 8f c8 bd
       0.05560401 -0.30502632 0.108433455 -0.09792927
0000a0 36 c1 25 3e 99 df 83 3e f5 de 64 be 18 da a8 3c
       0.16186985 0.2575653 -0.22350676 0.020611808
0000b0 7f be f9 3d bf 34 5d bd 5b a5 12 be 90 4c 2a be
       0.12194537 -0.05400538 -0.1432089 -0.16630769
0000c0 78 d8 62 3c 61 ad 26 be e0 c1 2d 3e d9 2b 61 3e
       0.0138455555 -0.16277076 0.16968489 0.21989383
0000d0 81 17 89 be 06 25 c3 bc e3 17 65 3e 7e 69 2a bd
       -0.26775745 -0.023821365 0.22372393 -0.04160451
0000e0 c8 37 5b 3e b9 be 17 be 3a 07 0b 3e f7 8d 6d 3e
       0.21407998 -0.14818849 0.13576975 0.23198687
0000f0 fd 63 99 bd ea d5 52 3d d2 2f 6f be 82 d3 4b be
       -0.074897744 0.051473536 -0.23358086 -0.19904903
000100 92 49 74 be c5 49 23 be 4e 31 9f 3d 9d de 7b be
       -0.2385619 -0.1594611 0.07773076 -0.24596639
000110 23 18 50 3e 6a 0c 6c be 72 7e 07 bd 3a 61 49 3e
       0.20321707 -0.2305161 -0.033079572 0.19665995
000120 37 2f 12 3e 42 56 c1 3d 8f 9d 4b 3e f1 0b 45 be
       0.14275824 0.094402805 0.19884323 -0.19242837
000130 1c 61 8b 3e 67 7d bd 3d 55 1b 92 be bd a4 62 be
       0.27222526 0.09252434 -0.28536478 -0.22133155
000140 44 f3 06 be 87 bd 97 be c1 47 20 3e b7 3a 65 be
       -0.13178736 -0.29636785 0.15652372 -0.22385679
000150 a3 35 0d be e5 be 1d 3d 0a c9 26 bd a1 e0 51 bd
       -0.13789992 0.03851213 -0.04071907 -0.051239613
000160 85 93 59 be 20 a3 0d be 4e c6 3d be 0d cb 42 be
       -0.2124768 -0.13831758 -0.18532678 -0.1902277
000170 72 7f 9d 3d 94 94 4a be 3f a0 5b 3d a9 bc 3b 3e
       0.07690324 -0.1978324 0.05361962 0.18333687
000180 ca fc f1 3d be 5d 4a 3d 9b 23 8a 3e ca 3d 65 bc
       0.11815794 0.049405806 0.2698029 -0.013991782
000190 60 96 8e be f8 c0 a8 bc 64 14 98 bd 9e 13 a8 3d
       -0.27849102 -0.020599827 -0.07425764 0.08206867
0001a0 60 4d c2 bd 55 ae aa bd 26 44 86 3e 1b 18 97 be
       -0.09487414 -0.083340324 0.26223868 -0.2951058
0001b0 01 dc 7b be 81 aa 86 be 4d 65 aa 3d d6 4c 5a 3e
       -0.24595644 -0.2630196 0.08320103 0.21318373
0001c0 94 81 8c be b3 f1 28 be de 8c c7 3d 5c 18 97 3e
       -0.2744261 -0.16498451 0.09743665 0.29510772
0001d0 27 d6 8d be 12 9d 5c 3e b2 c7 71 be 53 93 5e 3e
       -0.27702448 0.21544293 -0.23611334 0.21735887
0001e0 14 86 4f bd f4 ed d1 3d 9f d1 61 be 12 b0 fd bb
       -0.050664976 0.10250464 -0.2205262 -0.0077419365
0001f0 77 db b6 3d 53 53 40 3e 28 79 66 3e ea 21 85 be
       0.08928578 0.18781786 0.22507155 -0.26002437
000200 5e 32 87 be ee 41 34 3d 82 6a 5b 3e ef 7d 8b be
       -0.26405615 0.044008188 0.21427348 -0.27244517
000210 01 9d 29 3e 00 7e a1 3e 7c 4e 9a be 5f 41 22 be
       0.16563798 0.31541443 -0.30138004 -0.1584525
000220 0f 45 78 3d 0f d7 8d 3e 47 1e 9f bc ae 1e 93 bd
       0.060612734 0.2770314 -0.019423617 -0.07183586
000230 cd 4b 8f 3e 2f 48 29 bd 4f 2a 20 3e 06 b4 99 be
       0.2798752 -0.041328605 0.1564114 -0.3002016
000240 c1 fc 93 be 0d 92 92 3c 4b bf 08 be 8b 6d 07 3e
       -0.28903773 0.017891908 -0.13354222 0.13225381
000250 a2 76 18 bd 2b 7a 5b 3e 0c c5 61 3e 68 5e 11 3e
       -0.037222512 0.21433322 0.22047824 0.1419617
000260 be f1 ae bd 49 db 4a bd 23 f5 93 3e 53 a4 06 be
       -0.085422024 -0.049525533 0.28897962 -0.13148622
000270 c6 a0 f7 3d 82 0e 0b 3d f1 4f 81 bc d7 99 c3 bd
       0.12091212 0.033949383 -0.01578519 -0.09550827
000280 aa 7d 86 bd f9 aa 66 3e 61 98 a1 bd e9 7a 96 bd
       -0.06566937 0.22526158 -0.07890392 -0.07347662
000290 1c 40 99 bc 2d 84 29 be 18 53 65 be 91 a0 87 bd
       -0.018707328 -0.16554327 -0.22394979 -0.066224225
0002a0 b7 d9 7d be 73 e9 33 3c c6 58 8b be a4 17 76 be
       -0.24790083 0.010980952 -0.27216166 -0.24032456
0002b0 3f 78 e8 3d 35 c9 4c 3e aa 0c 74 bd 59 85 83 be
       0.1135106 0.1999863 -0.05958239 -0.25687674
0002c0 d8 c0 91 be 14 78 06 bd 1d 36 5b be 55 eb 7c be
       -0.2846744 -0.03282936 -0.21407361 -0.24699147
0002d0 38 62 a2 3d c5 d2 13 3e 61 c7 18 3e b6 b6 05 be
       0.0792889 0.14435871 0.14919807 -0.1305798
0002e0 d0 e0 74 3e 46 c6 52 bd 31 c4 81 be 84 bc 18 3d
       0.23913884 -0.05145862 -0.25344995 0.037289158
0002f0 0b 6f 06 3d ed 5b d0 3d 5a f4 33 3e 90 82 76 bd
       0.032820743 0.101737835 0.17573681 -0.060183108
000300 80 4a 44 3e 0f bb 46 be c1 4a 3a be 58 82 85 be
       0.19169044 -0.19407295 -0.18192579 -0.26076007
000310 98 25 82 3e 2b 34 e1 bd ee 07 86 3e 5b 99 e0 3d
       0.25419307 -0.109962784 0.26177925 0.1096675
000320 60 03 40 be 9f 3f b7 bd 43 17 25 be 4a a8 bf 3d
       -0.18751287 -0.08947682 -0.16122155 0.093582705
000330 8f e1 38 be 3a 15 d0 3c ff f6 85 3e ff 1d 42 bd
       -0.18054794 0.025400747 0.26165006 -0.047391888
000340 ee ec 2f 3e 49 c0 55 3e a8 cd 3d bd 11 85 80 be
       0.17180225 0.20874132 -0.046338707 -0.25101522
000350 86 c5 f6 3c 2b 66 57 3d a4 91 65 3e c0 bf 85 be
       0.030123483 0.05258767 0.22418839 -0.26122856
000360 c7 61 3c 3e 47 7c 34 3e 90 93 20 be 31 a5 16 3e
       0.18396674 0.17625533 -0.1568129 0.14711453
000370 81 2c 8f be 63 e5 50 3e f2 bc 30 3d ed f3 58 be
       -0.2796364 0.20400004 0.043148942 -0.211868
000380 75 ae 51 be 50 6b 9e 3d 6a 26 6c be 94 64 e2 bd
       -0.20476706 0.07735312 -0.23061529 -0.1105434
000390 b0 7a 31 be 35 39 08 3e 78 9a 56 3e ea 56 f5 3d
       -0.17331958 0.13303073 0.20957363 0.11979468
0003a0 97 27 84 be db 8c 67 bd 7d c2 6a bd 7d 26 8b be
       -0.25811455 -0.056530815 -0.057314385 -0.27177802
0003b0 19 5a 7a be 1a 2f f2 bd e9 99 3c 3e 59 60 43 be
       -0.24448432 -0.1182539 0.18418087 -0.19079722
0003c0 77 39 59 3e 17 d4 74 bd 28 bf 18 be a9 6e 98 be
       0.21213327 -0.059772577 -0.1491667 -0.29771927
0003d0 89 68 4b be 82 09 2e be c5 67 6e 3e 76 bf 45 be
       -0.19864096 -0.16995814 0.23281772 -0.19311318
0003e0 d6 a2 4f be 4d 52 02 be 7e 75 4c 3e 00 86 30 3e
       -0.2027696 -0.12726708 0.19966695 0.17238617
0003f0 ec 17 32 bd 88 45 6e be 59 11 50 bb b0 3f c3 3c
       -0.043479845 -0.23268712 -0.0031748621 0.02383408

layer3.bias f4 [7]
000000 69 de 2d 3c b5 43 09 bd a0 63 8c 3d 16 93 83 bc
       0.010612109 -0.033511836 0.068549395 -0.016061347
000010 7c f9 d2 bc 74 8f 3e 3d be 46 4e bd
       -0.025753729 0.046523526 -0.050360434
