maml_model/maml_GoToObjDoor_8_3_300_50.pth (torch, 60304 bytes, 6 tensors)

layer1.weight f4 [64, 151]
00000000: 7e1a 113e 1e5c 123e 6546 fd3d 9ae6 92bc
00000010: 0e4c 27be 749e 0b3c 26d6 e33d ce7d 1a3e
00000020: 87e2 02be 1bfa 7e3d 5a88 003e 95bf 873c
00000030: 4a67 413b 6ba8 ec3d 5918 943d 0a03 0dbd
00000040: 611e 2d3c cfdd f1bc bd9b 133d 7d89 6c3d
00000050: 9d74 d83c 6e38 1fbe 66eb b2bd 7d12 4c3c
00000060: a5ef 16bd 7f5e 24be 5a99 cfbd 9657 e4bd
00000070: beef 8abc 581d 943d c30c 26be 4ea9 2b3b
00000080: 8e4e 0cbe 602e 743c 9f36 9d3d 2df7 c33c
00000090: ca72 113c 94a5 97bd 2609 80bd 8615 cf3d
000000a0: dc86 13be 8219 d6bd d23a 3fbd 14b3 5dbd
000000b0: 8025 acbd fb2c 253e f578 be3d 4a38 ccbd
000000c0: 73b7 1fbe ab67 bbbd 27bb 1a3e 3373 7e3d
000000d0: bb9e ed3d 1462 e33d 564f 03be 2ff3 6fbd
000000e0: 2a7c a0bd 396f 8ebc e6d5 e3bd fc7b a4bd
000000f0: ce5e 8cbd b487 0a3d 899a 953c 490e fcbd
00000100: 55e8 07bd 8ddf 183e 7479 81bd 4b0e d7bd
00000110: a5e0 143d fa01 bbbc 4293 223d 69fe 55bc
00000120: 9920 9bbd 39cb 4dbd 506a 5abd ccdf c6bd
00000130: 405d d13c f9af 013e ef49 303c 9420 e13d
00000140: 40cb e2bd 9281 be3d a4d2 823c 0a24 27be
00000150: ba73 be3b 3078 99bb 66c9 1f3e e84e f53d
00000160: e0c6 46bd 9c43 f5bd e131 80bd c482 11be
00000170: 9594 f6bd 1ff2 21be 91bf db3d 7f94 01be
00000180: 86fa abbd c73f 04bb 1f19 c2bd d5c2 25bd
00000190: e560 38bd b1e2 8dbd 3de7 a73d afb3 03be
000001a0: 7827 0e3e 65a0 40bd 3590 c1bd cc78 05be
000001b0: 06c1 23bd ec2c 90bd 89b6 0ebe 7e94 23be
000001c0: 0a75 fe3c 46dd 11bd d4a8 87bd c17b 2e3e
000001d0: 91eb 3b3c d782 443d ad79 d1bc 9440 03be
000001e0: 0c02 673c 9cac 1cbe aa3a 94bd 9d86 8e3c
000001f0: 3945 063e 247e 5abd 0f47 7a3d 8102 1d3e
00000200: 6854 92bc 4a68 1dbe 8bf2 853d 9aec 80bc
00000210: fd9f 103d 6c55 be3d bec8 9f3c b014 acbd
00000220: 3016 0c3d 9344 abbc 4ed3 2cba 2bcb af3d
00000230: 0d03 55bc 3018 523d c188 11be 27fa 213e
00000240: 4f48 6cbd 0ec4 fd3c f762 15bd 7f55 5ebc
00000250: daf6 b23d 5e35 b8bd 5558 4abd 29b2 8ebd
00000260: b767 d8bd d184 993d d91d 5d3d 5d0f d33d
00000270: cd15 133e 16a3 283d ffa5 f3bd 0384 313d
00000280: b25c 2cbe 900c 81bd 482b 90bd 274c e53d
00000290: 2e4f 2cbe e667 2c3c 41b4 a13d 0e8b 573c
000002a0: 2afc 23be 62c8 39bb a09e 67ba 4214 21be
000002b0: 7c66 583d 1f5b f53d c885 19be 96ab 23be
000002c0: 62f2 483d c5d1 c83d e6df d6bc e5ca 6f3d
000002d0: 5c6c 4c3d 6424 ccbd 888e e03d 3c11 35bd
000002e0: 8589 323d 1d4e 96bc dbb9 093e fed2 a2bd
000002f0: d450 803d 36b8 e63c ee14 fcbd 975a a33b
00000300: a42f 67bc 44bd c63d cf24 f7bd 67a3 663d
00000310: c95e e5bc 0acb 7bbd 63f9 f8bd da56 9a3d
00000320: a74b 1d3d d765 4cbd a246 583d 6a32 223e
00000330: 03b2 fd3d 3b18 95bc 3b77 e13d dbe5 ec3d
00000340: 663e 393c b144 053e 31f7 be3c bea6 1b3e
00000350: a9ae 9f3d ea24 e3bd fd94 77bd f236 a7bd
00000360: 6e1a 803b b55c 93bd 6c2e 353d 1c40 403b
00000370: 6098 a93d 3387 d73d 8450 303c a169 0f3e
00000380: 7dc5 f4bd 5c30 1a3e a58d fbbd 9f2a 193e
00000390: 1ace 05be c2d5 cabc 6911 2b3d 31df 3abd
000003a0: efa8 bebd bf6c 833d 0c69 123e 76a7 26be
000003b0: 07b4 cebd a471 78bb 2db0 e43d 70b9 e4bb
000003c0: 1f7f d0bd d111 c6bd c9d8 8fbd 4866 1abe
000003d0: b105 edbc ab82 c0bd 8efb 203e 1e41 1f3e
000003e0: d4cc 053e 1537 f2bd 52b4 bd3b fd02 c7bd
000003f0: 89d8 f53d c6c0 33bd 8c73 29be 3991 263e
0.14170262 0.14292952 0.12366942 -0.017932225 -0.16337606 0.008521665 0.1112483 0.15087053
-0.12781726 0.062250238 0.12552014 0.016570846 0.0029511028 0.11555561 0.072312064 -0.034426726
0.010566325 -0.029524712 0.036037195 0.057748307 0.026422793 -0.1554887 -0.08736305 0.01245558
-0.036849637 -0.16051672 -0.10136671 -0.11149518 -0.016960021 0.072321594 -0.16215806 0.0026193443
-0.13701841 0.014903635 0.07676434 0.023921574 0.0088774655 -0.074046284 -0.06251745 0.10111527
-0.14406914 -0.10454084 -0.046686955 -0.05412586 -0.0840559 0.1613044 0.093004145 -0.09971674
-0.15597324 -0.091506325 0.15110455 0.06212158 0.11602541 0.11102691 -0.12823233 -0.058581527
-0.078361824 -0.01738702 -0.11124782 -0.08031461 -0.0685402 0.033820823 0.018262165 -0.12307412
-0.033180553 0.14929028 -0.063219935 -0.10500773 0.03634705 -0.022828091 0.039691217 -0.013061144
-0.07574577 -0.050242636 -0.053324044 -0.097106546 0.02555716 0.12664784 0.010759815 0.10992542
-0.11073923 0.09302057 0.015969582 -0.16322342 0.0058121355 -0.004683517 0.15604171 0.11977941
-0.048529506 -0.11975786 -0.06259514 -0.1421004 -0.120400585 -0.15815018 0.10729898 -0.12654303
-0.08397393 -0.0020179616 -0.09477448 -0.04046901 -0.04501428 -0.069280036 0.08198402 -0.12861513
0.13882244 -0.047027964 -0.094513334 -0.13034362 -0.039979003 -0.07039818 -0.13936819 -0.15974614
0.031061668 -0.035611413 -0.06623998 0.17039396 0.011469738 0.04797634 -0.025570715 -0.12817603
0.014099609 -0.1530022 -0.07237752 0.017398173 0.13112344 -0.053342953 0.061102923 0.15332986
-0.017862514 -0.15371814 0.06540402 -0.01573782 0.035308827 0.09293637 0.019504901 -0.08402383
0.034200847 -0.020906722 -0.0006592766 0.08583673 -0.013001216 0.0512926 -0.14212324 0.15818082
-0.057686146 0.030977275 -0.036471333 -0.013570189 0.087384894 -0.08994554 -0.049400646 -0.06967575
-0.10566657 0.07496036 0.053983543 0.10305665 0.14363785 0.041171156 -0.118968956 0.043338787
-0.16832235 -0.06301224 -0.07039505 0.111961655 -0.1682708 0.010522818 0.07895709 0.013155712
-0.16014162 -0.0028348197 -0.00088355877 -0.15730384 0.05283211 0.119802706 -0.1499244 -0.15983424
0.04905928 0.09805635 -0.02622981 0.058543105 0.049908027 -0.099678785 0.10964686 -0.04420589
0.04358818 -0.018347794 0.13449804 -0.079504 0.06265417 0.02816401 -0.123086795 0.0049851644
-0.0141104795 0.09704068 -0.120675676 0.056308176 -0.027999299 -0.06147293 -0.12156942 0.07536097
0.038402226 -0.04990181 0.052801736 0.15839544 0.12387469 -0.01820003 0.110090695 0.11567279
0.011306381 0.13014485 0.02331123 0.15200326 0.07796986 -0.11091025 -0.06044482 -0.08164777
0.0039094007 -0.07195417 0.044233724 0.0029335087 0.08281016 0.10523834 0.010761384 0.14005138
-0.119517304 0.1505751 -0.12282876 0.14957665 -0.13066903 -0.02476013 0.04176465 -0.04562301
-0.09309565 0.06417226 0.14297885 -0.16274819 -0.10092931 -0.0037909532 0.11166415 -0.0069801137
-0.101804964 -0.09671367 -0.0702377 -0.1507808 -0.028933378 -0.09399923 0.1572096 0.15552184
0.13066417 -0.11826912 0.005789318 -0.09717367 0.120041914 -0.043885015 -0.16547984 0.16266336

layer1.bias f4 [64]
00000000: e4ac 89bb 340a c43c 70e6 7839 2a27 adbc
00000010: 17f5 a7bc b016 2ebd 77a8 833d f1fd 9abb
00000020: bcbe 10bc 9e26 95bd 6019 5cbb c6fe 733d
00000030: 3904 d2ba 6572 083d 10a8 2b3c 95d6 e93b
00000040: fc5a dd3b 93af 57bd f12f 0dbd 762e 9a3b
00000050: e20c e43c 1fa4 e73c f496 343a d232 b2bb
00000060: b428 d5bc 2eb2 143d feeb a03c 425e 563d
00000070: 6a60 953c 662d d4bc 8e79 0e3b a07d bb3c
00000080: caf2 a9ba a1e0 243c a5aa 1e3d 4c34 c73c
00000090: c8b9 f83c e964 b4bc 7410 edbc 1075 32bd
000000a0: 40ba 42bc 1d7b 30bc 8d28 fdbb 7e37 84bd
000000b0: 229b 3e3d a882 953d ac41 1d3d 7cec ac3c
000000c0: d4be a73c 2bff af3c 048c 30bb ff1e 453d
000000d0: 6556 aabc a7f1 b33c 264d a03c 9038 003d
000000e0: 28f5 40bb 81e0 a0bb 91f2 433c 0df4 f9bc
000000f0: 9839 f0bc 6559 babb 9a40 5abd 60cb 523d
-0.0042015184 0.023930646 0.00023736968 -0.021136839 -0.02050261 -0.042502105 0.064286165 -0.004729979
-0.008834537 -0.07282756 -0.003358446 0.059569143 -0.0016022987 0.03331222 0.010477081 0.007136176
0.006755231 -0.052657675 -0.03446955 0.0047052456 0.027838174 0.028276501 0.0006888949 -0.005438187
-0.026020385 0.036302738 0.01964378 0.052335985 0.01823445 -0.025900554 0.0021739933 0.022887051
-0.0012966034 0.010063321 0.038736958 0.02431693 0.030362025 -0.022020774 -0.02893851 -0.04356867
-0.011885226 -0.01077154 -0.0077257813 -0.06455897 0.046534665 0.07300311 0.038392708 0.021108858
0.020476736 0.021483978 -0.0026938925 0.048125263 -0.02079315 0.021965815 0.019568037 0.031303942
-0.0029443 -0.0049095755 0.011959688 -0.03051188 -0.029324338 -0.005686926 -0.053284265 0.051463485

layer2.weight f4 [64, 64]
00000000: c249 533e 5922 023e 3ee6 a53a 7f0e 2d3e
00000010: a780 b1bc 62f7 8f3d 4b54 38be 0197 783d
00000020: c396 4cbe 4984 4fbe 1ff3 4f3d aecc 173d
00000030: 06d9 3ebe 757c 61bd 5e19 5e3d e341 d0bd
00000040: 33da 2d3e df96 23be 5cc0 1e3e 27ec d33c
00000050: 6425 0abe 79bf 103e 19fa fe3c 2624 2a3e
00000060: bfde 0d3d 65f9 55be 6afb 7bbb d174 2cbd
00000070: 20fb 823d c2ae 583d 3cf2 0d3d 1955 88bc
00000080: 3f16 ed3d 5da5 8fbd 0d32 20be 859a 36be
00000090: 0690 da3c b293 b03d e192 0fbd d475 3a3e
000000a0: e225 473c 532b 3a3d daf5 d23b c6d2 5b3e
000000b0: c164 e7bd 05ba c2bd 8b34 95bc 1027 5d3d
000000c0: b9df 3c3d 7b04 e8bd 85fc 70bd 3149 2dbe
000000d0: 1164 cabd 0776 fabd 1c0f 9e3d 7557 403e
000000e0: d95e 433e 892a a43c 2837 ce3d f450 e83d
000000f0: ee52 433e aead db3d 4cd1 7fbb d592 4ebc
00000100: 93ab 07be d833 3cbe caa1 50bc 26c9 453e
00000110: 0b31 bfbd 2f1b 3e3e 0c13 ce3d 9238 abbb
00000120: eb35 d4bc 2593 d1bc 9043 16be 7b80 acbd
00000130: 160b 07be 790c dd3d 405f 3a3e 0c97 603e
00000140: 204d eabd dff9 813d 5e02 333e e305 25be
00000150: dde0 9b3d dbd8 3e3e b112 51bb 071a 58be
00000160: 071b 433d ef23 9f3d 3f03 233d 3733 39be
00000170: b28f 0e3d 4ac1 8cbd d882 34be 51e4 fe3d
00000180: 67ed 453e 08f3 7cbd e261 5fbe 5924 d4bd
00000190: 2801 70bd c360 0a3e 8043 8fbd 5d2b d3bc
000001a0: 1e7d 2dbd 148a 273e 74a6 123e 4912 853d
000001b0: 29ce 31be b423 22bd 4122 293e 8cfb e3bc
000001c0: f6ec 6d3d fa0c 86bc 242a 0dbe ae9d 0fbc
000001d0: 928e f53d fcf2 93bc 71e6 13be 850f 4cbe
000001e0: 764c 233e f238 bb3d 477a 253e a120 2ebd
000001f0: 774a 103e 7461 cb3d 2a1d d7bd 51a9 b93d
00000200: 6158 78bc 1ed9 a13d 5f92 b0bd 4fda 13be
00000210: c17a 91bc 11eb f3bd f451 40be be8f 543e
00000220: cec7 54be dc2b 48ba 789d 8a3d e61a 97bd
00000230: 2ca9 393e 8ca1 19be 688a 0fbe eb51 7f3d
00000240: 4c60 4ebe dcbd 313e 865e 293e 0751 ccbd
00000250: 3302 b6bd 2541 23be a7f0 b93c 9152 a6bd
00000260: be44 b33d b198 cabd 6ba4 afbd 35c3 e3bd
00000270: 9c5a 2abe 8564 24be 0226 1c3e a127 88bd
00000280: 5795 ba3d 4892 983d 115c 3f3e eb5b b13d
00000290: 9819 3cbe 9bfd d5bc afd8 4abe b532 63bd
000002a0: 7313 4d3e c738 8cbd 1cc8 0fbd d047 483c
000002b0: 50bd bcbc dca5 d63d eca3 b03d 51e1 143e
000002c0: 300a b43d 0ff3 233e a8be 0f3e a6b8 5ebe
000002d0: 7a78 043e e7bc ed3d e44b 243e b5dd d3bd
000002e0: 8540 323e c09b 3fbe ed8f f83d dac5 3abd
000002f0: d7f5 ecbd c3bd 443e 28cd 393e a275 cbbd
00000300: 1146 513e 3a04 89bd 498e 863d e2a4 b1bd
00000310: 54f0 96bd 9933 5d3e 457e 9f3d f0d4 3a3b
00000320: 3d44 15be 3093 173e 6e17 2fbd 1e3f e3bd
00000330: d44a 16bd abcc bfbd c670 37be 4bfa e9bc
00000340: 3a0f 30be ea50 c2bd 8151 6cbd 0535 3bbe
00000350: e772 04be 21ae 203d c97f cd3d a384 03be
00000360: 2fb4 323e b75b 163e 17bc 4cbe f0f5 1cbd
00000370: cd9c 19be 78f0 84bd 7023 0ebe 47cc 843d
00000380: c2e3 65be 6fdb 443e f546 44be ddd4 28be
00000390: 917e c43c b5de 7cbd 9ee4 523c fb65 3c3e
000003a0: 277f 143e 3fc5 3cbe 3013 3a3e 949d 6a3e
000003b0: f52d 22be a156 f93d bfd2 afbd 4c46 f93b
000003c0: 8b12 ae3c 05b9 603d 526a ad3c 82b7 443d
000003d0: 0ed5 e53d ee8b f3bd 462a 093e 1ee6 c73d
000003e0: 4a12 4cbd ae4d c53d 817a 97bc 722a 2ebe
000003f0: 0021 af3d e4aa ca3d eb8b 2f3e 3b47 023e
0.20633605 0.12708415 0.0012657118 0.16900061 -0.021667792 0.070296064 -0.18000905 0.060690884
-0.19979386 -0.20265307 0.050768968 0.037060432 -0.18637475 -0.055050332 0.05422341 -0.10168817
0.16977768 -0.15975522 0.15503067 0.025869442 -0.13490826 0.14135541 0.031125115 0.16615352
0.034636255 -0.20895918 -0.0038449415 -0.042103592 0.063955545 0.052901037 0.03465484 -0.01664214
0.11576509 -0.070139624 -0.15644093 -0.17832382 0.026680004 0.08621921 -0.035052184 0.1820901
0.012155028 0.045451473 0.006437999 0.21467122 -0.11298514 -0.09508137 -0.018213531 0.05399233
0.046111796 -0.113289796 -0.05883457 -0.16922452 -0.098823674 -0.12229543 0.07717726 0.18783362
0.1907915 0.020039814 0.10069114 0.113435656 0.19074604 0.10726486 -0.0039034663 -0.01260825
-0.13249044 -0.18379152 -0.012733886 0.19315013 -0.09335526 0.18565057 0.10062227 -0.0052252496
-0.025904616 -0.02558286 -0.1467421 -0.08422943 -0.13187823 0.107933946 0.18200397 0.2193262
-0.11440492 0.06346487 0.17481372 -0.16115527 0.07611249 0.18637411 -0.003190201 -0.21103679
0.047633197 0.07770526 0.039798018 -0.18085943 0.034805007 -0.068728045 -0.17628038 0.12445892
0.19328843 -0.06175521 -0.21814683 -0.10358495 -0.058594853 0.13513474 -0.069952965 -0.025777513
-0.04235565 0.16361266 0.1432131 0.06497628 -0.173638 -0.03958483 0.16516973 -0.027829908
0.05808731 -0.01636361 -0.13785607 -0.008765621 0.11990084 -0.0180602 -0.14443375 -0.19927795
0.15947136 0.09141721 0.16159926 -0.042511586 0.14090906 0.09930697 -0.105036095 0.09065498
-0.01515779 0.0790274 -0.08621668 -0.14438747 -0.017758729 -0.1191007 -0.18781263 0.20757958
-0.20779344 -0.000763593 0.06768316 -0.07378177 0.1813094 -0.15003031 -0.14017642 0.062333982
-0.20153922 0.17357582 0.16539964 -0.09976392 -0.08887138 -0.1594282 0.02269776 -0.08121217
0.08753346 -0.09892405 -0.08576282 -0.11121217 -0.16636127 -0.1605397 0.15248874 -0.066481836
0.091105156 0.07449776 0.18687464 0.0866011 -0.18369138 -0.026121905 -0.1980922 -0.05546828
0.2002695 -0.06846767 -0.03510295 0.012224153 -0.02303949 0.10480854 0.086250156 0.14539076
0.087910056 0.16010688 0.14037573 -0.21750125 0.12936583 0.11608296 0.16044575 -0.10345022
0.17407425 -0.18711758 0.12136827 -0.045598842 -0.11570328 0.19213013 0.18144667 -0.09934546
0.20436884 -0.06690259 0.065701075 -0.08674027 -0.07370058 0.21601714 0.07787756 0.0028508268
-0.14576812 0.14802241 -0.042746954 -0.11096023 -0.036692455 -0.09365209 -0.17914113 -0.028561732
-0.17193308 -0.094880894 -0.057694916 -0.18281944 -0.12934457 0.039228562 0.10034139 -0.12843566
0.17451547 0.14683424 -0.19993626 -0.03832048 -0.15001221 -0.06491178 -0.13880706 0.06484275
-0.22450164 0.19224332 -0.19167693 -0.16487451 0.023986133 -0.061735827 0.012871889 0.18398277
0.1450163 -0.18434618 0.18171382 0.22911674 -0.15837844 0.12174726 -0.085851185 0.007607257
0.021249076 0.05486395 0.021168862 0.04802657 0.112222776 -0.11891924 0.13395032 0.09760688
-0.04982213 0.09633957 -0.018491032 -0.17008379 0.08551216 0.09895876 0.17143218 0.12722485

layer2.bias f4 [64]
00000000: de60 1fbd 1796 2ebd 1858 80bc f7b8 7bbd
00000010: bf58 1a3d 66be 2ebd 8f0e 4d3d 44d1 c0bc
00000020: d3f8 b63c a522 aebc 1d8e d9bc bdad 16bd
00000030: 66ad 5b3c 39d5 8e3c ac2b 733c 9bc7 7e3c
00000040: be5d d9bc 5ac7 f5bc b526 2f3a 271b de3b
00000050: 2e7c bd3c eb8f 11bd d6ba ab3c 9098 e43b
00000060: 27b2 2fbc 09e0 233b abdb e53b d4ef 283d
00000070: 2470 f33c b681 84bc bc4e 713b cbb0 d6bc
00000080: 74cb 0dbd f492 12bd f43e 243c f203 a4bc
00000090: 0e2f 08bd 2e93 a43a df1b ffbc 0cd5 133d
000000a0: 806c 25bd dc5b ee3c 6168 173b 8667 54bc
000000b0: 9617 f9bc d6ed 833c dcc8 903d b736 0d3c
000000c0: 9c6c 803a 52ef 31bd ef5e e4bc 4b5a 70bc
000000d0: 2a8f 93bc d675 4e3c f4eb d6bc c0ab cfb9
000000e0: 5b05 c9bc ccb8 2a3d ad38 113c 8d65 abba
000000f0: aaae 333c 2676 84bd 043e 923c 3195 b23c
-0.03891074 -0.042623606 -0.015667006 -0.061455693 0.03768229 -0.042662047 0.050062712 -0.023537286
0.022335446 -0.021256754 -0.026557023 -0.036786783 0.013408041 0.017435657 0.014841955 0.015550519
-0.026533958 -0.030002285 0.0006681488 0.006778139 0.023130503 -0.03553764 0.020963114 0.0069761947
-0.010723627 0.0025005362 0.007014712 0.041244343 0.029716559 -0.016175132 0.003682061 -0.026207348
-0.034617856 -0.035784677 0.010024775 -0.020021413 -0.033248 0.001255607 -0.03114122 0.03609185
-0.040386677 0.029096536 0.0023102986 -0.012964135 -0.030406754 0.01610462 0.07069561 0.008619002
0.0009797993 -0.043441124 -0.0278773 -0.014669965 -0.018012602 0.012601336 -0.026235558 -0.0003961008
-0.024538686 0.041680142 0.00886361 -0.0013076529 0.010966936 -0.064678475 0.017851837 0.021799656

layer3.weight f4 [7, 64]
00000000: 677b bc3c d9ef 9e3d 8bf1 243e 7350 efbd
00000010: a6a4 9ebd 6538 49be 52d1 1dbd a067 123e
00000020: c329 60be a5bc 373e 04f4 41be d960 5fbe
00000030: 5d0a 693e 1eb9 893e a601 503e e191 943e
00000040: 219d eabd 769e 78bd 3205 753e d117 073e
00000050: ab62 4c3d 4752 6a3e bd41 70be daf4 3bbe
00000060: 2895 053d d223 dbba 3ec7 29be f8b7 c13d
00000070: a12b fe3d 89da 2c3e a529 8c3c 8c9a 09be
00000080: 611f f13d a4aa 8abe d376 653e ddf6 093e
00000090: b047 cfbd f81e 543d 80f6 66be 4d44 143e
000000a0: 5613 7bbe c34a 22be eff2 dabd 2ce1 e63d
000000b0: 9822 c0bd 9395 ac3d 48e4 8e3e af63 073e
000000c0: 2c4c bdbd 6291 85be 00a6 89bc 360a 7cbe
000000d0: 38b2 91be bfd9 113e 1c51 e4bd f1c1 023e
000000e0: d888 0b3e eee1 873e f5d1 87be 1042 2fbb
000000f0: 2087 6f3d bbfa 74bd e9ec 8cbe 4af5 533e
00000100: 194b 56be 9863 cdbd 947e 97be 9e7c 57be
00000110: bfb3 0d3e a022 77be 8c1a 223e 0851 f63d
00000120: d6f7 633e 771b 72bd bfe9 50be 938e 1cbe
00000130: e70f 3dbe 23e6 083e d4ef 70be 5ede b2bd
00000140: 2e80 203e 62d3 e33d e576 7c3e 5522 3bbe
00000150: aaa0 633e 57bf f03d f1fd 4abe 1702 993d
00000160: 7f4b 693d c995 033d 8659 f43d 14a8 3c3e
00000170: 4970 903d 6f65 b6bc bdaf 9b3e 9acb 473d
00000180: cffd 91bd e1f9 6d3e 434a e8bd 6a0c 22be
00000190: 3760 d2bd 02d7 7abc b8a0 463d b734 0abd
000001a0: 6c7e 23be 96f6 763e cbe7 b23d 24b7 d0bc
000001b0: 29b8 cabd 0a9e 7e3e 8701 31be ddff 583e
000001c0: b210 1cbe dae6 b83d 6cda 3b3e e917 873d
000001d0: e4c6 2c3e 5a78 e1bd ee60 7abe b0d3 bf3d
000001e0: 68bb 843d a25a 7a3e 401d e93d 6cfc 143e
000001f0: 11d7 43be d453 8bbe 7226 8e3e faf8 c4bd
00000200: 399b 93be beed 81be a410 043e d932 7ebe
00000210: 4fac 313e b1e9 22be 34fe 793e 1fd5 d0bd
00000220: 642e 7a3e f58c 10be 501a 55be e417 50be
00000230: 7c95 083e a3d9 bdbd 5639 603e ebd0 853e
00000240: c453 e7bd 7a35 56be 2a45 58bd a1f8 4a3e
00000250: 3c3d 263c 1b13 3abe ad87 2b3e a103 8bbd
00000260: 806c 95be adb8 6dbd 5c20 4a3d 8637 943e
00000270: 6364 793e f781 6f3e c448 80be c48b b9bd
00000280: 18ea 6bbe e144 53be eef8 dcbd fa65 b0bd
00000290: 7a82 27be 4eb3 f63d bf69 003e e7a1 3f3e
000002a0: ef6a 7fbe e8ed 7a3d e442 8dbe 56f9 66be
000002b0: d078 663c 8a30 d83b 4157 973e 1ba2 f5bd
000002c0: 5260 903e 1fc8 4cbe 3352 92be 47bf 57be
000002d0: 9c63 88be f7fe 733e b347 14be 5679 39be
000002e0: adbd 67be 3388 073e b2f9 023d 4161 61be
000002f0: 61f6 c7bd e704 9ebe 0b09 7bbd ad47 1f3e
00000300: 4d0b 9d3c 2bb8 3b3e 005b 2d38 2563 4c3e
00000310: 7650 92be 9d8c 58be 108e b1bd 96d0 ddbc
00000320: 05cf 9d3d 44b9 5f3e 28bc 85be f215 3e3b
00000330: 3004 053d edfd 56bd 1586 86be 0d5b e63a
00000340: 6e7a 50be 096b 773e 2dbe fdbd 42cc 0fbe
00000350: 3f71 a03d 59f7 2e3e 4ed3 493e bd0b d6bd
00000360: 1714 a4bc 2db9 55be e7c0 e03d 9a97 49be
00000370: 391a 6f3e e5d0 263e 5a3a 70be a13c 843e
00000380: c0cd 373e d3b9 283e 6bcd 39be b59e 52be
00000390: 9c77 3f3e 0813 06bd ddbb 3c3e 64a8 d7bd
000003a0: e1df 0fbe fb2c 5bbe 6a64 6abe 7265 27bd
000003b0: b230 04be 5c43 763e c3fd 61be 8516 4f3e
000003c0: e312 3a3e 147b 533e 548e 03be 2ba2 7d3e
000003d0: b952 8fbe 12e6 153e 406d 7abe c2a3 f4bd
000003e0: 3c05 bfbb 8c8d 8ebd ad76 03be 2793 86be
000003f0: a2bb adbd 24c3 233e c92a 373e 63a3 02be
0.023008062 0.07760591 0.16107766 -0.11685266 -0.07746248 -0.19650419 -0.0385297 0.14297342
-0.21890931 0.17943056 -0.18940741 -0.21814288 0.2275786 0.26899046 0.20313129 0.29017547
-0.11455751 -0.060697995 0.23927763 0.13192679 0.049898785 0.22882949 -0.23462577 -0.18355122
0.03261295 -0.0016719049 -0.16579911 0.094589174 0.12410665 0.1688024 0.017109701 -0.13437861
0.11773563 -0.27083313 0.22408609 0.13473077 -0.10121095 0.051787347 -0.2255497 0.1447918
-0.24519095 -0.15848832 -0.10690867 0.11273417 -0.09381598 0.084269665 0.2790854 0.1322162
-0.09243044 -0.2608748 -0.016802788 -0.2461327 -0.28456283 0.1424322 -0.11148283 0.12769295
0.1362642 0.26539558 -0.26527372 -0.0026742257 0.058478475 -0.059809428 -0.27524498 0.20699039
-0.20927085 -0.100287616 -0.2958876 -0.21043631 0.13838099 -0.24134302 0.1583044 0.12027174
0.2226251 -0.059108224 -0.20401667 -0.15288763 -0.18463098 0.1336904 -0.23528987 -0.087338194
0.15673897 0.111243024 0.2465473 -0.18274815 0.22229257 0.11755245 -0.19823433 0.07471102
0.056956764 0.032125268 0.11931138 0.18423492 0.07052667 -0.022265164 0.30407515 0.048778154
-0.07128488 0.23239852 -0.11342289 -0.15825048 -0.10272258 -0.015310051 0.048493117 -0.03374168
-0.15966195 0.24117503 0.08735617 -0.025477953 -0.09898407 0.24864975 -0.17285739 0.21191354
-0.15240744 0.090284064 0.1834504 0.065963574 0.16872746 -0.11009283 -0.24451038 0.09366548
0.064810574 0.24448636 0.11382532 0.14549416 -0.1912501 -0.27212393 0.27763706 -0.09617801
-0.28829363 -0.25376695 0.12896973 -0.24824084 0.17350887 -0.15909459 0.24413377 -0.101968996
0.24431759 -0.14116271 -0.20810819 -0.20321614 0.13338274 -0.092700265 0.21896872 0.26135954
-0.11295274 -0.20918837 -0.052800335 0.19821407 0.010146435 -0.1817135 0.16750975 -0.067878015
-0.2918434 -0.05803745 0.049347267 0.2894861 0.243547 0.23389421 -0.25055516 -0.09059861
-0.23038518 -0.20631744 -0.10789667 -0.086132005 -0.16358367 0.120459184 0.12540339 0.18714105
-0.24943136 0.06126204 -0.27590096 -0.22556052 0.01406689 0.006597583 0.29558757 -0.1199381
0.28198487 -0.19998215 -0.28578338 -0.2106906 -0.26638496 0.2382773 -0.14480476 -0.18112692
-0.2263095 0.1323555 0.03197641 -0.22009756 -0.0976379 -0.30863115 -0.06128792 0.15554686
0.019170428 0.18331973 4.1331165e-05 0.19959696 -0.28577012 -0.2114739 -0.086696744 -0.027077
0.077055015 0.21848017 -0.26120114 0.002900478 0.032474697 -0.052488256 -0.2627417 0.0017574743
-0.20359203 0.24161924 -0.12389789 -0.14042762 0.078341 0.17086543 0.19709513 -0.10451458
-0.02002911 -0.2087142 0.10974293 -0.19686738 0.23349847 0.16290624 -0.2345976 0.25827506
0.17949581 0.16477136 -0.18144767 -0.20568354 0.18697971 -0.032732993 0.18431039 -0.10530165
-0.14050247 -0.21403877 -0.22889867 -0.04086823 -0.12909201 0.24049133 -0.22069459 0.20223434
0.18171267 0.2065242 -0.12847263 0.24768893 -0.279928 0.14638546 -0.24455738 -0.11945297
-0.0058294814 -0.06960592 -0.1283824 -0.26284143 -0.08483054 0.15992409 0.17887415 -0.1275764

layer3.bias f4 [7]
00000000: 056f ab3c 021b 893d b716 e53d 3bc1 4fbd
00000010: 02a2 48bd 1502 38bd 73b5 61bd
0.020926962 0.066946045 0.11185973 -0.05072139 -0.048982628 -0.04492386 -0.055104684
