maml_model/maml_PutNextLocal_7_10_800_50_encoder.pth (torch, 25524 bytes, 6 tensors)

net.0.weight f4 [32, 43]
0	0x3d3f04c4	0.046635404
1	0x3df5c15a	0.119997695
2	0xbcb4ff34	-0.022094347
3	0xbe078e18	-0.13237798
4	0xbd17c26c	-0.03705065
5	0x3e1be4ee	0.15224048
6	0x3df23ffc	0.1182861
7	0xbd02dde1	-0.03194988
8	0xbca6cb2e	-0.020360555
9	0x3d99c9a2	0.075091615
10	0xbd47c123	-0.048768174
11	0x3d9bd5f6	0.07609169
12	0xbc9e2ae3	-0.01930756
13	0x3dad1feb	0.084533535
14	0x3cd0d0a9	0.025490122
15	0xbbcf4da8	-0.006326396
16	0x3e14d3e3	0.14533953
17	0xbd0bbfa2	-0.034118302
18	0x3df10962	0.11769368
19	0x3e009a2e	0.12558815
20	0x3d4ce569	0.05002347
21	0xbd8c180b	-0.06840523
22	0x3dbe6637	0.0929684
23	0x3d06c018	0.03289804
24	0xbda0c9a9	-0.078509636
25	0xbe141e1f	-0.14464615
26	0xbdedc6e2	-0.116101995
27	0x3dcaac77	0.09896176
28	0xbc06c5bc	-0.0082258545
29	0xbc956896	-0.018238347
30	0x3d63f61e	0.055654638
31	0x3d5fffbc	0.054687247
32	0xbbbde2e7	-0.005794871
33	0x3b2b0fcc	0.0026101945
34	0xbc89cc29	-0.016820984
35	0xbd9cd4c4	-0.07657769
36	0x3c1f2dad	0.00971548
37	0xbd87f110	-0.06637776
38	0xbdeef3e8	-0.11667615
39	0xbd6caae7	-0.057780173
40	0xbdaf51fd	-0.0856056
41	0xbdd1fd63	-0.10253408
42	0xbe15f30a	-0.14643493
43	0xbdc945be	-0.098277554
44	0x3d7c304f	0.06156951
45	0xbdf0a072	-0.117493525
46	0x3da71575	0.081583895
47	0x3d202f22	0.03910745
48	0x3d987321	0.07443834
49	0xbd843d2d	-0.06456981
50	0x3d547f0b	0.05187897
51	0xbd6e0108	-0.058106452
52	0xbd9d6d22	-0.07686831
53	0xbd077bdb	-0.033077102
54	0x3daab5bf	0.083354466
55	0x3dd28f6a	0.1028126
56	0xbc8e5250	-0.017373234
57	0x3d9b6d01	0.0758915
58	0x3df87547	0.12131744
59	0xbe158ab8	-0.14603698
60	0x3d1736d9	0.03691754
61	0x3ddd6507	0.10810285
62	0xbd7cb8c2	-0.061699636
63	0x3d4f806b	0.05065958
64	0xbd225b42	-0.03963781
65	0x3e0df178	0.13861644
66	0xbd40551a	-0.04695616
67	0xbd94430c	-0.07239351
68	0x3de0e1d0	0.1098057
69	0x3dce4378	0.100714624
70	0xbde68808	-0.11256415
71	0x3d380923	0.04493059
72	0x3c67d79b	0.014150525
73	0xbd079976	-0.033105336
74	0x3d02dc3d	0.031948317
75	0xbd5dacea	-0.05411998
76	0x3e0f4058	0.13989389
77	0xbe186d75	-0.14885505
78	0x3d6c8ad7	0.057749595
79	0xbcd4da7c	-0.025983088
80	0xbd36b36d	-0.044604708
81	0x3c330f17	0.010928891
82	0xbde3f514	-0.11130729
83	0xbdeb9ba3	-0.11504295
84	0x3d1bad8a	0.038007297
85	0x3da189be	0.078876
86	0x3dc4ef77	0.09615987
87	0x3cfad859	0.03062074
88	0x3d59c318	0.05316457
89	0x3d8a8816	0.067642376
90	0x3dfff537	0.12497943
91	0xbd4fae0e	-0.0507031
92	0x3d889360	0.066687346
93	0xbd54f0bb	-0.05198739
94	0xbd9e4723	-0.07728412
95	0x3e1b085e	0.1513991
96	0xbdbdd14c	-0.09268436
97	0xbc85b974	-0.016323783
98	0xbd8acc10	-0.06777203
99	0x3dafbd34	0.085810095
100	0xbcc04fd7	-0.02347557
101	0x3dd49937	0.10380786
102	0x3dfba37a	0.1228704
103	0xbd182005	-0.03713991
104	0xbdb670f2	-0.08908261
105	0x3dc06b5b	0.093954764
106	0xbdbf9bf0	-0.093559146
107	0x3e072dbb	0.13201039
108	0x3d961064	0.07327345
109	0xbdc9a11b	-0.098451816
110	0xbe05ca3a	-0.13065425
111	0x3e0362c3	0.12830643
112	0xbda3e430	-0.08002508
113	0xbc9007b7	-0.017581804
114	0xbd23e2b4	-0.040011123
115	0xbc3a55ef	-0.011373027
116	0xbd9600f6	-0.07324402
117	0x3e130bb1	0.14359929
118	0xbe15585d	-0.14584489
119	0xbde4cd79	-0.11172003
120	0x3dc376f7	0.09544175
121	0x3dd86e16	0.10567872
122	0xbde2cd9f	-0.11074375
123	0xbdae859f	-0.0852158
124	0x3cc7613c	0.024338357
125	0x3e121988	0.14267552
126	0x3da65bab	0.08122953
127	0xbda7aeae	-0.081876144
128	0x3e0cbd96	0.13744196
129	0x3dd66b78	0.10469717
130	0x3dcff0c3	0.101533435
131	0xbd7123a7	-0.05887189
132	0xbd6e77e3	-0.0582198
133	0xbdbeb958	-0.09312695
134	0xbd5f8096	-0.05456599
135	0xbd94ced7	-0.07266014
136	0x3d18e19d	0.037324537
137	0xbd1e2c95	-0.038616735
138	0xbd1947a8	-0.037421852
139	0xbe0f385c	-0.13986343
140	0x3c29ce2d	0.010364098
141	0x3de00685	0.109387435
142	0x3d9ec97f	0.07753276
143	0xbc00b33e	-0.007855235
144	0xbd1f850a	-0.038945235
145	0xbb045d2f	-0.0020197143
146	0xbc10071b	-0.008790757
147	0xbd663727	-0.05620494
148	0xb7179566	-9.035086e-06
149	0x3d82103e	0.06350754
150	0x3de501fb	0.11182018
151	0xbca4836b	-0.020082196
152	0x3d3fb5c2	0.046804197
153	0xbdcc8127	-0.09985571
154	0xbdce2f4b	-0.10067614
155	0x3db08e32	0.086208716
156	0xbdc8d68d	-0.09806547
157	0x3ddd9ff8	0.10821527
158	0x3c950866	0.018192481
159	0xbdcb4551	-0.099253304
160	0x3d84d310	0.064855695
161	0xbe12e4ab	-0.14345042
162	0xbc83c074	-0.01608298
163	0xbdf4c548	-0.11951691
164	0x3ce35932	0.027752493
165	0x3c79698d	0.015222919
166	0x3c64c57a	0.013963098
167	0xbd90759c	-0.07053682
168	0xbe18330c	-0.14863223
169	0x3c55aded	0.013041955
170	0x3d0644a5	0.03278031
171	0xbdc8164a	-0.09769876
172	0x3d4297e9	0.047508154
173	0x3d92ac29	0.07161743
174	0x3df2b4f8	0.11850923
175	0x3d4d18d7	0.050072517
176	0x3d8158b1	0.06315745
177	0xbbcbb665	-0.0062168115
178	0x3da19490	0.07889664
179	0x3e197bcb	0.1498863
180	0xbdecf435	-0.11570016
181	0xbe0a39a8	-0.13498557
182	0x3e0246ba	0.12722293
183	0xbc629260	-0.013828844
184	0x3d7032af	0.058642086
185	0xbd8c5186	-0.06851487
186	0x3d85b77d	0.06529138
187	0xbd1d13c2	-0.03834892
188	0x3da08740	0.07838297
189	0x3c97ce82	0.018531088
190	0xbd226268	-0.03964463
191	0xbdbff95d	-0.09373734
192	0x3dec2644	0.11530736
193	0xbe03e005	-0.12878425
194	0x3d8f1cbc	0.069879025
195	0xbd611485	-0.05495121
196	0xbde5a4f1	-0.11213101
197	0x3de6f331	0.11276854
198	0xbcc33678	-0.023829684
199	0x3d4c8e9e	0.049940698
200	0xbe12fff3	-0.1435545
201	0x3caf488d	0.0213969
202	0x3d20f70a	0.039298095
203	0x3daea9d9	0.085284896
204	0x3de0e134	0.10980454
205	0xbdd04670	-0.10169685
206	0x3df11e4e	0.11773358
207	0x3cd10e3b	0.02551948
208	0xbd7c2683	-0.061560165
209	0xbdf9f7bf	-0.12205457
210	0xbd607cdc	-0.054806575
211	0xbd27ff3f	-0.041014906
212	0x3cae6a5d	0.021290952
213	0xbc9dcfe2	-0.019264165
214	0xbdea16ba	-0.11430116
215	0xbe02fed6	-0.12792525
216	0x3e0aa52f	0.13539575
217	0x3d87c16d	0.0662869
218	0x3cba5ec8	0.022750273
219	0x3dfc9e80	0.12334919
220	0xbdd428d5	-0.103593506
221	0xbdcb0790	-0.09913552
222	0x3c1764ac	0.009240311
223	0xbe17710e	-0.1478922
224	0xbdf5745c	-0.119850844
225	0x3d21abc0	0.039470434
226	0x3dab4c6c	0.08364186
227	0x3a4088c2	0.0007344597
228	0xbe07c9d0	-0.13260579
229	0xbc6413aa	-0.013920704
230	0x3dc6e367	0.09711342
231	0xbd7778ec	-0.060418054
232	0x3daf86dc	0.08570644
233	0x3e0d5b7a	0.13804427
234	0x3dd45e38	0.10369533
235	0x3d65ef9c	0.056136712
236	0xbdab5cd6	-0.083673164
237	0x3bcc58f5	0.0062361904
238	0xbda31cb9	-0.07964463
239	0x3dbf2bce	0.09334527
240	0x3d8503aa	0.064948395
241	0x3d3cc448	0.046085626
242	0x3dbac55d	0.09119675
243	0xbcc5f8ce	-0.02416649
244	0xbceee063	-0.02915973
245	0x3da7decb	0.08196791
246	0x3d4747bb	0.048652392
247	0x3dccbc6d	0.09996877
248	0xbdcc5a99	-0.09978218
249	0xbdd1855c	-0.102305144
250	0x3db7e718	0.089796245
251	0x3cbee2df	0.02330154
252	0xbe14a285	-0.14515121
253	0xbde96995	-0.11397091
254	0x3d8ad169	0.06778223
255	0x3e04759c	0.1293549

net.0.bias f4 [32]
0	0x3cb764dc	0.02238696
1	0x3d981faa	0.074279144
2	0x3d9339b0	0.071887374
3	0xbe03389f	-0.12814568
4	0x3dec7696	0.11546056
5	0xbd34ce46	-0.04414203
6	0xbd87ea38	-0.066364706
7	0x3d85c21b	0.06531163
8	0xbe19fdf8	-0.15038288
9	0x3b3f4e4f	0.0029190963
10	0xbc8f26be	-0.017474528
11	0x3d741e90	0.05959946
12	0xbe0d4cd9	-0.13798846
13	0xbe054239	-0.13013543
14	0xbdead644	-0.11466649
15	0xbdff38f0	-0.12462032
16	0x3d39d2b6	0.045366965
17	0xbd05f349	-0.032702718
18	0xbd8f26a1	-0.0698979
19	0x3c8cf96f	0.017208783
20	0x3e016211	0.12635066
21	0x3d6509a0	0.055917382
22	0x3d470186	0.048585437
23	0x3dac73d7	0.08420532
24	0xbc99402a	-0.018707354
25	0xbcc458a3	-0.023968047
26	0x3d792c0a	0.060833015
27	0xbdc43bed	-0.095817424
28	0xbc374d7d	-0.011187908
29	0xbe12fd86	-0.14354524
30	0xbd0e7a2c	-0.03478448
31	0xbe04b2f9	-0.12958898

net.2.weight f4 [64, 32]
0	0xbe23b486	-0.15986833
1	0xbcb8d9cb	-0.02256479
2	0x3dfa544d	0.1222311
3	0x3d229355	0.039691288
4	0x3db5f339	0.08884282
5	0x3dd6b0a8	0.10482913
6	0x3e1d77ed	0.1537778
7	0xbce1edc1	-0.02757919
8	0xbe1306c6	-0.14358053
9	0xbd8ef833	-0.06980934
10	0xbdd13893	-0.10215869
11	0x3d69b75a	0.057059623
12	0x3dcff61a	0.10154362
13	0x3d0be29b	0.034151655
14	0xbc85332a	-0.016259748
15	0xbd6a942b	-0.05727021
16	0x3db6047b	0.08887573
17	0x3dbed1fc	0.09317395
18	0xbd0c6588	-0.034276515
19	0x3d010670	0.03150028
20	0xbe10652d	-0.14101095
21	0xbd19bb06	-0.037531875
22	0x3e2b682e	0.1673896
23	0x3e05f8af	0.13083147
24	0xbdb39653	-0.087689064
25	0x3d881987	0.06645494
26	0xbdbe5597	-0.09293669
27	0xbd33888c	-0.043831393
28	0xbe2f0ebf	-0.17095469
29	0x3e268441	0.16261388
30	0xbdf4fd5d	-0.11962388
31	0x3db5bd51	0.08874
32	0x3dfb5167	0.12271386
33	0xbd4d0bdf	-0.05006015
34	0x3bd27e7c	0.0064237695
35	0xbda70182	-0.081545845
36	0xbd4c9602	-0.049947746
37	0xbe2e66a8	-0.17031348
38	0xbc7aa90e	-0.015299095
39	0xbdd79a61	-0.10527492
40	0x3d3a0689	0.04541639
41	0xbd92c21e	-0.07165931
42	0xbcdbe73f	-0.026843665
43	0x3d98e67b	0.07465836
44	0xbe140887	-0.14456378
45	0x3d4867f4	0.048927262
46	0x3d996064	0.07489088
47	0xbdd3a439	-0.10334057
48	0x3d9d4470	0.07679069
49	0xbda9c94a	-0.08290346
50	0xbdff14ab	-0.12455114
51	0xbcff31fe	-0.031151768
52	0x3e32763b	0.17427914
53	0xbddf4ab0	-0.109029174
54	0xbd98987d	-0.0745096
55	0xbe07c353	-0.13258104
56	0x3c9f9d45	0.019484172
57	0x3e0fe59f	0.14052437
58	0xbab40664	-0.0013734815
59	0x3ae35cc9	0.0017346378
60	0x3e17924f	0.14801906
61	0x3e1bf878	0.15231502
62	0xbe24ca47	-0.16092788
63	0x3d9a6561	0.07538868
64	0x3d821f83	0.06353667
65	0x3cf0b5e1	0.029383602
66	0xbdcad463	-0.09903791
67	0xbd7f0446	-0.062259935
68	0x3da3fc22	0.08007075
69	0x3d5fb6eb	0.054617804
70	0xbe1b9cfa	-0.151966
71	0x3dc1a5a4	0.094554216
72	0x3e08f2c2	0.13373855
73	0x3e344bac	0.17606992
74	0xbdcdcfad	-0.10049377
75	0x3daab4e6	0.08335285
76	0x3e15d6fc	0.14632791
77	0xbd1fca26	-0.039011143
78	0xbe18c189	-0.14917578
79	0x3e1df953	0.15427141
80	0x3e0bb684	0.13643843
81	0xbe1fc066	-0.15600738
82	0x3d5eae7c	0.05436562
83	0x3e175c09	0.14781202
84	0x3e2103ce	0.15724108
85	0xbd4510d2	-0.048111744
86	0xbdd6055f	-0.10450243
87	0xbd167a2f	-0.036737617
88	0xbe1168aa	-0.14200082
89	0x3d0f4650	0.034979165
90	0x3dc9a4fe	0.09845923
91	0xbd23b74d	-0.03996973
92	0xbccf99d6	-0.02534191
93	0x3e24b3b3	0.16084175
94	0xbdb70893	-0.08937182
95	0xbd90cce7	-0.07070332
96	0x3c4a719f	0.012356191
97	0x3e29dada	0.16587391
98	0xbd8884cc	-0.06665954
99	0xbc53455c	-0.0128949545
100	0xbd90ab1b	-0.07063886
101	0x3da5e0a5	0.08099488
102	0xbc28a1ee	-0.010292513
103	0xbe1ce074	-0.15319997
104	0x3e2327bf	0.1593313
105	0x3c043019	0.008068108
106	0x3c8f5935	0.017498592
107	0x3d68f84d	0.056877423
108	0xbd94e0f5	-0.0726947
109	0xbe036ae4	-0.12833744
110	0x3c0892e5	0.008335804
111	0xbcb659f4	-0.02225969
112	0x3e03d396	0.12873682
113	0x3d617ce7	0.055050757
114	0x3d60cafa	0.054881074
115	0xbd71c486	-0.05902531
116	0xbd82e529	-0.06391365
117	0x3e203fa1	0.15649273
118	0xbccf89cb	-0.02533426
119	0x3d3c2965	0.045937914
120	0x3d69523d	0.056963194
121	0x3e211257	0.15729652
122	0x3da29e50	0.07940352
123	0x3d634d63	0.055493724
124	0xbd6211b5	-0.055192668
125	0xbddabb66	-0.10680275
126	0xbcc2c849	-0.023777144
127	0xbe232b4d	-0.15934487
128	0xbdf2acff	-0.11849403
129	0xbe0ba3a1	-0.13636638
130	0xbe1485fb	-0.14504234
131	0xbc83cbf4	-0.016088463
132	0x3e0707d2	0.13186577
133	0x3e14841a	0.14503518
134	0x3cf9d38e	0.030496385
135	0xbe2a1415	-0.16609223
136	0x3de50d29	0.11184151
137	0xbe08d87c	-0.13363832
138	0xbddad149	-0.10684449
139	0x3e124991	0.14285876
140	0x3e2f9201	0.1714554
141	0xbe0eae7d	-0.1393375
142	0xbde5e296	-0.112248585
143	0xbd6b0373	-0.057376336
144	0xbdd123d4	-0.10211912
145	0x3c2ed3b4	0.010670591
146	0xbde47949	-0.11155946
147	0x3e122ef4	0.14275724
148	0x3d34a56c	0.04410307
149	0xbcaa0e39	-0.020758735
150	0xbc6eb20c	-0.014568817
151	0xbdd6e773	-0.10493364
152	0x3e3264a4	0.17421204
153	0x3da06d29	0.07833321
154	0x3d9e0638	0.0771603
155	0x3be5c17f	0.007011592
156	0x3d62f2b3	0.055407237
157	0xbde5cb46	-0.11220412
158	0x3d31f201	0.043443684
159	0x3d8e3c3b	0.06945082
160	0xbc97e778	-0.01854299
161	0x3da619ec	0.08110413
162	0x3d81c405	0.06336216
163	0xbd88f148	-0.06686646
164	0xbe2ac0e6	-0.16675147
165	0x3d33700b	0.043808024
166	0x3dee7e13	0.116451405
167	0x3e291d2a	0.16515031
168	0x3dcfe2fa	0.10150714
169	0x3d89ebb0	0.06734407
170	0x3e001af2	0.12510279
171	0x3e266cb7	0.16252409
172	0xbe0f1d35	-0.13975985
173	0xbe1aadf5	-0.15105422
174	0x3dd312bf	0.1030631
175	0xbc4ef799	-0.012632274
176	0xbe07bf0d	-0.13256474
177	0xbcad6320	-0.02116543
178	0x3dcef9b0	0.10106218
179	0xbdad4a47	-0.08461433
180	0x3dd38902	0.103288665
181	0x3e17dd95	0.1483062
182	0x3db76f29	0.08956749
183	0x3e18dec2	0.14928725
184	0x3d92a148	0.07159668
185	0xbe04dfd7	-0.12976013
186	0x3e1ba5c9	0.15199961
187	0xbe008226	-0.12549648
188	0x3de24775	0.110487856
189	0x3d098503	0.033574115
190	0x3d9acb48	0.07558304
191	0x3e2c75f4	0.1684187
192	0xbc322469	-0.010872939
193	0xbd7cd2c4	-0.06172444
194	0x3d3dead9	0.046366546
195	0xbc123357	-0.008923373
196	0xbdca3629	-0.098736115
197	0xbdb4feaa	-0.08837636
198	0xbe17465c	-0.14772934
199	0x3e221337	0.15827642
200	0xbd6ab293	-0.057299208
201	0x3d879af7	0.06621354
202	0xbdf1f241	-0.118137844
203	0xbde57633	-0.11204185
204	0x3c948b7f	0.018132923
205	0xbe1731f8	-0.14765155
206	0xbcc01dc0	-0.023451686
207	0xbd9d09d9	-0.07667894
208	0x3e0db56b	0.13838737
209	0x3c6bfa13	0.014402884
210	0xbe201c22	-0.15635732
211	0xbd3b9bf9	-0.045803044
212	0x3e28c20f	0.16480277
213	0xbddd27eb	-0.107986294
214	0xbbe0d322	-0.0068611065
215	0xbe0e7849	-0.13913073
216	0x3dc819d7	0.097705536
217	0x3da4995b	0.08037063
218	0x3dd90956	0.10597484
219	0x3de87e37	0.113521986
220	0x3d742771	0.059607927
221	0x3ce6b107	0.028160585
222	0xbd9aa11c	-0.075502604
223	0xbdde5799	-0.10856552
224	0x3dca5ecc	0.09881362
225	0x3cc84cff	0.024450777
226	0xbd44f37a	-0.04808376
227	0xbc82f84f	-0.015987543
228	0xbe28cc36	-0.1648415
229	0x3e225ddb	0.15856116
230	0x3d4ced7d	0.050031174
231	0x3e273d29	0.16331924
232	0x3d90c372	0.07068528
233	0x3e1f4b1b	0.15555994
234	0x3c07afd3	0.008281666
235	0xbe2f8066	-0.17138824
236	0x3e04f6d9	0.1298479
237	0xbd6b86dd	-0.057501663
238	0xbd21d579	-0.039510224
239	0x3db52f74	0.088469416
240	0x3dc87e5c	0.09789726
241	0xbd309b31	-0.043116752
242	0xbda7c7eb	-0.08192428
243	0x3ccb967f	0.024852036
244	0xbe0149a8	-0.12625754
245	0xbca1d174	-0.019753195
246	0x3d5496f0	0.051901758
247	0x3e29fe0c	0.16600817
248	0xbd1143a1	-0.035464887
249	0xbdb608a8	-0.0888837
250	0x3ded73df	0.11594366
251	0xbd9dcabc	-0.07704684
252	0xbdba94b8	-0.09110397
253	0x3d15c173	0.03656144
254	0xbdfd087b	-0.12355133
255	0x3da6c3ed	0.081428386

net.2.bias f4 [64]
0	0xbcaccc34	-0.021093465
1	0xbdad2963	-0.084551595
2	0x3ddbff9b	0.10742112
3	0x3d6edd66	0.05831661
4	0x3e11bf0d	0.14233036
5	0x3d9ac394	0.07556835
6	0xbdc0cf01	-0.09414483
7	0xbe313cce	-0.17308351
8	0x3cd6cc4a	0.02622046
9	0xbdde50ae	-0.10855232
10	0xbd4af23a	-0.04954741
11	0x3e313dcf	0.17308734
12	0x39a9b778	0.00032370887
13	0xbde1cba3	-0.11025169
14	0xbe066845	-0.13125713
15	0xbddf80fb	-0.10913273
16	0xbd82bef4	-0.06384078
17	0x3e02085e	0.12698504
18	0xbdbb579e	-0.09147571
19	0x3e167e89	0.14696707
20	0xbd8a6760	-0.067579985
21	0xbe175e12	-0.14781979
22	0xbdf6c551	-0.12049354
23	0x3e013509	0.12617888
24	0xbc0ce7fe	-0.008600233
25	0x3cc857c8	0.02445592
26	0xbe27b4ed	-0.16377611
27	0xbdcc5aee	-0.09978281
28	0x3dff62dc	0.12470028
29	0xbdf71308	-0.12064177
30	0xbcafc29e	-0.021455105
31	0xbdcbb2d1	-0.09946216
32	0x3d8cc5ee	0.068736896
33	0x3d2a68f4	0.041603997
34	0xbcae46fd	-0.021274084
35	0x3dd049ed	0.1017035
36	0x3daad60e	0.08341609
37	0x3e203530	0.1564529
38	0xbd68ecca	-0.056866445
39	0xbe22200c	-0.15832537
40	0xbe1ec4ad	-0.15504713
41	0x3e1f738a	0.15571418
42	0xbe10894d	-0.14114876
43	0xbc3b3f90	-0.011428729
44	0xbd72a85e	-0.0592426
45	0xbd9bf247	-0.0761457
46	0xbe07563b	-0.13216488
47	0x3d58ce89	0.052931342
48	0x3de0abc1	0.109702595
49	0xbc39a9f3	-0.011332023
50	0xbe263ea8	-0.16234839
51	0x3ccec499	0.02524023
52	0x3e09bc8e	0.13450834
53	0x3cf6bdb7	0.03011976
54	0xbb9fb7eb	-0.0048742197
55	0xbe1ca038	-0.15295494
56	0x3d8ff9d7	0.07030075
57	0x3dc97b8a	0.09838016
58	0x3d7a79ca	0.061151303
59	0xbcbc6607	-0.02299787
60	0xbcefe450	-0.029283673
61	0x3d6c7d39	0.05773661
62	0xbca77771	-0.020442696
63	0x3dbcc632	0.0921749

net.4.weight f4 [32, 64]
0	0xbd4162e8	-0.047213465
1	0x3d641050	0.05567962
2	0xbc59b510	-0.013287798
3	0x3b39a680	0.0028328001
4	0x3ce37020	0.027763426
5	0x3c3de2c0	0.011589706
6	0xbd3dca70	-0.046335638
7	0x3cac9ad8	0.021069929
8	0x3b8f54c0	0.0043741167
9	0x3d8e4852	0.06947388
10	0xbd8e04d4	-0.06934515
11	0x3dfd4c20	0.12368035
12	0x3df558dc	0.11979839
13	0x3cfb32a0	0.030663788
14	0xbd0d965c	-0.034567222
15	0xbdc9fb50	-0.09862387
16	0x3db582d4	0.08862844
17	0xbd10fc10	-0.035396636
18	0x3c508510	0.012727037
19	0xbdb7128c	-0.089390844
20	0x3d4f9f14	0.050688818
21	0x3d982fac	0.07430968
22	0x3d17c8ac	0.03705661
23	0xbdad497e	-0.08461283
24	0xbce1ec68	-0.027578548
25	0x3d601e9c	0.05471669
26	0x3de3c7ec	0.111221164
27	0x3aa1fb00	0.0012358129
28	0x3d4c4a34	0.049875453
29	0xbdc5adf8	-0.096523225
30	0x3d820bf0	0.06349933
31	0xbdf3a5f8	-0.118968904
32	0xbb610580	-0.0034335554
33	0x3def76d8	0.116925895
34	0xbddc4e64	-0.10757139
35	0x3de0e19a	0.1098053
36	0xbddef4cc	-0.10886535
37	0x3da253d4	0.07926145
38	0x3dead5c6	0.11466555
39	0x3d33c6f0	0.043890893
40	0xbdd21036	-0.10256998
41	0xbdc86a62	-0.09785916
42	0xbd4a1930	-0.049340427
43	0x3da10ba6	0.0786355
44	0x3dc4133e	0.09573983
45	0x3cbec2b8	0.023286209
46	0x3db9feee	0.09081827
47	0xbd93d690	-0.07218659
48	0x3cca2470	0.024675578
49	0xbdaaaaae	-0.08333336
50	0x3d750814	0.059822157
51	0x3dd5a87c	0.104325265
52	0xbda70474	-0.08155146
53	0x3cf21af0	0.02955386
54	0xbdae8c8e	-0.085229024
55	0x3cea9fa0	0.028640568
56	0xbdf5e0ba	-0.12005754
57	0xbd4be4d4	-0.049778774
58	0x3d09fa00	0.033685684
59	0xbc824ae0	-0.015904844
60	0x3ce4d428	0.027933195
61	0x3d0a9760	0.03383577
62	0x3d843e44	0.06457189
63	0xbd777a80	-0.06041956
64	0xbdaaf31c	-0.08347151
65	0x3d666084	0.05624439
66	0xbce7b9a8	-0.02828677
67	0x3dc2878e	0.09498511
68	0xbdfca0b4	-0.12335339
69	0xbd8fe7b0	-0.07026613
70	0x3c6b6fd0	0.01436992
71	0x3db81d0a	0.08989914
72	0xbda6996c	-0.08134732
73	0x3d683c2c	0.05669801
74	0xbdc9678e	-0.098342046
75	0x3d577598	0.05260238
76	0x3db1c6c4	0.0868049
77	0x3d57d740	0.052695513
78	0xbda7893e	-0.08180474
79	0x3d8d56a6	0.069012925
80	0x3dfc5a9a	0.123219684
81	0xbd9dbbe2	-0.077018514
82	0x3c568550	0.013093308
83	0x3de43824	0.111435205
84	0x3d9dc70e	0.07703982
85	0xbcffff38	-0.031249627
86	0x3dc9c0a4	0.098511964
87	0x3df2b6cc	0.11851272
88	0xbdebe70a	-0.115186766
89	0xbdebcf8a	-0.11514194
90	0xbdfa4b56	-0.122214004
91	0xbc996d90	-0.018729001
92	0xbc7a9b50	-0.015295818
93	0xbd670f74	-0.05641122
94	0xbcaa2868	-0.02077122
95	0x3bbf7c40	0.005843669
96	0x3d80e71a	0.06294079
97	0x3dd7e046	0.10540824
98	0x3da8ebb2	0.0824808
99	0x3d73a4cc	0.059483334
100	0xbc098eb0	-0.008395836
101	0x3ae74100	0.0017643273
102	0x3d8e9aec	0.06963143
103	0xbd2d7cec	-0.042355463
104	0x3d9a0f26	0.075224206
105	0xbdb84590	-0.08997643
106	0xbdedf9b4	-0.11619893
107	0x3dbfb1d0	0.09360087
108	0xbcd519f0	-0.026013345
109	0xbc04ef20	-0.0081136525
110	0xbd9dd7b4	-0.07707158
111	0xbd061cc8	-0.03274229
112	0xbdf63c80	-0.12023258
113	0x3d1d5d9c	0.03841935
114	0x3da9bd38	0.08288044
115	0xbdd05dfa	-0.101741746
116	0x3db3b44c	0.08774623
117	0xbdebabb0	-0.11507356
118	0xbd4650ac	-0.04841678
119	0xbd315030	-0.043289363
120	0x3d603eb8	0.054747313
121	0xbd15c898	-0.036568254
122	0x3bf3a3a0	0.007435277
123	0x3daf750c	0.08567247
124	0xbc155670	-0.009114847
125	0xbd090d44	-0.033459917
126	0x3d141248	0.036150247
127	0x3cee5568	0.02909346
128	0xbb09ed00	-0.0021045804
129	0xbd8d8110	-0.06909382
130	0x3ce18cf8	0.02753304
131	0xbd09797c	-0.033563122
132	0x3dd78a40	0.10524416
133	0xbd9533c2	-0.07285263
134	0xbddafc62	-0.106926695
135	0xbd2b9dd4	-0.041898564
136	0xbdcde100	-0.10052681
137	0xbdcba836	-0.09944193
138	0x3ddf9fce	0.10919152
139	0xbb337400	-0.0027382374
140	0xbc0c05b0	-0.008546278
141	0x3db59344	0.08865979
142	0xbd3bf2d8	-0.04588589
143	0x3d266fac	0.040633842
144	0xbcf2f960	-0.029659927
145	0xbdf46d3e	-0.11934899
146	0x3dcf9bfa	0.10137172
147	0xbdd9313c	-0.10605094
148	0xbda232a0	-0.07919812
149	0x3cb042b0	0.021516174
150	0x3d96fcde	0.07372449
151	0x3d83a172	0.064272776
152	0xbd165424	-0.036701337
153	0x3d8ddb1c	0.069265574
154	0xbdc2c13c	-0.09509513
155	0x3db890e2	0.09012009
156	0xbd96473c	-0.07337806
157	0x3d942d7e	0.072352394
158	0xbd9cebb6	-0.07662146
159	0xbcbe0088	-0.023193613
160	0xbdf634b2	-0.120217696
161	0xbd0bbe38	-0.034116954
162	0x3dbd520e	0.09244166
163	0x3ca527c8	0.02016057
164	0xbbfcda00	-0.0077164173
165	0x3daf5a16	0.085621044
166	0xbda11090	-0.07864487
167	0x3dfd7dea	0.12377532
168	0xbd462a7c	-0.04838036
169	0x3cd4f008	0.025993362
170	0xbbafc840	-0.005364448
171	0xbdef8c18	-0.11696643
172	0xbdfd5000	-0.123687744
173	0xbdbf491a	-0.09340115
174	0xbc8c1f78	-0.01710485
175	0xbde44362	-0.11145665
176	0xbd2e1420	-0.04249966
177	0xbd61e200	-0.05514717
178	0xbb9f3fa0	-0.0048598796
179	0x3dc51cc4	0.09624627
180	0xbd651770	-0.055930555
181	0xba2c1500	-0.00065644085
182	0x3da709ec	0.08156189
183	0xbd134e9c	-0.03596364
184	0xbc57cfd0	-0.013172105
185	0x3d31fcb4	0.043453887
186	0x3d0bce80	0.03413248
187	0xbda97d6e	-0.08275877
188	0xbdbb7dd4	-0.09154859
189	0x3dacea76	0.084431574
190	0x3d6abc5c	0.05730854
191	0xbdec2338	-0.11530155
192	0xbdadeaec	-0.084920734
193	0x3d75b3b0	0.059985816
194	0xbd91dd6c	-0.07122311
195	0x3ce82bc0	0.028341174
196	0x3bd43320	0.006475821
197	0x3dd77d8e	0.105219945
198	0xbd32bd00	-0.043637276
199	0x3db093d6	0.086219475
200	0x3d97fe82	0.074215904
201	0x3d775330	0.06038207
202	0x3de1fa6a	0.11034091
203	0x3dc54b6e	0.09633528
204	0x3d9a9b60	0.07549167
205	0xbdd48802	-0.10377504
206	0xbd706bdc	-0.058696613
207	0xbd9986a8	-0.07496387
208	0xbd159318	-0.036517233
209	0x3cb72000	0.022354126
210	0xbc3e9ae0	-0.011633605
211	0x3d63c4d0	0.055607617
212	0xbd1dc1dc	-0.038514957
213	0xbd0f0f6c	-0.034926817
214	0xbdb233ba	-0.08701272
215	0xbd50f68c	-0.051016375
216	0x3d9de642	0.07709934
217	0xbded1bb8	-0.115775526
218	0xbdd0ca94	-0.10194889
219	0xbd550a00	-0.05201149
220	0x3d26f5d8	0.0407618
221	0xbd599db0	-0.0531289
222	0x3db892f4	0.09012404
223	0xbca00460	-0.019533336
224	0x3a3a6200	0.000710994
225	0x3da5ecb4	0.08101788
226	0x3be820e0	0.007083997
227	0x3d868e9a	0.06570168
228	0x3dead6e2	0.11466767
229	0xbccd5a68	-0.025067523
230	0x3d1b725c	0.03795086
231	0x3c9584d0	0.018251806
232	0xbd87ecaa	-0.06636937
233	0xbde52112	-0.11187948
234	0x3ce41098	0.027839944
235	0xbd905932	-0.07048263
236	0xbd5be2fc	-0.053683266
237	0x3d7856f0	0.060629785
238	0x3d294004	0.041320816
239	0xbcae4690	-0.021273881
240	0x3df345c6	0.118785426
241	0xbda2fc9c	-0.07958338
242	0xbdfdfb2a	-0.12401421
243	0xbdd6ef30	-0.1049484
244	0x3dae6162	0.08514668
245	0x3d2cf53c	0.04222606
246	0x3dfd5f90	0.12371743
247	0xbdde06e2	-0.108411565
248	0xbd8c16cc	-0.06840286
249	0xbcd15400	-0.02555275
250	0x3cfb2390	0.030656606
251	0xbd4dce04	-0.0502453
252	0xbd88dff8	-0.06683344
253	0x3d015000	0.031570435
254	0xbc943cc0	-0.018095374
255	0x3de21802	0.110397354

net.4.bias f4 [32]
0	0xbda9b0ae	-0.08285652
1	0xbc617460	-0.013760656
2	0x3c614da0	0.013751417
3	0xbd4c7a58	-0.049921364
4	0xbd15e3a0	-0.036594033
5	0x3df3b530	0.11899793
6	0xbd2d6a94	-0.04233797
7	0x3d8be2e8	0.06830388
8	0xbcfa72e8	-0.03057237
9	0xbd8119b2	-0.06303729
10	0x3daf8292	0.08569826
11	0xbd9c4796	-0.076308414
12	0x3d20021c	0.03906451
13	0x3df5ed86	0.120081946
14	0xbd1c03e0	-0.038089633
15	0xbdaf4418	-0.0855791
16	0xbd1e9660	-0.038717628
17	0x3d856b98	0.065146625
18	0xbd1c77a8	-0.03820005
19	0x3d5115d4	0.051046208
20	0xbd871ce0	-0.06597304
21	0xbd211868	-0.039329916
22	0xbda338d0	-0.079698205
23	0x3cf31590	0.029673368
24	0x3bad07a0	0.00528045
25	0x3dc1e1ca	0.09466894
26	0xbde3332a	-0.11093743
27	0x3c398d40	0.0113251805
28	0x3de75c02	0.11296846
29	0xbdebc17a	-0.11511512
30	0xbc760ca0	-0.0150176585
31	0x3defc56a	0.117075756
