maml_model/maml_PutNextLocal_7_10_1000_50_encoder.pth (torch, 25534 bytes, 6 tensors)

net.0.weight f4 [32, 43]
00000000: 57cf 163e ef25 f63b 3365 b1bd 1337 79bd
00000010: 7425 aa3d e51b 353d 762f 6abd 1970 b33d
00000020: 7c3f 2d3d d12c fe3c 0a0b d43d 5d73 113e
00000030: b086 d73d b256 583d 6fd0 a9bd 14fa 55bd
00000040: 97bc c3bc 34ca d5bd bb89 c43d cd0b c2bd
00000050: dc08 aabd 2056 d0bd ae34 363d 35d5 89bd
00000060: a39e a83d 903a 06be 53d4 1d3d 51d1 6a3d
00000070: bcbe c43d ec52 17be e389 bbbd b0b1 c33d
00000080: dcec 92ba c7ef cc3a e4f1 9d3d dc52 08bd
00000090: b089 c93d 57d8 c1bd 6aa9 4b3d 9cc6 003d
000000a0: 19ac 0e3e a545 7abd c931 2e3d 4c6e 503d
000000b0: d684 3ebd 2467 363d 85b9 5b3d 8fa0 fbbd
000000c0: 6297 4e3d 7d21 bcbc ce29 633c 9fb7 183d
000000d0: f549 183e a75c a03d 6923 053d 54af dbbd
000000e0: a30b ff3d ee28 a7bb 8dd4 de3d 1165 8bbd
000000f0: 9433 41bd 47a9 7c3d e6ff 0f3e a5c7 ad3b
00000100: a65a 7fbb ca48 dcbc 5701 cb3c 1a85 ef3d
00000110: ec10 d73d 2f2e bcbc 95a3 f73d 6c9c 293d
00000120: 8881 df3d e254 a8bd 7cd5 c8bd 6160 92bd
00000130: 8b9c 1fbd b6fb 90bd 7458 90bd 1a17 163d
00000140: 4295 03bc 7cdd cdbd 4860 a13d 2087 33bd
00000150: c497 6fbd 6f60 ed3d 87cb 03bd e981 683d
00000160: 7291 7b3d 1785 4fbc 063b 74bd fabc d43d
00000170: 5190 0cbe d16d 213c f21f b9bd 6c31 dfbd
00000180: 1ce9 5a3d 38b0 973d bb1b fd3d 2409 64bc
00000190: 5402 2f3c 9abf 743d bfaa 663d 0020 fd3d
000001a0: 1367 0e3e b710 1c3e 763b c7bd 47a7 2d3d
000001b0: a3f5 f63b 755d b63b b655 7cbc 3b2d 0fbe
000001c0: 2aea f6bc 2e10 0f3e 3f33 223d fba2 cabb
000001d0: 2ddb 133e 33a0 243b 9d9b 063e 28b0 503d
000001e0: 09bf 0bbe 80ef f6bc e1fd a9bd 1ced 953c
000001f0: 5f0f 093e db38 7d3d eab5 8dbd 8c6d d7bc
00000200: eba4 c93c 04ab e1bd cacc f2bd b9ca 85bc
00000210: 7636 ddbd 3f92 0abe b691 13bd 8349 10be
00000220: fbb0 1bbe 0567 433d 6642 05be 8ecc d6bd
00000230: 4444 a03d 19cd bcbd ca60 15bd a49c 01bd
00000240: 19d8 bbbd 2edc f7bc 34dc b9bd 0ba4 f23d
00000250: 28e2 92bd b000 98bd f781 e83d b439 1a3e
00000260: 6c9a 7bbd b00e 7abd b9ca 4f3d 3050 fe3d
00000270: 5ce3 85bd 82fa 64bd 9cae 13bc 9f38 083e
00000280: 1cff 7ebd b327 f2bc 02e3 a73d d385 c0bd
00000290: 1b12 17be 7091 82bd 9d8f ac3d 6cfd cbbc
000002a0: 8efd 433c 9633 d4bd 1011 d4bd cea5 4abd
000002b0: 7d6d 2e3c 57dc ca3d 7ced cfbd 3601 8dbd
000002c0: a22b 683d 02f7 83bd 42b3 023e 422b 0f3e
000002d0: 56ea 91bd 6956 043e 1672 293d 1298 13be
000002e0: 0044 073e cfd6 ad3d 1975 033d 2244 0abe
000002f0: 3524 8fbd d4d5 aa3d 5e5e 8fbd 3472 023e
00000300: 5818 c23d 5261 cabd 36ba 5c3b 19f6 273d
00000310: fd0b b1bd e496 02be 0953 833c e39d 913d
00000320: 9ee6 043e 7936 853d 62c3 a63d c4b4 97bd
00000330: 99d8 18be 63c3 7b3c 2c0c 08be a6dc 12be
00000340: 453a 783d 5bb0 863d 9350 78bd d00e 37bc
00000350: e9d3 b63c 5c4b 43bd 1462 06be d6cd be3d
00000360: cc44 1a3e 59cf 043e 3044 b7bd ead8 f5bd
00000370: 9d04 a43c 726f 123e d289 14be 9d26 00be
00000380: 84fb d6bc 736c 8cbc a77b 93bd 4d4a aa3d
00000390: 08f5 173d 3e88 053e cebc 413c 5a97 163e
000003a0: ad9a d0bc 02c8 e13d 788b e83d 99b8 dabc
000003b0: 9d31 033e 3cfa b23c 51b1 163e f3d1 16be
000003c0: ccda 103e a38f e7bd 9b1f b4bd d557 15be
000003d0: 5412 16be 8bac 08be 2a6e 86bc 7f73 c7bc
000003e0: 7258 193e 24d3 1abd 61e2 6d3d 63f0 f63d
000003f0: c9f5 cb3d f988 bebb 5f8b fcbd 643c 03bd
0.14727531 0.0075118463 -0.0866188 -0.06084354 0.08307925 0.044216055 -0.05717417 0.08761615
0.04229687 0.03102723 0.10353668 0.14204164 0.105237365 0.052817054 -0.08291709 -0.052240446
-0.023893638 -0.10438958 0.095965825 -0.09474907 -0.08302471 -0.10172677 0.044483833 -0.06730119
0.082333826 -0.13108277 0.038532566 0.057328526 0.09606692 -0.14777726 -0.09157159 0.095553756
-0.0011209506 0.0015635424 0.077121526 -0.033282146 0.09840715 -0.09465092 0.049722113 0.03143941
0.13932838 -0.061101574 0.042527948 0.050886437 -0.0465134 0.044531956 0.053643722 -0.122864835
0.05043734 -0.022965187 0.0138649475 0.03728449 0.14871962 0.07830172 0.032504473 -0.107268006
0.124533914 -0.0051013147 0.108803846 -0.06806386 -0.04716833 0.061684873 0.14062461 0.0053033405
-0.0038963943 -0.026890177 0.024780912 0.11695309 0.105012745 -0.02297124 0.12091748 0.04140894
0.10913378 -0.08219315 -0.09806344 -0.07147289 -0.03896765 -0.0707926 -0.07048121 0.036643125
-0.008031191 -0.100520104 0.07879692 -0.043830037 -0.058494344 0.11590659 -0.03217652 0.056764517
0.061418004 -0.012666008 -0.0596266 0.10387607 -0.13726927 0.009852842 -0.09039296 -0.10898098
0.053444967 0.07406658 0.12358805 -0.013918195 0.010681707 0.059753038 0.05631518 0.12359619
0.13906507 0.15240751 -0.09728138 0.042395856 0.0075366064 0.00556534 -0.015401294 -0.13982098
-0.030140955 0.13971016 0.039599653 -0.0061839796 0.14439078 0.00251199 0.131453 0.050949246
-0.13647093 -0.0301435 -0.08300377 0.01830154 0.1338477 0.0618218 -0.06919463 -0.026297353
0.024614772 -0.11018947 -0.11855467 -0.016332017 -0.10801403 -0.13532351 -0.036027633 -0.14090542
-0.15204231 0.04770567 -0.1301361 -0.104882345 0.07825521 -0.09218807 -0.03646926 -0.031643525
-0.09172077 -0.030256357 -0.090752035 0.11847695 -0.07172042 -0.07422006 0.11352914 0.15061074
-0.061426565 -0.061049163 0.05073044 0.12417638 -0.06537506 -0.055902965 -0.009013798 0.13302849
-0.06225501 -0.029559946 0.08197595 -0.09400525 -0.14753 -0.06375396 0.084258296 -0.024901114
0.011962308 -0.10361402 -0.10354817 -0.04947453 0.010646221 0.09905308 -0.101527184 -0.068849966
0.056682236 -0.064435974 0.12763694 0.13981345 -0.07124774 0.12923588 0.041368566 -0.14413479
0.13209534 0.08488237 0.032094095 -0.13502553 -0.06989328 0.08341566 -0.07000421 0.12738878
0.094772995 -0.098818436 0.0033680326 0.04100618 -0.08644865 -0.12752873 0.016030805 0.071101926
0.12978598 0.065045305 0.08142735 -0.07407525 -0.14926375 0.015366408 -0.13285893 -0.14341983
0.060602445 0.06576606 -0.060623717 -0.011172965 0.022317844 -0.04767929 -0.13123351 0.09316604
0.15065306 0.12969722 -0.089485526 -0.12004264 0.020021731 0.14300326 -0.145057 -0.1251473
-0.026242979 -0.017141556 -0.07201319 0.08314953 0.037098914 0.13040254 0.0118248 0.14706174
-0.02546438 0.110244766 0.113547266 -0.026699351 0.12811895 0.021847837 0.14716078 -0.14728527
0.14145964 -0.113066934 -0.08795091 -0.14584287 -0.14655429 -0.1334707 -0.016409952 -0.024347065
0.14975145 -0.037799016 0.05807722 0.12057569 0.09958989 -0.0058146683 -0.123312704 -0.032040015

net.0.bias f4 [32]
00000000: 0ab9 4dbd 51ab ba3d 0694 12be 57ba 083e
00000010: 04c6 81bd ad6f ffbd d343 b0bd 28d9 bf3d
00000020: 6578 bf3d 1d0d 133d b1ae 9fbd 640c af3d
00000030: 57e3 0d3e 29e0 38bd 02f7 dabc 9203 9a3d
00000040: a04b 323d bcba 19bd 83fa c5bd 00f9 bc3d
00000050: bc35 313c f8f7 043c b710 cebd c5b8 923d
00000060: 3e7b 22bd 5e5a 98bd 2b7b ad3d b7e4 01be
00000070: ba89 e3bb f1db 8ebc ced7 e73d f8dd b83d
-0.050225295 0.09114707 -0.14314279 0.13352333 -0.063365966 -0.12472472 -0.086066864 0.09367591
0.09349135 0.035901178 -0.077969916 0.08547285 0.13856255 -0.04513565 -0.02672911 0.07520212
0.043529153 -0.0375316 -0.09666922 0.092271805 0.010816034 0.008115761 -0.10061782 0.07164148
-0.039668314 -0.07439111 0.08470758 -0.12684904 -0.0069439085 -0.01743886 0.11320458 0.09026712

net.2.weight f4 [64, 32]
00000000: 5116 2dbc 6b06 22be 7688 a63d 9544 b2bc
00000010: 36e7 e63c 8cc8 88bc be7b 0cbe b98a 29be
00000020: 0bec 783d 5e9d 323d 15de 94bd 4143 f63c
00000030: b2d0 063e c170 aebd ddd6 ae3d 9ac9 9cbd
00000040: b561 f13b 3c4a 193e 5a6c 613d 7b59 9a3c
00000050: 754b 83bd 0c65 fbbd 5969 48bd 4f3c 38bd
00000060: 94d5 1e3e e6f8 f93c 6f0a b43d 3c7b 313c
00000070: f100 2dbe c409 03be 9604 4c3d 0214 e13a
00000080: f86a 18bd 7ddc 223e 7f23 013e 49b4 f53d
00000090: fb07 b43b 3069 333e 007d 903d 19dd f13d
000000a0: 261e 2b3e 554d 82bd ddc4 31bd d5d2 acbd
000000b0: 8f93 0bbe 2719 e23c f658 073e 0ff8 adbb
000000c0: 401e eebd 27f8 13bc 181a 1a3e 2dbc 943d
000000d0: ff21 a0bd 9ce7 f63d 4cfd c03d 18f4 093e
000000e0: bdb0 343e 15ee a53d 2a4c de3d 47f3 203e
000000f0: 55aa 963c 8581 9cbd bee0 063e 062c 0a3e
00000100: def7 febd 6bec 21be b1e0 e63d a3b5 83bc
00000110: 6183 0e3e 84c9 053e 4961 a63a 1b47 c63d
00000120: bc6d 803d 466e 323e ed06 6e3c 8eca 7a3d
00000130: 1f08 e73d de61 243c 8c89 953d 48af 55bc
00000140: 5a70 d93d 99b2 a2bd 62d6 68bd 6764 693d
00000150: 4da6 b7bd 5fa6 1b3d e334 e6bc b0a8 a0bd
00000160: 4a0d 19be 8c4e 093e eff8 ee3d 50f4 83bd
00000170: 69c6 5b3d 2855 363d 2923 da3d 77b4 22be
00000180: dd35 fcbd 12ae b73d 1ea5 323e e01c 24be
00000190: ebc8 80bd 23f1 e73d 681c d0bd 2b7f 70bd
000001a0: b025 34be 4a27 13bc 38a0 8cb9 6ecb 88bd
000001b0: b8eb 093d 0dc6 cdbd 537f 2c3e 030f d53d
000001c0: 7f1b d73d b77d b8bd 2eb8 0fb9 2c65 09bc
000001d0: c24d 0d3e dc9b ee3c ebbf 1f3e 8265 f7bd
000001e0: 22e9 053d e109 863d 57b0 a73d e456 223e
000001f0: b9c1 fb3d 2bbc 143e 45dd b73a 5a16 80bd
00000200: 583a d3bd 5b4d 1d3d 7321 0dbe fd26 dbbd
00000210: 8bc0 5dbd 8fb0 bdbc cbd6 d53a f38b db3d
00000220: 2683 1bbd 35e3 cdbc 52f6 9f3d ad1b 1f3e
00000230: 2fe4 1cbe bb3b 673d ffcc f63d 8148 f33d
00000240: f668 a63d eb3f d83c d6cf 6dbd d33a 143e
00000250: d1ef d9bd 603f d2bb 6bf6 653d 97eb 26be
00000260: 47b5 75bd 4d8b a8bc f0f7 093d edfd 29be
00000270: f144 b33d 7976 33bd dcc4 253d 4bb9 a9bd
00000280: 5bd1 cdbb af69 ed3d 4785 afbc 6aca 19be
00000290: bd98 29be f9d4 fabd 592d e23c 305d 213e
000002a0: 598b 0cbe 5651 31be c98a aebc b4fc 023d
000002b0: e59a b23d fd18 293d 457f f63c 46cd 00be
000002c0: b051 be3d 69ce f83d f3d5 493d ce44 643d
000002d0: 2d0e 8b3d d600 03bd e4e0 6e3c 1616 1f3e
000002e0: f86a ee3d ed24 b7bd 20f2 f73d c25e b03d
000002f0: d669 04bd 04b8 253e a783 be3d d4e9 7dbd
00000300: ca80 e2bc ac68 29be d915 4b3d 361d c2bc
00000310: b724 a83d 0b49 27be 8872 c5bd 5546 a93c
00000320: 5fe3 bf3c d93e ed3d d244 cebd f0c3 33be
00000330: c596 a03d 11bc 1e3e bc68 edbd 3b57 65bd
00000340: 090f 83bd ab9a ddbd bf98 9ebc a82f c53d
00000350: e01a 6bbd 7fc5 e93c a4fe 2ebe 1f9e 473d
00000360: 0490 31be ed80 09bc feeb 033e 0482 f9bb
00000370: b4e7 193e 3400 b4bc 5a12 95bd aebd cabc
00000380: 1213 fcbd 254b aa3d d5d6 383d 79cf 0a3e
00000390: 5de6 2c3d 11cb 4b3d f2b2 9f3d 7b87 c93d
000003a0: 3da4 fabd eb13 17be 56b7 2bbe 2399 073e
000003b0: ca12 e43d ee55 d83c b604 203e 39ce d83c
000003c0: e978 f93c e971 d93d e8d5 7b3d 16d5 2cbd
000003d0: 9fd8 043e 3b82 00bc 2688 2f3e e4dc f73c
000003e0: 6316 4ebc 0600 6bbc 5140 e33d f3a4 133e
000003f0: ff31 843d 79ee 0dbe b3dd 0b3d 6167 443d
-0.010564403 -0.15822761 0.081314966 -0.021761218 0.028186422 -0.01669719 -0.13719079 -0.16556825
0.060771983 0.04360711 -0.07268921 0.030061366 0.13165548 -0.085176 0.08537076 -0.0765564
0.007366384 0.14969724 0.055034973 0.018841496 -0.06410877 -0.122751325 -0.048928592 -0.04497939
0.15511161 0.030514192 0.087910526 0.010832604 -0.1689489 -0.12796694 0.04980906 0.00171721
-0.03721139 0.15904422 0.12611197 0.11997277 0.0054941154 0.17520595 0.07055092 0.11809749
0.1671072 -0.06362406 -0.043400634 -0.084386505 -0.13630508 0.027599884 0.1321753 -0.005309112
-0.116268635 -0.009031332 0.15049016 0.07262454 -0.07818984 0.12055895 0.094233125 0.1347202
0.17645545 0.08102051 0.10854371 0.15717803 0.018391768 -0.076418914 0.1317167 0.13493356
-0.12449621 -0.15812843 0.11273325 -0.016077822 0.13917305 0.13065153 0.0012693788 0.09681531
0.0627093 0.17424878 0.014528018 0.061228327 0.11280846 0.010033099 0.073016256 -0.013042279
0.106171325 -0.07944221 -0.056845076 0.056980517 -0.08967266 0.03800046 -0.02810139 -0.078446746
-0.14946476 0.1340887 0.11668574 -0.06443083 0.053656016 0.044514805 0.106512375 -0.15889154
-0.12314961 0.08968748 0.174458 -0.1602664 -0.06288322 0.1132529 -0.10161668 -0.058715027
-0.17592502 -0.008981535 -0.00026822253 -0.06679426 0.033672065 -0.10047541 0.16845445 0.10403254
0.10503291 -0.09008353 -0.00013706155 -0.008385938 0.13799194 0.029127054 0.15600555 -0.12079908
0.032693036 0.06544853 0.08187931 0.15853459 0.12292809 0.14524905 0.0014027735 -0.06254263
-0.103138626 0.03840385 -0.13782291 -0.10700796 -0.0541387 -0.023155479 0.0016314624 0.107200526
-0.03796687 -0.025132755 0.07810654 0.15537901 -0.1532142 0.056453448 0.12050819 0.118790634
0.081254885 0.026397666 -0.058059536 0.14475565 -0.106414445 -0.0064162463 0.056143206 -0.16300808
-0.059987333 -0.020574236 0.033683717 -0.16600771 0.08753384 -0.043814156 0.040470943 -0.08287295
-0.0062810606 0.11592423 -0.021425856 -0.15018621 -0.16562171 -0.122476526 0.027609514 0.15758204
-0.13725032 -0.17316183 -0.021306412 0.031979278 0.0872095 0.041283596 0.030089984 -0.12578306
0.092929244 0.121487446 0.049276303 0.05572968 0.06789813 -0.03198322 0.014579985 0.15535769
0.116414964 -0.0894259 0.121067286 0.086118236 -0.032327496 0.16183478 0.093024544 -0.061990574
-0.027649302 -0.16543835 0.049581382 -0.02369557 0.08210128 -0.16336457 -0.09640986 0.02066342
0.023423849 0.11584253 -0.1007172 -0.17555213 0.07841257 0.15501429 -0.11592242 -0.055991393
-0.06399352 -0.10820516 -0.019359944 0.0962823 -0.057398677 0.028536556 -0.17089325 0.04873478
-0.17340094 -0.008392555 0.12882993 -0.007614376 0.15029794 -0.021972753 -0.07278891 -0.02474865
-0.12308325 0.08315114 0.045126755 0.13555707 0.04221188 0.049754206 0.07797803 0.09840294
-0.12238357 -0.14753692 -0.16769156 0.13242011 0.11136396 0.026408162 0.15626797 0.026465522
0.030453162 0.1061743 0.061483294 -0.042195402 0.1297326 -0.007843549 0.1714178 0.030256696
-0.01257858 -0.014343267 0.11096252 0.14418392 0.064548485 -0.13860501 0.034146976 0.047950152

net.2.bias f4 [64]
00000000: 8a17 6f3d 6600 17be f1e9 10be 4072 b13d
00000010: c5e5 7c3d eeb1 6b3d 5a81 3ebd 2f9d fb3a
00000020: 6439 88bd 10f3 dc3b af4c 163e f40b f03d
00000030: 1761 8ebd 3450 50bd c9e7 44bd 5492 d2bc
00000040: 7e4d 20bd 6ebd 2d3e 493f f03d 787b 19bd
00000050: ea0e 70bc 1ec1 2f3e e6db 7fbd 872e f8bd
00000060: 939b 72bc a953 823d fefc edbd 42c9 b5bd
00000070: 823a 4b3d be0c 333e a171 c93d 906c dbb8
00000080: b801 fdbd 8349 32be 2544 31bd 9391 5fbc
00000090: 753f 253d 674d 533d 5087 043d beba a43d
000000a0: 1ad2 273e 997f d73d 2be8 6d3b 346f 8fbd
000000b0: 8ef0 f93d 8e45 60bd 7826 a03d 4172 3fbd
000000c0: 3e7a bdbc ea27 a53d 1106 17be 141d f03d
000000d0: d8f4 ff3c 30f7 c8bc fa2b dc3d 2a57 d43d
000000e0: 2d6e 273e 88b8 463d 73ba 0cbd 34dc de39
000000f0: 4874 16bc d7dd 403d d393 1ebe 53c3 013e
0.058372058 -0.14746246 -0.14151742 0.086643696 0.061742563 0.057542734 -0.046510078 0.0019196625
-0.066515714 0.0067428425 0.1467769 0.1172103 -0.06952112 -0.050857738 -0.04807261 -0.02570454
-0.039136402 0.16966793 0.11730821 -0.037471265 -0.014651993 0.17163512 -0.06246557 -0.121182494
-0.0148076 0.06363613 -0.1162052 -0.088762775 0.049616344 0.1748533 0.09836126 -0.00010462955
-0.123538435 -0.17410855 -0.04327788 -0.013645547 0.04034372 0.05158749 0.032355607 0.08043431
0.16388741 0.10522384 0.0036301713 -0.07003632 0.12204085 -0.054753833 0.07819837 -0.04673982
-0.023129579 0.08064254 -0.14748408 0.11724296 0.03124468 -0.02453193 0.10750575 0.10368188
0.16350622 0.048515826 -0.0343575 0.00042507204 -0.009182997 0.047086563 -0.15486078 0.12672167

net.4.weight f4 [32, 64]
00000000: a4fa 813d a4ff c6bd c0ec 493b 7048 acbc
00000010: 104d da3d 8ae9 d13d 7edd ee3d 401a 163b
00000020: 8006 6fbd ac59 c53d a8b6 5b3d c444 78bd
00000030: 38e0 b93c f895 793d f49a 42bd ba3b 9c3d
00000040: 70aa 31bd 5e3c 9fbd 0889 85bc 688c bcbd
00000050: ce8b b53d 9e38 973d c039 66bc 50fa f03c
00000060: 30dd 2dbd 30f9 213d 5afc b4bd 640a 99bd
00000070: f0ab 4f3c a8a9 453d 40dd 4fbb 4694 903d
00000080: c286 963d 00ac 2c3c 9aba ddbd 9c54 bcbd
00000090: 6492 cdbd a0be ccbd 0011 44ba c63a ec3d
000000a0: c4c8 ab3d 281e f8bd 00c9 9dbb 7ee8 afbd
000000b0: 84dd 1cbd 16bf bcbd 6057 703c dc29 fbbd
000000c0: 822f f6bd 7873 d7bc 007e d53d 9292 c23d
000000d0: 12f9 8e3d 444b 13bd 568a 823d 3875 ac3d
000000e0: 9c90 fabd d431 3bbd e03d 98bb 70c8 083d
000000f0: f032 893c 985d e6bc ce20 c1bd 2414 7ebd
00000100: 003d 3c3c 14da b43d 28e1 40bd 3047 593d
00000110: f08c 453d 389c b43d b011 ddbc 7a5f acbd
00000120: c06f 6b3d b25b 903d 0e57 d9bd c077 bd3d
00000130: e6e9 a4bd b0ac ea3d d059 c6bd cee6 84bd
00000140: d00e f1bd 3ea0 d33d 641c 733d 70ca e7bc
00000150: 0050 a23d 76bd cc3d 38aa 23bd 8c9c d33d
00000160: 50d2 653c 7adc e33d b8d5 3bbd 62cc 9abd
00000170: 48d3 2b3d 0406 d83d 86b1 af3d a0cd f03d
00000180: 2049 93bc 487b 7cbd 28f8 6abd a89e 9d3c
00000190: 805b a0ba 10d7 9b3d e8c9 eb3c bc1d 64bd
000001a0: 14cf 0d3d c0e9 f9bc 58f7 eb3c 2c09 633d
000001b0: 5a85 d2bd c466 903d b825 15bd 9847 e2bc
000001c0: 189d 5bbd 768b a6bd fc04 37bd 8e00 f93d
000001d0: 182b 5d3d d015 53bd 4ed6 c6bd 30e0 8b3d
000001e0: 02ca f83d 4008 aa3b a04b a5bb 1214 d1bd
000001f0: 484f a8bc a624 e23d ec9f b93d 38ec 003d
00000200: 58f2 c33c 606c 773c 6c8e 1b3d 4478 2abd
00000210: b49c 7c3d 080f a9bc 6e54 dcbd 70b5 143d
00000220: 101c 0bbd 00e2 b339 26b5 cfbd 5824 b63c
00000230: ae2e bcbd 78eb 2fbd 908d bebd e006 acbc
00000240: 7846 fcbd 20ad 1d3c a0a5 193d 403f 53bd
00000250: 3c33 cb3d cc6c ad3d 644f 473d b0e5 923d
00000260: 9039 dbbc 209c 94bd 0030 9db9 f00f 693c
00000270: 2c34 1e3d f032 d73d 2e1a f33d 70ca 2d3c
00000280: 98b7 863d 00ac 03bb 0a39 af3d 182b 2a3d
00000290: 0022 b7ba 087a adbc e23b 89bd 76e1 883d
000002a0: 4084 ecbc 3c4e 93bd c285 adbd 04e7 43bd
000002b0: 4063 0bbc 7c39 3f3d 80e6 92bd d4ab 363d
000002c0: 20b7 973b b2d1 b13d d4a6 de3d 08c0 40bd
000002d0: d89e bbbd 60a9 2c3c 80a6 0abd 8895 b93c
000002e0: 34bb a0bd 1861 fcbc 7c17 71bd e400 0a3d
000002f0: 289d f63d c0a1 acbb 469b b23d e243 c73d
00000300: 629b a4bd 60fb 64bc 247b fb3d 3cfb 1f3d
00000310: aaa9 a63d ccb0 debd 3e62 dcbd 5220 9c3d
00000320: 3c74 3d3d f06f bdbc 4e30 813d d880 9b3d
00000330: 6251 ec3d e2fb f6bd ac77 90bd 0061 ff3c
00000340: 0008 f53c 68c6 c93c 7cb2 533d c086 e7bc
00000350: 5a3d f7bd d0e8 15bd 0027 3dbc 28a9 b13c
00000360: 04aa ccbd 502f 5dbc c8c2 ccbc 94da 46bd
00000370: 4c14 d6bd 4283 d93d f243 bcbd 6a29 ac3d
00000380: 049a bdbd 30bf 6abc 8009 f6bb e0c2 6a3d
00000390: a017 233c 0ed8 ca3d 441b 423d b0c6 b73d
000003a0: e827 d5bc 7e89 ec3d 5a19 babd 942b b93d
000003b0: d4fa 51bd 88e5 05bd fc33 c23d f87c b63c
000003c0: 62b2 b13d f09a fbbd f05d 5c3d fcdd d4bd
000003d0: 5059 3fbc a431 ae3d 30bb d2bd d8ca c53c
000003e0: ca94 e43d 30b1 aabc f012 cabc 9445 da3d
000003f0: 6c54 4cbd 8226 be3d e07f a2bd c86b 5a3d
0.06346634 -0.09716728 0.003081128 -0.021030635 0.1065923 0.10249622 0.1166334 0.002290383
-0.05835581 0.09636244 0.05364099 -0.060612455 0.022689924 0.060934037 -0.047511056 0.076285794
-0.043375432 -0.07775186 -0.016300693 -0.09206468 0.08864556 0.07383846 -0.014051855 0.029416233
-0.04244727 0.039544284 -0.08837195 -0.07472685 0.01267527 0.0482575 -0.0031717569 0.07059531
0.07349922 0.010539055 -0.10826607 -0.091958255 -0.100376874 -0.09997296 -0.000747934 0.11534648
0.083879024 -0.12115127 -0.004815221 -0.08589266 -0.03829719 -0.09216134 0.014669269 -0.122638434
-0.1202078 -0.026300177 0.10424423 0.09500612 0.069811 -0.03596045 0.06374042 0.08420795
-0.12234613 -0.045701817 -0.004646048 0.033394277 0.016747922 -0.0281208 -0.09430085 -0.062030926
0.011489153 0.088306576 -0.047089726 0.053046405 0.04823011 0.08818859 -0.026985973 -0.08416648
0.05747962 0.070487395 -0.106123075 0.09251356 -0.08052425 0.11458719 -0.09685099 -0.06489335
-0.117704034 0.10333298 0.059353247 -0.028294772 0.07925415 0.09997074 -0.039957255 0.10332593
0.014027193 0.11126037 -0.045858115 -0.07558514 0.04194954 0.105480224 0.08578782 0.1175797
-0.017979205 -0.061641008 -0.057365566 0.019240692 -0.00122343 0.07609379 0.0287828 -0.05569242
0.034621313 -0.030506968 0.028804466 0.05542867 -0.10279341 0.07050851 -0.036412925 -0.02762203
-0.053616613 -0.08132069 -0.044682488 0.12158309 0.053996176 -0.051534474 -0.09708844 0.0682987
0.12147905 0.0051889718 -0.0050444156 -0.10208906 -0.020545617 0.110421464 0.09063706 0.031475276
0.02391927 0.015101522 0.03797762 -0.0416186 0.06167288 -0.02063705 -0.10758291 0.036305845
-0.03396231 0.00034309924 -0.10141973 0.022234127 -0.09188591 -0.04294917 -0.09304345 -0.020999372
-0.12318128 0.009623796 0.037511468 -0.05157399 0.099218816 0.08468017 0.048659697 0.07172716
-0.026760846 -0.07256341 -0.00029981136 0.014224991 0.038623974 0.105077624 0.11870228 0.010607347
0.065779865 -0.0020091534 0.08555801 0.041545004 -0.0013971925 -0.021176353 -0.06700875 0.06683628
-0.028871655 -0.071926564 -0.08472778 -0.047827736 -0.00850755 0.04668568 -0.07172871 0.04459746
0.0046299845 0.08682574 0.10871664 -0.047058135 -0.091611564 0.010538429 -0.033850193 0.02265431
-0.07848206 -0.030808017 -0.058860287 0.033692256 0.12041694 -0.0052683055 0.08721022 0.097297445
-0.080374494 -0.013975948 0.122793466 0.039057955 0.081378296 -0.10873565 -0.10760926 0.07623352
0.046253428 -0.023124665 0.063080415 0.07592934 0.1153896 -0.120597616 -0.070540756 0.031174183
0.029911041 0.02463074 0.051683888 -0.028262496 -0.12072249 -0.03659898 -0.011544943 0.021687105
-0.099933654 -0.01350005 -0.024995223 -0.048548296 -0.1045309 0.106207386 -0.09192647 0.084063366
-0.09257892 -0.014327809 -0.0075084567 0.057314754 0.009954363 0.099044904 0.047389284 0.089734435
-0.026020005 0.11549662 -0.09086867 0.09041515 -0.0512646 -0.0326896 0.094825715 0.022276387
0.08676602 -0.12285411 0.053800523 -0.10393903 -0.011679009 0.08505562 -0.102896094 0.024144575
0.11161192 -0.020836443 -0.024667233 0.10657802 -0.0498852 0.092846885 -0.079345465 0.053325444

net.4.bias f4 [32]
00000000: d0c6 12bc 62ab c13d 1828 1c3d 70c4 c5bd
00000010: 7a61 9bbd f8cb 49bd 6c45 a5bd f879 b6bd
00000020: e8db ebbc c6cb f6bd 5e6a 943d 00e7 eebb
00000030: 18de a73d 2829 99bc 08e5 0fbd 7856 e1bd
00000040: c040 4fbc b0f0 133d 349e d3bd da4c f4bd
00000050: 60b7 b1bc 8464 61bd 2c6f b4bd a0a3 50bd
00000060: 8802 db3c 002a 28ba 70d7 37bc c4e0 ccbd
00000070: 7429 a4bd 6067 803c 70cb 2bbc 104d 48bc
-0.008958533 0.09456517 0.038124174 -0.09656608 -0.075869516 -0.049266785 -0.08069882 -0.089099824
-0.028791383 -0.120505854 0.072468504 -0.007290721 0.08196658 -0.018696383 -0.03513053 -0.11002821
-0.012649715 0.03611821 -0.10332909 -0.11928721 -0.021693885 -0.0550275 -0.08810267 -0.050937295
0.026734605 -0.000641495 -0.011220798 -0.10003808 -0.08015719 0.015674293 -0.010485515 -0.012225404
