maml_model/maml_GoToOpen_7_10_600_50.pth (torch, 60284 bytes, 6 tensors)

layer1.weight f4 [64, 151]
0	0xbcd24dfc	-0.025671951
1	0xbd8cee7b	-0.06881424
2	0xbcce699d	-0.025196845
3	0xbd5a7a17	-0.05333909
4	0xbce5510c	-0.027992748
5	0xbc1f3d14	-0.009719152
6	0xbd856ea0	-0.06515241
7	0x3d8979f2	0.06712712
8	0xbe08d11b	-0.13361017
9	0x3e1234f5	0.14278014
10	0x3c9ceedd	0.019156868
11	0xbd4b285d	-0.04959904
12	0xbd3b4714	-0.045722082
13	0xbcea6525	-0.028612683
14	0xbe1f0395	-0.1552871
15	0xbe1c2d6c	-0.15251702
16	0xbd1b84cd	-0.037968446
17	0xbe0924b6	-0.1339291
18	0xbd4a82a7	-0.049441006
19	0xbc980713	-0.01855806
20	0x3dbd61b0	0.09247148
21	0xbe094a90	-0.1340735
22	0x3cf7d5ab	0.030253252
23	0x3d9529f8	0.072833955
24	0x3d80694c	0.06270084
25	0x3db1e72e	0.08686672
26	0x3e178098	0.14795148
27	0x3c77e13e	0.0151293855
28	0xbde56682	-0.112011924
29	0xbddf7c8b	-0.109124266
30	0xbe0ea0b5	-0.13928492
31	0xbd0578f1	-0.03258604
32	0x3ddeccb6	0.10878889
33	0xbd7a9a26	-0.061182164
34	0x3dcc6413	0.09980025
35	0xbdfddd62	-0.12395741
36	0x3d3cb62d	0.046072174
37	0xbd98e7ff	-0.07466125
38	0x3d95da13	0.07316985
39	0xbdfaa42b	-0.12238344
40	0xbdaa9ae3	-0.083303235
41	0xbcf6459e	-0.030062493
42	0x3d0e1094	0.03468378
43	0xbd9262a6	-0.07147722
44	0x3d593439	0.05302832
45	0x3df49d29	0.119440384
46	0xbdbfa844	-0.09358266
47	0x3dfc9d5b	0.12334701
48	0x3dd2387a	0.10264678
49	0x3de959e7	0.11394101
50	0x3dc18a33	0.094501875
51	0xbd5592ab	-0.052141827
52	0xbdfb7e21	-0.122799166
53	0xbd279c81	-0.040920738
54	0x3d17e991	0.03708798
55	0x3e389b00	0.18027878
56	0x3d50d4d5	0.050984222
57	0xbd8001c3	-0.06250336
58	0x3d4048a3	0.04694427
59	0xbc2de9dc	-0.010614838
60	0x3e0b3011	0.13592555
61	0xbe1a2fcc	-0.15057296
62	0x3c906919	0.01762824
63	0x3dbdabc4	0.09261277
64	0xbda867f0	-0.082229495
65	0xbdfb25bb	-0.12263056
66	0x3df537c4	0.11973527
67	0xbd475374	-0.04866357
68	0x3dc60b3b	0.09670111
69	0x3e18eb71	0.14933564
70	0xbd3d4f02	-0.046217926
71	0x3b97021a	0.004608405
72	0x3d08b719	0.03337774
73	0x3e19aa9d	0.1500649
74	0xbd99c9dd	-0.075092055
75	0x3d54b103	0.051926624
76	0xbd49d914	-0.049279287
77	0x3dc78105	0.097414054
78	0xbd958047	-0.072998576
79	0xbdfe37bc	-0.12412974
80	0xbdcb45b1	-0.09925402
81	0x3e064d3a	0.13115397
82	0xbe056841	-0.13028051
83	0x3d0a9fa4	0.03384365
84	0x3dd6b6ba	0.10484071
85	0x3da3dbba	0.08000894
86	0x3c890914	0.016727962
87	0xbe06849e	-0.13136527
88	0x3c49e026	0.012321508
89	0x3dae5d39	0.085138746
90	0xbdde5799	-0.10856552
91	0x3e1a872b	0.15090625
92	0x3dc7805f	0.09741282
93	0x3df992ac	0.121861786
94	0xbe2664f3	-0.16249447
95	0x3d93498d	0.07191763
96	0x3dd9fa0e	0.10643397
97	0xbddd0d71	-0.10793579
98	0xbdf7bc13	-0.12096419
99	0xbe125fc5	-0.14294346
100	0x3ca8c4e4	0.020601697
101	0x3cd09efc	0.025466435
102	0xbe10837e	-0.1411266
103	0xbdb0fd6d	-0.08642087
104	0xbd8ba97a	-0.068194345
105	0xbce3de7a	-0.027816046
106	0x3c85cb3e	0.016332265
107	0x3dfb0d6a	0.12258418
108	0x3e01f10c	0.12689608
109	0x3d2899de	0.041162364
110	0x3db25807	0.08708196
111	0x3db876f7	0.09007066
112	0x3e101861	0.140718
113	0xbd609068	-0.054825217
114	0xbd19d3ca	-0.037555493
115	0x3bbba5fe	0.005726575
116	0xbe1b1082	-0.15143016
117	0x3d983038	0.07431072
118	0xbdeba74f	-0.11506521
119	0xbb8cff21	-0.0043028747
120	0x3d80c4ec	0.0628756
121	0xbdce1170	-0.1006192
122	0x3d37d1fc	0.04487799
123	0xbdf709b7	-0.120624
124	0x3d92a62a	0.071605995
125	0x3d698679	0.05701301
126	0x3e07ddce	0.13268206
127	0x3df120cd	0.117738344
128	0xbd242311	-0.040072504
129	0x3e2df7f6	0.16989121
130	0x3e2e702e	0.1703498
131	0x3caa9fe8	0.020828202
132	0x3da7bd93	0.08190455
133	0xbddc0ddb	-0.1074483
134	0x3bf94e8e	0.0076082414
135	0xbafa2d81	-0.0019087048
136	0x3e224faf	0.1585071
137	0xbdacbed7	-0.08434837
138	0xbd97c509	-0.07410628
139	0xbd6d5cad	-0.05794971
140	0x3d8f9607	0.07011037
141	0xbe1290f9	-0.14313115
142	0xbe129be0	-0.14317274
143	0x3e152a79	0.14566983
144	0x3dbaacbc	0.09114978
145	0x3dd968b0	0.10615671
146	0xbb58b301	-0.003306568
147	0x3b3f3b2a	0.0029179552
148	0x3e1cdbb8	0.15318191
149	0xbd24a7ee	-0.040199213
150	0x3d9cf0f3	0.07663145
151	0xbd119870	-0.035545766
152	0x3d803568	0.062601864
153	0xbcac4516	-0.021029036
154	0x3dc57dd1	0.09643138
155	0xbde747a2	-0.1129296
156	0x3d3067b3	0.043067645
157	0xbd4ac510	-0.04950434
158	0xbe1aca0c	-0.15116137
159	0xbcde3d91	-0.027128967
160	0xbe01e240	-0.12683964
161	0x3e067307	0.13129817
162	0xbd66e147	-0.056367185
163	0xbdd8e4f9	-0.10590548
164	0x3d452ac0	0.048136473
165	0x3cd0bbe4	0.025480218
166	0xbdc43768	-0.095808804
167	0x3df7f2a7	0.12106829
168	0xbd464de1	-0.048414115
169	0x3d8e53f8	0.069496095
170	0x3daef337	0.08542483
171	0xbd689064	-0.056778327
172	0xbe09dfc2	-0.13464263
173	0xbd4cf4fe	-0.05003833
174	0xbe016a18	-0.12638128
175	0x3d4d27e4	0.05008687
176	0x3d2ca8b2	0.042153068
177	0x3d38a116	0.0450755
178	0x3de06f82	0.109587684
179	0xbc65935e	-0.014012186
180	0xbb4adef7	-0.0030955651
181	0x3d9ced19	0.0766241
182	0x3dcd9668	0.10038453
183	0xbddbfa38	-0.10741085
184	0xbd4658cd	-0.04842453
185	0x3db6d0d5	0.0892655
186	0x3e1a2100	0.15051651
187	0xbe1f598d	-0.15561505
188	0xbe09e259	-0.13465251
189	0x3cc49423	0.023996418
190	0x3d9ddce1	0.07708145
191	0xbc5275dc	-0.012845483
192	0xbc63f5ca	-0.013913581
193	0xbd745482	-0.059650905
194	0x3dc82eaa	0.097745255
195	0x3e04e798	0.12978971
196	0x3d2b3d60	0.04180658
197	0xbd2758cf	-0.04085618
198	0xbe10c7a5	-0.14138658
199	0xbdaae0d2	-0.08343662
200	0x3cbc7722	0.023006026
201	0x3c6b6e86	0.014369613
202	0xbdfae566	-0.122507855
203	0x3d72909a	0.059219934
204	0x3cb45715	0.02201418
205	0xbe1ccca8	-0.15312445
206	0xbda8b5cb	-0.08237799
207	0x3e024710	0.1272242
208	0xbdbc7171	-0.09201325
209	0xbe1ae84f	-0.15127681
210	0xbe0cdc80	-0.13755989
211	0x3dd0e1b9	0.10199303
212	0x3d0974ec	0.03355877
213	0x3d068ee7	0.032851126
214	0xbad2ba42	-0.0016077238
215	0x3e249b38	0.16074836
216	0x3e295520	0.16536379
217	0xbd50973c	-0.05092548
218	0x3b908cdc	0.004411323
219	0x3d636375	0.05551477
220	0x3c913703	0.017726427
221	0xbdf407a0	-0.11915517
222	0x3e036a85	0.12833603
223	0xbc816c4f	-0.015798716
224	0xbb654960	-0.0034986362
225	0x3d8d6317	0.069036655
226	0x3cc431d4	0.023949541
227	0xbda8aaec	-0.08235726
228	0x3d92d0df	0.07168745
229	0x3c76ec88	0.015071042
230	0x3d3d59c4	0.046228185
231	0x3da30e3d	0.079617
232	0x3dce3ccb	0.10070189
233	0x3d0b5098	0.034012407
234	0x3e0bc99b	0.13651125
235	0xbc47bc64	-0.012190912
236	0xbcc21316	-0.023690742
237	0x3c6bf2e1	0.014401169
238	0x3dd84b7c	0.105612725
239	0x3d8423a0	0.064521074
240	0x3d29e8c4	0.04148175
241	0x3d80b9a8	0.06285411
242	0x3e0e248e	0.13881132
243	0xbe0713aa	-0.13191095
244	0x3d2fe6b4	0.042944625
245	0xbd810b54	-0.06300989
246	0x3dcca548	0.099924624
247	0xbd8312d7	-0.06400078
248	0x3ca38d1e	0.01996475
249	0xbcc398cc	-0.02387657
250	0x3e27e947	0.16397582
251	0xbde5e987	-0.112261824
252	0x3e1029ef	0.14078496
253	0x3d3d28a5	0.04618134
254	0xbd9aa1b1	-0.075503714
255	0xbd8b9df4	-0.068172365

layer1.bias f4 [64]
0	0x3ba6fa58	0.0050957613
1	0x3cc88a4b	0.024480006
2	0x3c8b4c2d	0.017004097
3	0x3b806444	0.0039182026
4	0xbd05e1e2	-0.03268612
5	0x3d861059	0.06546087
6	0xbc71a51a	-0.014748836
7	0x3ca4f5e3	0.02013678
8	0x3d11ede3	0.035627257
9	0x3d114740	0.03546834
10	0xbcd30918	-0.025761172
11	0xbcf65ff9	-0.03007506
12	0xbcbbb754	-0.022914566
13	0xbb40b1cb	-0.0029402848
14	0xbca4bdd2	-0.020110045
15	0xbcfe07b3	-0.03100953
16	0xbc9a39ee	-0.018826451
17	0x3d313228	0.043260723
18	0xbbf1e8ad	-0.0073824734
19	0xbd17a2fe	-0.037020676
20	0xbcd2dd89	-0.025740402
21	0xbc05bfaa	-0.008163372
22	0xbc614615	-0.013749619
23	0xbcaa035e	-0.020753559
24	0x3c8a1107	0.016853822
25	0x3c835e31	0.016036125
26	0x3be2fc18	0.0069270246
27	0x3d44d331	0.04805297
28	0xbcd2957d	-0.025706047
29	0x3c8f7f73	0.017516827
30	0xbd274fd1	-0.040847603
31	0xbb2900e0	-0.0025787875
32	0x3cc4e145	0.024033198
33	0xbce74b86	-0.028234255
34	0x3cf83177	0.030297024
35	0x3d160a0f	0.036630686
36	0x3b637962	0.00347098
37	0xbc163caf	-0.0091697415
38	0x3d3e066e	0.04639285
39	0xbd2913ed	-0.04127877
40	0xbd01f6af	-0.031729396
41	0xbc736e3c	-0.014857825
42	0xbd056905	-0.032570858
43	0x3b9082b1	0.004410111
44	0xbcfb8ffc	-0.030708306
45	0x3c4f6284	0.012657765
46	0x3c21e8a2	0.009882124
47	0xbcea7af3	-0.02862308
48	0xbcdd55fe	-0.027018543
49	0xbc34817e	-0.0110172015
50	0xbc87b0c3	-0.016563779
51	0x3c7d650d	0.015465987
52	0xbc7d5620	-0.015462428
53	0xbca1e447	-0.019762171
54	0x3bae2009	0.0053138775
55	0xbbfcaad1	-0.0077107926
56	0x3cd6670f	0.026172189
57	0x3c663673	0.014051068
58	0xbce1b60e	-0.02755263
59	0xbc77f2e5	-0.015133594
60	0x3d35aec3	0.04435612
61	0x3d01ddc8	0.031705648
62	0xbbdda61a	-0.0067641856
63	0x3be6adf2	0.007039779

layer2.weight f4 [64, 64]
0	0xbe0dfef0	-0.13866782
1	0x3d304dff	0.043043133
2	0x3d9e0e70	0.077175975
3	0x3d98da0e	0.07463466
4	0x3e2309d0	0.15921712
5	0x3d3661f7	0.04452702
6	0xbcaab387	-0.020837558
7	0x3c1421a0	0.00904122
8	0xbd5dc59b	-0.05414353
9	0x3e350220	0.17676592
10	0xbda9efa3	-0.0829766
11	0x3e1ba341	0.15198995
12	0x3e3a42c4	0.18189532
13	0xbcf5cd8b	-0.030005237
14	0xbe41bab6	-0.18918881
15	0xbe51c612	-0.20485714
16	0x3e3adc43	0.18248086
17	0x3e3f9e12	0.18712643
18	0x3e3f9a67	0.18711244
19	0xbd7e3ee9	-0.062071715
20	0x3b9166a1	0.004437283
21	0x389724f0	7.207121e-05
22	0xbe3ad1e3	-0.18244128
23	0xbdfcd46a	-0.12345202
24	0x3c133457	0.008984647
25	0x3e1b43fa	0.1516265
26	0x3cc15866	0.023601722
27	0x3cb52fce	0.022117522
28	0x3d201e97	0.039091673
29	0x3df70069	0.12060625
30	0x3e4af33e	0.19819352
31	0x3cea6b22	0.028615538
32	0x3e278724	0.16360146
33	0x3d701e05	0.05862238
34	0x3e49bb0c	0.19700259
35	0xbd971371	-0.07376755
36	0xbdfc3f41	-0.12316752
37	0x3dfa74b8	0.122292936
38	0x3d953e94	0.072873265
39	0xbdf98f0a	-0.12185486
40	0x3c1faced	0.009745819
41	0x3cb38b7b	0.021917095
42	0xbe5c3c69	-0.2150742
43	0x3b7de146	0.003873901
44	0xbbdf2157	-0.0068093943
45	0x3e24d2c2	0.16096023
46	0x3daac495	0.08338276
47	0xbdbfb72e	-0.09361111
48	0x3e4e53ae	0.20149109
49	0x3cefa199	0.02925186
50	0x3dc34541	0.095346935
51	0xbe2b7c50	-0.1674664
52	0xbe2df131	-0.16986538
53	0xbd9917d8	-0.07475251
54	0x3d6ba151	0.05752689
55	0x3e28d020	0.16485643
56	0x3dc7ef7f	0.09762477
57	0xbe3a6727	-0.18203412
58	0xbe2b012f	-0.1669967
59	0xbd9c472c	-0.076307625
60	0xbe2cca27	-0.1687399
61	0xbd9e996e	-0.07744108
62	0x3dc3efab	0.095671974
63	0xbdfa03c7	-0.12207752
64	0xbd9d7d83	-0.07689955
65	0x3e47fa6d	0.19529124
66	0xbdcdc7b5	-0.10047857
67	0x3dc17716	0.09446542
68	0xbe384744	-0.17995936
69	0x3e3faba9	0.18717827
70	0x3dded8c1	0.10881186
71	0xbdafd1e6	-0.08584957
72	0x3c909f17	0.017653985
73	0x3e192dfc	0.14958948
74	0xbd1c2e5a	-0.03813014
75	0x3ce67b5f	0.028135
76	0x3d97c3a1	0.0741036
77	0x3e58700c	0.21136492
78	0xbe334e8c	-0.17510432
79	0x3d1b5fd2	0.03793318
80	0xbe1b9762	-0.15194467
81	0x3e43f886	0.19137773
82	0xbddfc901	-0.1092701
83	0xbaa60c7f	-0.0012668519
84	0xbc9a1931	-0.01881084
85	0x3e12afb5	0.1432484
86	0x3d90638c	0.07050237
87	0x3bebcb3c	0.0071958583
88	0x3d9aa80d	0.075515844
89	0x3e18412a	0.14868608
90	0x3e037573	0.12837772
91	0xbd43871e	-0.04773628
92	0x3afd6bfe	0.0019334552
93	0x3e22b28a	0.1588842
94	0x3e4f41a4	0.20239884
95	0xbe50027b	-0.20313446
96	0x3d830c46	0.06398825
97	0xbd753a3f	-0.05987
98	0xbe3a4529	-0.18190445
99	0x3e35f5d7	0.17769562
100	0x3d98b326	0.07456045
101	0x3d64726d	0.055773187
102	0x3e6d5d39	0.23180093
103	0xbde776a1	-0.113019235
104	0xbdce1cc1	-0.10064078
105	0xbc85edaa	-0.016348679
106	0xbcefe94d	-0.029286051
107	0x3de8b06e	0.11361776
108	0x3e4d767b	0.20064728
109	0xbd5c46e3	-0.05377854
110	0xbe1475a5	-0.14498003
111	0xbd8c1a18	-0.068409145
112	0xbe3ec97b	-0.18631546
113	0xbe344d23	-0.1760755
114	0xbdf5c3b9	-0.12000222
115	0xbc94fe8d	-0.018187786
116	0xbe49772c	-0.19674367
117	0xbe1fc2b1	-0.15601613
118	0x3e6c3382	0.23066524
119	0xbd809288	-0.062779486
120	0x3e4390cd	0.19098206
121	0xbdeb109c	-0.11477777
122	0x3e148655	0.14504369
123	0x3e07d3fe	0.13264462
124	0x3e061067	0.13092194
125	0x3e021b3f	0.12705706
126	0x3e17b947	0.14816771
127	0x3b5505d6	0.00325047
128	0x3d4d6dee	0.050153665
129	0x3e171eb1	0.14757802
130	0xbe50ed20	-0.20402956
131	0x3d7ca32c	0.06167905
132	0x3e4c9e57	0.19982277
133	0xbe3c711b	-0.18402521
134	0x3dbc0802	0.09181215
135	0xbdf0bb1a	-0.11754437
136	0xbe5e5120	-0.21710634
137	0x3d20f9be	0.039300673
138	0x3de02eb1	0.10946406
139	0xbcda7f84	-0.026672132
140	0x3dd7cbf0	0.10536945
141	0x3e103d04	0.14085776
142	0x3cb34c89	0.02188708
143	0x3de5637a	0.11200614
144	0x3e4b2268	0.19837344
145	0xbe2d97a8	-0.16952384
146	0xbe040aa7	-0.12894689
147	0x3de070b7	0.10958999
148	0x3e33914f	0.175359
149	0xbd48b091	-0.04899651
150	0xbc081f8d	-0.008308304
151	0x3c7affcd	0.015319777
152	0xbe391f85	-0.1807843
153	0x3e112a50	0.14176297
154	0xbcea1d1a	-0.02857833
155	0xbce0b6ac	-0.027430855
156	0xbe52f688	-0.20601857
157	0xbdd797ca	-0.10526998
158	0x3dc5b3fa	0.096534684
159	0xbe3f3226	-0.18671474
160	0xbe4bb7e7	-0.19894372
161	0xbbc21bd8	-0.0059237294
162	0xbdeedde3	-0.11663415
163	0xbc7f73be	-0.01559156
164	0xbd950c09	-0.07277686
165	0x3e3137c1	0.17306425
166	0xbe1ff47b	-0.15620606
167	0x3e5206ee	0.20510456
168	0x3e346c65	0.17619474
169	0xbe51f3a1	-0.20503093
170	0xbcac9538	-0.021067247
171	0x3e28b258	0.16474283
172	0x3dcfcc8f	0.10146438
173	0xbd0d146c	-0.034443304
174	0xbe30b510	-0.1725657
175	0x3e562f81	0.20916559
176	0x3d34c876	0.044136487
177	0x3e2c805e	0.16845843
178	0xbd800d23	-0.06252506
179	0x3c9abe61	0.018889608
180	0xbe43da1f	-0.19126175
181	0x3e2f6e8c	0.17132014
182	0x3e503e13	0.2033618
183	0xbe338fc1	-0.17535307
184	0xbe634c8e	-0.22197172
185	0xbb87a3d3	-0.0041394024
186	0xbd99c376	-0.07507984
187	0x3df359e3	0.11882379
188	0x3ca41812	0.020031009
189	0xbde75aa0	-0.11296582
190	0xbdb2b1cc	-0.08725318
191	0x3e180a50	0.14847684
192	0xbd5bc649	-0.053655896
193	0x3d8bde55	0.06829516
194	0xb9b298e8	-0.0003406473
195	0xbe05d08a	-0.13067833
196	0x3defc35b	0.11707183
197	0x3e869b18	0.26290202
198	0xbe364295	-0.17798837
199	0x3e4a19e8	0.19736445
200	0x3de3a7a6	0.11115961
201	0xbe2e329f	-0.17011498
202	0x3e671c5e	0.22569415
203	0x3c9597ac	0.0182608
204	0x3be17738	0.006880667
205	0x3d642a91	0.055704657
206	0x3e282e8f	0.1642401
207	0x3bf16250	0.007366456
208	0xbc80e5ff	-0.01573467
209	0x3c6d316e	0.014477117
210	0x3ded4e88	0.11587244
211	0xbe44f43d	-0.19233795
212	0x3e2e8053	0.1704114
213	0xbdca0531	-0.098642714
214	0x3e4d6980	0.20059776
215	0xbe71cc50	-0.23613095
216	0x3dd4c899	0.103898235
217	0x3d2ed29b	0.042681318
218	0x3d20d5ce	0.0392664
219	0x3e26190b	0.1622049
220	0xbd5f2f61	-0.054488543
221	0xbe000b3d	-0.12504287
222	0x3e56cc32	0.20976332
223	0x3dd9d5e5	0.106365
224	0xbb1ffa24	-0.002441057
225	0x3b91ffc9	0.004455541
226	0xbd4f4fab	-0.050613087
227	0x3e3b5ecc	0.18297881
228	0x3e4c9e01	0.19982149
229	0x3e062fd6	0.13104185
230	0xbe25ffeb	-0.16210906
231	0xbdf87f22	-0.12133624
232	0xbe2ec5f0	-0.17067695
233	0xbd66ce04	-0.056348816
234	0xbd9ea17a	-0.07745643
235	0x3df98cbe	0.121850476
236	0xbd6b4879	-0.057442162
237	0x3cf50805	0.02991105
238	0xbd98f1ce	-0.074679956
239	0xbddb1b01	-0.1069851
240	0xbe135516	-0.14387926
241	0xbe5b12e7	-0.2139393
242	0x3d38e81e	0.04514324
243	0x3dea0c68	0.114281476
244	0x3dcbbac4	0.09947732
245	0x3d387fcc	0.04504375
246	0x3dc11507	0.09427839
247	0xbe38b821	-0.1803899
248	0xbe468900	-0.19388199
249	0x3d1e734c	0.038684174
250	0x3e05bb32	0.1305969
251	0xbd9ddb92	-0.07707895
252	0x3c6e7ecd	0.014556599
253	0x3dea1682	0.11430074
254	0xbd8863eb	-0.06659683
255	0x3c7368b3	0.014856505

layer2.bias f4 [64]
0	0x3c44d7bd	0.012014327
1	0x3cde2a37	0.027119739
2	0xbd7552f9	-0.059893582
3	0x3cf50823	0.029911106
4	0xbba73096	-0.0051022274
5	0xbd1b2de2	-0.037885554
6	0x3c9dc152	0.019257221
7	0xbc2a799b	-0.01040497
8	0x3c9c209d	0.01905852
9	0x3d0a433b	0.033755522
10	0xbd178e31	-0.03700084
11	0x3c1986e3	0.009370538
12	0xbbab474b	-0.0052270046
13	0x3c578c46	0.013156002
14	0x3ca37c51	0.01995674
15	0xbc64e038	-0.013969474
16	0xbc29b64e	-0.010358406
17	0xbc1db0cf	-0.009624674
18	0x3b63634e	0.0034696641
19	0xbd029a7a	-0.0318856
20	0xbcbe72ac	-0.02324804
21	0x3ca35e01	0.019942285
22	0xbc1b3496	-0.009472987
23	0xbb99e932	-0.0046969885
24	0xbced9482	-0.029001478
25	0x3cb87da5	0.02252085
26	0x3cd3a895	0.025837222
27	0xbbf5e50a	-0.00750411
28	0x3cf11d95	0.029433051
29	0xbc1ee079	-0.009697073
30	0xbd1167cc	-0.03549938
31	0xbcc3f05f	-0.023918329
32	0xba5d65d0	-0.0008445652
33	0x3cba0af6	0.022710305
34	0xbbdbb4db	-0.0067049093
35	0x3baaadf9	0.0052087274
36	0x3c923eaf	0.017852155
37	0x3c314b25	0.0108211385
38	0xbca0d01d	-0.019630486
39	0xbb9e2aed	-0.0048268945
40	0x3bd6f868	0.006560374
41	0x3ba1d523	0.004938738
42	0x3d87ed60	0.066370726
43	0x3d97ed0c	0.0741826
44	0x3c9b75cf	0.018977074
45	0x3c4ff67f	0.012693047
46	0xbced4dc8	-0.028967753
47	0xbcc9e829	-0.024646835
48	0x3cbe6b0d	0.023244405
49	0x3b7ceae2	0.003859215
50	0xbd773ee2	-0.060362704
51	0xbc5b69cb	-0.013391922
52	0x3cd712b8	0.026254043
53	0x3d1a24b4	0.03763266
54	0x3ca5a4af	0.020220129
55	0x3c2437b3	0.010023045
56	0x3ce5648f	0.028002052
57	0xbce65297	-0.028115554
58	0xbd05f22c	-0.032701656
59	0x3d3c9723	0.046042573
60	0x3cfbb83f	0.030727504
61	0x3ba156b2	0.004923665
62	0x3b0033c8	0.0019562114
63	0xbd196e9c	-0.037459

layer3.weight f4 [7, 64]
0	0x3d6abb9d	0.05730783
1	0x3e745b78	0.23863018
2	0xbe55ac79	-0.20866574
3	0xbe1a1507	-0.15047084
4	0xbe4ed838	-0.20199668
5	0xbe8e4c9b	-0.2779282
6	0xbe3507ae	-0.17678711
7	0x3e2b2249	0.16712297
8	0x3e556652	0.20839813
9	0x3d46275c	0.04837738
10	0x3cff30b5	0.031151155
11	0xbc81bfc5	-0.015838513
12	0x3e2e88ac	0.17044324
13	0x3e83cbc2	0.25741392
14	0x3ccc76b3	0.024958944
15	0x3e8dca16	0.27693242
16	0x3bb5452f	0.005531929
17	0xbe81cff8	-0.2535398
18	0x3e0be2c1	0.13660719
19	0xbe946596	-0.28983754
20	0xbd47b89c	-0.04876004
21	0x3c2c278d	0.0105074765
22	0x3e5d4754	0.21609241
23	0x3e6a30d6	0.22870192
24	0x3e021591	0.1270354
25	0x3d412a2a	0.04715935
26	0x3b837bb1	0.004012548
27	0x3e8e564a	0.27800208
28	0xbe36b8f3	-0.1784399
29	0x3e09e47f	0.1346607
30	0xbe9d7b13	-0.3075796
31	0xbe808510	-0.2510152
32	0xbe9da14e	-0.30787128
33	0xbdb121f0	-0.08649051
34	0x3e170640	0.14748478
35	0x3e3a3fec	0.18188447
36	0x3d6337c3	0.0554731
37	0xbe975362	-0.29555804
38	0xbdc1f48b	-0.09470471
39	0x3d89c80f	0.06727611
40	0x3e2b318f	0.16718124
41	0x3e784c95	0.24247964
42	0x3db69422	0.08914973
43	0x3e8f3843	0.27972612
44	0x3d396532	0.045262523
45	0x3e7a545e	0.24446246
46	0xbe596b03	-0.21232228
47	0xbe8882e5	-0.26662365
48	0x3c07f9de	0.008299319
49	0xbe0f6775	-0.1400431
50	0xbe220eee	-0.15826008
51	0x3e088491	0.1333182
52	0xbe4e0b00	-0.20121384
53	0x3e723b9b	0.2365555
54	0x3d05e839	0.032692168
55	0xbe935d73	-0.28782234
56	0x3c79b86c	0.0152417235
57	0xbe9004b9	-0.28128603
58	0xbe8a3ae9	-0.2699807
59	0x3e16a204	0.14710242
60	0x3e5fe248	0.21863663
61	0x3d7a4e4d	0.06110983
62	0x3c0b7c0e	0.008513464
63	0x3e29c815	0.16580231
64	0x3d61e1c8	0.055146962
65	0xbe9ae57e	-0.30253214
66	0xbe928f5c	-0.28625
67	0xbe96320f	-0.29335067
68	0xbcaf370d	-0.021388555
69	0xbe481f6e	-0.1954324
70	0x3d4882cb	0.04895286
71	0x3e05c95d	0.13065095
72	0xbe00d332	-0.12580565
73	0xbd9e4575	-0.077280916
74	0x3e35126b	0.17682807
75	0xbe20504f	-0.15655635
76	0x3d96b752	0.07359184
77	0xbe127080	-0.14300728
78	0xbe9c53d8	-0.30532718
79	0xbe536413	-0.20643644
80	0xbdbf97ef	-0.09355151
81	0x3dbd5517	0.09244745
82	0x3d839ab6	0.06425993
83	0xbdcce504	-0.10004619
84	0x3dd65c40	0.10466814
85	0xbdb953fe	-0.09049223
86	0x3e4a06e9	0.19729199
87	0x3d27ae15	0.040937502
88	0xbe27437c	-0.16334337
89	0xbc039b7a	-0.008032674
90	0x3ce0675b	0.027393034
91	0xbe038af6	-0.12845978
92	0xbe707627	-0.23482572
93	0xbe71ac21	-0.23600818
94	0xbea130c6	-0.31482524
95	0x3e34d1a1	0.17658092
96	0xbd1efb38	-0.0388138
97	0x3dd1acdf	0.10238051
98	0xbde3797a	-0.11107154
99	0x3c3b5dca	0.011435935
100	0x3e53d3c9	0.20686258
101	0xbd5b6696	-0.05356463
102	0xbdb6530f	-0.08902561
103	0xbe806a66	-0.25081176
104	0x3deb0fdd	0.11477635
105	0x3e9bee3b	0.30455193
106	0x3e6e0327	0.2324339
107	0x3e6d420e	0.23169729
108	0x3cb08f0c	0.021552585
109	0xbcfb3e40	-0.030669332
110	0x3de72b29	0.11287529
111	0x3d4f3f93	0.05059774
112	0x3c0790ae	0.00827424
113	0x3de64a08	0.11244589
114	0x3e1b32da	0.15156117
115	0x3eaae98d	0.3338131
116	0xbdeec2b1	-0.11658228
117	0xbea08947	-0.31354734
118	0x3c5768ca	0.013147542
119	0xbe866735	-0.26250616
120	0xbe8bbb31	-0.27291253
121	0xbe10685a	-0.14102307
122	0x3d3911c9	0.045182977
123	0xbd8f71e1	-0.070041426
124	0xbe05bc53	-0.13060121
125	0xbe6f9b8c	-0.2339918
126	0x3e3b3b90	0.1828444
127	0x3e031cfe	0.12804028
128	0xbda666a8	-0.08125049
129	0x3e96322c	0.29335153
130	0xbe88fb0d	-0.26754037
131	0x3eb25a13	0.34834346
132	0x3e7eb1a1	0.24872448
133	0xbe551a31	-0.20810772
134	0x3e9f6afb	0.31136307
135	0xbe28c125	-0.16479929
136	0x3e49da77	0.19712244
137	0x3e989d0c	0.29807317
138	0x3c014d78	0.007892005
139	0x3e5e9333	0.2173584
140	0x3e11f3a1	0.14253093
141	0x3cec6c8f	0.028860359
142	0x3e9a74e2	0.301673
143	0xbe0d1436	-0.13777241
144	0x3e8346c4	0.25639927
145	0xbea6e8be	-0.32599443
146	0xbe8908be	-0.26764482
147	0xbdc74640	-0.09730196
148	0xbd1e6b64	-0.038676634
149	0x3e873e40	0.2641468
150	0xbe654871	-0.22390915
151	0xbead0aa5	-0.33797184
152	0xbe2f13ee	-0.17097446
153	0xbdfb687a	-0.12275787
154	0xbd6253ad	-0.05525558
155	0x3e5d2a9c	0.21598285
156	0x3eb0fdcf	0.3456864
157	0x3e3a4640	0.18190861
158	0x3e412527	0.18861829
159	0xbd6ab571	-0.057301942
160	0x3dcaabe1	0.098960645
161	0xbda01d42	-0.078180805
162	0x3e29d1ae	0.16583893
163	0xbe65bb55	-0.22434743
164	0x3e23848e	0.15968534
165	0x3eacd7b7	0.33758327
166	0xbe67e910	-0.226475
167	0x3e284276	0.16431603
168	0xbd1400b7	-0.036133494
169	0xbcf92449	-0.03041281
170	0x3e830586	0.25590152
171	0x3ead007d	0.33789435
172	0x3dc69812	0.09696974
173	0x3e34bfc7	0.17651282
174	0xbe8f812b	-0.28028235
175	0x3e63c106	0.22241601
176	0xbd31d181	-0.04341269
177	0xbe1399e7	-0.14414178
178	0xbe7a94cf	-0.24470828
179	0xbedb61ee	-0.42848152
180	0x3e0145b6	0.12624249
181	0x3e5f5491	0.21809603
182	0x3e7daf33	0.24773864
183	0x3de0e7ed	0.10981736
184	0x3e63c446	0.22242841
185	0xbe2de355	-0.16981252
186	0x3dec26b1	0.11530817
187	0x3e9bde76	0.30443162
188	0x3e784c57	0.24247871
189	0x3de7b902	0.11314584
190	0xbe279235	-0.16364367
191	0xbed40338	-0.41408706
192	0xbe3f5f61	-0.18688728
193	0xbdab6d84	-0.08370498
194	0x3d42b6f3	0.047537755
195	0xbc7710f3	-0.015079725
196	0x3e458f3a	0.19292918
197	0xbe2a480b	-0.16629045
198	0xbe4f8527	-0.20265637
199	0xbde2f08c	-0.11081037
200	0xbe4cb19a	-0.19989625
201	0x3e6ef089	0.23333944
202	0x3e5f2323	0.21790747
203	0x3e6c4497	0.2307304
204	0x3d8e5b0b	0.06950959
205	0xbcb53f4e	-0.022124913
206	0x3dd398fc	0.10331914
207	0xbd131834	-0.035911754
208	0x3e823e75	0.25438276
209	0xbe7e3c42	-0.24827674
210	0xbdf0e78e	-0.117629156
211	0x3dcb6da1	0.099330194
212	0x3e76f187	0.24115573
213	0xbdebd21e	-0.11514686
214	0x3e00f1ac	0.1259219
215	0x3db385c0	0.08765745
216	0x3e92aed5	0.2864901
217	0xbe61a0f3	-0.22034054
218	0xbdcd30dd	-0.100190856
219	0x3e0e57cf	0.13900684
220	0xbe1f1520	-0.15535402
221	0x3d6004eb	0.05469219
222	0x3e746707	0.23867427
223	0x3e184e94	0.14873725
224	0xbdef91a2	-0.11697699
225	0xbdd5de02	-0.10442735
226	0x3d5d78ee	0.054070406
227	0xbe284289	-0.16431631
228	0x3e336093	0.17517309
229	0xbe6f3a15	-0.23362
230	0xbddf5d3c	-0.10906455
231	0x3e90ef0c	0.28307378
232	0x3dc5d3bd	0.096595265
233	0x3e83bcea	0.25730067
234	0xbe7d2ce6	-0.24724159
235	0x3dbb302a	0.09140046
236	0xbda519a4	-0.08061531
237	0x3e14c3f1	0.1452787
238	0xbbe5f89d	-0.0070181624
239	0x3e179a50	0.1480496
240	0x3de60362	0.11231114
241	0xbe161455	-0.14656194
242	0x3e8280af	0.25488803
243	0xbd562de1	-0.052289847
244	0xbd29e3d0	-0.041477025
245	0x3ad31413	0.0016104005
246	0x3d8fe6db	0.07026454
247	0x3db7c9c2	0.08974029
248	0xbd96276e	-0.07331739
249	0x3cea361d	0.028590256
250	0x3dac9daf	0.08428513
251	0x3e14bc94	0.14525062
252	0xbd50b653	-0.050955128
253	0xbe5d4d6c	-0.21611565
254	0xbcbea15b	-0.0232703
255	0xbe34a8b8	-0.17642486

layer3.bias f4 [7]
0	0x3d17e679	0.03708503
1	0x3d30cc44	0.043163553
2	0x3e0ec6ce	0.13943025
3	0xbda02a9d	-0.07820628
4	0xbd615131	-0.05500907
5	0xbbfabb57	-0.007651727
6	0xbda16720	-0.07880998
