maml_model/maml_PickupDist_7_2_350_50.pth (torch, 60294 bytes, 6 tensors)

layer1.weight f4 [64, 151]
0.11483116 0.14879282 -0.09441314 -0.01832571 -0.13478404 -0.042622343 -0.028528418 -0.076912
0.10067248 0.117812164 -0.034454495 0.0054598222 -0.061261233 0.14134103 -0.08489576 0.079355404
-0.060422752 -0.13365306 -0.14632681 0.114848 0.03220187 0.07469853 -0.059744157 0.026790181
0.050042856 -0.13759665 0.13363785 0.07839364 0.10303707 0.038013857 -0.11940721 0.1473599
0.019234968 -0.005272638 0.18112805 0.081274755 -0.1553262 -0.18464543 -0.085041076 0.13589266
0.12772016 -0.011596833 -0.094650775 -0.010731216 0.036523804 -0.12398699 0.12914073 0.14460875
-0.1000953 -0.021356989 0.121367015 0.15752369 -0.07741927 0.13111413 0.120539285 -0.020262787
-0.0056980182 -0.12587687 -0.17248085 -0.09736401 -0.07419947 0.06929614 -0.025234032 -0.014379946
-0.09345812 -0.06736471 0.07879107 -0.033607684 -0.15656812 -0.1447078 -0.14804702 0.057022143
-0.062235676 0.046845105 -0.019189505 0.08003474 -0.0027575209 0.08146036 -0.107679345 -0.13469315
-0.0048293336 0.07679844 -0.1588912 0.055167574 0.13379131 -0.03133191 -0.01826251 0.14685111
0.06708898 -0.09092528 -0.006707368 -0.13924532 0.11158281 0.05539613 0.15040395 0.13532816
-0.09147193 0.096862294 0.11813442 -0.028863803 -0.1316949 -0.028238751 -0.11560445 0.04792797
-0.04165054 0.07156646 -0.090897195 0.032430667 0.028003125 0.07287594 -0.060800754 -0.09708294
0.06706392 0.08899159 -0.052531026 -0.105282694 -0.036300346 0.17287272 -0.018302929 -0.043405555
0.1345117 -0.09822678 0.16077706 0.07604354 -0.118547186 0.072435245 0.11036968 -0.11459181
0.103213176 0.119530216 0.11807713 -0.060635306 0.14356688 -0.16511211 -0.14545655 -0.009476706
8.039927e-05 0.06930524 -0.07917137 -0.05812948 0.11026629 0.02364088 0.073275626 -0.1420236
0.13983496 0.06829637 0.15800391 0.1764671 -0.111141674 0.12398282 0.15342815 -0.095725514
0.1321698 0.063889235 0.12027119 -0.040164378 -0.16495454 -0.12724689 0.09620898 -0.054544356
-0.029267054 0.028776005 -0.06154127 0.08462808 0.018385137 -0.0638269 0.08190788 -0.01873902
-0.16473494 0.024598693 0.12221107 -0.06974348 -0.06299123 -0.06290381 -0.08909895 0.0059925914
-0.09975129 0.1468261 0.14651015 -0.134035 -0.11099097 -0.035316493 0.029334705 0.046735294
-0.09562633 0.035869982 0.04497829 -0.06375839 -0.10231947 -0.109967716 -0.046191968 -0.009267635
-0.01685088 0.0072316434 -0.0022013541 0.09699965 -0.09397917 0.00012925646 -0.051047713 -0.13692212
0.1458331 -0.042751826 0.013122076 -0.05002698 0.09948489 0.00084049784 0.058587678 -0.12274061
-0.009692271 -0.06836665 0.01816481 0.07584551 0.075898826 -0.07395015 0.014686607 -0.16126946
0.066655 -0.038824793 0.008517587 0.15225749 -0.052960888 0.053937417 0.15932828 -0.19414532
0.03707432 -0.06624403 -0.08266785 -0.09582286 -0.026786078 0.1433429 0.08315658 0.16021845
0.12410961 0.034715198 0.010083381 -0.022080692 0.013435048 0.14657342 0.044836085 -0.02219527
-0.042830784 -0.14337683 -0.11105263 0.15900946 0.0024633678 -0.059667602 0.13344231 -0.1037246
0.06666238 -0.0813897 -0.076891005 -0.10992736 0.030158278 -0.09438491 0.13326575 0.13457257
00000000: 992c eb3d 255d 183e ad5b c1bd cd1f 96bc
00000010: d404 0abe c494 2ebd 6eb4 e9bc 0a84 9dbd
00000020: 602d ce3d 8147 f13d 2820 0dbd 4fe8 b23b
00000030: 0fed 7abd b4bb 103e d4dd adbd 1685 a23d
00000040: d97d 77bd 59dc 08be b2d6 15be 6e35 eb3d
00000050: 1ce6 033d 8bfb 983d 4ab6 74bd 1577 db3c
00000060: bdf9 4c3d 23e6 0cbe 5cd8 083e d88c a03d
00000070: 1905 d33d 6bb4 1b3d c48b f4bd 83e5 163e
00000080: a792 9d3c 18c6 acbb a279 393e 6173 a63d
00000090: d50d 1fbe b113 3dbe 042a aebd 7227 0b3e
000000a0: 13c9 023e a500 3ebc 44d8 c1bd fbd1 2fbc
000000b0: fc99 153d e4ec fdbd 783d 043e 5114 143e
000000c0: c4fe ccbd daf4 aebc 458f f83d e44d 213e
000000d0: ff8d 9ebd c842 063e 4ddd f63d 25fe a5bc
000000e0: 71b6 babb dee5 00be d29e 30be c866 c7bd
000000f0: e4f5 97bd 22eb 8d3d 9ab7 cebc dd99 6bbc
00000100: f966 bfbd 82f6 89bd 365d a13d 36a8 09bd
00000110: 6553 20be 482e 14be a399 17be 0d90 693d
00000120: d6ea 7ebd a7e0 3f3d 4f33 9dbc 41e9 a33d
00000130: 86b7 34bb b0d4 a63d fd86 dcbd 00ed 09be
00000140: 633f 9ebb 8048 9d3d 60b4 22be 65f7 613d
00000150: 9700 093e e455 00bd 429b 95bc 2360 163e
00000160: f265 893d 0837 babd 7bc9 dbbb 5396 0ebe
00000170: 8785 e43d 0de7 623d 7e03 1a3e 7793 0a3e
00000180: a355 bbbd bd5f c63d 75f0 f13d c873 ecbc
00000190: 07db 06be f454 e7bc 07c2 ecbd 1e50 443d
000001a0: c299 2abd 7091 923d 4f28 babd 05d6 043d
000001b0: cf66 e53c fb3f 953d 360a 79bd 6cd3 c6bd
000001c0: cf58 893d 3941 b63d c62a 57bd 749e d7bd
000001d0: acaf 14bd 8c05 313e 06f0 95bc 06ca 31bd
000001e0: 6fbd 093e 1f2b c9bd bea2 243e b7bc 9b3d
000001f0: dec8 f2bd ee58 943d 8009 e23d 1caf eabd
00000200: 6e61 d33d 42cc f43d 6cd2 f13d ba5c 78bd
00000210: 3203 133e 2613 29be 90f2 14be 3044 1bbc
00000220: 089c a838 e8ef 8d3d 9924 a2bd 2d19 6ebd
00000230: 4bd3 e13d 85aa c13c 8811 963d a26e 11be
00000240: e530 0f3e f8de 8b3d c7cb 213e cbb3 343e
00000250: 3f9e e3bd b4ea fd3d 451c 1d3e bd0b c4bd
00000260: 8557 073e 5cd8 823d be50 f63d 6783 24bd
00000270: d8e9 28be 024d 02be 3709 c53d e769 5fbd
00000280: 76c1 efbc a8bb eb3c b312 7cbd 7d51 ad3d
00000290: 6d9c 963c aeb7 82bd 52bf a73d 9382 99bc
000002a0: 47b0 28be 3383 c93c cc49 fa3d abd5 8ebd
000002b0: 8c01 81bd b6d3 80bd 8379 b6bd 805d c43b
000002c0: 684a ccbd 9559 163e c206 163e 7940 09be
000002d0: 3c4f e3bd 07a8 10bd 564f f03c 826d 3f3d
000002e0: bdd7 c3bd 67ec 123d 283b 383d c293 82bd
000002f0: df8c d1bd c136 e1bd ca33 3dbd 47d7 17bc
00000300: db0a 8abc 6cf7 ec3b 9844 10bb c1a7 c63d
00000310: 2778 c0bd 0489 0739 6817 51bd 5035 0cbe
00000320: 4655 153e 8a1c 2fbd fafd 563c 17e9 4cbd
00000330: bcbe cb3d db54 5c3a a2f9 6f3d 6e5f fbbd
00000340: 55cc 1ebc d003 8cbd 5ece 943c e454 9b3d
00000350: d870 9b3d 2d73 97bd 18a0 703c d223 25be
00000360: 6b82 883d bf06 1fbd 598d 0b3c 63e9 1b3e
00000370: 84ed 58bd 7bed 5c3d f426 233e 08ce 46be
00000380: 3edb 173d f3aa 87bd c34d a9bd c73e c4bd
00000390: 7a6e dbbc 7bc8 123e ff4d aa3d 4e10 243e
000003a0: 2e2d fe3d 8631 0e3d c434 253c 91e2 b4bc
000003b0: ad1e 5c3c 5817 163e 0ba6 373d dbd2 b5bc
000003c0: 556f 2fbd 60d1 12be 906f e3bd 60d3 223e
000003d0: 7470 213b 0466 74bd 1aa5 083e 906d d4bd
000003e0: 4986 883d a5af a6bd 0879 9dbd 9921 e1bd
000003f0: 7e0e f73c e04c c1bd d176 083e 64cd 093e

layer1.bias f4 [64]
0.05962046 -0.064703725 0.024024919 0.02043028 -0.026811797 -0.0067566014 0.0154192895 0.00878062
0.0015285849 -0.0047230106 -0.025483783 0.0127403755 0.015562529 -0.011836565 0.0041174013 -0.00400158
-0.039632156 -0.026922844 0.005859515 0.003012717 0.009315757 0.030768136 0.026307449 0.03774047
-0.010812875 0.010471597 0.0065222364 0.010216704 0.008927091 0.013804002 -0.03341027 0.0274407
0.010046453 -0.045381848 0.022619069 0.032489322 0.014323852 -0.0034055694 -0.016550457 0.0051918123
0.0064875144 -0.027838439 0.0061869305 0.03340024 0.010869399 -0.02144253 0.02630117 -0.027531886
-0.0062908493 0.043497097 -0.043986093 0.028239701 -0.024416395 -0.011064105 0.03219615 -0.008057613
0.024108546 -0.02831908 0.030923868 0.02913234 -0.0054198587 0.0001863282 0.0065942677 -0.012816966
00000000: 9534 743d 6383 84bd e8cf c43c 675d a73c
00000010: 6aa4 dbbc 7b66 ddbb 30a1 7c3c 97dc 0f3c
00000020: cc5a c83a 7cc3 9abb 5ec3 d0bc 02bd 503c
00000030: faf9 7e3c 27ee 41bc 44eb 863b b01f 83bb
00000040: 5455 22bd 4c8d dcbc 2d01 c03b 0171 453b
00000050: 1ea1 183c 750d fc3c b882 d73c c095 1a3d
00000060: 7c28 31bc 1091 2b3c 7cb8 d53b f663 273c
00000070: ef42 123c 2e2a 623c 35d9 08bd 52cb e03c
00000080: e199 243c 51e2 39bd a04b b93c 8613 053d
00000090: 97ae 6a3c f92f 5fbb d394 87bc 1420 aa3b
000000a0: 3795 d43b 700d e4bc bcbb ca3b b1ce 083d
000000b0: 9015 323c 3fa8 afbc 8d75 d73c 8d8a e1bc
000000c0: 7823 cebb 032a 323d c32a 34bd f256 e73c
000000d0: e404 c8bc 3846 35bc 1ce0 033d 1404 04bc
000000e0: 497f c53c 6afd e7bc 0d54 fd3c f2a6 ee3c
000000f0: 1299 b1bb 1861 4339 ba14 d83b 40fe 51bc

layer2.weight f4 [64, 64]
0.11934141 -0.21489125 -0.12719408 -0.06298313 -0.059078556 -0.060239527 -0.20187613 -0.103364505
-0.08265539 -0.19291332 -0.048085347 -0.026328279 -0.17208733 -0.07327039 0.19249892 0.09106604
-0.007117447 -0.14854334 0.18949176 0.16636239 -0.06290872 0.024191815 0.04462594 0.054989006
0.08809408 -0.14940359 -0.13374732 0.08194856 0.19897962 0.11583448 -0.074479505 -0.17057854
0.08521453 -0.11741198 0.097755715 -0.12248728 -0.20141776 -0.15841012 -0.066419385 -0.049406126
0.025971219 0.042782564 0.13464253 0.005088144 -0.18462345 0.22314301 0.17309603 -0.21015818
0.20686686 -0.074287646 0.030463712 -0.1264608 -0.0435868 -0.042679667 0.18613142 -0.17173034
0.16663693 0.060818948 0.13426383 0.19036238 0.11892688 -0.0740979 -0.16051047 -0.04743614
0.12726416 -0.12398296 -0.1521427 0.06308566 -0.1880933 -0.0036964873 0.028548501 0.009709469
0.11220512 0.07341807 -0.034054466 -0.18742836 0.10929529 -0.05585374 -0.19376135 0.018028654
0.07862055 -0.031251844 0.015817542 -0.03373178 -0.16524705 -0.14912097 -0.13327721 -0.09938526
-0.12742187 -0.061486017 -0.19435173 0.1699695 0.0153480545 0.029337779 0.19386469 0.012509382
0.03528869 0.07337072 -0.085449405 -0.08852737 -0.06062607 0.07811948 0.13794585 0.09150057
-0.19231598 -0.06608332 -0.058384206 0.21230584 -0.02283792 0.042305075 -0.15499583 -0.21385942
0.16116098 0.120050594 -0.19846092 0.012550412 -0.1005308 -0.0011855748 -0.020578658 -0.099060275
0.032741006 -0.18455803 -0.092340864 0.029178392 -0.17011438 -0.13085142 0.002928103 0.0033734576
0.10665084 0.032369923 -0.1498905 0.17905313 0.14056714 0.02712328 -0.20374484 -0.046877462
-0.094860785 0.17625934 0.10458312 -0.07247119 -0.1917542 0.009315933 -0.08483269 -0.15781838
0.11845597 0.19675338 -0.05306701 0.024247339 -0.08447204 -0.1757723 0.060965978 0.10871761
-0.040502325 0.014688134 -0.21688892 0.14119968 -0.076222174 0.05606322 0.07803437 -0.117872104
0.10964228 0.04267934 -0.18104275 -0.079682484 0.05540939 0.006542993 -0.12443403 -0.016837599
0.0057173287 0.04342575 0.058897726 0.14649102 0.09850708 0.1526975 0.15967676 0.026188588
-0.04739584 -0.21601593 0.16509502 -0.16039144 -0.09729823 0.116754845 -0.21354343 0.14094152
-0.070239544 0.20652501 -0.044603817 0.12086513 0.22999774 0.2253585 0.032107178 0.12784044
-0.182709 -0.19451115 0.2193363 -0.1991967 -0.031551633 0.15268534 -0.03242046 0.049746342
-0.06867446 0.13823666 0.097071625 -0.06671985 -0.07608624 -0.036453795 0.16492482 0.057971995
-0.1407913 0.036050692 -0.20920534 -0.07884223 0.002502951 -0.0019598487 -0.046045132 -0.085059874
0.14915714 -0.09199316 0.20205991 -0.15727799 -0.04173708 -0.08134453 0.012354611 -0.03299691
-0.13743205 0.0048858044 0.21277782 -0.18555467 0.010885203 0.17506339 0.12052295 -0.24782965
-0.12843294 0.08524966 -0.12032782 -0.19695313 0.17560616 -0.032711748 -0.14160228 -0.11849436
0.20454061 0.04927193 -0.027573848 -0.06700992 0.16065198 0.18537377 0.08996733 0.20056677
0.20182717 0.029145347 -0.07108669 -0.04024835 -0.08380236 0.23672011 0.18975508 0.23243546
00000000: 4569 f43d 740c 5cbe 2a3f 02be 4dfd 80bd
00000010: 5bfc 71bd b9bd 76bd 9eb8 4ebe c5b0 d3bd
00000020: 3b47 a9bd 128b 45be 24f5 44bd 67ae d7bc
00000030: a937 30be c90e 96bd 701e 453e d580 ba3d
00000040: 7939 e9bb bf1b 18be 210a 423e e75a 2a3e
00000050: 49d6 80bd ea2d c63c b1c9 363d 273c 613d
00000060: ab6a b43d 41fd 18be 0ff5 08be a6d4 a73d
00000070: 50c1 4b3e a13a ed3d b688 98bd 24ac 2ebe
00000080: f584 ae3d b175 f0bd 2634 c83d 9cda fabd
00000090: 7540 4ebe 4336 22be e306 88bd 145e 4abd
000000a0: 98c1 d43c c53c 2f3d bbdf 093e 72ba a63b
000000b0: ee0d 3dbe 9a7f 643e 1640 313e b533 57be
000000c0: e8d4 533e 1f24 98bd 098f f93c f17e 01be
000000d0: 1388 32bd e0d0 2ebd 3c99 3e3e 14da 2fbe
000000e0: dfa2 2a3e 4a1d 793d 757c 093e 5bee 423e
000000f0: f08f f33d a4c0 97bd db5c 24be 664c 42bd
00000100: 8951 023e c7ea fdbd 4ccb 1bbe 0e33 813d
00000110: 889b 40be c440 72bb 8cde e93c 7714 1f3c
00000120: cccb e53d 375c 963d b27c 0bbd 38ed 3fbe
00000130: 36d6 df3d e4c6 64bd 6069 46be d4b0 933c
00000140: d003 a13d ef01 00bd ca93 813c 562a 0abd
00000150: 8636 29be 2bb3 18be d279 08be 808a cbbd
00000160: e17a 02be c3d8 7bbd 2404 47be 7c0c 2e3e
00000170: 6876 7b3c c855 f03c 7784 463e 27f4 4c3c
00000180: e08a 103d 6343 963d 1900 afbd d64d b5bd
00000190: 0b53 78bd 1bfd 9f3d ad41 0d3e a764 bb3d
000001a0: 7bee 44be b156 87bd 4724 6fbd b466 593e
000001b0: 9716 bbbc 1648 2d3d 3ab7 1ebe f7fd 5abe
000001c0: 6207 253e 16dd f53d 5739 4bbe 3ea0 4d3c
000001d0: 18e3 cdbd 4a65 9bba 9394 a8bc 1de0 cabd
000001e0: 6f1b 063d c8fc 3cbe 351d bdbd 8607 ef3c
000001f0: 7732 2ebe eafd 05be 6be5 3f3b 3a15 5d3b
00000200: c16b da3d 5396 043d e57c 19be b459 373e
00000210: d5f0 0f3e a431 de3c 7da2 50be 9502 40bd
00000220: 5f46 c2bd 547d 343e ad2f d63d c66b 94bd
00000230: 375b 44be dba1 183c c3bc adbd 249b 21be
00000240: 0b99 f23d b879 493e cb5c 59bd 5ba2 c63c
00000250: adff acbd a7fd 33be 76b7 793d 57a7 de3d
00000260: c4e5 25bd 80a6 703c 2118 5ebe a696 103e
00000270: 5f1a 9cbd 8ca2 653d 7cd0 9f3d ee66 f1bd
00000280: 228c e03d 88d0 2e3d 4563 39be 9230 a3bd
00000290: f5f4 623d 9a66 d63b 45d7 febd 01ef 89bc
000002a0: 6e58 bb3b 33df 313d be3e 713d be01 163e
000002b0: 14be c93d bc5c 1c3e 4e82 233e 7389 d63c
000002c0: 2422 42bd 4833 5dbe ab0e 293e a73d 24be
000002d0: 4b44 c7bd 2a1d ef3d 21ab 5abe f952 103e
000002e0: c0d9 8fbd 4b7b 533e 7eb2 36bd 2388 f73d
000002f0: 8784 6b3e 61c4 663e d182 033d 9be8 023e
00000300: 1118 3bbe ee2d 47be b299 603e 38fa 4bbe
00000310: 493c 01bd 8c59 1c3e 51cb 04bd d2c2 4b3d
00000320: 32a5 8cbd e98d 0d3e 7dcd c63d 6ba4 88bd
00000330: 1ad3 9bbd 9350 15bd 0de2 283e 0b74 6d3d
00000340: 982b 10be e4a9 133d ed39 56be 0978 a1bd
00000350: 8d08 243b ce70 00bb d299 3cbd df33 aebd
00000360: a6bc 183e e966 bcbd cbe8 4e3e 7b0d 21be
00000370: 80f4 2abd f697 a6bd ff6a 4a3c c527 07bd
00000380: fdba 0cbe 1919 a03b 6ee2 593e 0b02 3ebe
00000390: da57 323c d143 333e bdd4 f63d 0ec7 7dbe
000003a0: ed83 03be 6097 ae3d 6f6e f6bd 15ae 49be
000003b0: 1ad2 333e c1fc 05bd 3000 11be 2cad f2bd
000003c0: 1873 513e 5dd1 493d 8de2 e1bc 7f3c 89bd
000003d0: f481 243e 9fd2 3d3e cb40 b83d 6061 4d3e
000003e0: c8ab 4e3e 39c2 ee3c e695 91bd 74db 24bd
000003f0: 92a0 abbd c266 723e 284f 423e 9003 6e3e

layer2.bias f4 [64]
-0.0040475014 0.025792435 -0.048077192 -0.018439451 -0.0033099682 -7.543829e-05 0.021511668 0.00489373
-0.06644146 -0.023648644 0.045208514 0.03627597 0.010397086 -0.007541191 0.010076728 0.029212004
0.043537967 0.018319493 -0.0045580543 0.033524927 0.0045359014 -0.013638219 0.040249795 0.0022128432
-0.0071580573 0.024820173 -0.022794615 0.01611661 -0.021639047 -0.04607789 -0.0067650704 -0.01688011
0.0068070926 0.004092223 0.03443053 0.02677622 0.0006670412 -0.0045607616 0.025304858 -0.004360756
-0.032358587 0.026268851 0.044581875 -0.018070694 -0.027320875 0.00555219 -0.033757135 0.033425074
-0.02131002 0.009943742 0.010031419 -0.015355086 0.009776253 0.015312354 -0.00057780324 -0.031741843
0.0015686309 0.052936886 0.07048177 0.019877624 0.015826318 0.027576474 0.03422051 0.023165666
00000000: e7a0 84bb a84a d33c 97ec 44bd 550e 97bc
00000010: 0dec 58bb a034 9eb8 3d39 b03c 955b a03b
00000020: 7612 88bd cdba c1bc 902c 393d 1d96 143d
00000030: 8a58 2a3c 181c f7bb dc18 253c 034e ef3c
00000040: de54 323d c312 963c bb5b 95bb 6f51 093d
00000050: e6a1 943b d672 5fbc f8dc 243d 5905 113b
00000060: 238e eabb ad53 cb3c c6bb babc fb06 843c
00000070: 5f44 b1bc 2bbc 3cbd 86ad ddbb 2848 8abc
00000080: 080e df3b 0e18 863b 0707 0d3d ce59 db3c
00000090: 61dc 2e3a 7172 95bb 224c cf3c ace4 8ebb
000000a0: 708a 04bd c631 d73c 7c9b 363d fe08 94bc
000000b0: 07d0 dfbc 25ef b53b ec44 0abd bbe8 083d
000000c0: 5a92 aebc 14eb 223c d25a 243c e693 7bbc
000000d0: 942c 203c abe0 7a3c b877 17ba bc03 02bd
000000e0: 859a cd3a 59d4 583d bf58 903d 66d6 a23c
000000f0: 32a6 813c 0fe8 e13c ce2a 0c3d ecc5 bd3c

layer3.weight f4 [7, 64]
-0.09779063 -0.19901988 0.27444115 0.24597588 -0.29557762 0.22429782 -0.043096073 -0.05797403
0.24210179 0.1598724 -0.26008484 0.16105947 0.07165791 -0.029947385 -0.10165857 0.028989993
0.21168308 -0.036018588 -0.21546145 -0.2508274 -0.1872604 0.20790292 -0.09650142 0.24155852
-0.29837835 -0.030673884 -0.07593305 0.033080038 0.05081915 0.20636159 -0.05669205 0.031927682
-0.10012901 -0.09071111 -0.082177535 -0.19148472 -0.13751669 0.26654443 0.27685425 -0.2787088
-0.1782607 0.090088174 -0.1718357 -0.13610597 -0.23538941 0.07538117 0.14256622 -0.26519156
0.20228718 -0.21941757 0.23266411 0.18763646 -0.1871895 0.13663062 0.1665586 -0.25964475
-0.19317544 0.23322497 -0.12634926 -0.23988402 0.134944 0.018201116 -0.15897705 -0.18162867
0.057724934 0.15892911 -0.24482761 0.14816234 -0.20438132 -0.11327957 0.14437571 -0.2259337
-0.1843834 0.10080804 0.2401793 -0.053917207 -0.016742542 0.08580149 -0.27788657 0.21048714
-0.25427487 -0.052428864 -0.12853123 0.06749583 -0.1123076 0.25775602 -0.04294443 -0.002064549
0.13963342 -0.114626616 -0.07540688 0.20776166 0.27710593 -0.06749994 0.126794 0.037916753
0.10806257 -0.19162804 -0.23507932 -0.24779825 -0.29490802 0.23244362 0.069832444 0.04309789
-0.30229005 -0.058619123 0.28729948 -0.07702036 0.1285926 0.3378748 -0.2368627 0.1812579
-0.12073663 0.11228636 -0.3031662 0.06563526 0.024378253 0.21214841 0.03280916 0.31008616
0.31397724 0.25371966 0.03732513 -0.044060133 0.14818144 0.0014312688 -0.23471847 0.026228793
-0.14066893 0.20657068 -0.30853465 0.04697705 0.15342934 -0.3001924 0.2018738 -0.061739836
-0.16305088 -0.23330042 0.15499139 0.13371766 -0.17535888 -0.11742429 0.10646671 0.15838279
0.22554852 0.20989084 -0.3095191 -0.074942544 0.099742696 -0.30343434 0.25786787 -0.07279182
-0.011175136 0.2654861 0.020630356 0.18022062 -0.18119471 -0.16277072 -0.10309785 -0.23829578
0.11927074 -0.093084365 0.08788226 0.13030553 -0.16223139 -0.23681886 0.08215496 0.01091596
0.006882311 0.12462542 -0.081614725 -0.20790619 -0.07908523 -0.184624 -0.20952266 0.12591538
-0.33601493 0.17486554 0.13081133 0.0032851095 0.13705683 0.18869103 -0.23663673 -0.37033156
-0.31472257 0.24002288 0.3515417 0.037543777 -0.19628264 0.24183726 0.0100367535 0.22460258
-0.12450081 0.07590007 0.034769807 -0.38455722 -0.11099807 -0.033351894 0.10524937 0.042114325
-0.27718365 -0.22465947 0.3010852 0.09150252 0.3439881 0.11125166 -0.1498505 0.07501135
0.23227556 0.17548795 0.003983874 0.35674655 -0.16503948 0.17696476 -0.040006585 0.25925785
0.2514725 0.13473555 0.10611034 -0.17202584 -0.022127915 -0.2386654 0.22145823 -0.109956495
0.25711903 -0.16868949 0.11484654 0.27313605 0.03694605 0.26878285 0.25870577 -0.18757543
-0.16781585 0.25443417 0.1783039 -0.105720185 -0.20859563 0.14292806 -0.21587683 -0.18819676
0.2705283 -0.12970412 0.14062613 0.29309124 0.20078379 0.08658295 0.25486484 0.09006266
0.2986062 0.17792888 0.19314526 0.31751737 0.21056415 0.23232046 0.08489375 -0.23749618
00000000: 7446 c8bd decb 4bbe 8d83 8c3e 1ae1 7b3e
00000010: f355 97be 54ae 653e 8285 30bd 2d76 6dbd
00000020: 88e9 773e 97b5 233e d729 85be c6ec 243e
00000030: 62c1 923d 3854 f5bc 5e32 d0bd 6c7c ed3c
00000040: 73c3 583e 3a88 13bd eda1 5cbe 736c 80be
00000050: 31c1 3fbe 81e4 543e 89a2 c5bd 1e5b 773e
00000060: 0cc5 98be cc47 fbbc c982 9bbd ef7e 073d
00000070: be27 503d 7450 533e ec35 68bd 9ac6 023d
00000080: 7010 cdbd bfc6 b9bd b24c a8bd 9214 44be
00000090: 2dd1 0cbe 8378 883e d7bf 8d3e ebb2 8ebe
000000a0: f989 36be 2680 b83d b3f5 2fbe 5d5f 0bbe
000000b0: ec09 71be 7161 9a3d e1fc 113e 30c7 87be
000000c0: 5f24 4f3e 00af 60be 803f 6e3e c623 403e
000000d0: 9bae 3fbe e6e8 0b3e 568e 2a3e 28f0 84be
000000e0: c8cf 45be 87d2 6e3e b361 01be 28a4 75be
000000f0: c32e 0a3e 821a 953c e1ca 22be defc 39be
00000100: fb70 6c3d 50be 223e 17b4 7abe deb7 173e
00000110: 5649 51be 1fff e7bd 3ad7 133e 2a5b 67be
00000120: 01cf 3cbe 7274 ce3d 90f1 753e 4ad8 5cbd
00000130: a827 89bc b1b8 af3d 2647 8ebe f189 573e
00000140: 5130 82be a6bf 56bd b19d 03be 413b 8a3d
00000150: 8701 e6bd 99f8 833e 80e6 2fbd 624d 07bb
00000160: 10fc 0e3e 5cc1 eabd ec6e 9abd 79bf 543e
00000170: d4e0 8d3e 693d 8abd 49d6 013e 994e 1b3d
00000180: e94f dd3d 243a 44be a2b8 70be d3be 7dbe
00000190: 2ffe 96be b305 6e3e 5004 8f3d 6a87 303d
000001a0: c3c5 9abe 9b1a 70bd eb18 933e dabc 9dbd
000001b0: c7ad 033e edfd ac3e 238c 72be ac9b 393e
000001c0: c444 f7bd 64f6 e53d 9a38 9bbe c76b 863d
000001d0: e7b4 c73c 6f3d 593e e662 063d 9dc3 9e3e
000001e0: a0c1 a03e 8be7 813e 3ce2 183d 6678 34bd
000001f0: e0bc 173e 6999 bb3a 0a5a 70be c4dd d63c
00000200: 840b 10be 4487 533e 41f8 9dbe 026b 403d
00000210: 951c 1d3e d1b2 99be 01b8 4e3e e9e2 7cbd
00000220: cff6 26be 4ee6 6ebe 10b6 1e3e 48ed 083e
00000230: 4791 33be 257c f0bd 380b da3d 192f 223e
00000240: 31f6 663e a0ed 563e 4a79 9ebe 7a7b 99bd
00000250: e645 cc3d bf5b 9bbe 4207 843e e113 95bd
00000260: eb17 37bc cbed 873e fe00 a93c c18b 383e
00000270: 1b8b 39be 5ead 26be f724 d3bd cf03 74be
00000280: 3844 f43d 04a3 bebd 9dfb b33d d06e 053e
00000290: fc1f 26be a580 72be dc40 a83d dbd8 323c
000002a0: 0285 e13b 9d3b ff3d 9f25 a7bd 5ce5 54be
000002b0: 70f7 a1bd 130e 3dbe 1c8d 56be f6ef 003e
000002c0: 260a acbe f40f 333e 68f3 053e fe4a 573b
000002d0: a058 0c3e 3938 413e e650 72be 199c bdbe
000002e0: 5123 a1be 8fc8 753e 46fd b33e 81c7 193d
000002f0: 51fe 48be 30a4 773e 3271 243c 38fe 653e
00000300: 48fa febd 7f71 9b3d c96a 0e3d afe4 c4be
00000310: f552 e3bd ff9b 08bd fb8c d73d 1280 2c3d
00000320: 04eb 8dbe 220d 66be d727 9a3e ac65 bb3d
00000330: 351f b03e e9d7 e33d 6972 19be 8d9f 993d
00000340: a5d9 6d3e 1db3 333e 288b 823b 7ca7 b63e
00000350: 1c00 29be 4036 353e f2dd 23bd 72bd 843e
00000360: 01c1 803e 1ef8 093e 6150 d93d 8b27 30be
00000370: 9a45 b5bc b464 74be f2c5 623e df30 e1bd
00000380: 1ba5 833e f0bc 2cbe aa34 eb3d 7dd8 8b3e
00000390: be54 173d e89d 893e 1575 843e c613 40be
000003a0: ebd7 2bbe 3245 823e 4c95 363e d383 d8bd
000003b0: 189a 55be bc5b 123e d10e 5dbe a7b6 40be
000003c0: af82 8a3e 28d1 04be 4c00 103e 0e10 963e
000003d0: 449a 4d3e 6752 b13d a57d 823e c672 b83d
000003e0: e9e2 983e fd32 363e dfc7 453e a391 a23e
000003f0: 219e 573e 6ae5 6d3e c6dc ad3d 3332 73be

layer3.bias f4 [7]
-0.016730156 -0.011948365 0.11479079 0.081051946 -0.08985427 -0.03734331 -0.039970633
00000000: ae0d 89bc 13c3 43bc 6f17 eb3d 90fe a53d
00000010: 8405 b8bd 4cf5 18bd 3fb8 23bd
