maml_model/maml_OpenDoorsOrder_7_3_500_50_encoder.pth (torch, 23870 bytes, 6 tensors)

net.0.weight f4 [32, 30]
-0.18204546 -0.14276975 0.15001345 -0.016539544 0.11073974 0.009828731 -0.11564688 0.17217246
-0.120123774 -0.06438582 0.15973327 -0.13860223 -0.0699235 -0.1739894 -0.17870787 -0.11492695
-0.073030755 0.01856324 -0.028545022 -0.009518757 0.0013857335 0.17645183 0.05501516 0.06533235
0.16700363 -0.16909593 0.023604691 0.062413782 -0.041181624 -0.06457301 -0.011166573 -0.05232604
0.036493883 0.056527793 0.11724001 -0.10847402 -0.099056005 -0.11238729 0.16767952 -0.045957282
0.06270021 0.039651588 -0.052709073 -0.081177615 -0.028631374 0.016673684 0.030158207 -0.01938656
0.05267158 0.03947787 0.007801324 -0.11695704 -0.10637368 -0.16118349 0.10564309 0.0924637
-0.14057866 -0.12337366 0.093678474 0.13600391 0.08086902 0.11634335 0.121947885 -0.16208838
-0.15117063 -0.11149225 -0.13133366 0.04943967 -0.061137505 0.14918786 0.0057391822 0.038260967
-0.18233769 0.048486277 -0.09557331 0.040635243 0.12799492 -0.08238729 -0.1652348 0.15820497
0.06365855 -0.06171152 0.07087636 -0.012068585 0.041278884 0.066264406 0.12498677 0.030904323
0.1382837 0.07723448 0.11236051 -0.10650553 -0.16048881 0.0072707683 0.18201604 -0.02182874
-0.045351267 0.12230942 0.023911133 -0.11891245 -0.040918246 -0.091214314 -0.00891687 0.11207062
0.1293745 0.13269386 0.05646947 -0.1274538 0.07276639 0.1658664 0.05875936 0.15483198
0.14932987 -0.14122948 0.17271432 0.175392 0.14904061 0.1274446 -0.08442497 0.04056965
-0.027979538 0.02255933 0.12666127 0.120417565 -0.025918469 0.040826768 -0.16991399 0.039503306
-0.04044433 -0.13804817 -0.10574247 0.09417221 -0.04873033 0.07366213 -0.12696919 -0.037704885
0.12341401 -0.11260017 0.11224088 -7.5519085e-05 -0.1332793 -0.097723864 0.012114987 -0.04757966
0.0070756227 -0.1661981 -0.10186879 0.11689764 -0.0037856102 -0.08566329 0.055225164 0.14928436
-0.034457266 -0.037255034 -0.05917935 -0.12965956 0.022218853 -0.1418775 0.08544648 -0.02124469
-0.03451112 0.06350592 -0.0648321 -0.09508078 0.11963543 -0.17484877 0.072879195 0.016488329
-0.09440408 -0.049263313 -0.1456721 0.17506233 0.018062234 -0.0344384 -0.063563205 -0.0045169294
-0.102314115 -0.11078947 -0.094138205 -0.12684137 -0.12781939 -0.072480634 0.002395451 0.12274709
0.16189075 0.020015895 -0.10317022 -0.15246277 -0.05477728 0.04466358 0.094475925 -0.10635679
0.15550876 0.120975226 -0.081725605 -0.019976318 -0.08663738 -0.13252391 -0.07636896 0.0005236119
-0.14766783 -0.039632246 0.107393354 0.021079674 -0.0722986 -0.08525901 0.07215494 0.065059096
-0.15189402 0.14414778 0.11296764 0.17778486 -0.05529046 0.089845896 0.17948595 0.005038038
-0.14725073 -0.107700884 -0.07583755 0.08463588 0.047067136 -0.052858233 0.15807268 0.050705805
0.040889055 -0.104307964 0.05853212 -0.026219964 0.07213768 0.039426968 -0.18074171 0.10778412
0.14945662 -0.049978867 -0.07524669 -0.028879687 -0.050237447 0.17715472 -0.13039005 -0.14997146
0.022844687 0.14755997 0.09308159 0.14473206 0.034949675 0.14280632 0.004852295 0.1564444
0.16796139 0.11773774 -0.12634547 0.0208641 0.11530599 -0.038244233 -0.08521483 -0.026256919
00000000: 206a 3abe 3c32 12be 209d 193e f07d 87bc
00000010: 84cb e23d b008 213c 45d8 ecbd fa4d 303e
00000020: 7403 f6bd b6dc 83bd 1e91 233e beed 0dbe
00000030: 0d34 8fbd 472a 32be 32ff 36be d25e ebbd
00000040: 2691 95bd f011 983c 40d7 e9bc 90f4 1bbc
00000050: 80a1 b53a caaf 343e 9457 613d f8cc 853d
00000060: 0003 2b3e 7c27 2dbe a05e c13c 98a5 7f3d
00000070: 10ae 28bd db3e 84bd 00f4 36bc d453 56bd
00000080: 9c7a 153d b089 673d 881b f03d a127 debd
00000090: e0dd cabd 4f2b e6bd 2eb4 2b3e b43d 3cbd
000000a0: f868 803d b469 223d 78e5 57bd 7340 a6bd
000000b0: 588c eabc 4097 883c 580e f73c 90d0 9ebc
000000c0: 28be 573d 8cb3 213d 40a2 ff3b 2c87 efbd
000000d0: 72da d9bd 490d 25be 685b d83d 9c5d bd3d
000000e0: daf3 0fbe 54ab fcbd 80da bf3d 9c44 0b3e
000000f0: a89e a53d 6c45 ee3d d0bf f93d 7ffa 25be
00000100: 79cc 1abe 0c56 e4bd 557c 06be 4081 4a3d
00000110: 526b 7abd b4c4 183e c00f bc3b 88b7 1c3d
00000120: bbb6 3abe 8c99 463d f1bb c3bd 2471 263d
00000130: 1a11 033e abba a8bd 5033 29be 7c00 223e
00000140: 6a5f 823d 38c5 7cbd a027 913d 50bb 45bc
00000150: 0c14 293d a2b5 873d 10f9 ff3d 102b fd3c
00000160: 3e9a 0d3e 1c2d 9e3d 441d e63d 921f dabd
00000170: 2e57 24be a03f ee3b 6a62 3a3e 30d2 b2bc
00000180: 40c2 39bd 5c7d fa3d 48e1 c33c 5f88 f3bd
00000190: e499 27bd 92ce babd 1018 12bc 4885 e53d
000001a0: c07a 043e e6e0 073e 884c 673d 4083 02be
000001b0: 8c06 953d e2d8 293e a8ad 703d 468c 1e3e
000001c0: eee9 183e 769e 10be 06dc 303e f699 333e
000001d0: 1a9e 183e d680 023e 00e7 acbd 5c2c 263d
000001e0: 5835 e5bc 58ce b83c 7eb3 013e 7c9d f63d
000001f0: f852 d4bc f839 273d effd 2dbe 38ce 213d
00000200: f4a8 25bd 805c 0dbe 828f d8bd 5cdd c03d
00000210: 7499 47bd 2cdc 963d 3604 02be 7070 1abd
00000220: 7cc0 fc3d eb9a e6bd 8cde e53d 0060 9eb8
00000230: 5e7a 08be 7323 c8bd f07d 463c e4e2 42bd
00000240: a0da e73b d62f 2abe 96a0 d0bd 0868 ef3d
00000250: 0018 78bb 3c70 afbd c833 623d 00de 183e
00000260: 1023 0dbd bc98 18bd 0c66 72bd 7ac5 04be
00000270: 5004 b63c 5648 11be 90fe ae3d 5809 aebc
00000280: 885b 0dbd 640f 823d b1c6 84bd b6b9 c2bd
00000290: 6c03 f53d 8e0b 33be b041 953d 8812 873c
000002a0: ed56 c1bd 54c8 49bd 112b 15be 8a43 333e
000002b0: 40f7 933c 480f 0dbd 6d2d 82bd c002 94bb
000002c0: 108a d1bd 97e5 e2bd 88cb c0bd b4e2 01be
000002d0: 16e3 02be ba70 94bd 00fd 1c3b d462 fb3d
000002e0: b0c6 253e 60f8 a33c e94a d3bd 331f 1cbe
000002f0: 245e 60bd 28f1 363d 987c c13d 97d1 d9bd
00000300: b03d 1f3e dcc1 f73d c15f a7bd 60a5 a3bc
00000310: f06e b1bd 59b4 07be 5467 9cbd 0043 093a
00000320: 3c36 17be 6c55 22bd 0cf1 db3d 48af ac3c
00000330: 4a11 94bd 479c aebd f8c5 933d b43d 853d
00000340: 1b8a 1bbe 7a9b 133e 945b e73d 3c0d 363e
00000350: 4078 62bd 2001 b83d 2acb 373e 2016 a53b
00000360: e5c8 16be 4892 dcbd b850 9bbd 9455 ad3d
00000370: 78c9 403d e081 58bd cedd 213e e4b0 4f3d
00000380: 487b 273d 6a9f d5bd 60bf 6f3d 40cb d6bc
00000390: ecbc 933d 2c7e 213d 5b14 39be ecbd dc3d
000003a0: 280b 193e a4b6 4cbd f01a 9abd 1895 ecbc
000003b0: c8c5 4dbd 0c68 353e f884 05be 1e92 19be
000003c0: c824 bb3c f619 173e 90a1 be3d a434 143e
000003d0: 6427 0f3d d23b 123e 0000 9f3b f632 203e
000003e0: 12fe 2b3e 7c20 f13d b560 01be 30eb aa3c
000003f0: 8c25 ec3d fca5 1cbd 1d85 aebd c018 d7bc

net.0.bias f4 [32]
-0.12522314 0.14427936 -0.08801728 0.019580752 -0.06400812 -0.029261857 -0.14574386 0.014027804
-0.032798067 -0.17872559 -0.09767248 -0.063178904 0.15209672 0.13650486 0.08414215 -0.016710013
-0.008288264 -0.0694787 -0.14170626 -0.024422228 0.047339678 -0.02871418 -0.026841491 0.047560498
0.10367337 0.14365473 -0.099172294 0.15053537 -0.15384142 0.14482608 -0.14832605 0.05707352
00000000: 7f3a 00be f8bd 133e 6742 b4bd d067 a03c
00000010: b016 83bd 90b6 efbc e13d 15be e0d4 653c
00000020: 4457 06bd d703 37be 8208 c8bd f163 81bd
00000030: 3ebf 1b3e eec7 0b3e b852 ac3d 70e3 88bc
00000040: 80cb 07bc d94a 8ebd 721b 11be 2011 c8bc
00000050: 40e7 413d 003a ebbc b0e2 dbbc ccce 423d
00000060: b452 d43d 3a1a 133e d81a cbbd f225 1a3e
00000070: 9b88 1dbe 4a4d 143e c9e2 17be ecc5 693d

net.2.weight f4 [64, 32]
-0.17184336 -0.09482649 0.14501368 -0.14787702 -0.032982394 0.040270194 -0.029656887 0.070650965
-0.16160439 0.100950584 0.12504996 0.11836769 0.05080077 0.06464256 0.16202457 0.16830646
-0.075107366 -0.051372454 0.03420469 -0.034862816 0.1696849 0.08830695 0.1578304 0.15151073
0.16701894 0.12747069 -0.16126096 -0.1309578 0.12629835 -0.01808545 -0.1355376 0.17296307
0.06514308 -0.1629649 -0.08413645 0.14835514 -0.07642741 0.06496142 -0.042338356 -0.15054913
-0.12270743 -0.13296536 -0.14329909 0.042515382 0.018527836 -0.1483054 0.08308919 -0.08603885
0.05534379 -0.08678611 0.13879655 -0.1113776 0.0046839863 0.091687545 0.14587606 -0.025428414
-0.045171186 -0.120951444 0.10446517 -0.16727947 -0.027896747 -0.14343822 -0.027079925 -0.100709215
-0.0040180087 0.10524045 0.15618066 -0.079199575 0.093419716 -0.0049000382 -0.11160074 0.15575235
-0.13336514 -0.04157585 0.095604256 0.084172025 0.061237603 -0.034282327 -0.12854953 -0.12834872
0.07832645 0.09910028 0.06229201 0.010433733 0.069249064 0.15574916 0.16507246 -0.08434134
-0.17054349 0.024788648 -0.13354552 -0.16419068 -0.058676735 0.17194994 0.089043185 0.05747819
-0.13007033 -0.062504895 0.14967637 -0.043427855 0.060465112 -0.13719109 0.16567762 0.1746224
-0.12592241 0.078762904 0.084763244 -0.12256603 -0.10465444 0.08231948 -0.02461645 -0.09685308
-0.02701965 -0.13552485 0.13451107 0.07061137 -0.07040224 -0.16177055 0.13623656 0.04119058
-0.074032016 0.049393594 -0.16228992 0.105225876 -0.12631488 -0.0035976917 0.14048211 -0.16052566
-0.05677543 0.110995814 0.17424409 0.15958492 0.011851907 -0.07454001 0.04023978 0.07628591
-0.15626329 -0.16944835 -0.15491629 0.028138712 0.15766783 0.06433174 0.051212892 -0.1729345
-0.06750403 0.0037083179 0.0644788 0.047750518 0.1652631 -0.011760354 -0.03112699 0.07413755
-0.07670998 0.05971393 -0.042089403 0.048432395 0.09908174 -0.0032516122 -0.17159444 0.0065843016
-0.07518163 0.007548198 -0.020621523 -0.040787637 0.058096915 -0.10279793 0.094173536 -0.0018280596
0.04812877 0.010433853 0.07618801 -0.16836081 -0.0438675 -0.103716314 0.08635239 0.11013453
0.14976837 0.032487795 0.09047566 0.12665258 -0.000940904 0.01719509 0.14277358 0.07647462
-0.17416885 0.017681703 0.028944075 0.11783539 0.08937271 -0.10326521 -0.1275112 -0.14417014
-0.1652574 -0.1427428 -0.15766564 0.07878576 0.09261601 -0.029379368 -0.071127295 0.13303311
-0.03542182 -0.0071928203 -0.16051136 -0.100827545 -0.06293599 -0.06666546 -0.05655641 0.09991802
-0.12997435 0.092142716 0.15274589 -0.103957854 0.15347816 0.081226364 0.14029141 0.13157345
0.05718863 0.01021722 -0.028240249 0.16487728 -0.053421043 -0.078263685 -0.052434154 0.09186907
-0.08745391 -0.042330116 0.04539606 -0.0068529695 0.116439804 -0.09457316 -0.0033943653 0.14060609
0.09276779 -0.1463235 -0.09097878 -0.10382956 -0.12397508 0.1275961 0.17258282 0.07549013
0.12147997 0.048601642 0.039882526 0.03179866 -0.032272577 -0.10892391 -0.06849746 -0.029669479
0.17584719 -0.12179516 -0.12524226 0.0418479 0.14420535 -0.16078895 -0.16598514 0.09903966
00000000: b5f7 2fbe 6434 c2bd 777e 143e 136d 17be
00000010: 8c18 07bd 5cf2 243d 00f3 f2bc 74b1 903d
00000020: 9f7b 25be 2ebf ce3d 190d 003e c26a f23d
00000030: 7814 503d 5263 843d c5e9 253e 8758 2c3e
00000040: e4d1 99bd ec6b 52bd 381a 0c3d 50cc 0ebd
00000050: e1c1 2d3e 46da b43d 4b9e 213e a125 1b3e
00000060: 0307 2b3e ad87 023e 9821 25be cd19 06be
00000070: 5b54 013e f027 94bc 5eca 0abe 3b1d 313e
00000080: bc69 853d 45e0 26be bb4f acbd 69ea 173e
00000090: f985 9cbd 7e0a 853d fc6a 2dbd 8d29 1abe
000000a0: 084e fbbd 1228 08be ffbc 12be 9c24 2e3d
000000b0: b0c7 973c 5fdd 17be aa2a aa3d 2335 b0bd
000000c0: 2cb0 623d ebbc b1bd af20 0e3e f019 e4bd
000000d0: 207c 993b aec6 bb3d 8960 153e 404f d0bc
000000e0: 6c05 39bd 64b5 f7bd d6f1 d53d 4f4b 2bbe
000000f0: b887 e4bc 78e1 12be b8d6 ddbc a240 cebd
00000100: 80a9 83bb 4e88 d73d d3ed 1f3e 6333 a2bd
00000110: d652 bf3d 8090 a0bb ee8e e4bd 8b7d 1f3e
00000120: df90 08be 704b 2abd 2acc c33d 6262 ac3d
00000130: 48d4 7a3d a06b 0cbd 7da2 03be d96d 03be
00000140: 9e69 a03d 16f5 ca3d e825 7f3d 40f2 2a3c
00000150: 74d2 8d3d b57c 1f3e c108 293e 27bb acbd
00000160: f4a2 2ebe 9011 cb3c 28c0 08be 9a21 28be
00000170: 0457 70bd a513 303e 465c b63d 406e 6b3d
00000180: 2831 05be 9102 80bd c344 193e 68e1 31bd
00000190: 44aa 773d d27b 0cbe 65a7 293e 37d0 323e
000001a0: cef1 00be 724e a13d 5a98 ad3d e603 fbbd
000001b0: 1155 d6bd 1e97 a83d 70a8 c9bc e85a c6bd
000001c0: 5058 ddbc 07c7 0abe 45bd 093e b29c 903d
000001d0: 0d2f 90bd 2ea7 25be 9981 0b3e 74b7 283d
000001e0: 199e 97bd f050 4a3d 542f 26be aa80 d73d
000001f0: b058 01be 40c7 6bbb 8bda 0f3e d760 24be
00000200: 5a8d 68bd c651 e33d 0b6d 323e 3b6a 233e
00000210: 802e 423c 6fa8 98bd 78d2 243d ca3b 9c3d
00000220: 7c03 20be de83 2dbe 60a2 1ebe 2883 e63c
00000230: ad73 213e 5cc0 833d 9cc4 513d be15 31be
00000240: 8e3f 8abd 4007 733b 760d 843d 0c96 433d
00000250: bb3a 293e 80ae 40bc 08fe febc 6ed5 973d
00000260: 1f1a 9dbd 9896 743d f065 2cbd 0c61 463d
00000270: 5eeb ca3d 0019 55bb 74b6 2fbe 20c1 d73b
00000280: d4f8 99bd e056 f73b 78ee a8bc f010 27bd
00000290: 08f7 6d3d b987 d2bd 0ede c03d 809b efba
000002a0: ac22 453d c0f2 2a3c 7608 9c3d c766 2cbe
000002b0: 68ae 33bd 3869 d4bd 86d9 b03d 368e e13d
000002c0: e15c 193e ec11 053d 4e4b b93d 37b1 013e
000002d0: 00a7 76ba b8dc 8c3c 3d33 123e ba9e 9c3d
000002e0: 5259 32be 38d9 903c 201c ed3c ae53 f13d
000002f0: 0a09 b73d b67c d3bd 4c92 02be 56a1 13be
00000300: 3c39 29be 2b2b 12be 1a73 21be 6e5a a13d
00000310: 76ad bd3d 00ad f0bc 30ab 91bd d539 083e
00000320: 7816 11bd c0b1 ebbb 175d 24be ac7e cebd
00000330: 96e4 80bd e787 88bd b2a7 67bd d2a1 cc3d
00000340: ff17 05be 52b5 bc3d 6b69 1c3e dbe7 d4bd
00000350: 6129 1d3e 025a a63d 8da8 0f3e 31bb 063e
00000360: a03e 6a3d 2066 273c 1858 e7bc 97d5 283e
00000370: 06d0 5abd b648 a0bd 32c5 56bd da25 bc3d
00000380: 091b b3bd 5862 2dbd 38f1 393d e08e e0bb
00000390: fe77 ee3d 93af c1bd 0074 5ebb 0bfb 0f3e
000003a0: 0afd bd3d d4d5 15be 1553 babd 98a4 d4bd
000003b0: a6e6 fdbd 8da8 023e 8db9 303e 929a 9a3d
000003c0: 7eca f83d 8412 473d dc5b 233d 503f 023d
000003d0: 4030 04bd 8013 dfbd 6548 8cbd 680d f3bc
000003e0: 4911 343e be6f f9bd 823f 00be b468 2b3d
000003f0: 91aa 133e dca5 24be 02f8 29be 4ed5 ca3d

net.2.bias f4 [64]
-0.12264402 0.1632878 0.1400645 -0.14933836 0.09781648 0.0793557 -0.059119597 -0.037585422
0.13420607 0.09480624 -0.015300274 -0.014189452 -0.0371183 -0.098588645 6.145239e-05 0.15782468
-0.11498278 -0.1533918 -0.01585783 -0.10937324 0.06565495 0.120763764 -0.16142993 -0.014273852
-0.13258347 0.16016133 -0.113693275 -0.1322065 0.07107471 -0.06857507 0.10052441 0.014332116
-0.16299069 0.13827552 0.15876044 -0.08249594 -0.10282577 -0.089304134 0.039412007 0.17545731
0.12829645 0.15572713 -0.13908523 0.15734325 -0.108083904 -0.035700083 0.040532768 -0.032986
-0.0946182 0.015385583 0.0067301095 0.06497227 -0.1367566 0.03325087 0.13091849 0.0064521134
-0.16059923 0.087093756 0.008537039 0.028853565 0.03489943 -0.13674445 0.16585971 -0.020896003
00000000: ca2c fbbd eb34 273e 116d 0f3e 28ec 18be
00000010: 0254 c83d 3e85 a23d 6427 72bd 2cf3 19bd
00000020: 516d 093e c629 c23d 00ae 7abc e07a 68bc
00000030: 5c09 18bd d8e8 c9bd 00e0 8038 cb9c 213e
00000040: 177c ebbd bd12 1dbe 48e8 81bc 14ff dfbd
00000050: 1a76 863d fe52 f73d e34d 25be e0dc 69bc
00000060: f6c3 07be 5501 243e 05d8 e8bd 2461 07be
00000070: 9e8f 913d 1671 8cbd bedf cd3d 40d1 6a3c
00000080: 08e7 26be 1998 0d3e 1992 223e a2f3 a8bd
00000090: 5196 d2bd 16e5 b6bd 7c6e 213d 15ab 333e
000000a0: 2560 033e ef76 1f3e 5c6c 0ebe 971e 213e
000000b0: 185b ddbd 403a 12bd b005 263d 541c 07bd
000000c0: 30c7 c1bd d013 7c3c 4088 dc3b 2e10 853d
000000d0: ec09 0cbe 1032 083d 7f0f 063e 406c d33b
000000e0: 2074 24be 365e b23d f0de 0b3c 505e ec3c
000000f0: b4f2 0e3d bd06 0cbe 21d7 293e 182e abbc

net.4.weight f4 [32, 64]
0.015635565 -0.040532604 -0.058051884 -0.038331002 -0.11430021 0.11293732 0.06017989 0.072199985
-0.023386195 -0.08792432 -0.079953745 0.015857399 -0.0603597 -0.08568072 -0.07605554 -0.098534286
-0.122917 -0.0006135851 -0.016236559 -0.08139968 -0.03543976 0.07288182 -0.08122924 -0.12189318
0.1046326 0.06366293 0.059214786 -0.09526758 0.08557038 -0.01313749 -0.07862067 0.049070954
-0.017305836 0.081021935 -0.016434431 -0.022319958 0.095442206 0.09001431 -0.027354926 -0.05594261
0.08772206 0.07165539 -0.06645128 0.11093493 -0.05175069 0.108292535 -0.042846307 0.01218617
-0.09842904 0.1013919 0.07077108 0.046291456 -0.084123254 -0.009601727 -0.11251284 0.0036897957
0.074730605 0.099380925 0.010788798 -0.0788255 0.10832991 -0.032776847 0.008067995 -0.05862008
-0.044824764 -0.10000308 -0.11788073 -0.01198867 0.033324644 -0.028872296 0.063720584 0.001551494
0.07390359 -0.030153617 0.045533195 0.09481931 0.026463136 0.023372695 -0.030888855 -0.04758954
-0.10659729 0.09359796 -0.09807916 -0.07361928 0.09073444 0.038569212 -0.044375643 -0.0014940202
-0.004363224 -0.0051290393 0.120106086 -0.05791098 0.015836135 0.046930477 0.069547206 -0.03165798
-0.0680732 0.038746715 0.11724961 0.039680853 0.10853626 0.080796614 -0.05958286 -0.07899968
-0.076077625 -0.058885455 -0.051621422 -0.08953224 -0.027430654 -0.10614447 -0.008534223 0.010590181
0.06593236 0.10650283 -0.101126164 0.04947652 -0.08247408 -0.073826045 -0.08851957 -0.10905284
-0.062506095 -0.0030613095 0.053394273 0.008081436 0.059997484 -0.013076752 -0.06347655 0.106448695
-0.11465433 -0.01811944 -0.11512396 0.044819966 -0.026776314 0.08434424 -0.08609347 0.041591525
-0.105460644 0.056437507 0.12478079 0.11598894 -0.005607009 0.109065786 -0.07813491 -0.045430347
0.046443716 -0.11715381 -0.019582033 0.014794081 0.10206132 0.063389316 0.03272538 0.08570534
-0.0548103 -0.12343484 -0.09237689 0.065337315 0.06216027 0.11022067 -0.10668659 -0.014282271
0.048175022 -0.040747777 0.059401155 -0.024158075 -0.027179092 -0.082692385 -0.10586777 0.056004375
0.08518833 0.0025465786 0.056654185 0.10249938 -0.012429997 0.086033374 0.11905642 0.11401676
0.11158727 -0.08907279 0.09889372 -0.059876323 0.014046982 0.03826247 0.0024556369 -0.008518547
0.06811339 -0.002689585 0.012225032 0.049405277 -0.12015216 0.00616394 -0.09612867 -0.019045427
0.06230177 -0.027772442 0.023205608 -0.08365449 0.07697067 0.04362081 0.016219243 -0.090936095
0.0006366819 0.106790125 0.0049910694 -0.084279895 -0.025180906 0.03618881 0.07667111 0.073957294
-0.06860688 -0.05927494 0.11735521 0.045257524 0.122997046 -0.017825171 -0.030978411 -0.022847876
-0.030092865 -0.004545197 0.068249375 -0.029725343 0.109139904 0.10028742 0.0057427287 0.019258842
0.05008267 -0.088552 -0.005887285 -0.026710019 0.013121441 0.09664494 -0.11140649 0.05598478
-0.0063233227 -0.021650225 -0.06770332 0.028792739 0.12369934 -0.0491727 -0.035417646 0.084960386
0.019611359 0.07824001 -0.06675723 -0.11735408 -0.09744848 -0.037792042 0.014670804 0.011301711
0.11860244 -0.044096604 -0.0035344958 0.07681191 -0.050547197 -0.06907113 -0.04593879 0.11947696
00000000: 2816 803c 8405 26bd d0c7 6dbd f800 1dbd
00000010: 3a16 eabd ae4b e73d 307f 763d 96dd 933d
00000020: 6894 bfbc aa11 b4bd cabe a3bd 60e7 813c
00000030: bc3b 77bd 6079 afbd 02c3 9bbd 58cc c9bd
00000040: e8bb fbbd 00d9 20ba 8802 85bc e0b4 a6bd
00000050: 4829 11bd 1043 953d 845b a6bd 22a3 f9bd
00000060: 9e49 d63d b661 823d 348b 723d a61b c3bd
00000070: 863f af3d a03e 57bc e003 a1bd a0fe 483d
00000080: f8c4 8dbc d4ee a53d 80a1 86bc 58d8 b6bc
00000090: 3477 c33d 6c59 b83d 7017 e0bc 1424 65bd
000000a0: a0a7 b33d 10c0 923d 9c17 88bd da31 e33d
000000b0: 88f8 53bd 7ac8 dd3d 9c7f 2fbd 80a8 473c
000000c0: 2a95 c9bd 8ea6 cf3d 6ef0 903d 1c9c 3d3d
000000d0: d048 acbd 9050 1dbc 226d e6bd 80d0 713b
000000e0: 5c0c 993d 3a88 cb3d 80c3 303c 446f a1bd
000000f0: 12dc dd3d 0441 06bd a02f 043c 9c1b 70bd
00000100: 2c9a 37bd 6ace ccbd 746b f1bd 206c 44bc
00000110: 6c7f 083d 9885 ecbc f07f 823d 805b cb3a
00000120: c45a 973d b804 f7bc 0481 3a3d a030 c23d
00000130: 38c9 d83c 1878 bf3c a00a fdbc 40ed 42bd
00000140: ae4f dabd 4ab0 bf3d badd c8bd b4c5 96bd
00000150: fad2 b93d c0fa 1d3d 3cc3 35bd 00d3 c3ba
00000160: 60f9 8ebb 8011 a8bb 2efa f53d 1034 6dbd
00000170: c8ba 813c 2c3a 403d c46e 8e3d ccab 01bd
00000180: f669 8bbd e0b4 1e3d 9020 f03d 6488 223d
00000190: 4248 de3d b278 a53d 280d 74bd 96ca a1bd
000001a0: 96ce 9bbd e031 71bd fc70 53bd ae5c b7bd
000001b0: 40b6 e0bc 4662 d9bd 20d3 0bbc 7082 2d3c
000001c0: 8c07 873d 281e da3d 3c1b cfbd e4a7 4a3d
000001d0: 2ce8 a8bd 1c32 97bd c049 b5bd 1857 dfbd
000001e0: 3203 80bd 40a0 48bb f4b3 5a3d 0068 043c
000001f0: ecbf 753d e03f 56bc feff 81bd c601 da3d
00000200: e4cf eabd 386f 94bc 1cc6 ebbd 2495 373d
00000210: 005a dbbc acbc ac3d c651 b0bd e05b 2a3d
00000220: c0fb d7bd 042b 673d 128d ff3d 9c8b ed3d
00000230: 00bb b7bb e25d df3d 3205 a0bd 2c15 3abd
00000240: c43b 3e3d 56ee efbd 806a a0bc e062 723c
00000250: 8605 d13d 42d2 813d 0c0b 063d 4886 af3d
00000260: c480 60bd 68cb fcbd 1830 bdbd 92cf 853d
00000270: c49b 7e3d 60bb e13d 807e dabd 3000 6abc
00000280: 2c53 453d 24e7 26bd a04e 733d 28e7 c5bc
00000290: b0a6 debc a05a a9bd 34d1 d8bd d864 653d
000002a0: 3877 ae3d 80e4 263b 380e 683d 32eb d13d
000002b0: 30a7 4bbc 4432 b03d dad3 f33d 9e81 e93d
000002c0: de87 e43d cc6b b6bd ca88 ca3d e040 75bd
000002d0: 5025 663c 1cb9 1c3d c0ee 203b 6091 0bbc
000002e0: 087f 8b3d c043 30bb 804b 483c 305d 4a3d
000002f0: 5612 f6bd e0fa c93b 1cdf c4bd 2805 9cbc
00000300: 2430 7f3d 0883 e3bc b019 be3c 0c53 abbd
00000310: cca2 9d3d bcab 323d 38de 843c b43c babd
00000320: 00e7 263a c8b4 da3d 208c a33b f09a acbd
00000330: 3048 cebc b83a 143d be05 9d3d ec76 973d
00000340: c481 8cbd 48ca 72bd ee57 f03d f45f 393d
00000350: e0e5 fb3d 1806 92bc 70c6 fdbc 782b bbbc
00000360: 5085 f6bc e0ef 94bb 54c6 8b3d 9082 f3bc
00000370: be84 df3d 7e63 cd3d 802d bc3b b8c4 9d3c
00000380: 7c23 4d3d c05a b5bd 20ea c0bb f8ce dabc
00000390: 50fb 563c c8ed c53d 1629 e4bd 4c50 653d
000003a0: e033 cfbb d05b b1bc 0aa8 8abd c0de eb3c
000003b0: 1456 fd3d 5069 49bd 1812 11bd b6ff ad3d
000003c0: 00a8 a03c 4c3c a03d 04b8 88bd 5657 f0bd
000003d0: 1293 c7bd d4cb 1abd d05d 703c d02a 393c
000003e0: d6e5 f23d a49e 34bd 00a3 67bb 904f 9d3d
000003f0: 940a 4fbd 2a75 8dbd 502a 3cbd 56b0 f43d

net.4.bias f4 [32]
0.11057414 0.11081888 -0.022035673 0.10962339 0.009875283 0.094147354 0.04330626 -0.03138435
0.0065529346 0.01997386 -0.05137883 -0.08884369 0.096850246 0.11389388 0.076699615 0.088092744
-0.0064781904 -0.036173955 -0.09713507 0.122216105 0.10899517 -0.095801294 0.056863174 0.056568846
-0.009594783 -0.07496871 0.009444222 0.07817161 0.035376906 0.06821711 0.00617601 -0.06413625
00000000: b274 e23d 02f5 e23d 2884 b4bc 3a82 e03d
00000010: f0cb 213c 54d0 c03d e861 313d e08c 00bd
00000020: 00ba d63b 38a0 a33c 9c72 52bd aef3 b5bd
00000030: 6c59 c63d 3241 e93d b014 9d3d f869 b43d
00000040: 0047 d4bb 242b 14bd c0ee c6bd 704c fa3d
00000050: dc38 df3d 7833 c4bd 5ce9 683d bcb4 673d
00000060: 7033 1dbc 3289 99bd f0bb 1a3c 7018 a03d
00000070: 60e7 103d 6ab5 8b3d 2060 ca3b de59 83bd
