maml_model/maml_PutNextLocal_7_10_800_50.pth (torch, 60324 bytes, 6 tensors)

layer1.weight f4 [64, 151]
00000000: d277 01be e1dd b2bd 2590 4f3b a2f1 db3d
00000010: 58bd f5bd 8d5d 093e 60d7 1dbe 635c 163e
00000020: 94fd 72bd c19b 313c c591 093e 1e8b aebd
00000030: d391 8ebb 7033 15be 076a 1abe 32b0 88bc
00000040: f8bb e33d 6f52 253e d179 b1bc 84c6 cd3c
00000050: 1257 6ebb 4a5c afbc e2b9 c2bd b4e6 b0bc
00000060: 9b45 bd3d c2bb 46bc 15b4 68bd b253 10be
00000070: 5ed9 453d 2000 f6bd 0f2b c3bc d9ef eebc
00000080: 065f 97bd d16b 6a3d fccf 1cbe 6d43 fd3c
00000090: 0e32 d7bd 6c89 b1bd 6eac 7e39 b6ba 983d
000000a0: 1a21 6dbd 863e 47bd 265f cc3d 9d42 34bb
000000b0: 6dae df3d cb43 f1bb c9d5 2cbe 6dd1 debd
000000c0: 587a 4ebd 83b6 acbd df9f f43d 4df7 2bbc
000000d0: 5963 06bd 38b2 a93c 2810 6b3d ddf9 f3bd
000000e0: 4715 89bd b30c 85bd c241 3b3d 2f13 adbb
000000f0: c171 753d 835f b8bd fae7 28be 59f4 86bd
00000100: d098 5ebc 3055 313d 95df 043e 7e42 743d
00000110: 54ed 54bb 9b4b 90bd e1d2 4e3d b48a 23be
00000120: 029a 7d3d 640c 7c3d 32b9 59bd bd87 2bbe
00000130: 7b4a e23d 9983 c9bc 66dd 42bd f7b3 893b
00000140: d6f7 33bd c1a5 093e 429d 4e3d 4d39 34bd
00000150: 7ad4 273e a647 1a3e 63ef 7bbd 056b a63d
00000160: 03e6 7bbd a0e8 c1bd 5c79 b4bd 474d 0b3e
00000170: ab6b 323d 6059 183e 657b a3bd 3568 16be
00000180: 4d2d debd 2564 cf3d e138 013e 47eb 6b3d
00000190: 0a5b 543e 4445 c9bd 47fc 06be 6766 7b3d
000001a0: 1419 c93d 3eb0 e3bd beb4 88bd 4e71 e03d
000001b0: 9317 c73d e81b 5e3d cb20 bcbd 3ea8 de3d
000001c0: 6f5c 763c 9152 20be 4ddd 04be 9ea3 b9bd
000001d0: 96b2 11bd fe94 d93d b486 233e bf13 9abb
000001e0: 7916 12be a2ba 19be 1249 253e 2332 e5bd
000001f0: 6d53 733d 6638 123d 6ed5 0cbd d8b0 29be
00000200: 2152 993b dae9 e4bc 88d2 3fbe 346e ce3d
00000210: 82b5 1a3e b54a e73c 71ef 993d 5ac0 f7bd
00000220: a800 f33b b256 59bc 3140 f33d eb51 9e3d
00000230: 2122 1fbe 81c1 1d3e 40cf 693c f130 bc3c
00000240: b7fd 933d b2aa 843a b31c 67bc c3e8 983d
00000250: 1ea8 0fbe f188 9e3d 5906 c13d 3f8a d1bd
00000260: 9330 84bd 5133 633d 61c9 d93c 2bef 9bbd
00000270: f7b1 b4bd 661c ff3c 3865 3c3d 44cd 01be
00000280: 2ed9 ee3a 88ba 30be 513d fcbb 2e3b a2bd
00000290: 158f 3fbc fca9 a4bd 71cd 27bd c2a6 9bbd
000002a0: ac26 b33d b017 96bd cbf8 863d e7f9 c6bd
000002b0: 23b1 0fbe 95dd a7bd 6cfd 79bd f4a9 213e
000002c0: c41a 383b 0ce0 22bc ec0c 3abd 2679 8bbd
000002d0: b171 0fbe 248c 433d e69c be3d a387 cebd
000002e0: 12b0 453d 9cf8 07be 21f0 22bd 9316 9f3d
000002f0: c0c4 16bd f13c b7bd 9fb4 59bd 3edb 0ebe
00000300: a9fd 85bc f8fb fa3d 9cf6 00be 9c17 70bc
00000310: e440 c2bd 1f92 b5bd 166c 43bd 2de1 1bbd
00000320: e473 04be 85fa 183e e982 a3bc accf 913d
00000330: 6f9c 1e3c 438b 303d 8047 bfbc 8e2c 81bc
00000340: 457f efbd 0723 f63d 46ec 90bd a674 1d3e
00000350: 2700 293e a2c1 7d3c 9e26 263e 5bcf 1bbd
00000360: 0944 493d 0763 d03c 5148 023d f156 f43d
00000370: f785 04be 0840 133d e577 03bd ae8f e7bc
00000380: 1156 10be 3f13 233e 017f 183d 63ca 0d3e
00000390: 413c 853c c46a 02be 6dde eabd 24c6 27bd
000003a0: 1c3a 663d 90dc da3d 0c9b ccbd d6ce 833d
000003b0: 0261 963c 6686 c1bc 3438 863d 5ca8 d2bd
000003c0: dab6 06be f654 f4bc 0c9e 623c 62b6 9b3b
000003d0: e9a8 84bd c512 d73c 86b5 cb3b 1bc1 72bd
000003e0: 6c58 31be 8ec3 e4bb 4688 96bd 3848 2a3e
000003f0: a49c 0dbd 7162 59bd ce82 20be 035e 003d
-0.12643364 -0.08733726 0.003167161 0.10739447 -0.11999005 0.13414593 -0.1541419 0.1468368
-0.059323862 0.010840357 0.13434513 -0.08522628 -0.0043508797 -0.14570403 -0.15079509 -0.016685579
0.111198366 0.16144727 -0.021664532 0.025119074 -0.0036367816 -0.021406312 -0.095081106 -0.021594383
0.09241792 -0.012129726 -0.056812365 -0.14094427 0.048303 -0.120117426 -0.023824243 -0.029167103
-0.07391171 0.057231728 -0.15313715 0.03091594 -0.10507594 -0.08668789 0.00024287563 0.07457487
-0.057892896 -0.04864361 0.099790856 -0.0027505525 0.10921941 -0.007362818 -0.16878428 -0.108797885
-0.050409645 -0.08433249 0.119445555 -0.010495973 -0.03280959 0.020714864 0.057388455 -0.11912892
-0.066935115 -0.06496563 0.04571701 -0.005281828 0.059922937 -0.090025924 -0.16494742 -0.06589574
-0.013586238 0.04329413 0.12975915 0.059633724 -0.0032490091 -0.070456706 0.05049408 -0.1597088
0.06191445 0.061535254 -0.05315513 -0.16750999 0.11049362 -0.024598883 -0.047574423 0.0042023617
-0.043937527 0.13442136 0.05044294 -0.04399996 0.16389647 0.15066394 -0.061507594 0.08125881
-0.061498653 -0.09468198 -0.0881221 0.13603698 0.04355971 0.14877844 -0.0798252 -0.1468819
-0.10848484 0.10126523 0.12619354 0.057597425 0.20737854 -0.098276645 -0.13182174 0.061376955
0.098192364 -0.111176 -0.06675099 0.10959111 0.09721293 0.054225832 -0.09185942 0.108719334
0.015036686 -0.15656497 -0.12975045 -0.090644106 -0.035570703 0.10624121 0.15969354 -0.004702061
-0.14266385 -0.15012601 0.16141155 -0.111912034 0.059405733 0.035698317 -0.03438323 -0.16571367
0.00467898 -0.02794354 -0.18732655 0.10079613 0.15108302 0.028233865 0.07516373 -0.12097235
0.0074158497 -0.013265299 0.11877478 0.07730468 -0.15540363 0.15405847 0.014270604 0.022972556
0.07226127 0.0010121672 -0.0141059635 0.07466271 -0.14028975 0.07740963 0.09425039 -0.102314465
-0.06454577 0.05546886 0.026585283 -0.07613977 -0.088230066 0.031141471 0.045994967 -0.12675959
0.0018222684 -0.17258656 -0.007697739 -0.07921444 -0.011691828 -0.080402344 -0.04096741 -0.07600166
0.087476104 -0.07328737 0.06590422 -0.09715634 -0.14032416 -0.0819656 -0.061032698 0.15787488
0.0028092125 -0.009941112 -0.04542248 -0.068102166 -0.14008214 0.04774107 0.0930727 -0.100844644
0.048263617 -0.1327843 -0.039779786 0.077679776 -0.03680873 -0.089471705 -0.05315077 -0.13950822
-0.016356306 0.122550905 -0.12594074 -0.014654066 -0.09485033 -0.08865761 -0.0477105 -0.03805654
-0.12934834 0.14939316 -0.019959884 0.071196884 0.009680851 0.04310156 -0.023349524 -0.015768316
-0.116941966 0.120184 -0.070763156 0.15376529 0.16503964 0.01548806 0.16225669 -0.038039546
0.04913715 0.025437845 0.031807248 0.11930645 -0.12941729 0.035949737 -0.032096762 -0.028266754
-0.14095332 0.1592531 0.037230495 0.13846736 0.016264083 -0.1273604 -0.114682056 -0.040960446
0.05620776 0.106866 -0.0999051 0.06435935 0.018356804 -0.023623656 0.06553689 -0.10286018
-0.1315569 -0.029825669 0.013831627 0.0047519663 -0.064775296 0.026254067 0.0062167076 -0.05926619
-0.17318887 -0.0069813197 -0.07350211 0.16629112 -0.034573212 -0.053072397 -0.15674898 0.031339657

layer1.bias f4 [64]
00000000: 959d 283d b3c1 c2bc 44ef d9bb 9e7b 623b
00000010: edae 8a3c 03db 49bc 1ed1 2ebc 2ab1 553c
00000020: 0fab 97ba 4e0e 49bc 14e5 dabb ef0b 283b
00000030: be69 fcbb ba47 023c 3471 483c 280e de3c
00000040: 4ef2 ef3b c249 a63c 7a48 a13c 8286 aa3c
00000050: a295 64bc bac6 edbb c782 11bc 42cc 7abc
00000060: b61a 503c 44db ab3b abf8 b1bc 4c85 273d
00000070: 3a3b 7f3c 62e7 1fbc 3a76 223c 8aad 553b
00000080: 75b6 173b 6224 aabb 82d1 e3bb d6ce 2cbb
00000090: a9c9 6f3b b0f0 9ebb 6f96 8dba 4064 7dbc
000000a0: 379e 423b bc49 cc3b be21 00bd 3ba2 fa3b
000000b0: 7142 bdbc db91 ba3a 65a7 723b 0a59 2e3a
000000c0: eaef 063c 116b 88bb 763e 3ebb c754 1bbc
000000d0: 802c 3ebc be2e 36b9 02b4 373c 3a11 debc
000000e0: 30b9 9fbb ac46 81bc b769 23bc cfd8 11bb
000000f0: f4a4 b5bc 2841 9d3c 6d13 b5bc 0b06 95bc
0.041165907 -0.023774004 -0.006650837 0.0034558545 0.016929114 -0.012320283 -0.010669975 0.0130427275
-0.0011571365 -0.012271477 -0.0066801403 0.0025641879 -0.007703035 0.007951671 0.012234021 0.02710636
0.007322586 0.020298842 0.01968788 0.020816091 -0.013951691 -0.007256356 -0.008881277 -0.015307488
0.012701681 0.0052446444 -0.02172502 0.040898606 0.015578086 -0.009759756 0.009915883 0.0032604658
0.0023149524 -0.0051923255 -0.0069524655 -0.00263684 0.0036588705 -0.0048504695 -0.0010802279 -0.015465796
0.0029696354 0.0062343758 -0.03128218 0.007648734 -0.02310297 0.0014234142 0.0037026044 0.0006650841
0.008235911 -0.004163154 -0.002902893 -0.009480662 -0.011607289 -0.00017374285 0.011212351 -0.027107824
-0.004874371 -0.01578077 -0.009973935 -0.0022254472 -0.022173382 0.019196108 -0.02210399 -0.018191358

layer2.weight f4 [64, 64]
00000000: 86ba 833d 1abe 953c 2e1a d93d 0c18 573e
00000010: c8a4 8f3d 64cb 34be 58ca 61bd 5580 20be
00000020: 449b 3ebe b6dc 603d 7801 cd3c 5e3e 573e
00000030: 3fe1 b1bd 8b15 3bbd 890f 723d 17c2 2d3e
00000040: 2d9b 1abe 6957 4abe 6e92 2f3d eebe 08be
00000050: 1419 513e 652b 9d3d 809b 3d3e 9808 373e
00000060: 4d68 373e bc17 56be ddbb 8a3d 0c5a 1f3c
00000070: 71ff 9abc 4fd7 8c3c f0c1 773b c1d3 213e
00000080: deee 3b3e ad62 e23b fd87 20be 0546 2f3e
00000090: e895 9c3d 4af6 483e 445a 36bd 939e 4c3e
000000a0: f67c 8d3d 31fb 173e 81a7 3fbe 0b53 cc3d
000000b0: 35a3 83bc bf2b 1dbe c939 22bd ad95 9b3c
000000c0: 1018 e1bd 457c 2abe 3df2 02be b46b 43be
000000d0: 11fc 093e 70ca 303d 2fb2 4b3d a620 56bc
000000e0: c075 4937 cee9 453e 00da c13d f7a6 5a3e
000000f0: 4b79 e03c f356 b63d 6315 243e 3fb8 153e
00000100: 8966 913d ed37 36be 069a b03d 3620 47be
00000110: a6f4 dbbd 4f67 e13d 85e3 063e 9bef 2cbe
00000120: 7247 843d 7975 21bd b837 70bc 2a4f d0bc
00000130: 3986 5c3e 06cc 033e 3cc5 c2bb 8d20 413e
00000140: 3abc 0a3e cf8a 1abe 27e7 3dbd 7bc7 a13d
00000150: 2637 173e f3b3 47be 9fc3 1c3e f175 863d
00000160: 2638 ae3d d393 09be 182c 433e e0cb ba3d
00000170: fd7b b93d 1f69 483e 51f5 bf3d 6997 53be
00000180: 27d9 fb3c 6e83 edbc 5c7e 9cbd 6932 643d
00000190: 22bb 26be 4f07 e1bd f920 3dbe 7764 043d
000001a0: b63d 24be 52d8 a93d cae5 033e eff6 333e
000001b0: 2e5c 933c 043f fcbd ba3f d9bd 7e2e edbb
000001c0: 61e9 2abe e8df 4fbe fa22 27be be91 08be
000001d0: d936 57be 39d8 283e ed65 0dbd 7781 203e
000001e0: 4421 41be 5cb4 213e 84ab 383e ccaf 2abe
000001f0: aa36 17bc 2e25 01bc 44b9 ccbd ac95 41be
00000200: a8c7 033e 6ad1 5c3e 991f 273d 6137 8d3d
00000210: eb94 3b3e 2cc0 0a3e d034 9bbc 352c 85bd
00000220: 7327 21be f422 90bc 2614 973d 515b 5abe
00000230: 7e1d 913d 0deb 833d 5552 463d 264c 43be
00000240: 3e8e 073d 8b87 c9bd 9547 363e cbec a5bd
00000250: 1c0b ae3d a674 9cbc 5a74 403e ef08 04bd
00000260: 803e 41be ad7e 4f3e c65c db3d fcfe eabd
00000270: cbde 61be c5ca 233e 9926 5bbd df1c 4e3e
00000280: 72a8 5a3e e63c 2a3d b058 18be 4663 1ebe
00000290: d7ea fabd fb6f 3dbe 8553 10bc 9d14 0a3e
000002a0: 0327 d6bd 1c1a 87bb ec55 e2bd efd6 573d
000002b0: f794 203e 491b b5bd ca25 5c3e 3a7a 533d
000002c0: 1489 df3d 8b9a 503e c67b e6bd 977a 4cbe
000002d0: ad10 3d3e 3d06 0b3c efb7 5bbe 9c0d 86bd
000002e0: 3aed abbd 692f 3a3e 1c57 283e 2c70 a03d
000002f0: d2b5 293e 50df 253e fd9f 4e3e 0f60 e3bd
00000300: 52d9 353e dc55 4bbe 8b0b 453d ddfc d4bd
00000310: f754 8b3d 5bfa 5b3e 03ba 10be e410 4d3d
00000320: 8281 89bd 1819 23be d3be 403e aac0 183e
00000330: 096c 613d 2720 bd3d 723f 8ebc 1375 be3d
00000340: 3b5d 95bb c200 03be 8e17 ff3d dba0 983d
00000350: 4707 58be 930b 00be 4c11 1fbe c219 c5bd
00000360: 3ff0 433d ec00 583e f6cc b43b a8d0 af3d
00000370: 112a 1abe 6be2 fbbd 8d4a 8b3c 7466 c93d
00000380: 8c1a dabd 8285 cbbd e122 263e dfec 3bbe
00000390: cf9d 3fbd e9eb b0bd cbe1 fabc b47e dbbd
000003a0: f696 253e 5655 d2bd 7205 f5bd 05a9 5abd
000003b0: 4445 423e d0b5 bb3d 7830 f93d 1111 f43d
000003c0: 95ac 533e 5822 5b3d 8733 8b3d d794 3fbe
000003d0: 2f98 acbd 75bb cf3c 199c 843d a6bf b63c
000003e0: a398 203e ef81 1dbe f80d 42be e97e d23d
000003f0: fe4b 1c3e 82cb 463e e870 193e 9126 3abe
0.06432061 0.018279124 0.106006965 0.21005267 0.070138514 -0.17655712 -0.05512461 -0.15673955
-0.18613917 0.054897986 0.025025114 0.21019885 -0.086855404 -0.04567484 0.059096847 0.1696857
-0.15098257 -0.19759907 0.042864256 -0.13354084 0.20419723 0.076742925 0.1851635 0.17874372
0.17910881 -0.20907491 0.06774113 0.009726059 -0.018920632 0.01719251 0.0037804805 0.15803434
0.1835284 0.0069087357 -0.15676875 0.17116554 0.0764578 0.19625202 -0.044519678 0.19982366
0.069086 0.14841916 -0.18716241 0.09976777 -0.016069034 -0.15348719 -0.03960589 0.01899227
-0.10990918 -0.16648968 -0.12787719 -0.19084054 0.13475062 0.04316181 0.049730476 -0.013069307
1.2007949e-05 0.1932747 0.09465408 0.21352755 0.027401587 0.08903303 0.16023783 0.14621066
0.07099635 -0.17794771 0.08623128 -0.19445881 -0.10740022 0.11006033 0.1317273 -0.16888277
0.064589396 -0.03941867 -0.014661722 -0.025428373 0.21535577 0.12870798 -0.0059439223 0.18860073
0.13548365 -0.15092014 -0.046363022 0.07899376 0.14767131 -0.19502239 0.15308999 0.06565464
0.08506803 -0.13435297 0.19059789 0.09120917 0.09056852 0.1957135 0.09372962 -0.20663227
0.030743195 -0.028993335 -0.07641289 0.055712137 -0.16282323 -0.10987722 -0.1846961 0.032322373
-0.16039166 0.08293213 0.12880626 0.17574666 0.01798829 -0.12316707 -0.10607858 -0.0072382083
-0.1669059 -0.20300257 -0.16321936 -0.13336846 -0.21017016 0.16488732 -0.034521032 0.15674387
-0.18860346 0.15791458 0.18034178 -0.16668624 -0.0092293415 -0.0078823995 -0.09996274 -0.18904752
0.12869132 0.2156426 0.04080162 0.06895328 0.18318526 0.1354987 -0.018946081 -0.065025724
-0.15737705 -0.017594792 0.0737689 -0.21323897 0.07085703 0.06441317 0.04841836 -0.19072017
0.033094637 -0.09840306 0.17800744 -0.08101805 0.08498213 -0.019098591 0.18794385 -0.032235082
-0.18871498 0.20263167 0.107110545 -0.11474416 -0.22057645 0.15995319 -0.053503606 0.20128201
0.2135332 0.041561984 -0.14877582 -0.15467557 -0.122518234 -0.18499748 -0.008808975 0.13484426
-0.1045666 -0.0041229855 -0.110515445 0.05269521 0.15681826 -0.08843095 0.2149879 0.051630236
0.109148175 0.20371453 -0.11254077 -0.1996864 0.18463393 0.008485374 -0.21456884 -0.065455645
-0.08394857 0.18182148 0.1643948 0.07833895 0.16573265 0.16198468 0.20178218 -0.11102306
0.17758682 -0.19856972 0.04810671 -0.10399792 0.06803315 0.21482222 -0.14133458 0.050064936
-0.06714155 -0.15927541 0.18822794 0.14917246 0.05503467 0.09234648 -0.017364237 0.09299674
-0.004558233 -0.12793258 0.124556646 0.07452556 -0.21096526 -0.12504415 -0.15533942 -0.096240535
0.04783654 0.21094102 0.0055175973 0.0858472 -0.1505511 -0.12299045 0.017003322 0.098339945
-0.10649595 -0.09937574 0.16224243 -0.18352078 -0.046781357 -0.08638746 -0.030625245 -0.10717526
0.16170868 -0.10270183 -0.11963929 -0.053383846 0.18971735 0.09165537 0.12167448 0.11917318
0.20671304 0.05349955 0.067969374 -0.18709122 -0.08427464 0.025357941 0.06475086 0.022308182
0.15683226 -0.15381597 -0.18950641 0.102781124 0.15263364 0.1941357 0.14984477 -0.18178774

layer2.bias f4 [64]
00000000: 4841 173c 5afb 9e3b 7350 00bc 692f 9f3c
00000010: 7315 29bd d4b0 f4bc 8b00 8dbc 7856 d73c
00000020: 78a1 a3bb 8829 6abc 5576 79bc 14f7 ab39
00000030: c8e7 35bc 1e6c 073c c675 033d 5b2c c2ba
00000040: d5c9 213b 3741 72bc 1c9d e33b 37e9 25bc
00000050: e82b 253c 398f acbc fcd3 8fba 21e6 afbc
00000060: a36f f53b 7bcf 1ebc 3538 033b 86e2 ad3b
00000070: 7525 323c d006 f8bc b4c3 baba 00a9 dcbb
00000080: f944 c33c 8bd4 53bc 828f 1e3b 188c 36bc
00000090: 6b91 8e3c 544f 3cbc 8e5e b2bc d768 533c
000000a0: 4391 9e3c b3eb 5b3c 1b58 bdbc 1157 873b
000000b0: f9a7 8a3b 1232 a9bc a188 3dbc c70a e5bc
000000c0: ed5c 993b feb2 2fbc 4425 93bc 31a8 92bc
000000d0: 5e3f 873c 7a46 94ba 7f6b 0b3c ea90 973c
000000e0: f8a9 783c 15a8 863c a8dd c23b 6324 1d3c
000000f0: fed8 b1ba b531 e6ba b607 bbbc 154f 1e3d
0.009231873 0.004851741 -0.007831681 0.019431787 -0.04128022 -0.029869474 -0.017212173 0.026286349
-0.004993614 -0.014292128 -0.015225966 0.0003279975 -0.011102624 0.008265523 0.03209474 -0.0014814244
0.0024686952 -0.014786056 0.006946219 -0.0101264035 0.010081269 -0.021064388 -0.001097321 -0.021472039
0.007490115 -0.009693022 0.0020022516 0.0053065447 0.010873188 -0.030276686 -0.0014248998 -0.0067340136
0.0238366 -0.012929092 0.0024194424 -0.011141799 0.017403325 -0.011493523 -0.021773603 0.012903414
0.019356376 0.013422894 -0.023113301 0.004130252 0.0042314497 -0.020653758 -0.011568219 -0.02795924
0.004680267 -0.010723827 -0.017962106 -0.017902466 0.016509708 -0.0011312508 0.008509516 0.018501718
0.015177242 0.01643757 0.0059468336 0.009591195 -0.0013568697 -0.0017562421 -0.022830825 0.038649637

layer3.weight f4 [7, 64]
00000000: b902 3d3d 2e1e 813e 9a10 103d 8225 c6bb
00000010: eb8d 27be 5c2b 58be 6ce4 003e cfe4 dbbd
00000020: 5ff0 76be 42a7 eabd 0af1 3fbe b844 8d3e
00000030: 13a6 2ebc 5c83 51bd e3ca 543e 8619 39be
00000040: 1fdb 06be 26db 0e3e f361 783e 67a4 28be
00000050: 83a9 7d3e e2c3 8dbe c871 1fbe a6a8 ee3d
00000060: 0f54 97be db84 00bd ffd1 12be ef15 353d
00000070: ba1f 773e b1f1 11be f229 e23d d3aa 7a3e
00000080: fde4 52bd 0bb9 ad3d a011 063e bdc7 5abe
00000090: 9f37 913e 8252 4c3e 9749 e3bd b0a3 f3bd
000000a0: 6682 f1bc 5067 04be 9e72 58be 34b5 29be
000000b0: 9ce6 9f3e 4be5 c8bd 9d8e 20be 6fce f23d
000000c0: 7bf4 99be d2c3 cbbd 3c64 7b3e ede4 75be
000000d0: b642 4abd 389a 8cbd d383 f1bd bef6 013d
000000e0: fb0b 8c3e 59fd 023e 2210 923e 439c 98be
000000f0: 9415 c03d 95ab 45be 8818 2dbe 093c 913e
00000100: cdf3 3fbd a2c4 1dbd daeb a6bb 4fa5 6ebe
00000110: bd78 8f3e beb1 edbd 772c 0c3e cf5b 72be
00000120: c4fd e6bb 4a51 033e afee cf3d 67cc bd3d
00000130: 12d1 f3bd 4a8d 5fbe 0672 63be 4a74 203e
00000140: b47a 9c3e 6d8d e83d 70c7 52bd e9b4 64bc
00000150: 8b23 53be 24b5 3d3e 5b9b 483d 23d9 823d
00000160: df8f 85be 7733 8dbe d7e9 023e 4a4d 9bbe
00000170: 8787 113e c0e6 aabb 489f c3bd 2da7 983e
00000180: a0ba 843c 0f43 c23c 7197 24be 1d0b 8d3e
00000190: 4c1e 9abe e51c 543e 869d 9e3d 529d dc3d
000001a0: 9a60 393e 4837 44be 58ee e23d d22a 71be
000001b0: f645 a13e 4563 e9bd 8b3a 293e eef9 6e3e
000001c0: bf00 993e e80d fe3d d5ab 15be 67a5 053e
000001d0: 513a 9cbe abd1 843e ba81 903e 72fc 3c3e
000001e0: e61e d4bd b67b 82bd 5217 4c3e 538c eebb
000001f0: c750 e43d 5509 83bd 6902 07bc a905 10be
00000200: 7852 513d 6d75 9d3e f035 8bbe 4773 b23d
00000210: ca30 99bd 6a71 7b3e eeb5 abbd 6064 80be
00000220: 0ca5 1ebe a6ce 1cbe 1209 6abd 3e63 cbbc
00000230: 192b 9abe 5fa6 153e 35bd f53d f4a1 86be
00000240: 9402 adbe 4677 64be e509 a9be 9739 cb3d
00000250: 7e4b aa3e 1be3 883e caf4 b53e 0bfa c6bd
00000260: 9be3 113e 896a 183e efcb eb3d 6cc0 a03e
00000270: 1401 2dbe 4690 a03d 7a60 d6bd b641 c03c
00000280: a73c 643e a381 513e 01aa cebd 8135 83bc
00000290: d0d5 8fbe d606 25be 23ef 603e 5c00 38be
000002a0: dadf 1ebe d799 853e c1d0 33be 198b 313e
000002b0: e278 9abe b41b a63e f22d 8b3e 5414 ec3d
000002c0: d132 f2bd 7f73 253d 1ccf 2b3d 1d2e 2cbe
000002d0: 79a8 6b3e 28a7 f33d 43a0 95be 4fff 08be
000002e0: 75b4 813e ea47 52bd 20d9 643c 6f79 24be
000002f0: cd90 a1bd c978 8a3e edb7 8fbe bd1c 6abd
00000300: 222c 75bd b45c 2dbd 9cb2 393d 3cde 443e
00000310: cb6f 9fbe b02a 09be 08fe a3be c0c3 783e
00000320: 9aff 00bd 7f00 c2bd c9c6 86bd ff97 77be
00000330: 5bcf 96be cc16 973e 0686 813e e0dc 1abd
00000340: a445 62bc c305 b4bd aafb 783d 54cb 23bc
00000350: 5587 a6bc 348d cebd 2b07 68be a72a 7ebe
00000360: 8a3e 0abe 0106 59be cead afbd a1bc c7bd
00000370: 4924 4a3e 64c4 6cbe 39a7 11be f67d da3c
00000380: c468 193e d0e3 bc3c 002a 623e ede2 103d
00000390: 1d5a 3abd a9b4 73bd 317d 2dbd c0d1 393e
000003a0: 9cca 283e bab2 f93c d71f 82be ba5b 8bbe
000003b0: f2ef 4fbe 54d7 51be f47c 6dbe fe7b d3bd
000003c0: ccc2 713c ca79 86be ba0f 8fbe 541e 453c
000003d0: 4ae1 643d ae6e 3f3e 8ba3 7e3e 66cb 243e
000003e0: 972e ce3d 32ee a23e e03a 3ebe 0339 e9bd
000003f0: ae46 213e cecc d7bd 3044 65be 09a0 a33e
0.046145175 0.25218338 0.035172082 -0.0060469517 -0.16362731 -0.2111029 0.12587136 -0.10737001
-0.24115132 -0.11457683 -0.18744293 0.2759149 -0.010659712 -0.051150665 0.2078052 -0.18076143
-0.13169526 0.13950786 0.24256115 -0.16468965 0.24771695 -0.2768851 -0.15570748 0.11653261
-0.2955632 -0.0313767 -0.1433792 0.04421037 0.24133196 -0.14252354 0.11043157 0.24479227
-0.05148791 0.0848256 0.13092661 -0.21365257 0.28362748 0.19953349 -0.110980205 -0.11896455
-0.029481124 -0.12930036 -0.21137473 -0.1657303 0.31230628 -0.09809359 -0.15679403 0.1185578
-0.30069336 -0.09949459 0.24549955 -0.2401311 -0.049380027 -0.068653524 -0.117927216 0.031729452
0.2735289 0.12791957 0.28527933 -0.29806718 0.09379116 -0.19303735 -0.16903889 0.28366116
-0.046863366 -0.0385176 -0.0050940337 -0.23305248 0.28021803 -0.11606167 0.13688837 -0.23667835
-0.007049294 0.12823978 0.10152947 0.09267502 -0.11905111 -0.21831241 -0.22211465 0.15669361
0.30562365 0.113551 -0.05145973 -0.013959148 -0.20619027 0.18526131 0.048976284 0.06389072
-0.26086327 -0.27578327 0.12784515 -0.30332404 0.14211856 -0.005215496 -0.09551865 0.29815045
0.016202271 0.023713617 -0.16073395 0.2754754 -0.3010124 0.20714147 0.07744889 0.10772194
0.18103257 -0.19161713 0.11080617 -0.23551491 0.31498688 -0.11395887 0.16526239 0.23337528
0.29883382 0.12404996 -0.1461633 0.13051377 -0.30513242 0.25941214 0.28223974 0.18455675
-0.10357456 -0.06371252 0.19930771 -0.0072799115 0.111482196 -0.06398264 -0.008240321 -0.14064659
0.05110404 0.3075365 -0.2718959 0.08713394 -0.07480009 0.24554983 -0.0838431 -0.2507658
-0.15492648 -0.15313205 -0.057137556 -0.024827596 -0.30111006 0.14614247 0.11998979 -0.26295435
-0.3379103 -0.22311124 -0.3301536 0.09923094 0.3326072 0.26735768 0.35538322 -0.09715661
0.14246981 0.1488439 0.115135066 0.31396806 -0.16894943 0.07840018 -0.1046762 0.023468833
0.22288762 0.20459609 -0.100910194 -0.016016724 -0.28092813 -0.16115889 0.21966223 -0.17968887
-0.1551508 0.26093933 -0.17560102 0.17338218 -0.3017035 0.3244301 0.2718349 0.11527315
-0.11826099 0.04039335 0.04194556 -0.16814466 0.23013486 0.11897117 -0.29223832 -0.13378642
0.2533299 -0.051338114 0.013967782 -0.16061948 -0.07888947 0.27045277 -0.28070012 -0.057156313
-0.05985654 -0.042324737 0.04533635 0.192254 -0.3113998 -0.1339519 -0.32029748 0.24293423
-0.03149376 -0.09472751 -0.06580884 -0.24179076 -0.29455075 0.2950958 0.25297564 -0.0378083
-0.013810549 -0.087901615 0.06078688 -0.009997208 -0.020328203 -0.10085526 -0.22658984 -0.24820958
-0.1350042 -0.21193697 -0.085780725 -0.09752775 0.19740404 -0.23121792 -0.14223947 0.026671391
0.14981371 0.023057848 0.22086334 0.035372663 -0.045496095 -0.059498463 -0.04235572 0.1814642
0.1648354 0.030480731 -0.25414917 -0.2721842 -0.20306376 -0.20492297 -0.23192197 -0.10326384
0.014755916 -0.26264793 -0.27941686 0.012031157 0.055878915 0.18694565 0.24867074 0.16093215
0.1006748 0.31822354 -0.18577147 -0.11387827 0.15749618 -0.1053711 -0.22389293 0.31958035

layer3.bias f4 [7]
00000000: 36f6 163c e8a7 99bc b4c3 f83b 49d7 823d
00000010: 3406 4abd f679 653c de15 dabc
0.009213975 -0.018756822 0.007591689 0.06388719 -0.049322322 0.014006129 -0.026621755
