maml_model/maml_GoToOpen_7_10_600_50_encoder.pth (torch, 24844 bytes, 6 tensors)

net.0.weight f4 [32, 38]
-0.1388345 0.1108545 -0.018450402 0.03691784 -0.1168036 0.066943526 0.11386478 -0.16105787
-0.06590081 -0.1419032 0.0021437278 -0.051214546 0.03612468 -0.019846665 0.11658163 0.012687355
-0.052518103 -0.110431634 -0.06302373 -0.118691236 -0.028392589 -0.08155965 -0.055187292 0.12738113
-0.009931668 -0.118288994 -0.077715635 -0.044848766 0.16106315 -0.08301168 0.04951185 0.113638155
0.13153368 -0.037802372 0.053524643 -0.021690592 0.103743635 0.05616455 -0.032947995 0.008804554
0.14314933 0.09321776 -0.066558674 -0.024032459 -0.06550594 -0.05589904 -0.11922998 -0.028711129
-0.024370106 -0.11200571 -0.08669874 -0.13044463 -0.012392272 -0.07050477 0.076890476 0.11836757
-0.02983627 -0.035390306 0.03989447 0.026718374 -0.1352002 -0.035782043 0.08737711 0.004200356
-0.11667406 -0.1188992 0.028015781 -0.033126913 0.15074535 0.083014004 -0.110853165 -0.1023694
-0.05388745 0.15965857 0.06323742 -0.044718582 -0.08379102 0.021211524 -0.029756557 -0.14360471
0.04459727 -0.020568565 -0.06590371 0.04283482 0.13182457 0.03947562 0.099090666 -0.054282375
0.079565465 0.12474615 -0.15016393 -0.116524376 0.015795948 -0.046495035 -0.055988032 0.1123386
0.0349294 0.032513775 -0.026904855 -0.08679134 -0.0343793 -0.103096515 -0.026742723 -0.031069705
0.051072974 -0.1431362 0.12421352 -0.14749296 0.15310492 -0.0853772 -0.15808865 -0.08888857
-0.01014988 0.10154688 0.12789996 0.11963879 0.056047577 -0.0501218 -0.06133086 -0.09202557
-0.013073464 0.010592708 -0.009719333 -0.06527622 -0.07687344 0.023939075 0.10839583 0.066027164
0.1127986 -0.035838414 -0.0922289 -0.09490864 0.03406447 0.0082090115 -0.01913873 0.024103992
0.1440471 -0.0064249374 0.024394337 -0.08523493 0.068904854 -0.09440724 -0.035207964 0.12694885
-0.14419182 0.042857442 -0.14870895 0.12681283 -0.030295612 -0.0889713 -0.13677 0.006289395
0.12842551 0.09785673 -0.0023866363 0.103153564 0.096210785 0.056177627 0.056285206 0.022017177
0.16180435 -0.15690553 0.10750724 0.11876673 -0.09749681 -0.0075963354 0.046108115 0.15694833
0.011273474 0.011176822 0.12474751 -0.014301698 -0.077898756 -0.032976694 -0.13647614 -0.07163212
-0.14799511 -0.002546564 -0.14950246 -0.13511221 -2.0556612e-05 -0.093358465 0.08213376 -0.1490156
0.15632716 -0.1510107 -0.12025443 0.09591911 -0.043626044 -0.04739937 0.057822946 -0.15723023
0.08297546 -0.1576441 -0.065285 -0.15216415 0.13385929 -0.061166115 0.10896915 0.048581097
0.092248045 0.032611646 0.09060925 -0.017348582 0.03843725 -0.023800071 -0.042130902 -0.040839106
-0.00742173 -0.1574442 -0.07446338 0.10932287 -0.0676579 0.13429923 0.11692288 -0.011038592
-0.04067181 0.02133815 -0.08109955 -0.06618823 -0.08922618 0.026863934 -0.10165758 -0.071702644
0.023291262 0.15013176 0.009639369 0.030009503 0.0974847 0.15548718 0.11206111 -0.11101538
0.14556548 0.07070181 0.111442134 -0.08936992 0.009835073 -0.09753592 -0.07434677 -0.12347168
0.03883171 0.11789289 0.02400817 -0.08149529 -0.12511773 -0.11216748 -0.07340581 0.06290695
0.039747227 0.049691193 -0.13280618 0.15222324 -0.13348736 0.032155667 0.032362547 -0.05381696
00000000: a22a 0ebe af07 e33d 4c25 97bc 2937 173d
00000010: ba36 efbd b019 893d f031 e93d 5bec 24be
00000020: 01f7 86bd 134f 11be c97d 0c3b 58c6 51bd
00000030: 79f7 133d 7995 a2bc 5ac2 ee3d a0de 4f3c
00000040: 391d 57bd fb29 e2bd 9612 81bd 6414 f3bd
00000050: 9397 e8bc bf08 a7bd 120c 62bd 3370 023e
00000060: 6fb8 22bc 8041 f2bd 6029 9fbd 57b3 37bd
00000070: bded 243e 0702 aabd f0cc 4a3d 1fbb e83d
00000080: c4b0 063e a9d6 1abd a83c 5b3d 78b0 b1bc
00000090: 8b77 d43d cd0c 663d 7af4 06bd fa40 103c
000000a0: bd95 123e f4e8 be3d ea4f 88bd b8df c4bc
000000b0: fa27 86bd 64f6 64bd d92e f4bd 9a33 ebbc
000000c0: d1a3 c7bc 4063 e5bd 1c8f b1bd 4793 05be
000000d0: f508 4bbc ce64 90bd c178 9d3d b26a f23d
000000e0: 316b f4bc 6df5 10bd 6268 233d 7ee0 da3c
000000f0: ec71 0abe 3190 12bd c5f2 b23d 24a3 893b
00000100: cff2 eebd 6c81 f3bd 5a81 e53c 16b0 07bd
00000110: fd5c 1a3e 3f03 aa3d fc06 e3bd 0ca7 d1bd
00000120: 16b9 5cbd 897d 233e 9f82 813d d52a 37bd
00000130: a09a abbd cac3 ad3c 06c4 f3bc 1d0d 13be
00000140: a1ab 363d 687f a8bc 86f8 86bd 9073 2f3d
00000150: 05fd 063e 30b1 213d 0cf0 ca3d 3257 5ebd
00000160: 38f3 a23d e97a ff3d 93c4 19be 55a4 eebd
00000170: 8166 813c 9471 3ebd b553 65bd c811 e63d
00000180: 2112 0f3d 2a2d 053d 9267 dcbc a8bf b1bd
00000190: 4fd1 0cbd 4424 d3bd 8e13 dbbc e585 febc
000001a0: e531 513d 4c92 12be a863 fe3d 6508 17be
000001b0: 89c7 1c3e 3eda aebd fee1 21be 360b b6bd
000001c0: af4b 26bc d0f7 cf3d 35f8 023e 2f05 f53d
000001d0: 2592 653d 844c 4dbd 1136 7bbd e777 bcbd
000001e0: 1532 56bc 0a8d 2d3c d63d 1fbc 8aaf 85bd
000001f0: d26f 9dbd e11b c43c a2fe dd3d 4039 873d
00000200: f402 e73d 4dcb 12bd 81e2 bcbd 765f c2bd
00000210: 3087 0b3d 177f 063c d3c8 9cbc bc75 c53c
00000220: 1581 133e 4888 d2bb a2d6 c73c a78f aebd
00000230: fd1d 8d3d 9558 c1bd 3a36 10bd e1fe 013e
00000240: 05a7 13be 498b 2f3d 2947 18be 39db 013e
00000250: 812e f8bc 9636 b6bd 6f0d 0cbe 4517 ce3b
00000260: fa81 033e 1c69 c83d 1d69 1cbb 2d42 d33d
00000270: 290a c53d 831a 663d 518b 663d 5e5d b43c
00000280: 0ab0 253e d8ab 20be c12c dc3d f93b f33d
00000290: 68ac c7bd aeea f8bb dddb 3c3d 10b7 203e
000002a0: 61b4 383c fd1e 373c 9f7b ff3d ab51 6abc
000002b0: 6289 9fbd 9212 07bd 67c0 0bbe dcb3 92bd
000002c0: 088c 17be 41e4 26bb 2c17 19be db5a 0abe
000002d0: fd70 acb7 b932 bfbd bf35 a83d 8c97 18be
000002e0: 3a14 203e 8da2 1abe f447 f6bd 3d71 c43d
000002f0: 39b1 32bd d825 42bd c1d7 6c3d f600 21be
00000300: 0aef a93d 746d 21be 24b4 85bd ebd0 1bbe
00000310: 6912 093e 5289 7abd 382b df3d f9fc 463d
00000320: 8bec bc3d ca93 053d 5891 b93d 9d1e 8ebc
00000330: 6170 1d3d 5ef8 c2bc 7491 2cbd e846 27bd
00000340: fc31 f3bb 0d39 21be 4280 98bd abe4 df3d
00000350: 3a90 8abd bd85 093e 4375 ef3d 36db 34bc
00000360: 7c97 26bd 58cd ae3c 8517 a6bd b28d 87bd
00000370: 37bc b6bd c111 dc3c d931 d0bd d6d8 92bd
00000380: 51cd be3c 24bc 193e 72ee 1d3c 7dd6 f53c
00000390: 0fa6 c73d 0838 1f3e 4c80 e53d 085c e3bd
000003a0: 1e0f 153e 1ccc 903d c63b e43d 9407 b7bd
000003b0: 4923 213c eac0 c7bd 1f43 98bd b8de fcbd
000003c0: 000e 1f3d d471 f13d c8ac c43c 01e7 a6bd
000003d0: dd1e 00be 10b8 e5bd c955 96bd 5cd5 803d
000003e0: fdcd 223d fe88 4b3d 58fe 07be 69e0 1b3e
000003f0: e9b0 08be a9b5 033d 978e 043d 2c6f 5cbd

net.0.bias f4 [32]
0.076715715 -0.15842625 0.030077845 0.06499954 -0.100409016 -0.032413736 0.074532226 -0.08686662
0.023774216 0.08122436 -0.12480287 -0.00517694 0.16218543 -0.03925557 0.14139009 -0.039167404
0.08258873 -0.040048767 0.11115881 -0.10302269 0.10379581 -0.12536599 -0.10342073 -0.103438534
-0.009860251 0.047804162 0.07790384 -0.034060974 0.10655254 -0.0462488 0.038575362 -0.12754504
00000000: 211d 9d3d 7e3a 22be d065 f63c 7b1e 853d
00000010: 3ea3 cdbd 44c4 04bd 5aa4 983d 20e7 b1bd
00000020: 25c2 c23c f558 a63d a698 ffbd 52a3 a9bb
00000030: f013 263e 73ca 20bd 90c8 103e 006e 20bd
00000040: 4824 a93d 2d0a 24bd 3ba7 e33d 8ffd d2bd
00000050: e692 d43d f15f 00be 3fce d3bd 95d7 d3bd
00000060: e48c 21bc 4cce 433d 0c8c 9f3d 8583 0bbd
00000070: 3838 da3d 626f 3dbd 3301 1e3d 2b9b 02be

net.2.weight f4 [64, 32]
0.10936886 0.011393747 -0.07924798 -0.16928446 -0.08573322 0.018060114 -0.014588752 -0.09101587
0.1272749 0.1328852 -0.06707357 0.053282507 -0.07232886 0.077411264 0.15555808 -0.09201445
-0.021922851 0.14289618 0.05141058 0.07436371 0.0715016 0.09748861 -0.03882964 -0.022709839
0.051140625 -0.054348085 0.045501232 -0.030934965 -0.09064995 0.064672396 0.064921804 -0.15621328
-0.12053261 -0.049499556 0.108884566 -0.08977527 -0.024251234 -0.14568555 0.12528688 -0.17369625
0.014740755 0.07385957 0.08438372 0.16795559 -0.16048343 0.12981386 -0.07534072 -0.14854309
-0.033004038 0.14861584 -0.053702418 -0.0026223978 -0.1331466 -0.16641773 -0.09925263 -0.03353966
-0.1732749 0.045485236 0.13632204 0.02335087 -0.07409852 -0.08732441 0.053900316 -0.14917305
-0.1691694 -0.0058416165 -0.1022845 0.119254716 -0.1434461 0.020423604 -0.09134219 0.16350417
-0.024457773 -0.119786315 -0.0484623 -0.024468584 -0.16944885 0.053663265 0.15844065 0.03271887
0.05418386 -0.102488235 0.15318021 -0.06233508 0.16519336 0.0328808 -0.05166919 0.02082832
0.123302266 -0.11494343 0.0077967662 0.17346351 -0.12624985 -0.07384971 0.0597876 -0.029537965
-0.1738036 -0.012686939 -0.13886662 0.1379911 0.028052142 -0.14143428 -0.0068474086 -0.0021059094
-0.15378416 0.0021173733 -0.0023408781 0.06277042 0.06657371 -0.112627886 -0.0028869116 0.12504303
-0.013039118 -0.12942617 -0.03514887 0.0657388 0.12684205 -0.1348942 0.14903323 0.04129034
-0.17261688 -0.05538357 -0.03638683 0.090273194 0.070823014 0.003398237 -0.06625508 0.044256803
-0.11281557 -0.052108254 0.0202221 0.114296414 0.07492403 0.010042034 -0.02187373 -0.08659243
0.12257334 -0.114365935 -0.028570905 -0.041890617 -0.024326403 -0.12283105 -0.15477073 0.030999765
0.026344856 0.057366792 -0.13295999 -0.05043218 -0.12833479 0.15473919 -0.016259179 -0.05141532
-0.0065698083 0.031009037 0.07196351 0.1085561 -0.104127705 0.14563754 0.069101125 -0.16394238
0.12573321 -0.14877646 0.08164963 0.013587891 0.11064673 -0.0084607685 -0.07464506 0.12354822
-0.041857447 -0.1072503 0.009515663 -0.17574215 0.15852883 -0.10225519 -0.003899616 0.110374145
-0.12536478 -0.15110345 0.04131251 -0.0036362403 -0.08638117 0.15849571 -0.119219355 -0.13562141
-0.15466256 0.11965655 0.009970785 0.121559724 -0.01656232 -0.0631862 0.13046853 0.15036845
0.118778266 -0.05853896 0.035999835 0.03637509 -0.13853537 0.045477543 -0.033644397 0.039561328
0.099556334 0.09335242 0.16132274 -0.08504372 0.11728433 0.04522022 -0.079297125 -0.12896274
-0.13047665 -0.01809381 0.11214543 -0.087357014 -0.12861614 -0.018490897 -0.11861623 -0.1766755
0.016351903 -0.025404498 -0.102463305 -0.065657705 0.15441297 0.0028270208 -0.14155911 -0.024384754
0.07143703 0.078339465 0.0077594244 0.11632138 -0.04718698 0.09043017 0.16133866 0.12091492
0.15279149 -0.043428365 -0.06566515 0.12724997 0.17491096 -0.100792356 0.11745591 -0.104627885
0.025509253 -0.06806908 -0.14008363 0.15533176 -0.11702707 -0.033513296 -0.032528874 -0.13603276
-0.13789512 -0.16725402 0.07023281 0.0838273 -0.1114123 -0.11106974 -0.09898417 0.046835896
00000000: c8fc df3d d7ac 3a3c c44c a2bd e858 2dbe
00000010: e694 afbd cef2 933c a905 6fbc 8766 babd
00000020: 5a54 023e 0f13 083e de5d 89bd c23e 5a3d
00000030: 2721 94bd cc89 9e3d 9e4a 1f3e 1272 bcbd
00000040: 8d97 b3bc 6053 123e e693 523d 004c 983d
00000050: 6e6f 923d 1ca8 c73d d40b 1fbd fc09 babc
00000060: d578 513d 199c 5ebd 805f 3a3d 536b fdbc
00000070: aea6 b9bd f672 843d b9f5 843d 60f6 1fbe
00000080: cdd9 f6bd 0cc0 4abd dffe de3d 19dc b7bd
00000090: 86aa c6bc 982e 15be 344b 003e 6edd 31be
000000a0: 3583 713c b043 973d 5fd1 ac3d 8dfc 2b3e
000000b0: c555 24be eded 043e 3c4c 9abd ae1b 18be
000000c0: 3e2f 07bd c02e 183e 11f7 5bbd 89dc 2bbb
000000d0: 9557 08be 6969 2abe f644 cbbd e260 09bd
000000e0: fa6e 31be ba4e 3a3d 0198 0b3e 534a bf3c
000000f0: f7c0 97bd 24d7 b2bd 94c6 5c3d d2c0 18be
00000100: be3a 2dbe 086b bfbb 897a d1bd d13b f43d
00000110: 89e3 12be 674f a73c 9d11 bbbd a36d 273e
00000120: ab5b c8bc 8752 f5bd 6880 46bd 5772 c8bc
00000130: 0084 2dbe 03ce 5b3d 443e 223e 3904 063d
00000140: e5ef 5d3d 5ae5 d1bd 46db 1c3e 1253 7fbd
00000150: 7328 293e 05ae 063d 13a3 53bd 27a0 aa3c
00000160: e685 fc3d 7667 ebbd 047c ff3b 6ba0 313e
00000170: a447 01be 843e 97bd d8e3 743d 9af9 f1bc
00000180: 92f9 31be e1dc 4fbc 0d33 0ebe 8a4d 0d3e
00000190: 9bcd e53c 26d4 10be 3a60 e0bb 4c03 0abb
000001a0: 9879 1dbe a1c3 0a3b 6b69 19bb c78d 803d
000001b0: cc57 883d 73a9 e6bd 5732 3dbb 480b 003e
000001c0: 06a2 55bc 4b88 04be 43f8 0fbd 10a2 863d
000001d0: e2e2 013e b521 0abe 2b9c 183e 0f20 293d
000001e0: 7bc2 30be e2d9 62bd 5b0a 15bd 27e1 b83d
000001f0: a80b 913d f5b4 5e3b beb0 87bd 9f46 353d
00000200: d90b e7bd 776f 55bd d1a8 a53c 3d14 ea3d
00000210: c571 993d 5887 243c 8930 b3bc 5f57 b1bd
00000220: bb07 fb3d b038 eabd 880d eabc 7f95 2bbd
00000230: 2a48 c7bc d88e fbbd 387c 1ebe 38f3 fd3c
00000240: 2bd1 d73c 71f9 6a3d aa26 08be f991 4ebd
00000250: 326a 03be f373 1e3e f831 85bc df98 52bd
00000260: 8c47 d7bb aa06 fe3c 9b61 933d a952 de3d
00000270: e840 d5bd 0222 153e e484 8d3d 83e0 27be
00000280: 35c0 003e db58 18be ec37 a73d bf9f 5e3c
00000290: c19a e23d 099f 0abc 82df 98bd d906 fd3d
000002a0: b772 2bbd 0ca6 dbbd 95e7 1b3c c0f5 33be
000002b0: 6255 223e 2b6b d1bd b390 7fbb d70b e23d
000002c0: a05f 00be ddba 1abe 4e37 293d fd4d 6ebb
000002d0: 9ce8 b0bd b34c 223e 4729 f4bd 57e0 0abe
000002e0: dd5f 1ebe 7e0e f53d 815c 233c 4ef4 f83d
000002f0: b4ad 87bc c467 81bd 8b99 053e 30fa 193e
00000300: 0542 f33d 8cc6 6fbd 9074 133d 0cfe 143d
00000310: 37dc 0dbe a946 3a3d b5ce 09bd 0f0b 223d
00000320: 31e4 cb3d 8e2f bf3d ca31 253e 672b aebd
00000330: c432 f03d d638 393d 8866 a2bd cf0e 04be
00000340: ac9b 05be 7839 94bc 81ac e53d 3ce8 b2bd
00000350: f3b3 03be 397a 97bc 11ed f2bd 6cea 34be
00000360: 6df4 853c 181d d0bc 48d8 d1bd 8c77 86bd
00000370: 6f1e 1e3e 8a45 393b dff4 10be 89c2 c7bc
00000380: 944d 923d 7170 a03d c542 fe3b e739 ee3d
00000390: 2247 41bd 7433 b93d f635 253e 3ea2 f73d
000003a0: 5f75 1c3e f1e1 31bd 737b 86bd d14d 023e
000003b0: dc1b 333e 396c cebd b98c f03d 2547 d6bd
000003c0: c8f8 d03c cd67 8bbd 1572 0fbe 4a0f 1f3e
000003d0: e3ab efbd 3d45 09bd ff3c 05bd 2c4c 0bbe
000003e0: 6134 0dbe a344 2bbe 38d6 8f3d a6ad ab3d
000003f0: 222c e4bd 8878 e3bd 36b8 cabd ffd6 3f3d

net.2.bias f4 [64]
0.04434099 0.13289388 -0.11110834 0.10947762 -0.13879892 -0.1543469 -0.16970032 0.019887201
0.04836747 0.14535654 0.06581679 0.14871308 -0.073472194 -0.09896251 -0.09409707 -0.022951845
-0.057803094 -0.030005774 -0.096069105 -0.15638208 0.15588059 0.018945303 -0.02646997 -0.087145984
-0.10121104 0.12470163 -0.04064442 -0.09971217 -0.012537823 0.01819846 0.022240408 0.15910444
0.0792079 -0.132135 0.036976125 0.019304225 0.064089864 -0.03670763 -0.0029715004 0.16709545
0.01655212 0.15118466 0.02586394 -0.13444899 -0.06159882 -0.050897125 0.0023548498 -0.084016114
0.01769036 0.09872096 0.057645466 0.14059442 0.17086594 -0.11033255 0.040222928 0.020579673
0.119439766 -0.16248941 0.012358994 0.1241718 -0.116682135 0.12520412 0.16168398 0.110315494
00000000: e69e 353d 5515 083e c58c e3bd cd35 e03d
00000010: 4e21 0ebe 1d0d 1ebe ecc5 2dbe 7cea a23c
00000020: f81c 463d 58d8 143e f4ca 863d 3e48 183e
00000030: 9778 96bd dbac cabd f7b5 c0bd 8205 bcbc
00000040: f0c2 6cbd abce f5bc e1bf c4bd a022 20be
00000050: 299f 1f3e 2e33 9b3c 8dd7 d8bc 9879 b2bd
00000060: bc47 cfbd 9163 ff3d c37a 26bd e535 ccbd
00000070: 716b 4dbc f014 953c 8431 b63c 46ec 223e
00000080: c037 a23d 664e 07be 4774 173d e523 9e3c
00000090: 8c41 833d bd5a 16bd 81bd 42bb 121b 2b3e
000000a0: 5098 873c 27d0 1a3e 9de0 d33c ffac 09be
000000b0: 0b4f 7cbd 8179 50bd d353 1a3b a410 acbd
000000c0: 60eb 903c 372e ca3d a71d 6c3d fcf7 0f3e
000000d0: 7bf7 2e3e 08f6 e1bd ccc0 243d b496 a83c
000000e0: d69c f43d a063 26be 617d 4a3c c94d fe3d
000000f0: 0bf7 eebd 8235 003e 7c90 253e 17ed e13d

net.4.weight f4 [32, 64]
0.01157923 0.079303265 0.102053866 -0.0824904 -0.07992117 0.030021578 0.061965153 -0.0733418
-0.012860149 0.06302717 -0.117531985 0.042449698 0.072146535 -0.039199412 -0.0029148906 0.057809725
-0.050878763 0.0821531 -0.06154169 0.03052856 -0.065434396 0.07566212 0.053351685 -0.056723192
-0.09733851 0.09866378 0.084157035 0.077401996 -0.07513164 0.061642125 -0.098084435 0.03318204
0.098009065 0.021146461 0.09941167 -0.11938357 -0.06573546 0.05541648 0.11857912 0.0025500953
-0.10864796 0.0015388429 -0.094435856 0.09902412 0.078249976 -0.082045436 -0.0913645 0.09508146
-0.022416428 0.010171905 0.04097697 0.07496314 -0.072421074 -0.057226017 0.124226764 -0.029339507
-0.055499047 0.078155875 0.11218952 0.09523922 -0.061071977 -0.043855563 -0.07200223 0.110594735
-0.028232455 0.08024353 0.06555934 0.040015846 0.09184435 -0.08360118 0.08457516 0.0137538165
-0.017222002 -0.05961539 0.10882224 -0.083618656 0.029919788 -0.01794365 -0.017079711 -0.12368478
0.09577337 0.12413347 -0.11181365 0.12246901 0.03599511 0.051961392 0.045379877 -0.076897725
0.009514362 0.0820346 0.057611227 0.08298208 0.099718735 0.07667956 -0.06573078 0.05742131
0.09296264 -0.040054187 -0.10454367 -0.04069838 -0.057298988 -0.116430506 0.05627945 0.03403102
-0.08560628 0.031202674 0.115633115 -0.011768624 0.052912936 0.064590424 -0.081347674 0.0018924624
-0.11062597 -0.0060400963 -0.07020974 -0.008331701 0.0071485043 -0.03483434 0.020943344 0.096563384
0.00052560866 -0.07312043 0.057038203 -0.050316736 -0.027777895 0.109193936 -0.0028212965 0.0023628026
-0.01612638 0.00042761862 0.014227986 -0.0009301454 0.012597367 0.008147389 0.042743325 0.017674848
-0.06755476 -0.033650562 0.07066119 -0.0871004 0.014720589 0.08202213 -0.03787072 0.043370858
-0.096251115 0.086039126 -0.081624076 -0.118757576 0.06998417 -0.061510384 0.035583377 -0.036322266
-0.106553376 -0.12361002 0.039472476 0.111219764 -0.09523368 -0.08801809 0.06565443 0.10961978
-0.026755646 -0.037571102 0.04412721 0.116273016 0.09291981 0.10875434 0.06002754 -0.01564844
-0.077099845 -0.00030817091 -0.048161685 -0.06070845 0.006253317 0.1055717 0.011972755 0.03146617
0.07149057 0.086147174 0.10058108 0.001395002 0.1090149 -0.060226932 -0.031341746 -0.034269407
-0.0057817698 -0.081989735 -0.020268634 0.08011083 -0.007321015 0.1116541 0.03944826 0.07969314
-0.008398771 0.08320919 -0.10098237 -0.025304556 -0.09211439 0.09028761 -0.085801125 0.12496878
0.04812686 -0.055979833 0.11100499 -0.05048777 -0.093635365 -0.08261895 -0.093597025 0.04232262
-0.0667143 -0.092062 0.042544276 0.033974737 -0.0862982 0.00016759336 -0.09968357 -0.058548912
0.020311013 -0.07493289 0.03922537 0.009006932 -0.06726554 0.04612626 0.009836465 0.048723713
0.0032011569 -0.022270024 0.081641644 0.11369337 -0.03460169 0.008038387 0.044992894 0.0732813
-0.07399596 -0.11151637 0.06507152 0.038656533 0.012331367 -0.09576595 0.09653191 0.09626596
-0.04096812 0.11252208 -0.066574216 -0.027225316 -0.06496613 -0.0320424 -0.038149357 -0.07048482
-0.1161678 -0.12470397 -0.090688184 0.052835137 -0.01538454 0.12190886 -0.0022311807 0.06516126
00000000: d0b6 3d3c c069 a23d 9e01 d13d baf0 a8bd
00000010: b6ad a3bd d0ef f53c 2ccf 7d3d 3a34 96bd
00000020: 60b3 52bc 6414 813d 9cb4 f0bd bcdf 2d3d
00000030: 90c1 933d 908f 20bd c007 3fbb e4c9 6c3d
00000040: 4066 50bd e23f a83d 2413 7cbd 0817 fa3c
00000050: 7802 86bd bef4 9a3d 4c87 5a3d 9456 68bd
00000060: 6a59 c7bd 3c10 ca3d 865a ac3d f084 9e3d
00000070: 9ede 99bd 747c 7c3d 7ee0 c8bd e4e9 073d
00000080: fab8 c83d 583b ad3c 5898 cb3d 607f f4bd
00000090: 50a0 86bd 64fc 623d 9cd9 f23d 801f 273b
000000a0: d282 debd 00b3 c93a 9667 c1bd 28cd ca3d
000000b0: 8641 a03d 7007 a8bd 501d bbbd 12ba c23d
000000c0: a8a2 b7bc 10a8 263c 78d7 273d 4686 993d
000000d0: 8051 94bd d465 6abd 9a6a fe3d 6859 f0bc
000000e0: f852 63bd 3010 a03d 9ec3 e53d c80c c33d
000000f0: 9c26 7abd e4a1 33bd e875 93bd 7e7f e23d
00000100: c047 e7bc b856 a43d fa43 863d a8e7 233d
00000110: e418 bc3d 1837 abbd be35 ad3d b057 613c
00000120: 2815 8dbc 442f 74bd 32de de3d 4240 abbd
00000130: 581a f53c 90fe 92bc c0ea 8bbc 724e fdbd
00000140: d424 c43d b039 fe3d 8efe e4bd 08d1 fa3d
00000150: 9c6f 133d 78d5 543d 40e0 393d 8e7c 9dbd
00000160: 20e2 1b3c c201 a83d c0f9 6b3d 82f2 a93d
00000170: 5639 cc3d 2c0a 9d3d dc9d 86bd 9c32 6b3d
00000180: 3263 be3d dc0f 24bd fe1a d6bd 58b3 26bd
00000190: 58b2 6abd 1e73 eebd 4885 663d 1c64 0b3d
000001a0: 5852 afbd c09c ff3c 0ed1 ec3d 30d1 40bc
000001b0: 3cbb 583d fc47 843d 9c99 a6bd 800c f83a
000001c0: de8f e2bd 00ec c5bb 20ca 8fbd b081 08bc
000001d0: 003e ea3b 74ae 0ebd 6091 ab3c 06c3 c53d
000001e0: 00c9 093a 2ac0 95bd e4a0 693d ec18 4ebd
000001f0: 788e e3bc 12a1 df3d 80e5 38bb 40d9 1a3b
00000200: 781b 84bc 0032 e039 801c 693c 00d5 73ba
00000210: 3065 4e3c a07c 053c a013 2f3d d8ca 903c
00000220: 265a 8abd 2cd5 09bd d0b6 903d b261 b2bd
00000230: a02e 713c 38fb a73d 541e 1bbd a4a5 313d
00000240: 4e1f c5bd 4835 b03d 862a a7bd 2c37 f3bd
00000250: dc53 8f3d 50f2 7bbd e0bf 113d a8c6 14bd
00000260: a838 dabd 4027 fdbd e4ad 213d 30c7 e33d
00000270: e009 c3bd d442 b4bd d475 863d 5680 e03d
00000280: a82e dbbc 28e4 19bd bcbe 343d 8c20 ee3d
00000290: be4c be3d 98ba de3d 70df 753d 2831 80bc
000002a0: 86e6 9dbd 0092 a1b9 3045 45bd 6ca9 78bd
000002b0: a0e8 cc3b fa35 d83d 6029 443c ace2 003d
000002c0: a669 923d ee6d b03d 74fd cd3d 80d8 b63a
000002d0: 3443 df3d 84b0 76bd 3460 00bd 145e 0cbd
000002e0: 0075 bdbb 3cea a7bd 680a a6bc 2611 a43d
000002f0: 20e5 efbb e8aa e43d 8094 213d 2836 a33d
00000300: 009b 09bc 9469 aa3d d8cf cebd 804b cfbc
00000310: 78a6 bcbd b6e8 b83d 80b8 afbd a2ef ff3d
00000320: ac20 453d 1c4b 65bd 9656 e33d 44cc 4ebd
00000330: e6c3 bfbd 2034 a9bd ccaf bfbd 7c5a 2d3d
00000340: 82a1 88bd 008b bcbd e842 2e3d 1829 0b3d
00000350: 1cbd b0bd 00bc 2f39 e626 ccbd fcd0 6fbd
00000360: 4863 a63c 6a76 99bd c8aa 203d d091 133c
00000370: 84c2 89bd e4ee 3c3d 2029 213c 8492 473d
00000380: 80ca 513b a06f b6bc bc33 a73d 12d8 e83d
00000390: 80ba 0dbd 70b3 033c 784a 383d 8214 963d
000003a0: 328b 97bd b262 e4bd 3844 853d 5056 1e3d
000003b0: 8009 4a3c f020 c4bd 86b2 c53d 1627 c53d
000003c0: 30ce 27bd fa71 e63d 1058 88bd a007 dfbc
000003d0: f60c 85bd e43e 03bd 8042 1cbd 585a 90bd
000003e0: 62e9 edbd cc64 ffbd baba b9bd a869 583d
000003f0: 700f 7cbc 5aab f93d 0039 12bb 4473 853d

net.4.bias f4 [32]
-0.007652566 -0.046526924 0.09877169 0.057236582 -0.06934121 -0.06657249 -0.013583034 -0.046001896
0.089945465 -0.0015607327 0.080577224 -0.07202299 -0.034799665 -0.093487754 -0.0071353465 0.048331648
0.042786658 0.089686096 -0.013616592 0.072292924 0.078533456 -0.07760665 -0.09253137 -0.11058815
-0.009639859 -0.033458143 -0.11603469 -0.111445904 0.01217635 -0.016841173 -0.07633759 0.09828466
00000000: 60c2 fabb 0493 3ebd d048 ca3d e870 6a3d
00000010: c402 8ebd 2857 88bd 608b 5ebc 7c6c 3cbd
00000020: 5435 b83d 8091 ccba ac05 a53d ca80 93bd
00000030: 188a 0ebd 8276 bfbd a0cf e9bb 68f7 453d
00000040: 1041 2f3d 58ad b73d 2018 5fbc 500e 943d
00000050: 26d6 a03d 3cf0 9ebd 1681 bdbd 0a7c e2bd
00000060: 80f0 1dbc 680b 09bd 98a3 edbd c03d e4bd
00000070: 507f 473c 80f6 89bc e256 9cbd 7849 c93d
