maml_model/maml_OpenDoorLoc_7_3_500_50.pth (torch, 60304 bytes, 6 tensors)

layer1.weight f4 [64, 151]
00000000: 5710 013e ce9e 89bd b0d2 973d d982 0b3e
00000010: 8bbb 8abd ac87 003e 7d9d 543d 412b aebc
00000020: 07db f3bd 86a5 5a3d 691f d23d 0a0e 9e3d
00000030: d86b 81bb 2e8b f7bd 59ca 50bd d8c1 83bc
00000040: 45cc 243e 7278 d23d f0b4 92bd c163 1ebd
00000050: ab25 c0bc 9899 ec3d 66ac 9dbd 12b1 173d
00000060: 9b2c 2b3e 89ed 14be 7507 733d 99bd 5f3c
00000070: d7ed afbb ef5c 6e3d 9784 513b 1dbc f2bc
00000080: 0f50 2abe 4333 e7bd 3aff 1bbe 4977 873d
00000090: 668b 7cbd daac e33d 625c 1f3e 1ef4 0dbe
000000a0: c382 003e 783b d0bc 0852 ea3c 39dd 803c
000000b0: 7de7 e33c cf59 8fbd aa8c 1e3e 2b9a e93c
000000c0: 2e8d 293e 4db7 55bd 23e4 333d 5d77 50bd
000000d0: 549d f4bd f8ca 853c b82c ce3d c603 a6bb
000000e0: 4c5d 2a3d 18e0 4bbd a51f 083e 72fb f03c
000000f0: e602 f7bd 0734 a0bd 5577 8c3d d79e 56bd
00000100: 8d9a 793d e7e1 253c 1e1c 90bd 33a4 183e
00000110: 1d5e a33d c956 3a3d 5829 523c 6825 14be
00000120: ee2e d93d 3fd7 28bb 8764 a13d 78b7 053e
00000130: f35d 683d 23e7 af3c 5a51 0bbd 8343 30bc
00000140: 4d52 a63d c3d8 1ebe 3aec 16be 040a b23d
00000150: d9ca e6bd b3d5 c53c d9e7 b73d ee75 5b3d
00000160: d4d2 cf3d 70d3 87bd ccb3 4f3d 5d79 19be
00000170: 8a96 b23c 3119 033e d15f 8b3d e260 eebd
00000180: 2b1f 193e c884 cbbd ffe6 2bbe 3f47 e1bd
00000190: 5081 ae3d 770b fcbd 454e 46bd 7de5 60bd
000001a0: 8edf fcbc 9873 27be 9144 133c caa3 8f3d
000001b0: 824a a1bc 0a84 a23d 5808 75bd 1554 e8bd
000001c0: 5587 f83d 5839 5b38 e99d c4bb c5d3 063e
000001d0: cb4d cf3d b6a8 13be 3744 78bd 48fc 453d
000001e0: f9e7 203e 68a7 1d3d c59a 4fbc 44f2 d2bd
000001f0: 5c97 1e3d 98c0 fe3d 7245 033e f34b 0abd
00000200: d195 be3d be2b d7bd 0bab 793c dd2b bbbd
00000210: 76cb ff3d ad25 293e a4b8 2c3c 3097 94bc
00000220: e4b9 0b3e d120 1e3e d02d 3f3d 4d41 30be
00000230: 4858 e33c 5009 b2bd 96fc 9fbd dbb5 68b9
00000240: 54d1 e33d e622 32be 64a2 79bd 1358 23be
00000250: f97e 5cbd f02e 923d 8b58 963d d2ff d5bd
00000260: 7bf5 d73d 95e2 903d 3ba7 04be ba57 9e3d
00000270: a2b8 80bd 2ce9 513d b22a 80bd 2f28 b23d
00000280: c088 003c 0883 2b3e 4135 f33d eff9 b3bc
00000290: a9e4 06bd fe40 20be e327 5dbd 29b1 93bd
000002a0: c2f4 fe3d 8969 953b 96b6 08bc 7504 c63d
000002b0: 3666 18be 0b1b 163e 6c41 923d 3b22 10bc
000002c0: 55a9 18be af51 923d 5aba 5d3d a528 2fbc
000002d0: 8128 583c cab9 953d 4136 3e3d 5bdf d5bd
000002e0: d995 be3c bc44 0b3e be7e 39bb a6b8 ad3d
000002f0: a1cb 033e dfb9 9cbd 00f6 b5bc e9b7 9f3d
00000300: 7fab 113d 4064 6c3d e383 2e3d 3a85 ddbd
00000310: 65ce 21be 0801 11be ce1e 5abd 678e f33d
00000320: a520 2e3d 4310 8abd 581d 823c 6b31 45bd
00000330: 0e1c d7bd 0b3f 1b3d 42c8 38bc 77f4 aebd
00000340: 6e05 f83d 7163 06bc 3912 35bd 8ded 033e
00000350: 3a72 6a3c e419 903d 5e9a 043d e73e 5b3c
00000360: 1cdd 0d3c d443 c6bd 6d5a 9e3d 667d a13c
00000370: 006f 153e 6449 b8b9 e30f 593d 9e90 31bd
00000380: 8d35 093e 8cd3 10bc 4a1e a03d d532 c43d
00000390: ac3b c6bd 645c de3d 1412 433d 1d48 8c3a
000003a0: 283f 193e 913a efbd 6ab1 f1bd 574a 72bc
000003b0: bbb2 003d 0f19 e1bc 325b f9bc f517 16bd
000003c0: 0803 063e 5c80 9e3d 55e5 1abe 0cf3 5cbc
000003d0: c64e 0e3e 35e9 2fbd 14ee 09be de69 ab3d
000003e0: 1e7b 0bbe 0119 14bd 42b1 20be c864 0ebe
000003f0: e303 203e 5b40 11be a619 1b3e 72d0 0bbe
0.1260389 -0.06719743 0.07413232 0.13624133 -0.06774052 0.12551755 0.051908005 -0.02126086
-0.119070105 0.05338051 0.10259897 0.077175215 -0.0039496236 -0.12087093 -0.050974224 -0.016083643
0.16093548 0.10276879 -0.07163417 -0.03866935 -0.023455461 0.11552733 -0.07698898 0.0370341
0.16716234 -0.14543737 0.059333283 0.013656043 -0.005368929 0.058194097 0.00319699 -0.029630715
-0.16632102 -0.11289074 -0.1523408 0.06614549 -0.06165638 0.11116953 0.15562585 -0.13862655
0.12549882 -0.025418982 0.028603569 0.015730487 0.027820343 -0.069995515 0.15483347 0.028515896
0.16557762 -0.052176762 0.04391874 -0.050895084 -0.119440705 0.016332135 0.10067123 -0.005066368
0.04159288 -0.04977426 0.13293321 0.029416773 -0.120611 -0.078224234 0.06858698 -0.052397575
0.060938407 0.01012466 -0.07036613 0.14906387 0.07976935 0.04549292 0.01282724 -0.14467394
0.10604654 -0.0025763062 0.07880502 0.13058269 0.056730222 0.02147252 -0.03401313 -0.010758284
0.081211664 -0.15512376 -0.14738551 0.086933166 -0.11269159 0.024149751 0.08979768 0.053579263
0.10147634 -0.066321254 0.050708577 -0.14987703 0.021800298 0.12802579 0.06805385 -0.11639573
0.14953296 -0.099374354 -0.16787337 -0.10999917 0.08520758 -0.12306874 -0.048414487 -0.054906357
-0.030868318 -0.1635269 0.0089885155 0.07013662 -0.019688848 0.07935341 -0.05982241 -0.113441624
0.121351875 5.2267074e-05 -0.0060002697 0.13166721 0.1012226 -0.14419827 -0.06061193 0.048336297
0.1571349 0.03848973 -0.012671177 -0.10300115 0.038718566 0.12439078 0.1281946 -0.033763837
0.09305919 -0.1050639 0.015238534 -0.09139226 0.12489979 0.16518278 0.010542069 -0.018138498
0.1364513 0.15442206 0.04667455 -0.1721241 0.027752057 -0.086931825 -0.07811849 -0.0002219299
0.111239105 -0.17396125 -0.060945883 -0.15951566 -0.053832028 0.07137859 0.07341107 -0.104491845
0.105448686 0.07074467 -0.12954418 0.07731576 -0.06285216 0.05124776 -0.062581435 0.08699071
0.007845104 0.16749203 0.11875392 -0.021969764 -0.03293291 -0.15649793 -0.053993117 -0.07211525
0.124490276 0.0045597 -0.008344313 0.09668819 -0.1488274 0.14658754 0.071413845 -0.008797224
-0.14908345 0.07144486 0.054132797 -0.010690843 0.013193251 0.07310827 0.04643846 -0.10442992
0.023264812 0.13600439 -0.0028304304 0.084824845 0.12870647 -0.076526396 -0.022212029 0.0779875
0.035563942 0.057712793 0.042606246 -0.108164266 -0.1580139 -0.1416055 -0.053252034 0.118923955
0.0425116 -0.06741383 0.015883133 -0.04814283 -0.10503398 0.03790192 -0.011278214 -0.08542722
0.12110411 -0.00820242 -0.04420683 0.12883587 0.01430946 0.07036188 0.03237378 0.013381696
0.008658674 -0.09680906 0.07732091 0.019713115 0.14593124 -0.00035149895 0.052993666 -0.04335081
0.13399334 -0.008839499 0.07818277 0.09580008 -0.0967935 0.10857466 0.047624663 0.0010702644
0.14965498 -0.116810925 -0.11801417 -0.014788232 0.03142045 -0.02747777 -0.030438993 -0.03664394
0.13087094 0.07739326 -0.15126546 -0.013485681 0.13897237 -0.042947013 -0.13469726 0.08369802
-0.13621184 -0.036156658 -0.15692618 -0.13905632 0.15626483 -0.14184706 0.15146503 -0.13653734

layer1.bias f4 [64]
00000000: 8cd0 ad3c 2839 a2bd 5762 713c a49a 85bd
00000010: f590 903c 25e0 973d 391b 633d 4bd4 42bd
00000020: 1976 41bd eb87 33bd b998 49bd 7549 78bc
00000030: b08e c8bb 4e5a 3dbd c24b 1e3c efbc 3cbb
00000040: 89d3 a73c 7805 863b f328 773c af61 093d
00000050: f85e 59bd 2343 ee3c 5017 a5bc 4a35 933c
00000060: d437 b83b b3dd fabc 3e2a 57bb c4c2 39bd
00000070: 4451 533c 6a0c 113d b380 6e3c bd3e 023d
00000080: 7a68 78bd fb5c 0bbd cc8d b33c fed3 723c
00000090: 6eb4 853d 32e6 a33d 5042 d5bc 06ab adbb
000000a0: 2db5 343d ae23 06bb a06c 19b9 7011 c4bc
000000b0: b04c 073d 154a 25bc e215 d7bc 4a01 bfba
000000c0: d43c 4e3c e79e 21bd bb3b a9bc 9df8 0bbd
000000d0: dc73 283b e713 db3b a163 00bd 06f2 16bc
000000e0: 1d15 02bc 1b56 533b 04da 9fbc bd0f 5fbd
000000f0: 9949 0a3d 4884 94bd 722b 04bd 9b27 a33c
0.021217607 -0.07921058 0.014732919 -0.06523636 0.017647246 0.07415799 0.055445883 -0.04756574
-0.047231767 -0.043830793 -0.049217913 -0.015154232 -0.0061205253 -0.0462287 0.009661617 -0.0028799137
0.02048661 0.0040900074 0.015085447 0.033540424 -0.053069085 0.029084748 -0.020152718 0.017969746
0.0056218896 -0.030623293 -0.0032831575 -0.04535176 0.012897793 0.03541223 0.0145570515 0.031798113
-0.06064651 -0.03402422 0.0219182 0.014821051 0.06528555 0.08002891 -0.026032597 -0.0052999286
0.044118095 -0.0020468044 -0.00014631683 -0.023934096 0.03303212 -0.010088463 -0.026255552 -0.0014572528
0.012587745 -0.03945818 -0.020658365 -0.034172643 0.0025703823 0.006685722 -0.031345014 -0.009212976
-0.007939604 0.0032247368 -0.019513138 -0.05445837 0.033761594 -0.07251793 -0.032267995 0.019916346

layer2.weight f4 [64, 64]
00000000: b37c 0fbe f176 493e 6cae 473e 47bb 233e
00000010: d32e bcbd 371f 05be 95f5 8ebc 537b 483e
00000020: 68df 123e a6ae 08be 2d54 3c3e 155b a03c
00000030: aaab ed3c c6bf 62bd 06d3 06be 9d5d 223c
00000040: 1395 36be 3b07 2bbe bcaa 2f3e 6337 dfbd
00000050: bea6 3bbd 1b90 61bd 6880 1cbd 819f 1d3d
00000060: f1a2 29be 89c7 1dbe 2ffe 123e a548 8c3d
00000070: 36df 213e 55e2 d93b d3ea 2b3e e3b4 50be
00000080: 069d 6bbc 9d2a 2dbd 9e82 573d 0dec 58be
00000090: 220c 793d 81a6 57be c7c3 34be 5969 cd3d
000000a0: de1b febd 9013 64bd 5c72 b73b cddc 10be
000000b0: aa1b 143e e6f4 c6bd 9175 81bd e246 00be
000000c0: 4d5d 4fbe 7677 dcbd d1b0 55be 0794 4ebd
000000d0: 0594 06bc b5e0 81bd c7ae 433d 8c37 18bc
000000e0: 8cbc ffbd 12ea 7cbd 5694 e6bd 6a38 4b3e
000000f0: 12aa 523c 80c5 f63c ff87 24ba 31b9 343e
00000100: 76ad ab3d ce76 52be eb42 81bd 1407 c4bd
00000110: b564 1ebe 3280 913d 484d de3d 3367 3cbe
00000120: 1b8a 50bd 2806 8d3d 4077 13be d610 0dbd
00000130: 4619 453e 30a2 153e 4cbd 703b 212d a3bd
00000140: 3a84 e2bd c581 ec3d 8d55 1e3e 77f4 81bd
00000150: 2842 bebd c811 13be 39bf 84bb d5ab e1bc
00000160: 73c0 d03d dc77 14be 5542 9c3d 1f3f 56be
00000170: af5e bfbd 43fd bdbc 259b d53d f46a 38be
00000180: 88c7 15be 619c f53d bacc 59be 592f 3abe
00000190: 18d9 99bd 0357 43be 436e 3abe 646e 2e3e
000001a0: 38c0 b73d 776f 03bd 7c9c 15be ffc6 b7bd
000001b0: b1b8 66be 769e 803d bd13 243c c15c 233e
000001c0: 2447 523e 3418 523e acbe c6bd e84b 103e
000001d0: df30 d5bd 78c8 843c a296 bfbd cdec 4a3d
000001e0: 35d2 0d3e 2f5f 51be 99ec 5e3e a401 213e
000001f0: 71ad d4bc b5cf ca3d 53df 013e 1261 243d
00000200: a053 873d 1f13 be3d 5a8e 403d bb24 58be
00000210: 3014 2dbe 6741 943c d566 bf3d 85cd fe3d
00000220: 9938 52be ed3c b13d 9ff0 15be 6793 c73d
00000230: bacd 8c3a b60c 4d3e 3ce9 813d 91ff efbd
00000240: 7270 553d 5db4 27be a037 6d3c dc73 84bd
00000250: d858 2b3e 3fc0 b1bd 3d7b 083d 6cb6 6c3d
00000260: 8e34 463e b122 cc3d c3ba 273e 2651 02bd
00000270: c814 f53d d624 333e ce6f 623e 4452 1dbe
00000280: ff5b ba3c db99 c13c a54f 92bd a51a cc3d
00000290: db14 473d 4f1f 163c 46b7 e13d 4d6f d3bd
000002a0: 1cc7 b33d 06d1 eabd f5c5 233e 27b7 bcbd
000002b0: 685f dabd f925 0ebe 3d50 58be a026 603e
000002c0: 6c90 503e baa4 4ebe 339b 31be 6a79 36be
000002d0: c44e 343e e44c 9fbd 1579 7abd dd68 d6bd
000002e0: ce9b 243e 3a44 33be 3a8e df3d 70fe 26be
000002f0: 8c82 3d3d 67fa 43bb 87a0 583b e262 243e
00000300: 5c2b 2c3d 3c47 babd 09d7 753d 85d9 073d
00000310: af28 3dbe 1e83 d83d 79f7 e53d 6334 ee3c
00000320: ef5f 583d 3bf6 1abe 3cd1 343e 8d00 893d
00000330: c316 cabc 8a23 5ebe 04d3 2abe 0b59 783d
00000340: b467 5e3d 9dec 78bd f406 ca3d 1690 babd
00000350: 6733 cfbd c811 373d 3bb1 973b 6a10 2a3e
00000360: 152b f93c 557f 11be 10e2 5bbd d3e8 b63d
00000370: 808d 923d 6555 1ebe 558b 143e afae 2abe
00000380: 956d 9ebc 78a0 553e 0bd5 79bd 04b3 d6bd
00000390: 4b19 313e b45c 293e 13fc a23d 682b 613b
000003a0: 4a57 e4bd 5e4b 8c3d d847 7fbd b115 a3bd
000003b0: 64d4 2cbd 3072 e3bd d456 0f3d 6159 003c
000003c0: e9fd fc3d 371d 253c f83f 7fbc a0dc d73d
000003d0: c5c6 be3d dd43 243e 5879 563e 2877 273d
000003e0: a0ed 6fbd cab2 e93d 77fd 41bd 20cf 0abe
000003f0: 4223 26bd 2d22 0dbe c658 b83b 43d0 473e
-0.14012413 0.19674279 0.1950013 0.1598941 -0.091886185 -0.13000189 -0.017451087 0.19578294
0.14343035 -0.13347873 0.18391486 0.019574681 0.02901252 -0.05535867 -0.13166437 0.009910014
-0.17830305 -0.16701977 0.17154974 -0.10899236 -0.045813315 -0.05506907 -0.038208395 0.038482193
-0.16566063 -0.15408148 0.14354776 0.06849793 0.15807804 0.0066492953 0.16788797 -0.20381503
-0.014380699 -0.042276967 0.0526148 -0.21183796 0.060802586 -0.2105961 -0.17652808 0.10029859
-0.12407659 -0.05568272 0.0055983495 -0.14146729 0.14463678 -0.097146794 -0.06321252 -0.1252704
-0.20250435 -0.10764973 -0.20868231 -0.05043414 -0.008214002 -0.063416876 0.047774103 -0.009290587
-0.12487134 -0.061746664 -0.112587616 0.19845739 0.012857931 0.030123472 -0.00062763685 0.1764877
0.083826944 -0.20553133 -0.06311592 -0.095716625 -0.15468104 0.071045294 0.10854584 -0.18398742
-0.050912958 0.0688594 -0.14400959 -0.034439884 0.19247922 0.14612651 0.0036733923 -0.07967592
-0.110603765 0.11548189 0.15462323 -0.06345456 -0.09289962 -0.14362252 -0.004051116 -0.027547756
0.10192957 -0.14498848 0.07629839 -0.20922516 -0.09344231 -0.023192054 0.10429982 -0.1800955
-0.14626896 0.119927175 -0.21269503 -0.18182124 -0.075121105 -0.19076161 -0.18206124 0.17034298
0.0897221 -0.032088723 -0.14610475 -0.08973502 -0.22531392 0.06280224 0.010014472 0.15953352
0.2053495 0.20517045 -0.097043365 0.14091456 -0.10409712 0.016208872 -0.09354903 0.049542237
0.13849719 -0.20446466 0.21769942 0.15723282 -0.02596161 0.09902898 0.12682848 0.040131636
0.06607747 0.09280991 0.047010757 -0.21107762 -0.16902232 0.018097593 0.093457855 0.124415435
-0.20529403 0.08654199 -0.14642571 0.09744912 0.0010742464 0.2002438 0.06343314 -0.11718667
0.05210919 -0.16377397 0.014478594 -0.06467411 0.1673311 -0.08679246 0.033320654 0.05779116
0.19355986 0.09967554 0.16379838 -0.03181567 0.11966854 0.1749452 0.22112963 -0.15363413
0.022748945 0.023632934 -0.07144097 0.099660195 0.048603874 0.009162738 0.11021285 -0.10323963
0.087782115 -0.11465649 0.15993483 -0.09214621 -0.106627285 -0.13881673 -0.21124358 0.21889734
0.20367593 -0.20180026 -0.1734436 -0.17819753 0.17608172 -0.077783376 -0.06115063 -0.1046922
0.1607506 -0.17506495 0.109157994 -0.16307998 0.046267077 -0.002990389 0.0033054666 0.16053346
0.04203354 -0.09095618 0.060019527 0.033166427 -0.18472551 0.105718836 0.11228842 0.029077714
0.052825864 -0.15132992 0.17657942 0.06689558 -0.024669057 -0.21693245 -0.16682059 0.060631793
0.054298118 -0.060772527 0.098646075 -0.091095135 -0.10117226 0.044694692 0.004629282 0.16607824
0.03041605 -0.1420873 -0.053682387 0.089311264 0.07155895 -0.15462263 0.14506276 -0.16668199
-0.019339362 0.20861995 -0.06099419 -0.10483363 0.17294805 0.1653927 0.079582356 0.0034358148
-0.111494616 0.06850313 -0.062324375 -0.07963122 -0.04219474 -0.11105764 0.034994915 0.00783381
0.12353117 0.010077766 -0.015579216 0.10540128 0.09315256 0.16041513 0.20944726 0.04088512
-0.058576226 0.114110544 -0.047360864 -0.13555574 -0.04056097 -0.13782568 0.005625817 0.1951304

layer2.bias f4 [64]
00000000: 01f1 6dbd 6391 33bd 6931 543d a2ec 063d
00000010: 6666 293d c252 be3a 5786 77bd 6055 a5bc
00000020: 1980 e63c 083a d3bc f737 b93c cd90 90bb
00000030: a42e de3b 0c44 9cbb cb7b 90bc 4b73 493d
00000040: be95 133a eaa9 3f3d 7863 a73c 2c3e cd3b
00000050: 02fd e3bb 69d3 3c3c 795a 58bd 6e27 e0bb
00000060: 4758 6c3d 0093 863c b422 283d 88c7 cdbc
00000070: 817f 5fbc 4d12 1fba 2ec5 1d3d 75d7 43bd
00000080: dc93 36bb f102 07bd aae2 aabd bcdd 8cbc
00000090: 7ffb a33b 550e 9b3c 2794 933b a9b4 233d
000000a0: 1b10 8ebb f51a 49bd bbe2 393d 2d1e 0a3d
000000b0: bc9b 4a3b f9bc 5c3d 724e 003d 0171 883d
000000c0: f198 57bd 845e 23bc dad0 673c 5b4d 1e3d
000000d0: 76b6 e0bb 48ad a13d 5660 5a3c d25a 623d
000000e0: ab76 b73c b35e 933c a65a 16bc b57f 843d
000000f0: 4f29 0dbc 0d1b 183c e0d4 6b3c 1fbf 83bd
-0.058091167 -0.043839823 0.051804934 0.032940514 0.04135742 0.0014520513 -0.06043085 -0.020182312
0.028137254 -0.025784507 0.022609694 -0.004411793 0.0067804623 -0.004768854 -0.017637154 0.049182218
0.00056299183 0.046792902 0.020433173 0.006263515 -0.006957651 0.0115250135 -0.052820656 -0.006840638
0.057701375 0.016427517 0.04104872 -0.025119558 -0.013641239 -0.00060680957 0.038518123 -0.047812898
-0.0027859127 -0.03296179 -0.08344014 -0.017195575 0.005004346 0.018927732 0.004503745 0.039967213
-0.004335416 -0.049097974 0.045382243 0.033720184 0.0030915579 0.053891156 0.03132481 0.06662179
-0.05263609 -0.009971265 0.014148915 0.03864799 -0.0068576885 0.07894379 0.013328632 0.055262394
0.022395452 0.017989492 -0.009176886 0.06469671 -0.008615806 0.009283793 0.014394015 -0.06432938

layer3.weight f4 [7, 64]
00000000: b734 dfbd 0c3d 8abd 64f1 efbd 3679 5b3e
00000010: b379 833e f933 323e b15b dbbd cb8e 1d3e
00000020: 03fd 8bbe 8373 753d 51e7 b3bd 9bf5 05bc
00000030: 63ca 9e3e bc73 1bbe 45b6 d5bd 78d5 27be
00000040: ceff 9bbc 7577 21be 6051 b63d d47f f33d
00000050: e639 8c3e cc51 46be c43c 1abe 5f92 56be
00000060: 428d 49bd 6dd3 19be 6353 853e 6a9b debd
00000070: 9638 5c3e 7b62 6c3e 9c70 6d3e c48f 8c3d
00000080: 1ece 1a3d 735b 103e cc6f 55be 4fe6 59be
00000090: 2a91 5d3e 6c6d 253d 0671 33be b9c7 8d3d
000000a0: 664d 8e3e 3297 ac3d 0c73 d23d 1d3a ca3b
000000b0: 809a 29be a87b 823e 9986 883e dcf5 733e
000000c0: cc63 8ebe 6c70 833e 2af5 473d 19e8 433e
000000d0: d916 a1bd 4b50 3a3e 7710 aa3d 8b9e 813e
000000e0: 7f11 983d bebf 11be c2b5 43be 638c d6bd
000000f0: 1681 51be e051 e0bd a5b2 4cbd b682 2bbd
00000100: b70b 0c3b 0a66 a53e ed08 64bd 9030 0f3d
00000110: 4790 8dbe 3dde 2a3e 42b1 fdbd c5ec 6b3e
00000120: 3958 a33e e0f6 fc3d 6126 97be 0637 4ebd
00000130: a098 cc3d b20a 903d 73c5 833e 949f a73c
00000140: 717f c23d 6f24 7ebe e20a 82be a27b 91bd
00000150: e080 6d3a 8e74 84be 302b 933e c34a a13e
00000160: 5311 e0bb 493f 323e 2b7f 743e 9d74 3abe
00000170: d3d2 403e a99e 113c dc83 32bd b6c7 453e
00000180: 7f6f 523e 463b 15be 7307 90bd cc05 7cbd
00000190: 8db8 183e a4e6 cebc fdbd 113e 1708 39be
000001a0: 2945 8e3d cc20 3bbe ab3b 923d 17f5 72bc
000001b0: a9fb 7bbd f806 5bbe 9b42 123e 2d85 b3bd
000001c0: 7b92 833e a07f cfbc a535 93bb ee83 053e
000001d0: 21aa 113e 21d1 5b3e df5b 9dbc 15db 17bd
000001e0: ab7c be3c 5343 6dbe e37a c33d 0489 c23d
000001f0: e664 933e f98a 593e 1393 23be 4c71 44bb
00000200: 7a12 7dbd 6769 48be 6604 8e3e 3df3 f63c
00000210: 74a4 eb3d 4d77 993e 641e e8ba 2e6a 9dbe
00000220: 01b9 9b3e cae2 073e af24 563e ff78 a13c
00000230: 6d26 af3d 33ee 103e b73f 47be f0c7 a7bc
00000240: 3b0b d0bd e902 493e 88ba dcba 4714 453e
00000250: d433 2d3d 990b a33e e399 70be ea1c 77be
00000260: 1ed3 0f3e 5fac 3d3e fd06 713e c9df fabd
00000270: 8be7 a0be 8e12 e33d 3941 e2bd 1733 01be
00000280: 6322 1b3e 3550 10be b9ed e0bd 0f1f 383d
00000290: 5032 6dbe d430 88be 8131 3f3e 1969 b0bd
000002a0: b8bc 41be ec1f 8ebe 076d 1a3e e4a1 3c3e
000002b0: dae1 93be 4914 653e 4a67 33be 884f 973d
000002c0: 578d 65be 783b 13be 9f86 343e 5094 163e
000002d0: 1d9f 03bd 4b78 6b3e f327 043e 22fe 903e
000002e0: aaa5 fc3d 250d 2e3e 8b71 8bbe e3c3 933e
000002f0: 4ca8 91be a833 35be 04d5 bcbd 44c6 b63d
00000300: 3c60 38bd 6b8b 683e f51c 843d 54b0 4abd
00000310: 4224 5cbe 68d8 f9bd 1b68 853e 4c04 6e3d
00000320: 1c76 2abe e286 82be 6263 2ebe d4b7 893e
00000330: 097c 373e 3468 2fbd 5fd9 803e a560 08be
00000340: dd25 39be e6e1 8bbe a55b cabd 2c93 843b
00000350: 0ae9 363e f67d 7ebd ba68 a43e ad0c 953d
00000360: fadc 6bbe 9bc7 f6bd 4d30 85bd 61eb 53be
00000370: f830 843e 723b 63bc 43f0 06be 6ccb 0f3e
00000380: 66fb 163d 3f31 113d 4ebf 0f3e 83ce 09bd
00000390: 9c13 47be 84cf 29be dabb 5bbe 7aae 32be
000003a0: b4f7 89be 9d5f 483d 9ef1 3a3e 6f19 78bd
000003b0: 3bbc 42be 47d9 6fbe aa71 04bc 0cdf d23d
000003c0: 8d63 533e 090c f8bc b6de 79be 0845 963d
000003d0: c08f 83be f8fc 62bd 8f58 c93d d1cc 8e3e
000003e0: 2104 203e 18f2 d4bd 0781 873e e1da 89be
000003f0: e4ff 823e b864 5fbe 1f5b b2bc 0db7 a23e
-0.108987264 -0.06749925 -0.117159635 0.21432957 0.25678787 0.17402638 -0.10710848 0.15386502
-0.2734147 0.059924614 -0.087843545 -0.008176233 0.31013784 -0.15180868 -0.10435156 -0.16390026
-0.019042876 -0.15768225 0.0890224 0.11889616 0.27387923 -0.1936714 -0.15062243 -0.20954274
-0.04920698 -0.15022059 0.26040182 -0.10869487 0.21505961 0.23084442 0.23187488 0.068633586
0.037794225 0.14097385 -0.20843428 -0.21279262 0.21637407 0.040387556 -0.17523584 0.0692286
0.27793425 0.08427276 0.1027585 0.0061714784 -0.16562843 0.25484967 0.2666519 0.23824257
-0.27810514 0.2567171 0.04881779 0.19131507 -0.07865686 0.18194692 0.08303922 0.2531627
0.07425212 -0.142333 -0.19112304 -0.104759954 -0.20459399 -0.109531164 -0.049975056 -0.041872703
0.0021369287 0.32304412 -0.055672575 0.034958422 -0.27649137 0.1668634 -0.12387325 0.23039539
0.31903246 0.12351775 -0.29521468 -0.050345443 0.099900484 0.0703329 0.2573658 0.020461835
0.09496964 -0.24818586 -0.25398928 -0.07103659 0.00090600364 -0.25870174 0.28743887 0.3150235
-0.0068380027 0.17406954 0.23876636 -0.18208547 0.18830423 0.008887925 -0.043582782 0.19314465
0.20550345 -0.14573392 -0.07032671 -0.061528966 0.1491415 -0.025256462 0.14232631 -0.18069492
0.06946785 -0.1827423 0.07140287 -0.014828942 -0.0615193 -0.21389377 0.1428322 -0.08765636
0.25697693 -0.025329411 -0.004492479 0.13038608 0.14225055 0.21466495 -0.019208847 -0.037074167
0.023252806 -0.23170213 0.09544923 0.0949879 0.28787917 0.2124442 -0.15974073 -0.0029974757
-0.0617852 -0.19571458 0.2773773 0.030145282 0.11505976 0.29973832 -0.0017709252 -0.3074507
0.30414584 0.13270107 0.20912431 0.019711016 0.08552251 0.14153366 -0.19457899 -0.02048108
-0.10158392 0.19630016 -0.0016840259 0.19246016 0.042285755 0.31844786 -0.23496203 -0.24132124
0.14045379 0.18522786 0.23537822 -0.12249715 -0.31426653 0.110875234 -0.110475965 -0.12617145
0.15149836 -0.14093097 -0.10982842 0.044951495 -0.23163724 -0.26599753 0.18671228 -0.08613796
-0.18919647 -0.2775873 0.15080653 0.18421131 -0.2888325 0.2237102 -0.1751987 0.07388216
-0.22417198 -0.14378154 0.17629479 0.14705014 -0.032134164 0.22995107 0.12905864 0.28318888
0.123362854 0.16997202 -0.27235064 0.28860387 -0.28448713 -0.17695487 -0.09220317 0.08924535
-0.04501365 0.22709434 0.064508356 -0.049484566 -0.21498206 -0.12199479 0.2605599 0.058109567
-0.16646618 -0.25493532 -0.17030099 0.26898062 0.1791841 -0.042823985 0.2516584 -0.13318117
-0.1808085 -0.27320784 -0.09880761 0.0040458646 0.17862335 -0.062131844 0.3211115 0.07277808
-0.23033515 -0.120497905 -0.06503353 -0.20695259 0.2581861 -0.013869153 -0.1317759 0.14042443
0.036860846 0.035447355 0.1403782 -0.03364421 -0.19441074 -0.16583067 -0.21458378 -0.1744937
-0.26946795 0.04891931 0.18256232 -0.06057113 -0.19017117 -0.23422728 -0.00808374 0.10296449
0.20643444 -0.030279176 -0.24401364 0.073373854 -0.2569561 -0.05541703 0.09831344 0.27890638
0.15626575 -0.10397738 0.26465628 -0.26924804 0.25585854 -0.21815765 -0.021771966 0.31780282

layer3.bias f4 [7]
00000000: 7874 853d 76fc 9cbc 95de c43d 034a 49bd
00000010: 32ae cabd 775f c43d dc20 b8bd
0.06516355 -0.019163352 0.09612767 -0.04914285 -0.09896506 0.09588521 -0.089906424
