maml_model/maml_OpenDoor_7_3_500_50.pth (torch, 60274 bytes, 6 tensors)

layer1.weight f4 [64, 151]
-0.13165426 -0.040701684 -0.16157095 0.103345506 0.06856656 -0.021337507 -0.108353384 0.02329374
0.010353638 0.0771878 0.04672717 0.015616894 -0.047451545 -0.07809099 -0.01618159 0.12396871
0.064367324 0.08784717 -0.05973167 -0.08665445 -0.13206677 -0.035461158 -0.1307304 -0.110628605
-0.037910692 -0.0030172172 -0.10829917 0.048931047 0.11813313 0.15971902 -0.15219876 -0.014560937
-0.116585255 0.11680849 0.10821583 -0.15346101 0.013079884 -0.18156977 -0.049780916 -0.08392688
0.02468391 0.074227795 -0.024031753 0.017154966 0.09419939 0.065222204 -0.10763375 -0.03833176
0.013316075 -0.07964774 -0.06705095 0.098587364 -0.06494296 0.091398925 0.15522626 0.14396384
0.062887765 -0.14875162 0.040567275 0.11144581 0.09484294 0.10176638 -0.040381625 -0.08285645
0.00097102893 -0.13547653 -0.09594148 0.10823498 0.09522168 -0.11126546 -0.084576786 -0.06563002
-0.035775024 -0.15093395 0.051853497 -0.015291763 -0.07166453 -0.020399302 -0.062723815 0.11737867
0.05511649 0.009479541 0.016399203 -0.051425844 0.12279724 0.112089 0.037921708 0.116766505
-0.009449179 -0.041465763 0.12810974 0.14205274 -0.12452452 0.05578102 0.112136334 0.08337906
0.078754485 -0.13574477 -0.060900234 0.06939491 -0.16373219 0.16181353 0.11677357 0.03575187
-0.06784164 -1.2712306e-05 -0.01739321 0.06161622 0.13034475 0.07198753 0.054245956 -0.07268752
0.031532142 0.060036212 -0.085941985 0.055138197 -0.10884398 0.1472813 0.10150955 0.0039787246
-0.11985667 0.041556783 -0.16168046 0.1354776 -0.03804682 0.08856866 -0.10464249 0.110021375
-0.10189438 0.11773993 0.16454329 0.13697784 0.01860009 0.096451186 -0.03526422 0.16069056
-0.07215058 -0.13579082 0.00180661 0.10529485 -0.15075143 0.12878114 -0.10710799 -0.009945769
-0.14049684 -0.14446007 0.09400602 -0.039821677 -0.14928336 0.12928188 0.04409636 0.04777166
-0.0456067 0.13136114 -0.14221232 -0.0803776 0.08228039 -0.12750852 0.15972646 -0.09838158
-0.020025913 0.12855081 -0.088131316 0.06536571 0.16249503 0.04567544 -0.017672677 -0.09387781
0.06530795 0.050345626 0.049914572 0.15117392 -0.080799766 0.09770046 -0.09728774 -0.054293826
0.017505428 -0.102253005 -0.11526481 0.12568603 -0.08827466 0.036517132 0.11748573 0.027536819
0.1801424 0.17871045 0.086100996 0.027147036 0.08238191 -0.07119423 0.0005837325 -0.07670233
-0.090508915 -0.1272072 0.09578011 -0.112317644 0.024632016 -0.11932985 0.10053136 0.08080403
-0.08435313 -0.08970165 0.05370023 0.034322545 -0.14173234 0.14207494 0.03324048 -0.03072089
0.10430055 -0.18086398 -0.13068211 0.10621224 0.004219727 -0.09305477 0.09321602 -0.04637348
-0.14913262 0.15091802 0.15998363 -0.035195433 0.09909395 -0.07491465 -0.052336935 0.010084726
-0.10735058 0.0043722936 0.15005575 -0.04844953 0.16580766 -0.11296009 -0.17177007 -0.10757951
-0.019759636 0.13812229 0.1168913 0.15929817 -0.0008154756 -0.052015096 0.037850656 -0.14175874
0.12737697 0.16133186 -0.11760109 -0.07756339 -0.03473377 -0.07156178 -0.035039417 0.13561745
0.217729 0.0147573985 0.08718719 -0.21022655 0.142143 0.09542725 -0.10301804 -0.10190874
00000000: 60d0 06be cfb6 26bd db72 25be cfa6 d33d
00000010: a06c 8c3d ffcb aebc 61e8 ddbd 83d2 be3c
00000020: 4ea2 293c a314 9e3d fd64 3f3d 00de 7f3c
00000030: 8d5c 42bd 2bee 9fbd 418f 84bc 4fe3 fd3d
00000040: 04d3 833d 38e9 b33d 32a9 74bd e377 b1bd
00000050: 833c 07be b83f 11bd 31de 05be 4091 e2bd
00000060: 3e48 1bbd 81bc 45bb f5cb ddbd ec6b 483d
00000070: c8ef f13d 628d 233e fed9 1bbe ff90 6ebc
00000080: 40c4 eebd 4a39 ef3d 43a0 dd3d e224 1dbe
00000090: 034d 563c 6ded 39be 13e7 4bbd dbe1 abbd
000000a0: e935 ca3c be04 983d 3dde c4bc 9288 8c3c
000000b0: 9ceb c03d 3893 853d 156f dcbd c301 1dbd
000000c0: ab2b 5a3c 5b1e a3bd 0252 89bd 2ce8 c93d
000000d0: d100 85bd 5c2f bb3d a2f3 1e3e 426b 133e
000000e0: 4dcb 803d 5852 18be df29 263d b33d e43d
000000f0: 043d c23d e46a d03d 3467 25bd a4b0 a9bd
00000100: a68c 7e3a 5cba 0abe f77c c4bd 4daa dd3d
00000110: 9603 c33d 25df e3bd 9836 adbd 0869 86bd
00000120: d588 12bd 6e8e 1abe 5564 543d 4d8a 7abc
00000130: dac4 92bd 701c a7bc 5875 80bd 3a64 f03d
00000140: d4c1 613d 1450 1b3c 9f57 863c e8a3 52bd
00000150: 1f7d fb3d eb8e e53d cb53 1b3d 4723 ef3d
00000160: bbd0 1abc 01d8 29bd 332f 033e 4676 113e
00000170: b606 ffbd a47a 643d bca7 e53d a4c2 aa3d
00000180: 084a a13d ad00 0bbe 8672 79bd eb1e 8e3d
00000190: 69a9 27be 72b2 253e fb26 ef3d 8e70 123d
000001a0: 8ff0 8abd f046 55b7 357c 8ebc 4a61 7c3d
000001b0: 1879 053e 336e 933d 0231 5e3d 32dd 94bd
000001c0: d927 013d 88e8 753d 5a02 b0bd 97d8 613d
000001d0: 98e9 debd e9d0 163e 3de4 cf3d f65f 823b
000001e0: 6a77 f5bd 7237 2a3d 908f 25be a4ba 0a3e
000001f0: fbd6 1bbd 7c63 b53d cd4e d6bd e352 e13d
00000200: 00ae d0bd a221 f13d 097e 283e eb43 0c3e
00000210: 375f 983c 3388 c53d 3771 10bd 118c 243e
00000220: afc3 93bd c00c 0bbe c6cb ec3a d4a4 d73d
00000230: 955e 1abe 34df 033e 6f5b dbbd 94f3 22bc
00000240: 67de 0fbe 57ed 13be 3a86 c03d 0e1c 23bd
00000250: bddd 18be 7862 043e 639e 343d 37ac 433d
00000260: 17ce 3abd 8983 063e 1ba0 11be 039d a4bd
00000270: 9f82 a83d 9891 02be 558f 233e 487c c9bd
00000280: 620d a4bc d3a2 033e 317e b4bd 75de 853d
00000290: 1965 263e 2c16 3b3d 4ac6 90bc 0243 c0bd
000002a0: 2dc0 853d 3737 4e3d 3973 4c3d 56cd 1a3e
000002b0: 597a a5bd 2e17 c83d cb3e c7bd 3463 5ebd
000002c0: 8b67 8f3c 066a d1bd f50f ecbd d7b3 003e
000002d0: 58c9 b4bd fd92 153d 5c9c f03d e594 e13c
000002e0: 4077 383e dfff 363e b855 b03d 7663 de3c
000002f0: d9b7 a83d 48ce 91bd a005 193a 1c16 9dbd
00000300: bd5c b9bd 9b42 02be 5d28 c43d cb06 e6bd
00000310: 15c9 c93c 3563 f4bd 63e3 cd3d 957c a53d
00000320: 55c1 acbd 80b5 b7bd c6f4 5b3d cc95 0c3d
00000330: 4822 11be 187c 113e 2b27 083d 60aa fbbc
00000340: 879b d53d 6834 39be 88d1 05be ce85 d93d
00000350: a345 8a3b 8093 bebd 0ae8 be3d 1ef2 3dbd
00000360: 39b6 18be 418a 1a3e c0d2 233e 1629 10bd
00000370: c5f1 ca3d da6c 99bd 415f 56bd 683a 253c
00000380: 9fda dbbd 7545 8f3b 37a8 193e 0473 46bd
00000390: 7cc9 293e 9f57 e7bd 7ee4 2fbe a552 dcbd
000003a0: f6de a1bc ee6f 0d3e b564 ef3d 0f1f 233e
000003b0: a4c5 55ba c80d 55bd 4a09 1b3d 3429 11be
000003c0: 1c6f 023e 2e34 253e d7d8 f0bd 8ed9 9ebd
000003d0: ff44 0ebd fc8e 92bd 7e85 0fbd 4ddf 0a3e
000003e0: 5af4 5e3e 04c9 713c 338f b23d a145 57be
000003f0: ef8d 113e 5d6f c33d 1ffb d2bd 88b5 d0bd

layer1.bias f4 [64]
-0.02501873 -0.019846398 -0.011685364 -0.0007740649 0.007420546 -0.052432097 -0.024722565 0.012688202
0.048168458 0.009132 0.013141329 -0.02332572 0.020526629 0.024388976 0.008696983 -0.021115778
0.03128588 -0.011737389 -0.008098023 0.012464311 0.014836147 -0.0042670555 -0.026848845 -0.054380264
0.030932654 -0.034559477 -0.0004439809 -0.0033402408 0.026058365 -0.014090981 0.029781723 0.036577664
0.025079524 0.013764746 -0.0018799163 0.019254444 -0.0077790725 0.04805203 0.0065713148 0.041572075
0.015234577 0.0002893703 0.0004679656 -0.04193776 -0.008968971 -0.0074035553 -0.02097033 -0.047319956
-0.021024218 -0.010576928 -0.0031038017 0.029791517 -0.042860366 0.0124680605 0.09277356 -0.01272555
1.0851538e-05 0.009579847 -0.001361422 0.024632178 0.032198317 -0.041904822 -0.05236236 -0.031560168
00000000: 14f4 ccbc ea94 a2bc f873 3fbc 9eea 4aba
00000010: 0d28 f33b 0ac3 56bd fa86 cabc 2de2 4f3c
00000020: 4a4c 453d 629e 153c bb4e 573c 9515 bfbc
00000030: 7627 a83c 64cb c73c ca7d 0e3c fffa acbc
00000040: 9f25 003d 2d4e 40bc 92ad 04bc 1c37 4c3c
00000050: 5013 733c a8d2 8bbb 1cf2 dbbc d7bd 5ebd
00000060: 7a66 fd3c 3d8e 0dbd 1cc6 e8b9 f1e7 5abb
00000070: 5a78 d53c dcdd 66bc cdf8 f33c 76d2 153d
00000080: 9373 cd3c 8785 613c 8667 f6ba 7fbb 9d3c
00000090: 97e7 febb 35d2 443d 2f54 d73b 7b47 2a3d
000000a0: 729a 793c a0b6 9739 4859 f539 eec6 2bbd
000000b0: 97f2 12bc 8699 f2bb f8c9 abbc 92d2 41bd
000000c0: fb3a acbc da4a 2dbc 2769 4bbb 570d f43c
000000d0: 5a8e 2fbd d646 4c3c 1000 be3d d37e 50bc
000000e0: 000f 3637 caf4 1c3c be71 b2ba 6cc9 c93c
000000f0: 62e2 033d 64a4 2bbd ea79 56bd 3c45 01bd

layer2.weight f4 [64, 64]
-0.07592632 0.07375915 -0.10236395 0.030028475 -0.04686922 -0.16943224 -0.17148119 0.17497547
0.013972713 -0.12738806 0.17815539 0.14617747 0.15714064 0.19858122 0.1897013 -0.08748085
0.04345104 0.04747254 0.016259544 0.103907056 -0.13099223 0.21213275 -0.18356766 -0.08699109
-0.17100832 -0.063248806 -0.14002392 0.16074638 -0.1365337 -0.061436113 0.038447987 -0.07070586
-0.13780887 -0.08999496 0.07767791 0.18420263 0.16983166 0.24130255 0.014206919 0.16941327
-0.046192467 0.19255032 -0.13981315 -0.21821474 -0.06713335 -0.06746425 0.0069152005 -0.22033185
0.20746686 -0.2122013 -0.12656374 0.12456122 -0.15969536 -0.1448197 0.2029633 -0.089297354
-0.13995278 -0.0018948979 0.1306716 0.20751539 0.19263025 0.08868067 0.11051759 -0.0075698
-0.107524015 0.093430094 -0.036148403 -0.1118173 -0.005393869 -0.21803673 -0.21245912 0.09024667
-0.13891582 0.00121999 0.1744378 0.17553298 -0.10039999 -0.16214217 0.15476808 0.053467005
-0.03146605 0.18569832 -0.044092014 0.0708785 -0.20077516 0.13404468 0.17148542 -0.18461268
0.206474 -0.14072944 0.15370712 -0.14603625 0.042972688 0.03774541 -0.13356768 0.0011910407
-0.18765806 -0.20355856 0.03744248 0.21507324 0.21811657 0.2145732 -0.087392405 0.19819672
-0.05997418 -0.13647571 -0.05129358 -0.20030679 -0.089865535 -0.22197464 -0.20203733 0.02469954
-0.21107015 0.033867214 0.15063572 -0.14577802 0.063109994 -0.19004375 0.012138605 0.0259156
0.21787441 -0.19853133 -0.10418448 0.12393131 0.15577912 0.021083489 0.0077167964 -0.12070014
-0.029750278 -0.0032129707 0.054306533 -0.08348404 0.032555547 0.20535013 -0.17700407 0.060091347
-0.035077523 -0.17873655 0.060169347 -0.21441777 -0.021610558 -0.069506526 0.14925502 0.1753485
-0.094327345 -0.1829513 -0.025947167 0.17597194 -0.058756016 0.16735844 -0.034104325 0.19847585
0.19183592 0.076464586 0.10948676 0.18976298 0.094026305 -0.049707323 -0.10977375 -0.11334025
-0.03068976 -0.080671795 0.18995032 0.062338892 0.104804 0.06956741 -0.16528183 -0.17664433
0.17623517 -0.0006286171 0.17759417 0.1389524 -0.066925116 0.012041173 -0.054047886 0.16020697
0.21684745 0.19387211 -0.09520219 -0.072519906 -0.090455174 0.06553837 -0.0033729263 -0.09089924
-0.21464327 -0.12769833 -0.04093149 -0.07010506 -0.006328434 0.14874528 0.13766348 0.17270817
-0.017561687 0.08583575 0.1608889 -0.060244173 0.07721642 0.15236282 -0.19650565 0.117894396
-0.026572824 -0.1519904 -0.117140576 0.117514715 -0.038932938 0.11660855 -0.052907698 -0.11913392
-0.05528829 -0.22791313 0.10471906 -0.030239465 -0.09588819 0.048711065 -0.19498755 -0.0321245
0.13916083 0.026594598 -0.16775423 -0.010211462 -0.0026094003 0.20768051 0.13169125 0.20039469
0.045081522 -0.18170525 -0.09110371 -0.037461758 0.2041907 0.17400527 -0.2119575 0.04888691
-0.15375967 0.0379497 0.10992152 0.13319825 0.073175825 0.103109896 0.027343221 0.13887335
0.14691195 -0.081982575 -0.161352 -0.06698089 0.09376417 0.16520473 -0.09917322 -0.17142609
-0.09830006 0.050285447 -0.067824766 -0.023193669 0.19846377 0.18818109 -0.20757644 -0.18825711
00000000: 427f 9bbd 0a0f 973d 31a4 d1bd 47fe f53c
00000010: f0f9 3fbd a57f 2dbe c498 2fbe c52c 333e
00000020: ceed 643c 0472 02be 5e6e 363e 8caf 153e
00000030: 7ae9 203e e058 4b3e 0f41 423e 2929 b3bd
00000040: b8f9 313d 9172 423d bc32 853c 39cd d43d
00000050: d422 06be 5439 593e 29f9 3bbe 6228 b2bd
00000060: ce1c 2fbe 9788 81bd 6e62 0fbe b39a 243e
00000070: 7ecf 0bbe 6fa4 7bbd a37b 1d3d 3cce 90bd
00000080: c51d 0dbe 474f b8bd 9915 9f3d 9d9f 3c3e
00000090: 5ae8 2d3e 0418 773e 23c4 683c ac7a 2d3e
000000a0: 5034 3dbd e92b 453e 2e2b 0fbe af73 5fbe
000000b0: 367d 89bd b22a 8abd e898 e23b ac9e 61be
000000c0: 3172 543e 4c4b 59be ed99 01be f419 ff3d
000000d0: 2e87 23be 9e4b 14be 9cd5 4f3e 88e1 b6bd
000000e0: c84f 0fbe 395e f8ba c7ce 053e ea7e 543e
000000f0: dd40 453e 369e b53d 0c57 e23d 160c f8bb
00000100: 8d35 dcbd 4758 bf3d 5910 14bd 7800 e5bd
00000110: 0dbf b0bb 0545 5fbe e28e 59be 3fd3 b83d
00000120: f33f 0ebe 12e8 9f3a d39f 323e ebbe 333e
00000130: 839e cdbd 9908 26be 867b 1e3e 3800 5b3d
00000140: 8be2 00bd b327 3e3e d499 34bd bf28 913d
00000150: 0198 4dbe 0243 093e e099 2f3e 1b0b 3dbe
00000160: ec6d 533e 611b 10be 6665 1d3e 878a 15be
00000170: 2104 303d ee9a 1a3d f7c5 08be b21c 9c3a
00000180: 6f29 40be a871 50be 495d 193d 293c 5c3e
00000190: f359 5f3e 14b9 5b3e cafa b2bd 15f4 4a3e
000001a0: 7ca7 75bd 4ac0 0bbe 3819 52bd 391d 4dbe
000001b0: 6c0b b8bd 524d 63be e0e2 4ebe b156 ca3c
000001c0: c622 58be 59b8 0a3d 4040 1a3e d546 15be
000001d0: d03f 813d d49a 42be 00e1 463c f44c d43c
000001e0: 781a 5f3e cc4b 4bbe ac5e d5bd b3cf fd3d
000001f0: 9084 1f3e 48b7 ac3c 2edd fc3b a331 f7bd
00000200: dbb6 f3bc b490 52bb 8770 5e3d aef9 aabd
00000210: f758 053d 4e47 523e 8e40 35be 5822 763d
00000220: 73ad 0fbd b706 37be 2274 763d 5590 5bbe
00000230: a008 b1bc 7059 8ebd 4fd6 183e 8f8e 333e
00000240: b22e c1bd 9657 3bbe 278f d4bc fd31 343e
00000250: 26aa 70bd 0360 2b3e fab0 0bbd 413d 4b3e
00000260: a370 443e 7799 9c3d 983a e03d 3a51 423e
00000270: dd90 c03d e899 4bbd 0fd1 e0bd ef1e e8bd
00000280: 1769 fbbc 4137 a5bd 5682 423e 1157 7f3d
00000290: 7ba3 d63d 5c79 8e3d a43f 29be 40e2 34be
000002a0: fe76 343e c8c9 24ba 3fdb 353e 8a49 0e3e
000002b0: 0910 89bd 5748 453c 5161 5dbd 4c0d 243e
000002c0: 420d 5e3e 6986 463e 5ef9 c2bd 5185 94bd
000002d0: 9040 b9bd fb38 863d 500c 5dbb 6129 babd
000002e0: 72cb 5bbe 5ac3 02be c7a7 27bd 3e93 8fbd
000002f0: c15e cfbb af50 183e a8f7 0c3e 69da 303e
00000300: 87dd 8fbc a7ca af3d 0fc0 243e 98c2 76bd
00000310: a423 9e3d 0005 1c3e c738 49be 9e72 f13d
00000320: 40af d9bc 5fa3 1bbe 66e7 efbd 8eab f03d
00000330: 2578 1fbd 77d0 ee3d beb5 58bd 7cfc f3bd
00000340: f975 62bd 0f62 69be f276 d63d c1b8 f7bc
00000350: 0761 c4bd 4185 473d d1aa 47be fb94 03bd
00000360: 2d80 0e3e eadc d93c c4c7 2bbe fa4d 27bc
00000370: 7902 2bbb 33aa 543e 12da 063e 4434 4d3e
00000380: 67a7 383d f110 3abe 9594 babd 8071 19bd
00000390: 5e17 513e 702e 323e 630b 59be a43d 483d
000003a0: 2d73 1dbe 2571 1b3d 891e e13d 1f65 083e
000003b0: 35dd 953d 482b d33d e4fe df3c d134 0e3e
000003c0: 1670 163e 7be6 a7bd 7539 25be 472d 89bd
000003d0: 6e07 c03d 6e2b 293e 541b cbbd 528a 2fbe
000003e0: 8b51 c9bd 1df8 4d3d b6e7 8abd a600 bebc
000003f0: 163a 4b3e 8bb2 403e eb8e 54be 79c6 40be

layer2.bias f4 [64]
0.035036273 -0.012293858 -0.04991623 0.005228156 -0.05750693 -0.014972676 0.00638125 0.030125279
0.010237084 0.019553173 -0.00777572 0.032582883 -0.04044795 -0.0013643366 -0.04025349 -0.036436286
0.0043164506 -0.0019354159 -0.011424942 0.07325395 -0.016624466 0.011074137 0.022025075 -0.014719127
0.004918111 -0.074562855 -0.017191239 -0.028748771 -0.006790834 0.010104567 -0.009185021 -0.0017444773
-0.015467559 -0.008834183 -0.0036744024 -0.057791915 -0.03666374 0.066322416 -0.027258446 -0.02389079
-0.03086586 -0.088315815 -0.0044768606 0.015467781 0.06524123 -0.029211521 0.01633498 0.014962669
-0.007904854 0.046997156 0.040898263 0.013428619 0.019586174 -0.013094179 0.008194226 -0.01880029
-0.022871057 0.013066594 0.051501356 -0.016797153 0.004011189 0.037629604 0.029734213 0.031649448
00000000: 3282 0f3d 2e6c 49bc f674 4cbd f450 ab3b
00000010: 638c 6bbd f44f 75bc ce19 d13b 4ac9 f63c
00000020: 71b9 273c fa2d a03c 78cb febb a175 053d
00000030: c0ac 25bd 8ad3 b2ba d8e0 24bd 373e 15bd
00000040: 0371 8d3b c8ad fdba ae2f 3bbc 2b06 963d
00000050: 0830 88bc 4c70 353c ee6d b43c 7e28 71bc
00000060: 1b28 a13b 69b4 98bd a4d4 8cbc 8b82 ebbc
00000070: a585 debb a08d 253c c57c 16bc f2a6 e4ba
00000080: a56b 7dbc 40bd 10bc 3ece 70bb 37b7 6cbd
00000090: b82c 16bd 0cd4 873d 1b4d dfbc 9eb6 c3bc
000000a0: 66da fcbc ecde b4bd a1b2 92bb 936c 7d3c
000000b0: 329d 853d 004d efbc f0d0 853c fc25 753c
000000c0: 5c83 01bc 1780 403d f084 273d b603 5c3c
000000d0: 2f73 a03c f888 56bc 1341 063c 1103 9abc
000000e0: 155c bbbc 4415 563c 16f3 523d 2f9a 89bc
000000f0: 4b70 833b 8021 1a3d 2a95 f33c daa2 013d

layer3.weight f4 [7, 64]
-0.21294948 0.08316334 -0.15427865 0.07225858 -0.19846909 0.033124518 -0.29626969 0.10891617
0.26237747 0.06036994 -0.1766033 -0.27460882 0.20846282 -0.19834962 0.03707631 0.2922311
0.07328677 0.043122854 0.062940344 -0.17212878 0.2642228 -0.06871591 0.25448638 0.12497606
0.24135174 -0.031378493 0.09688451 0.052445572 -0.14437921 0.06329675 -0.15491137 0.16783723
0.26114395 0.0235816 0.28474104 0.08318388 0.23477678 0.026773812 -0.2614363 -0.09973496
-0.028208427 0.2831396 -0.21048397 -0.18229817 -0.31648323 0.051772498 -0.1366476 -0.15831052
0.20788756 -0.19707423 0.16712506 0.010064657 -0.03386991 -0.08390956 0.09479505 -0.13573027
0.04885688 -0.27045703 0.0052888803 0.21167526 -0.16235243 0.17273793 -0.33049768 -0.29958865
-0.108943015 -0.20147806 0.12029125 -0.23150091 0.23897731 0.100630194 0.2755835 -0.19122896
0.10550057 0.05877132 0.0918678 -0.2896075 -0.10179621 -0.009736074 -0.12836619 -0.15061319
0.14771141 -0.26680368 0.16906643 -0.044235997 0.01441383 -0.08176101 -0.009897744 0.06223735
-0.20826887 0.26746964 -0.073163 0.25013068 -0.21365398 -0.020072574 -0.24234234 0.22721395
-0.23109077 0.00059547275 -0.07835851 -0.31206137 -0.15825783 -0.03414817 -0.13850096 0.09770116
0.1904672 -0.16560236 -0.2545269 -0.21460493 -0.04256645 -0.03271656 0.03669774 -0.0695811
-0.0041729677 0.1862286 -0.15368564 -0.034278557 -0.21312866 -0.12010189 -0.22190425 0.17470236
-0.24618122 -0.025839232 0.056409862 0.2584903 0.021193808 0.11371351 -0.3360419 -0.13157229
0.23322329 -0.085881 0.014509015 -0.208203 -0.14133406 0.064095505 -0.1806905 0.25726432
0.22786352 0.031586993 -0.20476578 0.14098139 -0.2742448 0.068906784 -0.22775841 0.15341944
-0.0395318 -0.16873969 -0.2041589 0.1666661 -0.07850464 0.05159036 -0.021732794 0.3727138
0.10923462 -0.1320996 -0.06658648 -0.25675157 -0.19283712 0.37003547 -0.21248722 -0.033317164
-0.18398246 -0.07762084 -0.01931256 -0.1640517 0.20669624 0.27015337 -0.048029874 0.052414525
-0.346042 -0.30501288 0.09953709 -0.29432607 0.19488788 -0.2115046 0.028739735 0.26759705
-0.1511776 0.25716072 0.046573773 0.1838502 0.117707506 0.24118528 0.27416933 0.012202607
-0.04129175 -0.018339181 0.47580498 0.20148627 -0.33832052 -0.014740884 -0.004022471 0.031779733
0.0722788 0.21440251 -0.067874745 0.25097555 -0.04406987 -0.06599681 0.25208566 -0.2572505
0.21935491 -0.17572209 0.07768168 -0.15488698 0.24831827 0.13368629 0.2047933 0.25654027
0.086784035 0.2420136 0.20989412 0.109879285 -0.28171563 0.12867092 0.25084066 0.2009939
0.26976302 0.27298152 0.08279484 0.25432444 0.06215984 0.26061806 -0.16186464 -0.2496773
-0.26013416 0.103318855 -0.06778757 -0.18378118 0.17083211 0.01768942 -0.005609653 -0.30469027
0.022361863 0.13104741 0.1835501 -0.21920773 0.07903666 -0.19833687 0.22657923 0.26918086
-0.10854094 0.062129557 -0.24000789 -0.23259084 0.061939985 -0.1386863 -0.30637264 -0.07147696
-0.05197925 -0.08538344 -0.22466247 -0.24832469 0.11082344 -0.036400028 -0.0438846 -0.21979527
00000000: 6e0f 5abe 8b51 aa3d 39fb 1dbe 4efc 933d
00000010: 7b3b 4bbe 93ad 073d a9b0 97be 710f df3d
00000020: 5756 863e 7846 773d 7fd7 34be 8799 8cbe
00000030: 4777 553e 2a1c 4bbe 54dd 173d 519f 953e
00000040: 6017 963d 97a1 303d dee6 803d 8742 30be
00000050: 3648 873e edba 8cbd 0a4c 823e 73f3 ff3d
00000060: e924 773e bc86 00bd 636b c63d 2bd1 563d
00000070: 25d8 13be baa1 813d 16a1 1ebe 86dd 2b3e
00000080: a9b4 853e 332e c13c 94c9 913e 4f5c aa3d
00000090: 5369 703e c154 db3c fbda 85be d841 ccbd
000000a0: 5c15 e7bc acf7 903e 1c89 57be 5fac 3abe
000000b0: 170a a2be 660f 543d 59ed 0bbe 271c 22be
000000c0: 7ae0 543e d4cd 49be d522 2b3e 3be6 243c
000000d0: 2dbb 0abd c7d8 abbd e823 c23d e0fc 0abe
000000e0: 271e 483d 5879 8abe 584e ad3b 66c1 583e
000000f0: b73f 26be 36e2 303e fe36 a9be af63 99be
00000100: 841d dfbd 4450 4ebe 425b f63d 930e 6dbe
00000110: 78b6 743e 3417 ce3d 4819 8d3e 86d1 43be
00000120: af10 d83d 32ba 703d 2f25 bc3d 6f47 94be
00000130: 887a d0bd 0e84 1fbc 6d72 03be 583a 1abe
00000140: a941 173e 7e9a 88be c01f 2d3e ce30 35bd
00000150: fc27 6c3c 5172 a7bd 262a 22bc 97ec 7e3d
00000160: 6f44 55be c8f1 883e 7cd6 95bd 2111 803e
00000170: 1cc8 5abe 3d6f a4bc 9728 78be c6aa 683e
00000180: 0fa3 6cbe 8019 1c3a 6d7a a0bd 82c6 9fbe
00000190: 570e 22be f4de 0bbd 32d3 0dbe 8c17 c83d
000001a0: d509 433e aa93 29be 5a51 82be 65c1 5bbe
000001b0: 285a 2ebd cd01 06bd 5f50 163d 8980 8ebd
000001c0: 64bd 88bb b6b2 3e3e c55f 1dbe ac67 0cbd
000001d0: 663e 5abe fbf7 f5bd de3a 63be 2de5 323e
000001e0: ee16 7cbe ccac d3bc 070e 673d d758 843e
000001f0: a39e ad3c a1e2 e83d af0d acbe e3ba 06be
00000200: 16d2 6e3e 61e2 afbd 38b7 6d3c 2b33 55be
00000210: e0b9 10be 8144 833d ee06 39be 26b8 833e
00000220: 0e55 693e 5d61 013d 1fae 51be 6d5d 103e
00000230: d069 8cbe 001f 8d3d 8039 69be fc19 1d3e
00000240: 19ec 21bd 19ca 2cbe 080f 51be 85aa 2a3e
00000250: 0ac7 a0bd 6a50 533d f908 b2bc 58d4 be3e
00000260: 67b6 df3d 1e45 07be 7e5e 88bd f174 83be
00000270: 1877 45be 4a75 bd3e 4096 59be 9477 08bd
00000280: e665 3cbe adf7 9ebd 6035 9ebc 2bfd 27be
00000290: 2ea8 533e 8b51 8a3e f9ba 44bd 9db0 563d
000002a0: 6b2c b1be a62a 9cbe 1ada cb3d e8b1 96be
000002b0: b090 473e a994 58be 986f eb3c 7b02 893e
000002c0: 4dce 1abe 92aa 833e 24c4 3e3d 3a43 3c3e
000002d0: a210 f13d 46f9 763e ec5f 8c3e 71ed 473c
000002e0: 8a21 29bd 0d3c 96bc b69c f33e 6b52 4e3e
000002f0: 5938 adbe c083 71bc efce 83bb 772b 023d
00000300: e806 943d 558c 5b3e ea01 8bbd de7f 803e
00000310: 9c82 34bd 5629 87bd 5f11 813e 56b6 83be
00000320: 939e 603e 7ef0 33be 9317 9f3d b19a 1ebe
00000330: 2547 7e3e 0fe5 083e 56b5 513e 3f59 833e
00000340: d4bb b13d 6ad2 773e 7cee 563e 6408 e13d
00000350: 083d 90be 4fc2 033e 306e 803e 58d1 4d3e
00000360: 611e 8a3e 3cc4 8b3e 5790 a93d d036 823e
00000370: 519b 7e3d bb6f 853e d8bf 25be 68ab 7fbe
00000380: 4e30 85be d698 d33d 36d4 8abd 2231 3cbe
00000390: 9dee 2e3e 67e9 903c 2ed1 b7bb 5d00 9cbe
000003a0: 3a30 b73c 4b31 063e 8ff4 3b3e fe77 60be
000003b0: f9dd a13d d218 4bbe 6304 683e 13d2 893e
000003c0: b64a debd 907b 7e3d a1c4 75be 4b2c 6ebe
000003d0: c8b4 7d3d c803 0ebe e0dc 9cbe 8362 92bd
000003e0: 32e8 54bd 83dd aebd eb0d 66be d448 7ebe
000003f0: 66f7 e23d 3218 15bd 57c0 33bd 0312 61be

layer3.bias f4 [7]
-0.03426788 -0.0171192 0.13685018 -0.042350665 -0.104522586 0.08686817 -0.02545901
00000000: 7a5c 0cbd 913d 8cbc 7422 0c3e e477 2dbd
00000010: f00f d6bd f0e7 b13d 6a8f d0bc
