maml_model/maml_GoToLocal_7_3_300_50_encoder.pth (torch, 24844 bytes, 6 tensors)

net.0.weight f4 [32, 38]
0	0x3e1446ac	0.14480084
1	0x3d978b1f	0.07399582
2	0xbd98a9a2	-0.0745423
3	0xbd800f8f	-0.062529676
4	0x3d2983c5	0.04138543
5	0x3dc1840a	0.094490126
6	0x3d65f646	0.056143068
7	0xbe1ced46	-0.15324888
8	0xbe1b8028	-0.15185606
9	0x3d52b098	0.051437944
10	0x3d4b0e02	0.049573906
11	0x3db1a6d1	0.08674396
12	0x3d5ad0c7	0.05342176
13	0xbdff7fc2	-0.1247554
14	0xbd325032	-0.04353351
15	0x3da4b51e	0.08042358
16	0xbb1c8026	-0.0023880093
17	0xbdf46401	-0.11933137
18	0xbe1af17c	-0.15131181
19	0xbddc48fb	-0.107561074
20	0x3d3fb574	0.046803907
21	0x3c4fc9b3	0.012682366
22	0x3de18b10	0.11012852
23	0x3dd9cf27	0.10635214
24	0xbc7dcc1c	-0.015490558
25	0x3df25992	0.118334904
26	0x3d1a5c44	0.037685648
27	0x3dcdf80e	0.10057078
28	0x3ce22de5	0.027609775
29	0x3d237a01	0.039911274
30	0xbd476da8	-0.04868856
31	0xbdc14a09	-0.09437949
32	0xbe1f7fe0	-0.15576124
33	0x3dd73897	0.105088405
34	0x3ce2f7e6	0.027706098
35	0x3d7c47d0	0.061591923
36	0xbc02d288	-0.007984765
37	0xbb849eac	-0.0040472355
38	0xbda21bd6	-0.079154655
39	0x3e17d93b	0.1482896
40	0x3e243f23	0.1603971
41	0x3d9c3a2e	0.076282844
42	0xbe1dd142	-0.15411857
43	0x3e243c06	0.16038522
44	0xbc39ab86	-0.011332398
45	0x3dddb5af	0.10825669
46	0xbbbc4163	-0.0057450994
47	0x3dfbd3ed	0.12296281
48	0x3c36e7ea	0.011163691
49	0xbdd18a9c	-0.10231516
50	0x3d7908d6	0.060799442
51	0xbda61eea	-0.08111365
52	0xbd1083da	-0.035281993
53	0xbde6cc3c	-0.11269423
54	0x3dc049ac	0.09389052
55	0x3d249e1f	0.04018986
56	0x3e140562	0.14455178
57	0xbc917ecf	-0.017760662
58	0x3e22ce8a	0.15899101
59	0x3d5fb5a8	0.0546166
60	0xbe237d83	-0.15965848
61	0xbe0d137a	-0.13776961
62	0x3e1dc53b	0.15407269
63	0xbe25a59a	-0.16176453
64	0x3cb54bca	0.022130866
65	0xbe2197d4	-0.15780574
66	0x3dd1b75a	0.1024005
67	0x3defe43c	0.11713454
68	0xbd88580c	-0.066574186
69	0xbdc4a590	-0.09601891
70	0xbe16a188	-0.14710057
71	0xbdf1bbc5	-0.11803392
72	0x3e042ba3	0.12907271
73	0xbdd77f28	-0.105223
74	0x3d85e0d8	0.06537026
75	0xbdbe7ecf	-0.093015306
76	0xbe209974	-0.15683538
77	0xbde9c4d4	-0.11414495
78	0x3d5c8998	0.053842157
79	0xbce26d1e	-0.027639922
80	0xbc9be3d9	-0.019029545
81	0x3cec5b0c	0.028852008
82	0xbd8e995d	-0.069628455
83	0x3e194794	0.14968711
84	0x3d80f1f0	0.06296146
85	0x3cade62e	0.021227922
86	0xbe071068	-0.13189852
87	0xbe00b9cc	-0.12570876
88	0xbe245e36	-0.16051564
89	0x3dbb1ae2	0.09135987
90	0x3ad7fecb	0.0016479132
91	0x3de817c9	0.11332662
92	0xbac7a813	-0.0015232585
93	0x3d0202f3	0.031741094
94	0xbd2f2324	-0.042758122
95	0xbdaf9161	-0.08572651
96	0xbc977776	-0.01848958
97	0x3da34bcf	0.07973444
98	0x3df5eb39	0.12007756
99	0x3e0026c0	0.12514782
100	0xbd88a6ce	-0.066724405
101	0xbe21af96	-0.15789637
102	0x3c20b946	0.009809798
103	0xbce5cf81	-0.028053047
104	0x3dac2508	0.08405501
105	0x3d2f603d	0.04281639
106	0x3dc99896	0.098435566
107	0x3dabfcdc	0.083978385
108	0x3d59cd06	0.05317404
109	0x3d105c74	0.03524442
110	0x3dcbfaef	0.09959971
111	0x3d98cba6	0.07460718
112	0xbd919272	-0.0710801
113	0x3cb6710c	0.022270702
114	0xbdd25990	-0.10270989
115	0x3c0ed37e	0.008717416
116	0xbd052443	-0.032505285
117	0xbe18f740	-0.14938068
118	0x3d81b14f	0.06332647
119	0x3d8ad43a	0.0677876
120	0x3dcf7d37	0.10131305
121	0x3de324f7	0.11091035
122	0xbde85c99	-0.113457866
123	0x3cd72af9	0.026265608
124	0xbe1baaa4	-0.15201813
125	0x3de20c87	0.11037546
126	0xbdf5b916	-0.11998193
127	0xbc16ba8e	-0.009199752
128	0xbe05e677	-0.13076197
129	0xbd162b6a	-0.036662497
130	0xbd715c1c	-0.058925733
131	0xbd4b34f6	-0.049611054
132	0xbd19aae0	-0.037516475
133	0x3d3cf358	0.04613051
134	0x3c913d11	0.017729314
135	0x3e212cde	0.15739772
136	0xbdef7f02	-0.11694147
137	0x3d641d3c	0.055691943
138	0xbdf3f1d0	-0.119113564
139	0xbd04b478	-0.03239867
140	0x3d023965	0.031793017
141	0xbcb7276d	-0.022357667
142	0x3de42239	0.1113934
143	0x3d9cf877	0.076645784
144	0x3cd072fa	0.02544545
145	0xbe0a9794	-0.13534385
146	0x3de8459a	0.113414004
147	0x3d572517	0.052525606
148	0xbe1e6925	-0.15469797
149	0xbe2529ab	-0.16129176
150	0x3e07c1d6	0.13257536
151	0x3c8ce961	0.017201127
152	0xbdd93a58	-0.10606831
153	0xbdfd32d2	-0.12363209
154	0x3c40fece	0.0117795
155	0x395191de	0.00019986133
156	0x3dd92d6d	0.106043674
157	0x3b888d18	0.0041672103
158	0xbcd162be	-0.02555978
159	0x3e0c56ac	0.13704938
160	0xbe1c9966	-0.15292892
161	0xbd4bab38	-0.049723834
162	0xbe0c5f0f	-0.13708137
163	0x3d549766	0.051902197
164	0x3ce70578	0.02820085
165	0xbc85d179	-0.016335236
166	0xbd0f1e8a	-0.034941234
167	0x3de86e86	0.11349206
168	0x3d9b81b7	0.075931005
169	0x3dace265	0.08441619
170	0x3df17a3b	0.11790892
171	0xbdcacc92	-0.099023
172	0xbdc6f4e4	-0.09714678
173	0x3cd8ae66	0.026450347
174	0xbd84db6f	-0.06487166
175	0xbdf00486	-0.11719613
176	0xbc9cb3fa	-0.019128788
177	0xbd80c1ec	-0.06286988
178	0x3df2cdbe	0.118556485
179	0xbe18c459	-0.1491865
180	0xbdb58b79	-0.08864493
181	0xbcc4e674	-0.02403567
182	0xbd9c8b9b	-0.07643815
183	0xbd20e8c3	-0.03928448
184	0xbe126546	-0.14296445
185	0x3dd469cc	0.10371742
186	0x3e169b6a	0.14707723
187	0x3bde8629	0.0067908955
188	0x3d937021	0.07199121
189	0xbdfbd14a	-0.12295778
190	0x3d995f93	0.074889325
191	0xbccedfc7	-0.02525319
192	0xbdce99cf	-0.100879304
193	0x3d3235da	0.043508388
194	0xbdcde528	-0.10053474
195	0xbe157ac5	-0.14597614
196	0xbda15da5	-0.078791894
197	0xbcd35ca1	-0.025801005
198	0x3e0e8e12	0.13921383
199	0xbdcc0b8f	-0.09963142
200	0x3d903db1	0.07043017
201	0xbcb720bb	-0.022354474
202	0x3dfd36a0	0.123639345
203	0xbdc3552d	-0.0953773
204	0xbcd1cd1e	-0.025610503
205	0xbdf36770	-0.118849635
206	0xbdec56a0	-0.1153996
207	0x3d7e2b31	0.06205291
208	0x3deb83cf	0.1149975
209	0xbcb0f582	-0.021601442
210	0x3e16e2e7	0.14734994
211	0xbdd3a62d	-0.1033443
212	0xbdade3bf	-0.08490705
213	0x3da52eb1	0.08065546
214	0x3e102ec9	0.14080347
215	0x3d39f32a	0.045397915
216	0xbe11445d	-0.14186235
217	0x3d8d3064	0.068939954
218	0x3d97585b	0.07389899
219	0x3d478a54	0.048715904
220	0x3d7d47e1	0.061836127
221	0x3d5504bd	0.052006472
222	0xbc2512d7	-0.010075293
223	0xbdcf49d7	-0.10121506
224	0xbe0ee76a	-0.13955465
225	0xba80f940	-0.0009839907
226	0xbda7994e	-0.081835374
227	0xbe02e6a7	-0.127833
228	0xbdea19c1	-0.114306934
229	0x3df23b9a	0.11827774
230	0x3e1f9dc5	0.15587528
231	0xbd0db428	-0.03459564
232	0x3cd5f9ff	0.026120184
233	0xbd9870c4	-0.07443383
234	0x3b360cea	0.0027778693
235	0xbd19c280	-0.037539005
236	0xbde61ebd	-0.112363316
237	0xbcc3ac11	-0.023885759
238	0xbdd87a68	-0.10570222
239	0xbddbda70	-0.10735023
240	0x3d628be1	0.05530918
241	0xbe181abe	-0.14853951
242	0x3e12a4c6	0.14320669
243	0x3da0e599	0.07856292
244	0xbe0bac6a	-0.1363999
245	0x3dd6fc99	0.10497398
246	0x3cac759d	0.021052176
247	0x3dea042d	0.11426578
248	0xbd416beb	-0.04722206
249	0xbdfbe037	-0.12298625
250	0x3de95b2f	0.11394345
251	0xbdab3383	-0.083594345
252	0xbd21b2a6	-0.039477013
253	0xbd9d75c0	-0.07688475
254	0xbe14fc9e	-0.14549491
255	0x3df065b5	0.11738149

net.0.bias f4 [32]
0	0x3e0cec30	0.13761973
1	0xbd2cebdf	-0.04221713
2	0x3de77a16	0.11302583
3	0xbdb8fd42	-0.0903268
4	0x3c7f5d9c	0.015586283
5	0x3d657cd5	0.056027252
6	0x3b9a3cb1	0.004706942
7	0xbe0fe028	-0.14050353
8	0x3e1cd610	0.15316033
9	0x3d6ba819	0.057533357
10	0x3ba61065	0.0050678723
11	0x3d9d70be	0.076875195
12	0x3d0c6eb3	0.03428526
13	0xbd484e9e	-0.0489031
14	0xbe1d706f	-0.15374921
15	0xbbe7abd3	-0.0070700436
16	0xbe044940	-0.12918568
17	0xbe2203f3	-0.15821819
18	0x3d3da6a4	0.0463015
19	0xbcc7bd3f	-0.024382232
20	0x3e0cdd11	0.13756205
21	0x3d2b1e79	0.041777108
22	0x3ddbbf2c	0.107298225
23	0xbd88f6f9	-0.06687731
24	0x3d26305f	0.040573474
25	0x3d5bbc68	0.053646475
26	0x3e067693	0.1313117
27	0xbe213854	-0.15744144
28	0xbdc5d6b1	-0.0966009
29	0xbd162b3b	-0.03666232
30	0x3dba95ff	0.09110641
31	0xbd808d0c	-0.062769026

net.2.weight f4 [64, 32]
0	0xbdf8af8a	-0.121428564
1	0x3e0527b0	0.13003421
2	0xbe0339dd	-0.12815042
3	0xbd71a843	-0.058998358
4	0x3e016083	0.12634473
5	0xbd05852a	-0.0325977
6	0x3e1d65f6	0.15370926
7	0xbdbe8182	-0.093020454
8	0xbe2fcc10	-0.17167687
9	0xbe1330ee	-0.14374134
10	0x3d9ac854	0.07557741
11	0xbdcf5d28	-0.1012519
12	0xbd51d74d	-0.051230717
13	0xbe1a23e4	-0.15052754
14	0x3bf3444f	0.0074239145
15	0xbd5f8edc	-0.0545796
16	0xbe0e5993	-0.13901357
17	0x3e026076	0.1273211
18	0xbd3b2588	-0.04569009
19	0x3d8856b9	0.06657166
20	0xbd6e7060	-0.058212638
21	0xbe0d8ad2	-0.13822487
22	0xbbe76bb4	-0.0070623998
23	0xbd862b04	-0.06551173
24	0x3e0e41d2	0.13892296
25	0xbada2e5d	-0.0016645897
26	0x3b22966d	0.00248089
27	0xbdfaa9c3	-0.12239411
28	0x3dbf5198	0.09341735
29	0xbe28b6de	-0.16476008
30	0x3dce3a64	0.10069731
31	0xbdd7691d	-0.10518096
32	0x3e1511b8	0.1455754
33	0x3e06d5bd	0.13167472
34	0x3d827400	0.063697815
35	0xbd27d462	-0.04097403
36	0x3dc4dc68	0.09612352
37	0xbe12b812	-0.1432803
38	0xbdd9389c	-0.106065005
39	0x3cafed22	0.021475378
40	0xbdb79dbd	-0.08965633
41	0xbd68931f	-0.05678093
42	0x3e0ae85e	0.13565204
43	0x3e272906	0.16324243
44	0x3d3a077c	0.045417294
45	0x3d9f898c	0.07789907
46	0x3dea808c	0.114502996
47	0xbde0a0eb	-0.10968193
48	0x3d7815b3	0.06056757
49	0x3cabcca0	0.020971596
50	0xbd4fcbbb	-0.050731402
51	0x3c9eff46	0.019408833
52	0xbe0cb933	-0.13742523
53	0xbe023909	-0.1271707
54	0x3d92215d	0.0713527
55	0xbda2bb51	-0.07945884
56	0x3de4714f	0.111544244
57	0x3cedaad3	0.02901212
58	0xbc7e6d76	-0.015529027
59	0xbd43d820	-0.047813535
60	0xbe238afb	-0.15970986
61	0xbc4a0e19	-0.012332463
62	0x3dfcc773	0.123427294
63	0xbddb646b	-0.107125126
64	0xbdfbc027	-0.122925095
65	0xbdde750e	-0.1086217
66	0xbc054ac3	-0.0081355
67	0x3e0c00d3	0.1367219
68	0xbdf7d807	-0.12101751
69	0x3e118259	0.1420988
70	0xbddbb6f4	-0.10728255
71	0xbdc02168	-0.09381372
72	0x3cc33ca6	0.02383263
73	0xbd593368	-0.05302754
74	0xbc91ef25	-0.017814228
75	0xbd15b272	-0.03654713
76	0xbd2846c7	-0.041083124
77	0xbdcc2736	-0.099684164
78	0x3d9f090b	0.07765397
79	0xbe0a66db	-0.13515799
80	0x3d8b4c31	0.06801642
81	0xbd739595	-0.059468824
82	0xbe1d2c96	-0.1534904
83	0x3de44fe9	0.11148054
84	0xbc9e13ad	-0.019296492
85	0x3e050705	0.12990959
86	0x3e32d8be	0.17465493
87	0xbe0a75d1	-0.13521506
88	0x3d14942e	0.036274128
89	0xbe10d494	-0.14143592
90	0x3deef1ff	0.11667251
91	0xbc0ce7e7	-0.008600212
92	0xbdaaa010	-0.08331311
93	0x3e1dd805	0.15414436
94	0x3dfde00a	0.12396248
95	0xbcd952fc	-0.026528828
96	0x3e2e8840	0.17044163
97	0x3d0ccee9	0.034377012
98	0xbdee88fa	-0.1164722
99	0xbd65014b	-0.055909436
100	0xbdeea540	-0.11652613
101	0xbde16082	-0.110047355
102	0x3e30312d	0.17206259
103	0xbb6657c1	-0.003514752
104	0x3d916b02	0.07100488
105	0x3e2e5564	0.17024761
106	0xbc74a555	-0.014931996
107	0x3e30bfd0	0.1726067
108	0xbe05c2fa	-0.13062659
109	0xbe276d1a	-0.16350213
110	0x3d88daff	0.06682395
111	0xbdc98124	-0.09839085
112	0x3c8f21e0	0.017472208
113	0x3de1008b	0.10986432
114	0x3d821107	0.06350904
115	0xbca3f1d6	-0.020012777
116	0x3e259922	0.16171697
117	0x3d58d332	0.052935787
118	0x3e18c94a	0.14920536
119	0x3e015191	0.12628771
120	0xbccedbd8	-0.025251314
121	0x3db04eca	0.08608778
122	0xbe0f625f	-0.1400237
123	0x3d5884f3	0.052861165
124	0x3d38ae6b	0.045088213
125	0x3e0f97dd	0.14022775
126	0x3d615992	0.05501706
127	0x3e2bd24e	0.16779444
128	0x3df3becd	0.11901627
129	0x3d82687a	0.063675836
130	0xbceed18e	-0.029152658
131	0xbdeb1ad4	-0.114797264
132	0xbdf8d53a	-0.12150045
133	0x3da182c1	0.078862675
134	0x3e0f26b8	0.13979614
135	0x3e26d403	0.16291814
136	0xbdfb1147	-0.12259155
137	0xbd107f30	-0.035277545
138	0xbda3060d	-0.079601385
139	0xbdda4bd7	-0.106589966
140	0x3e267ce2	0.16258577
141	0xbd9ffdbc	-0.07812068
142	0xbd5d0ca6	-0.05396714
143	0x3dc41859	0.095749564
144	0x3d840831	0.06446875
145	0xbe3349fc	-0.17508692
146	0x3e1309a8	0.14359152
147	0x3cf6697b	0.030079594
148	0x3beb33bb	0.0071777976
149	0x3c328ed4	0.010898311
150	0xbe2e2f64	-0.17010266
151	0x3d688ebe	0.056776755
152	0x3c5a47a5	0.013322745
153	0x3dbcc41e	0.09217094
154	0xbdb1e46a	-0.08686145
155	0x3d23175d	0.039817203
156	0xbdce166b	-0.1006287
157	0x3e04bc60	0.12962484
158	0xbe0322fb	-0.12806313
159	0x3d15f068	0.036606222
160	0xbcdb4683	-0.026767021
161	0xbdeeba71	-0.116566546
162	0x3d406a79	0.04697654
163	0x3d234b89	0.039866958
164	0xbe012e9c	-0.12615436
165	0x3defde72	0.1171235
166	0x3dc8e7d2	0.09809841
167	0x3e3241fe	0.17407987
168	0xbde27b41	-0.11058665
169	0x3d696f8a	0.056991138
170	0x3d416eb6	0.047224723
171	0xbbc81ae1	-0.00610672
172	0xbe0cc737	-0.1374787
173	0x3d016e89	0.031599555
174	0xbd807964	-0.062731534
175	0xbdc41d4a	-0.09575899
176	0xbc8d09d8	-0.017216608
177	0xbd05fa37	-0.032709327
178	0xbdeaa73d	-0.114576794
179	0x3e25f092	0.16205052
180	0x3d5ad45b	0.053425174
181	0xbe0c107f	-0.13678168
182	0xbcca24d0	-0.024675757
183	0xbd892a2f	-0.06697499
184	0xbe2c9157	-0.16852318
185	0xbda64eff	-0.08120536
186	0xbb8c003d	-0.0042724893
187	0x3d9a8b74	0.0754613
188	0xbd79ef87	-0.061019447
189	0xbdddf4d0	-0.1083771
190	0x3c4cab8d	0.012492073
191	0x3dd8acdc	0.10579845
192	0x3d9fd993	0.07805171
193	0xbd226c16	-0.03965386
194	0xbd8c44f0	-0.06849086
195	0xbdb38f03	-0.08767512
196	0x3d01392c	0.031548664
197	0xbcd0f035	-0.025505165
198	0xba651bae	-0.00087397813
199	0xbca3ccfa	-0.019995201
200	0x3dfab3f3	0.12241354
201	0xbc0d523c	-0.008625563
202	0x3a8b28bf	0.0010617002
203	0x3d534830	0.051582515
204	0xbd8364dc	-0.06415722
205	0x3dad4cf3	0.084619425
206	0xbd3c439a	-0.045962907
207	0x3e18492f	0.14871667
208	0x3e208cd2	0.15678719
209	0xbd1d1c8b	-0.0383573
210	0xbe18c85a	-0.14920178
211	0xbd8662c1	-0.065618046
212	0x3e3041a9	0.17212547
213	0xbc8a04ab	-0.016847929
214	0xbd857e76	-0.06518261
215	0xbda32ce5	-0.07967547
216	0xbdeba70f	-0.11506473
217	0xbe041c90	-0.1290152
218	0xbe2f2d9a	-0.1710724
219	0x3df328d2	0.1187302
220	0x3e2cdfa6	0.1688219
221	0x3d74ecba	0.059796073
222	0x3c496f9e	0.012294678
223	0xbdea27ea	-0.11433394
224	0xbd80fe27	-0.06298476
225	0xbe1be0f4	-0.15222532
226	0x3e0e5f56	0.13903555
227	0xbd683a4a	-0.056696214
228	0x3de05585	0.109538116
229	0xbdff99ea	-0.12480529
230	0x3da3c17d	0.07995889
231	0xbd0bcef0	-0.034132898
232	0x3d71b783	0.0590129
233	0x3e1bdf14	0.15221816
234	0x3e15fd58	0.14647424
235	0xbd90b035	-0.07064859
236	0xbc8dfdee	-0.017332997
237	0x3d3d837b	0.046267968
238	0xbd43441e	-0.047672383
239	0x3d9a777d	0.07542322
240	0x3d6f650e	0.058445983
241	0x3df5fbfb	0.12010952
242	0x3dcabb98	0.09899062
243	0xbd944942	-0.07240535
244	0x3ded39c7	0.11583286
245	0x3b3fd272	0.0029269722
246	0x3e0cb8b5	0.13742335
247	0x3dda4df6	0.10659401
248	0x3d47f28e	0.048815303
249	0x3ddc501e	0.10757469
250	0xbd07b1d0	-0.03312856
251	0xbd6ce174	-0.057832196
252	0xbe1775c3	-0.14791016
253	0x3e14b5c1	0.14522459
254	0xbde7e469	-0.11322863
255	0xbcb4ad94	-0.022055425

net.2.bias f4 [64]
0	0xbc928409	-0.017885225
1	0x3b079bc3	0.0020692206
2	0x3de32e02	0.1109276
3	0x3dd067d3	0.10176053
4	0xbd62ebce	-0.055400662
5	0x3cd2ca3c	0.025731198
6	0xbdae9ed3	-0.08526387
7	0x3dc3c3e2	0.09558846
8	0x3d9c0acb	0.07619246
9	0x3d67f290	0.05662781
10	0x3e2cb063	0.16864161
11	0x3d2bd385	0.041949768
12	0x3d2b95df	0.041890975
13	0x3d1a37e4	0.037650958
14	0x3de9b264	0.114109784
15	0xbdcf8426	-0.10132627
16	0x3d162d27	0.036664154
17	0x3dbb5642	0.09147312
18	0xbe0140de	-0.12622401
19	0x3de69086	0.112580344
20	0xbc683852	-0.014173584
21	0x3dcbd0bc	0.09951922
22	0xbde0650b	-0.109567724
23	0xbd94391b	-0.072374545
24	0x3e33f2a4	0.17573029
25	0x3e283482	0.1642628
26	0xbc86c66f	-0.016452042
27	0x3d9a3e6c	0.07531437
28	0x3dcc3ff3	0.09973135
29	0xbe0742fc	-0.13209146
30	0x3d34ab1a	0.044108488
31	0xbe12b745	-0.14327724
32	0x3e2a1cce	0.1661255
33	0x3cd7cf94	0.026344098
34	0x3e2c753d	0.16841598
35	0x3d1a5652	0.037679978
36	0x3e043a05	0.12912758
37	0x3cf954d9	0.030435966
38	0x3dd63de0	0.104610205
39	0xbc61c64a	-0.013780186
40	0x3dcc5dfb	0.09978863
41	0xbd821436	-0.06351511
42	0x3d07dd09	0.03316978
43	0x3d93d7b1	0.07218874
44	0x3e228a85	0.15873154
45	0x3c77718b	0.015102754
46	0xbc955cd8	-0.018232748
47	0xbe1b11d7	-0.15143524
48	0x3c82bdb5	0.0159596
49	0xbd9d41eb	-0.076785885
50	0xbccde165	-0.02513189
51	0xbd4d1960	-0.050073028
52	0x3ddae8e5	0.10688952
53	0xbca6f5b0	-0.020380825
54	0xbdee8f17	-0.11648386
55	0x3e03ab1b	0.1285824
56	0x3d187939	0.037224982
57	0xbd904422	-0.07044245
58	0xbdcf2f38	-0.10116428
59	0xbd550d82	-0.052014835
60	0x3bbdb637	0.005789544
61	0x3e140681	0.14455606
62	0xbcbe30a2	-0.02321655
63	0xbe01c7a9	-0.1267382

net.4.weight f4 [32, 64]
0	0xbbb4e660	-0.005520627
1	0xbd6cbd74	-0.057797864
2	0x3d75f200	0.060045242
3	0xbd906526	-0.070505425
4	0x3b996f00	0.0046824217
5	0xbc2592e0	-0.0101058185
6	0xbdd7f946	-0.10545592
7	0x3df25b20	0.11833787
8	0x3c331f40	0.010932744
9	0xbd1bf06c	-0.03807108
10	0xbdd20ac6	-0.10255961
11	0x3c810fe0	0.01575464
12	0xbd5a384c	-0.053276345
13	0x3dbf7b5e	0.09349702
14	0x3d9dfec6	0.0771461
15	0xbd7adc30	-0.061245143
16	0x3dbf1888	0.09330851
17	0xbd7853b8	-0.060626715
18	0xbd89c612	-0.06727232
19	0x3d2c2e20	0.042036176
20	0x3c4215e0	0.011846036
21	0xbd8ff4f0	-0.0702914
22	0xbdaaf8c6	-0.08348231
23	0x3c9b6da8	0.018973187
24	0xbdd6d4ce	-0.10489808
25	0x3da7ab5e	0.081869826
26	0xbdb02110	-0.08600056
27	0x3da04bb4	0.07826939
28	0x3d0ab1a0	0.033860803
29	0x3ca583f8	0.02020453
30	0x3d982052	0.074280396
31	0x3db671bc	0.08908412
32	0x3d8ba188	0.06817919
33	0xbcb6b1f0	-0.022301644
34	0x3cc1e2a0	0.023667634
35	0x3da0af2e	0.07845913
36	0x3de03c14	0.10948959
37	0x3d2bf2c8	0.04197958
38	0x3d8533f6	0.065040514
39	0xbd1163ac	-0.035495445
40	0x3ddfd426	0.10929136
41	0xbdfae2d6	-0.12250297
42	0xbda49edc	-0.080381125
43	0x3d5a5f94	0.053313807
44	0xbd1bc564	-0.038030043
45	0xbdec4ace	-0.11537705
46	0x3d27f71c	0.041007146
47	0x3c2eefb0	0.010677263
48	0x3cce05c8	0.025149241
49	0xbdfc2e60	-0.12313533
50	0x3d8fa33a	0.07013555
51	0xbd964242	-0.073368564
52	0x3dcf6922	0.10127474
53	0x3de579f6	0.11204903
54	0x3da9826c	0.08276829
55	0x3db339e4	0.08751276
56	0x3d7f790c	0.0623713
57	0xbcaa47a8	-0.020786121
58	0xbc4e8fd0	-0.01260753
59	0xbd123db0	-0.03570336
60	0x3d19af20	0.037520528
61	0xbd4cf6b4	-0.050039962
62	0x3c85c9c8	0.016331568
63	0xbbeaafe0	-0.007162079
64	0x3ccdce10	0.025122672
65	0xbd2920cc	-0.041291043
66	0x3c936c90	0.017996103
67	0x3d4938c4	0.0491264
68	0xbd30ff4c	-0.04321222
69	0x3d25aadc	0.040446147
70	0xbd68f7bc	-0.056876883
71	0x3d019248	0.031633645
72	0x3ce32c40	0.027731061
73	0x3d80b6f4	0.062848955
74	0x3dfd7bc2	0.123771206
75	0x3d2f9104	0.042862907
76	0x3c646a80	0.013941407
77	0x3dbcdd1e	0.09221862
78	0x3d8a1cd2	0.06743778
79	0xbce599a0	-0.028027356
80	0x3de31344	0.11087659
81	0xbd45c870	-0.048286855
82	0x3d788cf8	0.060681313
83	0x3dcea60c	0.10090265
84	0xbd8a41c2	-0.067508236
85	0xbce9ad58	-0.02852504
86	0x3dba4e0a	0.09096916
87	0x3d9413ee	0.07230364
88	0x3df65c98	0.120293796
89	0x3db85316	0.090002224
90	0xbd4532b0	-0.048144042
91	0x3d935f8a	0.07195957
92	0xbcab29c0	-0.020893931
93	0x3dd6adf0	0.10482395
94	0xbcfb5548	-0.030680314
95	0xbd1f7c0c	-0.03893666
96	0xbddfaa5c	-0.10921165
97	0x3ce7ddf0	0.02830407
98	0xbcabac00	-0.02095604
99	0xbd3e97ac	-0.046531364
100	0xbd8878be	-0.06663655
101	0xbd46ad94	-0.04850538
102	0xbd93be7a	-0.07214065
103	0xbd850c6c	-0.0649651
104	0xbc0b9570	-0.008519515
105	0xbcb4d2a8	-0.022073105
106	0x3dd0b974	0.101916224
107	0xbcbf30d8	-0.02333872
108	0x3dec87bc	0.11549327
109	0xbdd5b068	-0.104340374
110	0x3ce653f0	0.028116196
111	0xbcdb3b30	-0.026761621
112	0x3c9f3a18	0.019436881
113	0x3dd07484	0.101784736
114	0x3d82a8da	0.06379862
115	0x3da0f90a	0.078600004
116	0xbdd253a4	-0.102698594
117	0x3d1b3f70	0.037902296
118	0x3d1012f0	0.03517431
119	0x3de6f03a	0.11276288
120	0x3de450e8	0.11148244
121	0x3dbfb718	0.09361094
122	0x3c01ac30	0.007914588
123	0xbdedf61e	-0.11619209
124	0x3ca5a170	0.020218581
125	0x3cd67de0	0.026183069
126	0xbd887674	-0.06663218
127	0x3d3f7994	0.046746805
128	0xbde71a1c	-0.11284277
129	0x3d453280	0.048143864
130	0xbdfe5d7a	-0.12420173
131	0xbbd84f40	-0.006601244
132	0x3dab918e	0.08377372
133	0x3d2b5668	0.04183045
134	0x3cc42360	0.02394265
135	0x3db9f7e4	0.090804845
136	0xbd47bcb0	-0.04876393
137	0xbc1475a0	-0.009061247
138	0xbdb15716	-0.086591884
139	0x3c5bf440	0.013424933
140	0xbd5094c0	-0.05092311
141	0xbda5e9ba	-0.081012204
142	0x3dc222d4	0.09479299
143	0x3d7e04fc	0.062016472
144	0x3de325da	0.11091204
145	0x3cbac208	0.0227976
146	0x3de063ae	0.109565124
147	0xbd872682	-0.06599142
148	0x3d039608	0.032125503
149	0xbdaf94aa	-0.08573277
150	0xbd1812a0	-0.037127137
151	0x3d6aa7f0	0.057289064
152	0xbcf17880	-0.029476404
153	0x3d24fc88	0.040279895
154	0xbd6ddc58	-0.058071464
155	0xbde63928	-0.112413704
156	0x3ccb0638	0.024783239
157	0x3c882480	0.016618967
158	0xbd6d3ee8	-0.05792132
159	0x3dc046be	0.09388493
160	0xbdaade90	-0.08343232
161	0x3d43ed40	0.04783368
162	0x3da6cdc0	0.081447124
163	0x3d1425a0	0.036168694
164	0xbdfd41b6	-0.12366049
165	0x3d79cf28	0.060988575
166	0x3d31fb54	0.043452576
167	0x3d487d98	0.0489479
168	0xbd5af740	-0.053458452
169	0xbcfaf2c8	-0.030633345
170	0x3c54f070	0.012996778
171	0x3dbce456	0.09223239
172	0x3d8de198	0.06927794
173	0xbdab567e	-0.083661065
174	0xbcc97a78	-0.02459453
175	0xbca2df40	-0.019881845
176	0xbd3dd6d0	-0.04634744
177	0x3da5b6cc	0.08091506
178	0x3d22d79c	0.039756402
179	0x3cb8b590	0.022547513
180	0x3da0b5fa	0.07847209
181	0x3dc50a02	0.096210495
182	0x3d1cc31c	0.03827201
183	0xbdfc4516	-0.123178646
184	0x3da1ca3a	0.078999
185	0x3bafe060	0.0053673238
186	0xbd1139a4	-0.03545536
187	0x3d9235ac	0.07139143
188	0x3cfdb260	0.030968845
189	0x3d94bace	0.07262193
190	0xbdf49880	-0.119431496
191	0x3dc9eaf6	0.09859268
192	0x3cf50ba0	0.02991277
193	0x3c2f3d10	0.010695711
194	0xbd8d6afa	-0.0690517
195	0x3dbf69e8	0.09346372
196	0x3d07b608	0.033132583
197	0x3b260ec0	0.0025338382
198	0xbd55f36c	-0.0522341
199	0xbd6c7500	-0.057728767
200	0xbd1ec8b0	-0.03876561
201	0x3ccf4a30	0.02530393
202	0xbc1af2b0	-0.009457275
203	0xbd7f4050	-0.062317193
204	0xbd85a74a	-0.065260485
205	0xbdd9b19a	-0.10629578
206	0x3cad6470	0.021166056
207	0x3dc7b336	0.09750979
208	0x3d9c1c32	0.07622565
209	0x3dfb0fbc	0.122588605
210	0x3c3521b0	0.011055395
211	0x3c97f5f0	0.01854989
212	0x3d727f88	0.059203655
213	0x3db8a172	0.09015168
214	0xbc319320	-0.0108383
215	0xbdcbcc0e	-0.0995103
216	0x3dfdb814	0.12388626
217	0xbcbe47a8	-0.023227528
218	0x3d772ecc	0.060347363
219	0x3d31136c	0.043231413
220	0xbcda7450	-0.02666679
221	0xbd83d4a4	-0.06437042
222	0x3d2a8924	0.041634694
223	0xbdd16bea	-0.10225661
224	0x3d16b81c	0.036796674
225	0xbd03383c	-0.03203605
226	0x3ca53dd8	0.020171091
227	0xbdc6c13e	-0.09704827
228	0xbd2e4dfc	-0.04255484
229	0xbc451a00	-0.012030125
230	0x3b940a40	0.0045178235
231	0x3d8c683a	0.06855817
232	0xbd1ade00	-0.037809372
233	0x3dd771c8	0.10519749
234	0xbd2c50a4	-0.042069092
235	0x3dc97668	0.09837037
236	0x3dfd55ca	0.123698786
237	0x3dd88610	0.105724454
238	0xbdcd5a7a	-0.10027023
239	0xbd8cf0c0	-0.06881857
240	0xbd152cc4	-0.036419645
241	0x3df238b2	0.1182722
242	0xbd34ac4c	-0.044109628
243	0xbdf3db70	-0.11907089
244	0xbdf1309c	-0.1177685
245	0xbcaf3528	-0.021387652
246	0xbc037820	-0.0080242455
247	0xbd0a1844	-0.033714548
248	0x3d7d20b8	0.06179878
249	0xbd303d88	-0.04302743
250	0xbcc6bc58	-0.024259731
251	0x3de662ba	0.11249299
252	0xbd97e0a0	-0.07415891
253	0xbd58615c	-0.052827224
254	0xbd989f40	-0.074522495
255	0xbde368ea	-0.11103995

net.4.bias f4 [32]
0	0x3ddc482e	0.10755955
1	0x3dcd09b4	0.10011616
2	0x3ce02ea8	0.027365997
3	0x3bb6b1e0	0.0055754036
4	0xbd5d20f4	-0.053986505
5	0x3cf636f8	0.030055508
6	0xbcc6d870	-0.024273127
7	0xbd20e8a0	-0.03928435
8	0x3d3f0c78	0.04664275
9	0x3d0959a4	0.033532754
10	0x3d214c24	0.039379254
11	0xbd2b3e8c	-0.041807696
12	0x3d887820	0.06663537
13	0xbcba4788	-0.022739187
14	0x3db12d00	0.08651161
15	0xbd8d17ee	-0.0688933
16	0xbddac408	-0.10681921
17	0x3d20d664	0.03926696
18	0xbdcc64a6	-0.09980135
19	0x3db3525e	0.08755945
20	0x3d874010	0.06604016
21	0x3d8288da	0.063737586
22	0xbae5f500	-0.0017544329
23	0xbd09656c	-0.03354399
24	0xbddf2444	-0.10895589
25	0xbcc3e788	-0.023914114
26	0xbd75e4dc	-0.06003271
27	0xbd0cabb4	-0.034343436
28	0xbd25c08c	-0.04046683
29	0xbc258380	-0.010102153
30	0xbca85268	-0.020547107
31	0x3da5aab6	0.08089201
