maml_model/maml_PickupDist_7_2_350_50_encoder.pth (torch, 24854 bytes, 6 tensors)

net.0.weight f4 [32, 38]
-0.051546894 -0.1500304 0.022220287 -0.1272671 -0.024104089 0.14739883 0.11051962 -0.15174112
-0.073383205 0.07913211 0.12992431 0.0065547363 -0.07114355 -0.10062816 0.0082065165 -0.15516733
0.0316426 -0.11394455 -0.080717854 0.08697586 -0.089813426 0.032117706 0.030057771 -0.037765168
0.1472611 -0.15155658 0.042991746 -0.023870984 -0.1200143 -0.013603218 0.093701415 -0.1465473
0.15310763 -0.12746552 -0.039555933 -0.066611856 -0.060497917 0.0021370368 0.14629497 -0.11000081
0.14163615 -0.0241587 0.08165686 -0.0267305 -0.04662787 -0.07800739 0.06725545 0.110277444
0.019217532 -0.10404748 0.092325784 0.14983676 0.085792914 0.11929834 0.11150624 -0.07681921
-0.13515878 0.04420157 0.09791172 0.046192855 0.09802971 0.08397167 -0.09266484 -0.013645433
0.15030405 -0.12835534 -0.09247747 0.011824326 -0.02443282 0.005204845 0.08630063 0.10710498
0.058840763 -0.12877513 0.00018891584 -0.066269144 0.018493196 -0.013850458 -0.11146488 -0.1186303
0.13441406 -0.08381049 -0.015050979 0.0605463 0.146767 -0.085424036 0.02472098 -0.13073659
0.07904602 -0.018423637 0.0998841 0.11221621 0.008147941 -0.017838093 -0.04755406 -0.0010023814
-0.08934652 0.10372091 -0.04538819 0.04552168 0.08938854 -0.06083187 -0.014850982 0.15902856
0.07820592 0.16139181 -0.13451129 -0.08022921 0.12934007 -0.011975571 -0.021208294 0.022550257
-0.16127177 -0.001170528 0.11872581 -0.054721665 0.05110254 -0.12527066 0.13538966 0.013517742
-0.055149175 -0.0027711783 -0.0406294 -0.09340687 -0.12208236 -0.03419988 0.060585946 -0.105452195
-0.021671813 0.05559046 -0.09302784 0.028894668 -0.113309614 -0.07485003 -0.13877276 -0.03610567
-0.10509323 0.07223785 0.056396496 0.06785084 -0.14187329 0.098458864 -0.100898065 0.011894389
0.09964749 -0.10696329 0.049300637 0.036889065 -0.007488873 -0.0072426572 -0.16150296 -0.004542567
0.08437919 -0.10478384 -0.0028783705 0.065965645 0.028391022 -0.090833 0.06495093 0.12804917
0.033713445 -0.121506214 0.022765936 0.09374038 0.07678925 0.114921615 0.06828619 0.011836393
-0.15798505 0.03962754 0.12736696 -0.117475644 0.11590553 -0.05843839 0.14960194 0.08063412
-0.020355282 0.08996522 -0.07278431 0.047681384 -0.013466631 0.010727226 -0.024867913 0.020668447
0.12593718 -0.09236287 0.013120108 0.023987131 -0.011551695 -0.09063977 -0.0007577326 -0.05574383
-0.026787065 0.13170281 -0.0710886 0.02956068 0.09211528 0.0018959076 -0.149233 0.10370165
-0.044788565 -0.14081016 0.033365414 -0.10695074 -0.06441011 -0.025530212 0.026168568 0.15031743
-0.075224094 -0.1306346 -0.12208945 0.0054088836 0.036472186 0.08646803 0.13935459 -0.15467247
-0.058069047 0.021719154 0.15435918 -0.022001512 -0.11602419 0.14065129 -0.104083374 0.10690114
0.09777464 -0.05554801 -0.11915852 -0.08520867 0.09067874 0.15968116 0.084512316 -0.15428117
0.016875394 -0.10549578 0.028770806 0.016985854 -0.020106107 -0.0044069085 0.06383633 -0.037593983
-0.08942941 0.054028675 0.103894085 0.07028762 0.09370147 -0.1311375 -0.052120876 0.0090323975
-0.09223023 0.15848106 -0.11848576 -0.123115994 0.06710421 0.034263328 -0.09672281 -0.12134132
00000000: d622 53bd 92a1 19be 5207 b63c 4f52 02be
00000010: f075 c5bc b8ef 163e 1c58 e23d 0662 1bbe
00000020: ef49 96bd 0410 a23d e10a 053e 1dc9 d63b
00000030: b6b3 91bd 2316 cebd a074 063c 2fe4 1ebe
00000040: ac9b 013d c35b e9bd 674f a5bd 6620 b23d
00000050: 1af0 b7bd db8d 033d b73b f63c a6af 1abd
00000060: 9dcb 163e a631 1bbe 1d18 303d 158d c3bc
00000070: 0fca f5bd 08e0 5ebc 87e6 bf3d 7f10 16be
00000080: 3fc8 1c3e 5286 02be 6705 22bd cc6b 88bd
00000090: aacc 77bd 870d 0c3b 59ce 153e 1b48 e1bd
000000a0: 1109 113e 77e8 c5bc b63b a73d ecf9 dabc
000000b0: defc 3ebd 57c2 9fbd 3abd 893d 24d9 e13d
000000c0: 166e 9d3c d816 d5bd 4d15 bd3d cf6e 193e
000000d0: 32b4 af3d b052 f43d 625d e43d 6453 9dbd
000000e0: 1067 0abe b50c 353d f185 c83d b834 3d3d
000000f0: cdc3 c83d 57f9 ab3d 10c7 bdbd 1891 5fbc
00000100: 4ee9 193e 956f 03be d464 bdbd d1ba 413c
00000110: 5627 c8bc 688d aa3b 62be b03d db59 db3d
00000120: 0303 713d a1dd 03be b617 4639 1eb8 87bd
00000130: 0b7f 973c 08ed 62bc b347 e4bd 71f4 f2bd
00000140: d7a3 093e d6a4 abbd 6298 76bc 66ff 773d
00000150: 174a 163e ccf2 aebd a783 ca3c d0df 05be
00000160: e1e2 a13d 2bed 96bc 0990 cc3d 9dd1 e53d
00000170: f17e 053c 3121 92bc 0cc8 42bd 5762 83ba
00000180: 4ffb b6bd a16b d43d f7e8 39bd f174 3a3d
00000190: 5711 b73d d72a 79bd 8951 73bc 62d8 223e
000001a0: 6d2a a03d e543 253e 54bd 09be 364f a4bd
000001b0: b971 043e 2f35 44bc 04bd adbc 51bb b83c
000001c0: 6d24 25be 676c 99ba 8426 f33d d323 60bd
000001d0: e650 513d f446 00be 96a3 0a3e 8579 5d3c
000001e0: 1ae4 61bd a89c 35bb 046b 26bd 1a4c bfbd
000001f0: 5106 fabd 2c15 0cbd f828 783d 52f7 d7bd
00000200: 1689 b1bc d2b2 633d 6185 bebd 83b4 ec3c
00000210: df0e e8bd f94a 99bd 721a 0ebe 8ae3 13bd
00000220: 1f3b d7bd 70f1 933d 0300 673d 62f5 8a3d
00000230: 3b47 11be cda4 c93d a5a3 cebd afe0 423c
00000240: fc13 cc3d 920f dbbd 77ef 493d fd18 173d
00000250: 3865 f5bb d053 edbb 0861 25be d0d9 94bb
00000260: ffce ac3d e998 d6bd 0ba3 3cbb ff18 873d
00000270: 4a94 e83c a706 babd fe04 853d 521f 033e
00000280: 1c17 0a3d 40d8 f8bd a17f ba3c f5fa bf3d
00000290: af43 9d3d 065c eb3d a1d9 8b3d 6eed 413c
000002a0: d5c6 21be 7d50 223d 7c6c 023e 1297 f0bd
000002b0: e15f ed3d 185d 6fbd 4031 193e 8023 a53d
000002c0: 1fc0 a6bc af3f b83d f10f 95bd 8e4d 433d
000002d0: 25a3 5cbc 3fc1 2f3c cbb7 cbbc e050 a93c
000002e0: adf5 003e bf28 bdbd b9f5 563c a980 c43c
000002f0: 5243 3dbc 58a1 b9bd 93a2 46ba a453 64bd
00000300: 8c70 dbbc 1add 063e e696 91bd 3d29 f23c
00000310: f0a6 bc3d 1a80 f83a 89d0 18be 8861 d43d
00000320: 3774 37bd 8a30 10be 2caa 083d fd08 dbbd
00000330: 73e9 83bd bc24 d1bc 775f d63c d0ec 193e
00000340: 170f 9abd 14c5 05be 090a fabd 013d b13b
00000350: dc63 153d 2716 b13d f8b2 0e3e 7662 1ebe
00000360: cfd9 6dbd 5eec b13c 5510 1e3e 843c b4bc
00000370: 179e edbd e406 103e aa29 d5bd fcee da3d
00000380: 123e c83d 4f86 63bd 6209 f4bd e281 aebd
00000390: c6b5 b93d 7583 233e cb14 ad3d e2fb 1dbe
000003a0: 443e 8a3c 2c0e d8bd c1b0 eb3c eb25 8b3c
000003b0: 90b5 a4bc d467 90bb 9fbc 823d 26fc 19bd
000003c0: c426 b7bd 2c4d 5d3d 6cc6 d43d f5f2 8f3d
000003d0: 8ee6 bf3d e948 06be b37c 55bd 9ffc 133c
000003e0: 34e3 bcbd dc48 223e aaa8 f2bd 3d24 fcbd
000003f0: ef6d 893d b457 0c3d 9c16 c6bd cc81 f8bd

net.0.bias f4 [32]
0.12925084 -0.08519722 0.088262126 0.08913214 0.011912083 -0.07922064 -0.10782763 0.08289171
0.08662444 0.1368761 0.014014834 -0.05136821 -0.07923199 0.052344967 -0.084718175 -0.005198986
-0.15334658 -0.07716614 0.0066425707 -0.0438349 0.11317749 0.018995393 0.12792192 0.016948976
0.065092675 -0.037652075 0.117542595 -0.05065778 -0.12072057 -0.10137485 0.011886344 0.080353595
00000000: 555a 043e e17b aebd c6c2 b43d e98a b63d
00000010: e62a 433c 6e3e a2bd bcd4 dcbd 21c3 a93d
00000020: 2868 b13d 4029 0c3e 799e 653c 7967 52bd
00000030: 6244 a2bd ad67 563d b980 adbd 415c aabb
00000040: e306 1dbe 4809 9ebd eca9 d93b 398c 33bd
00000050: 9ac9 e73d 3a9c 9b3c f7fd 023e 94d8 8a3c
00000060: 4f4f 853d 1039 1abd 2cba f03d 887e 4fbd
00000070: 593c f7bd 9e9d cfbd f1be 423c 6d90 a43d

net.2.weight f4 [64, 32]
-0.15165964 0.007362296 0.08073384 0.043885868 0.037534762 0.091456234 -0.15940267 0.048053306
-0.02507118 0.0095219 0.06171582 -0.14929622 -0.035031006 0.016281517 -0.032518778 0.103315644
0.0975214 -0.049687088 0.11080137 0.064265996 0.1527905 0.016118977 -0.048438992 0.13524589
-0.049568232 -0.14071397 -0.15109532 -0.14336856 0.091971986 0.16049828 0.12767594 0.15318158
0.034934238 -0.09798906 -0.032888092 0.12868176 -0.027149798 -0.08808847 -0.011772921 0.0917292
-0.010226807 -0.01941857 -0.0110943355 0.14193285 0.15792274 -0.06628976 0.12259186 0.0041884906
0.085720934 0.16275427 -0.018756147 -0.042516686 0.12734888 0.043999832 0.03676126 -0.09390874
0.07348834 -0.061714005 0.013357263 -0.05802936 -0.14549483 -0.15284534 -0.066199504 0.09625048
-0.16968176 -0.15222387 -0.0122525105 -0.10071554 -0.057447165 -0.07876609 0.09895203 -0.006665777
-0.0948443 0.15392372 0.10139691 -0.14628975 -0.056264777 -0.115234055 -0.107688464 0.10657754
0.021886563 -0.07264869 -0.14390698 0.014711083 0.08009235 -0.11251736 0.039299365 -0.17009929
-0.009745574 -0.1651313 -0.14568618 -0.07115292 0.09163888 0.14295532 0.07269311 0.037360966
-0.1446445 0.036197755 -0.11864521 0.11940651 -0.1478169 0.01862739 -0.07532196 -0.05639339
0.1283507 0.08830521 0.07745194 -0.045258507 0.16986944 0.15419884 0.1361605 -0.08452131
0.09800411 -0.0011182191 -0.033567455 0.099851385 -0.13259736 -0.07834496 -0.1626049 -0.07230825
-0.06972654 0.0060672704 -0.07728725 -0.04375277 0.048765756 0.115686715 0.07750032 -0.04231925
0.12907855 0.123911984 -0.13524738 -0.0477183 0.060004108 -0.14031139 -0.029122481 0.1289784
0.1385576 -0.14628004 -0.0025291902 -0.13237306 0.13478045 -0.16491836 0.12084473 -0.112625584
0.06421751 0.01671329 0.030211661 0.17599803 0.019799072 -0.034248423 0.04865137 0.07425071
0.12112494 -0.004495362 0.006139679 -0.03063644 -0.17309183 -0.046276797 -0.10921631 0.110259525
-0.13501996 0.009253087 -0.017414952 0.05943641 0.1357426 0.006093423 0.16080141 0.15349011
0.054239728 0.019462846 0.05360554 0.07395244 0.036567576 -0.14650787 0.09450531 -0.15521765
-0.050602224 0.14148626 0.061264765 0.11740401 -0.080218494 0.10627835 -0.028609512 0.062122725
0.021832762 0.116361186 0.016993925 0.1408989 -0.15496363 0.0029052666 -0.13921452 0.089678586
-0.033028692 -0.1377147 0.0658263 -0.113091625 -0.08058342 0.08237559 0.087898515 -0.11339751
0.032014135 0.13889496 -0.09556277 0.039564554 0.046249043 -0.040326126 0.09932638 -0.059196617
0.13155761 -0.1477914 0.13881804 -0.079736166 0.03765431 0.04440065 0.087957434 0.16408437
-0.058246184 -0.03179434 -0.06887948 0.099180825 0.057403184 0.03738775 0.12112096 0.17543378
-0.13423209 0.14979443 -0.05150311 -0.06534881 -0.1362537 0.15124409 0.15000983 0.05536397
-0.015201104 0.17504504 0.09677452 0.15446132 -0.08333776 0.11627325 -0.006815609 -0.13130113
-0.1174467 0.08320441 0.026132183 -0.06093387 0.106718704 0.15973106 -0.17548256 -0.13246596
-0.044679977 -0.053822853 0.16215341 -0.120514296 0.0891099 0.04346853 0.15654977 -0.16077825
00000000: aa4c 1bbe 6a3f f13b c957 a53d abc1 333d
00000010: 0dbe 193d 684d bb3d 743a 23be 8bd3 443d
00000020: 1362 cdbc be01 1c3c bac9 7c3d 1ce1 18be
00000030: ac7c 0fbd d160 853c 6932 05bd 2797 d33d
00000040: 4db9 c73d b084 4bbd d4eb e23d e49d 833d
00000050: 1d75 1c3e f20b 843c f767 46bd e67d 0a3e
00000060: 0f08 4bbd 5317 10be bbb8 1abe 35cf 12be
00000070: cf5b bc3d a959 243e 7bbd 023e a2db 1c3e
00000080: 3417 0f3d 7dae c8bd aab5 06bd 27c5 033e
00000090: 4169 debc ba67 b4bd 36e3 40bc 85dc bb3d
000000a0: 568e 27bc b113 9fbc 04c5 35bc d856 113e
000000b0: 80b6 213e edc2 87bd 7111 fb3d 9b3f 893b
000000c0: 758e af3d 0ea9 263e 7ea6 99bc fa25 2ebd
000000d0: bf67 023e 2b39 343d fa92 163d 3a53 c0bd
000000e0: 0e81 963d d3c7 7cbd 6cd8 5a3c 32b0 6dbd
000000f0: 99fc 14be 7d83 1cbe 9b93 87bd f91e c53d
00000100: 0ec1 2dbe 93e0 1bbe c1be 48bc f343 cebd
00000110: b84d 6bbd 1e50 a1bd 5da7 ca3d 976c dabb
00000120: ba3d c2bd 2e9e 1d3e 2fa9 cf3d fbcc 15be
00000130: e575 66bd d5ff ebbd c58b dcbd 5345 da3d
00000140: 734b b33c d6c8 94bd 5a5c 13be c106 713c
00000150: 7507 a43d 806f e6bd 5ff8 203d 822e 2ebe
00000160: e6ab 1fbc 2e18 29be c22e 15be 9fb8 91bd
00000170: 2aad bb3d e162 123e 20e0 943d d007 193d
00000180: b01d 14be 1944 143d 43fc f2bd 668b f43d
00000190: 505d 17be 7898 983c 6642 9abd c1fc 66bd
000001a0: 5e6e 033e 5dd9 b43d 1f9f 9e3d fc60 39bd
000001b0: 41f2 2d3e 4de6 1d3e a86d 0b3e 8219 adbd
000001c0: 61b6 c83d 3591 92ba 077e 09bd e27e cc3d
000001d0: 9ac7 07be 5373 a0bd e681 26be 5916 94bd
000001e0: cacc 8ebd f4cf c63b c748 9ebd 1b36 33bd
000001f0: 9abe 473d 28ed ec3d 7db8 9e3d f356 2dbd
00000200: 2b2d 043e 91c5 fd3d 4a7e 0abe 4474 43bd
00000210: dec6 753d caad 0fbe 4592 eebc ea12 043e
00000220: 0be2 0d3e 6fca 15be c5c0 25bb ce8c 07be
00000230: e303 0a3e 5ce0 28be 717d f73d 3ea8 e6bd
00000240: 7884 833d 4fea 883c 727e f73c d438 343e
00000250: aa31 a23c 1348 0cbd a946 473d c210 983d
00000260: 5a10 f83d d44d 93bb 5c2f c93b 45f9 fabc
00000270: fc3e 31be bd8c 3dbd cdac dfbd bfcf e13d
00000280: ac42 0abe 439a 173c cda9 8ebc 9873 733d
00000290: 1c00 0b3e 56ab c73b 20a9 243e 832c 1d3e
000002a0: 7a2a 5e3d 8c70 9f3c 7c91 5b3d 6074 973d
000002b0: e2c7 153d 2906 16be 008c c13d 60f1 1ebe
000002c0: 4744 4fbd c6e1 103e c3f0 7a3d 8371 f03d
000002d0: 9849 a4bd 77a8 d93d 7f5e eabc 6674 7e3d
000002e0: 9fda b23c c64e ee3d d836 8b3c cd47 103e
000002f0: c9ae 1ebe 4966 3e3b 408e 0ebe 68a9 b73d
00000300: 1849 07bd 1505 0dbe f0cf 863d 959c e7bd
00000310: ec08 a5bd 89b4 a83d 2304 b43d f43c e8bd
00000320: 4121 033d 7b3a 0e3e 6ab6 c3bd 710e 223d
00000330: a36f 3d3d 022d 25bd a16b cb3d 2778 72bd
00000340: 0ab7 063e a156 17be 5126 0e3e b74c a3bd
00000350: 683b 1a3d 75dd 353d 0723 b43d bc05 283e
00000360: 8d93 6ebd c83a 02bd af10 8dbd 511f cb3d
00000370: 9a1f 6b3d e623 193d 440e f83d eaa4 333e
00000380: 2374 09be b663 193e edf4 52bd 99d5 85bd
00000390: 1786 0bbe bbdf 1a3e 2d9c 193e 55c5 623d
000003a0: 0d0e 79bc 023f 333e b831 c63d 1c2b 1e3e
000003b0: fdac aabd ab20 ee3d 7955 dfbb ce73 06be
000003c0: e587 f0bd 1367 aa3d 2913 d63c cb95 79bd
000003d0: 568f da3d 8a90 233e b3b1 33be 28a5 07be
000003e0: 5a02 37bd 5a75 5cbd 8b0b 263e 33d0 f6bd
000003f0: 407f b63d 0f0c 323d 954e 203e 0ea3 24be

net.2.bias f4 [64]
0.027684452 0.13754869 0.11628187 0.105389476 -0.08131025 0.12266749 -0.049311075 0.06013664
0.05286846 0.07277684 -0.05814326 0.07798062 0.005346939 -0.10727951 -0.04720095 -0.14480735
0.1338839 0.018293248 0.06618121 -0.07017739 0.08002096 0.16071934 -0.0048698154 -0.009000944
-0.078973435 0.13329065 -0.011291773 0.0129406 -0.10587773 -0.070315756 0.12045131 0.03293443
-0.028261337 0.114286765 -0.119077235 0.07370527 0.093626186 -0.030668218 0.034636956 -0.096059576
-0.08926026 -0.08059619 0.0012772181 -0.10462306 -0.03956021 -0.08804382 0.03295713 0.11378161
0.07903158 0.073094055 -0.015406885 -0.12912035 -0.013454875 0.09659868 -0.17378801 0.11175171
0.02625913 -0.07170515 0.057461686 -0.15344492 -0.077112086 -0.08324915 0.012310714 -0.09642657
00000000: 81ca e23c 90d9 0c3e 3025 ee3d 70d6 d73d
00000010: fd85 a6bd 1839 fb3d 69fa 49bd d651 763d
00000020: 998c 583d 060c 953d a127 6ebd 4eb4 9f3d
00000030: 6035 af3b 5cb5 dbbd c955 41bd 6148 14be
00000040: dc18 093e b9db 953c 048a 873d 2ab9 8fbd
00000050: 07e2 a33d 9c93 243e f992 9fbb b278 13bc
00000060: d3bc a1bd 587d 083e 2101 39bc cf04 543c
00000070: 6cd6 d8bd b501 90bd 2daf f63d 41e6 063d
00000080: 5284 e7bc 2e0f ea3d c4de f3bd caf2 963d
00000090: 16bf bf3d ea3b fbbc 7bdf 0d3d e2ba c4bd
000000a0: 15ce b6bd 9e0f a5bd 5468 a73a 9d44 d6bd
000000b0: e309 22bd 5150 b4bd 0efe 063d 5506 e93d
000000c0: 4fdb a13d 56b2 953d 296d 7cbc 2038 04be
000000d0: d671 5cbc 87d5 c53d 7cf5 31be 15de e43d
000000e0: 631d d73c 26da 92bd f25c 6b3d aa20 1dbe
000000f0: f1ec 9dbd 887e aabd e1b2 493c 4b7b c5bd

net.4.weight f4 [32, 64]
-0.12317012 0.040786117 -0.09187673 -0.08311877 0.026403964 0.10518229 -0.05993648 -0.09964289
0.06045544 0.04856661 -0.020295188 -0.08822313 0.11935352 -0.10686773 -0.07531427 0.094780445
0.02179727 0.0036094189 0.12220436 -0.07099207 0.018467054 -0.016069576 -0.057715997 0.01972942
0.0072134733 -0.06869145 -0.01056309 0.10882884 -0.05481185 0.0015916675 -0.029033974 0.029351577
-0.06637211 0.008419499 0.0733047 -0.08795048 -0.052855566 -0.10724674 -0.0779794 -0.053331837
-0.055520847 -0.07166223 0.0073517263 0.1001987 -0.121298134 0.042769834 0.057850838 0.10260004
0.09786172 0.018379897 0.070875615 0.10165125 0.07178733 0.04181403 -0.01012446 -0.034976482
-0.0011245608 0.04288374 -0.086954206 -0.025042728 0.003861487 0.032276064 0.0008610338 -0.124815986
0.03425668 -0.08326842 -0.093303144 -0.054388344 0.037221923 0.020747125 -0.0057477504 -0.064077735
-0.06212394 -0.091987446 0.046183407 0.02795747 0.069318384 -0.011723772 0.053706333 -0.05188988
-0.07087059 0.026167527 0.04031831 -0.104389265 -0.013599679 0.05305499 -0.07223959 0.015732735
0.060366556 0.11612642 0.095082924 -0.061893642 0.0569205 -0.01319477 0.050631717 0.022370353
0.07418102 0.080893695 -0.038655505 0.012940615 0.11564919 0.070168495 0.018530563 -0.0147832185
0.03494671 0.029251024 0.063969135 0.08537385 0.01836726 0.0024068356 -0.06569727 -0.076305896
0.08020447 -0.10744229 -0.006215945 0.09401597 -0.04251024 -0.11902845 -0.054344922 0.10293436
-0.052140594 -0.055776775 0.022625327 0.11709012 0.0042702854 0.04626152 -0.03190452 -0.03556654
0.06533815 0.03052798 -0.051117092 0.06271404 0.039383635 0.014726236 -0.10440545 -0.087519914
0.10641496 0.016155988 -0.006704882 0.023900032 -0.021256238 -0.09254244 -0.03184244 0.03170526
0.10513216 0.12455432 0.005118951 -0.046931237 -0.11140172 -0.08721423 0.017563418 0.042505637
-0.01130648 -0.0008338541 0.09681395 -0.039365187 0.01881519 0.050515935 0.09546135 0.11847074
0.030758083 -0.10292968 -0.061506778 0.032536656 -0.08981092 -0.110204935 0.031975254 0.12028079
-0.000118628144 -0.093125105 -0.0030781627 0.11089985 0.10488866 0.088397115 0.009448022 -0.055652544
-0.10936433 0.068598285 -0.010318175 -0.06953624 0.12498818 -0.056595996 -0.09556325 0.016529739
0.029157624 0.1242314 0.11308423 0.060214847 -0.01680787 0.10957469 -0.11244282 0.08338356
0.10685596 0.02217561 0.05287859 0.11691734 -0.010274515 0.08340217 -0.10861583 0.03153214
-0.050322086 -0.060793787 0.018665552 -0.097928435 0.052536845 0.10221039 0.11415996 -0.040304333
-0.10416792 0.0041583776 0.006013632 0.0071929544 0.051650032 0.02098982 -0.09876864 -0.032846063
-0.09501366 -0.06767948 0.11932269 0.0021171719 -0.050875634 0.010181561 0.11280136 0.11913107
0.101640105 0.065867364 0.08032334 -0.035358667 -0.030253917 -0.029063806 -0.004724711 0.062030718
-0.0057118386 0.03198205 0.10423717 -0.03155805 -0.010201767 -0.11672731 -0.11212133 -0.03809072
-0.03156209 -0.042562097 0.075494036 0.058640853 -0.11849986 0.10092485 -0.0706933 0.045530975
0.11680707 0.11317904 0.09691356 0.03745027 -0.012828544 -0.09678197 0.05713564 -0.11177343
00000000: 9e40 fcbd 580f 273d de29 bcbd 2c3a aabd
00000010: 204d d83c d069 d73d f47f 75bd 9211 ccbd
00000020: 20a0 773d c8ed 463d 1842 a6bc 54ae b4bd
00000030: 9e6f f43d 78dd dabd 5e3e 9abd 401c c23d
00000040: 3090 b23c 008c 6c3b 4846 fa3d 4a64 91bd
00000050: 3848 973c 58a4 83bc 9c67 6cbd 989f a13c
00000060: 005f ec3b 1aae 8cbd d010 2dbc a8e1 de3d
00000070: 6482 60bd 809f d03a a8d8 edbc b872 f03c
00000080: 1aee 87bd f0f1 093c c620 963d 621f b4bd
00000090: 147f 58bd 2ea4 dbbd aab3 9fbd 7c72 5abd
000000a0: d469 63bd a6c3 92bd c0e6 f03b fa34 cd3d
000000b0: 286b f8bd 6c2f 2f3d 00f5 6c3d f81f d23d
000000c0: ba6b c83d 7091 963c 3c27 913d 882e d03d
000000d0: 3c05 933d 3045 2b3d 10e1 25bc 8043 0fbd
000000e0: 0066 93ba dca6 2f3d 0c15 b2bd 6826 cdbc
000000f0: 0011 7d3b e833 043d 00b7 613a 869f ffbd
00000100: bc50 0c3d a288 aabd b815 bfbd 50c6 5ebd
00000110: 0476 183d e0f5 a93c a057 bcbb 303b 83bd
00000120: ac75 7ebd ea63 bcbd d02a 3d3d 1007 e53c
00000130: ccf6 8d3d 1015 40bc 2cfb 5b3d 7c8a 54bd
00000140: 9a24 91bd 485d d63c d024 253d 0aca d5bd
00000150: 30d1 5ebc 3050 593d 5af2 93bd f0e1 803c
00000160: ec42 773d b0d3 ed3d d6ba c23d 3084 7dbd
00000170: 7825 693d e02e 58bc 3463 4f3d 0842 b73c
00000180: 38ec 973d 98ab a53d 3c55 1ebd e004 543c
00000190: 7cd9 ec3d 80b4 8f3d 68cd 973c 5035 72bc
000001a0: 4824 0f3d d89f ef3c 4002 833d 7cd8 ae3d
000001b0: f076 963c 00bc 1d3b 4a8c 86bd 4446 9cbd
000001c0: 3e42 a43d b40a dcbd 20af cbbb 728b c03d
000001d0: 381f 2ebd 30c5 f3bd c898 5ebd 40cf d23d
000001e0: 6091 55bd 3076 64bd c058 b93c f2cc ef3d
000001f0: c0ed 8b3b b87c 3d3d 50ae 02bd 38ae 11bd
00000200: 02d0 853d d015 fa3c 2860 51bd 3870 803d
00000210: bc50 213d 5046 713c 86d2 d5bd a43d b3bd
00000220: 16f0 d93d 9059 843c a0b4 dbbb 00ca c33c
00000230: 9021 aebc e486 bdbd 386d 02bd 60dd 013d
00000240: 884f d73d 5616 ff3d e0bc a73b f83a 40bd
00000250: 9626 e4bd 609d b2bd 28e1 8f3c 641a 2e3d
00000260: d03e 39bc 0097 5aba 6446 c63d 643d 21bd
00000270: 5022 9a3c cce9 4e3d 3e81 c33d caa0 f23d
00000280: 60f8 fb3c cccc d2bd 88ee 7bbd 2845 053d
00000290: caee b7bd 20b3 e1bd 7cf8 023d c655 f63d
000002a0: 00c8 f8b8 60b8 bebd 00bb 49bb 761f e33d
000002b0: decf d63d 8c09 b53d e0cb 1a3c ecf3 63bd
000002c0: 68fa dfbd 427d 8c3d 900d 29bc 0469 8ebd
000002d0: cef9 ff3d 34d1 67bd aab6 c3bd 6069 873c
000002e0: f8db ee3c 086d fe3d b498 e73d d8a3 763d
000002f0: a8b0 89bc b268 e03d 6c48 e6bd 00c5 aa3d
00000300: 4cd7 da3d a0a9 b53c 3897 583d 5c72 ef3d
00000310: 7056 28bc c2ce aa3d fa71 debd d827 013d
00000320: 881e 4ebd e802 79bd 80e8 983c b48e c8bd
00000330: e030 573d ae53 d13d b2cc e93d 2816 25bd
00000340: fe55 d5bd 0043 883b 000e c53b e0b2 eb3b
00000350: fc8e 533d d8f2 ab3c 3647 cabd 9889 06bd
00000360: 8696 c2bd 8a9b 8abd 745f f43d 40c0 0a3b
00000370: f862 50bd 90d0 263c 6604 e73d fefa f33d
00000380: b028 d03d 78e5 863d 9080 a43d 40d4 10bd
00000390: 10d7 f7bc 3817 eebc c0d1 9abb ec13 7e3d
000003a0: 602a bbbb 9cff 023d 4c7a d53d 0443 01bd
000003b0: 5025 27bc ba0e efbd de9f e5bd 0405 1cbd
000003c0: 4047 01bd 9855 2ebd 9e9c 9a3d 6431 703d
000003d0: 0eb0 f2bd b0b1 ce3d a6c7 90bd b07e 3a3d
000003e0: 8c38 ef3d 6aca e73d 9e7a c63d 7465 193d
000003f0: d02e 52bc a035 c6bd 1007 6a3d 78e9 e4bd

net.4.bias f4 [32]
0.09372836 0.061891392 -0.026617557 0.08548063 0.06995952 -0.055995062 0.013437897 -0.1168146
-0.008390605 0.044464767 -0.039230794 0.12215035 0.112240136 0.0524835 -0.08882666 -0.027470157
-0.018905953 -0.04522921 0.102155074 -0.06985289 -0.0237232 0.09067424 -0.029605731 0.11312148
0.1193002 0.0794221 0.095707044 0.030550227 -0.015394151 0.06448345 -0.124689415 -0.028850868
00000000: a8f4 bf3d d481 7d3d 100d dabc 7810 af3d
00000010: f046 8f3d 145b 65bd a02a 5c3c 7e3c efbd
00000020: c078 09bc b020 363d 78b0 20bd f629 fa3d
00000030: 28de e53d f0f8 563d c0ea b5bd 1809 e1bc
00000040: a8e0 9abc 4442 39bd ae36 d13d 080f 8fbd
00000050: 2857 c2bc 6ab3 b93d b887 f2bc 3cac e73d
00000060: aa53 f43d 0ea8 a23d 0e02 c43d 7844 fa3c
00000070: c037 7cbc e60f 843d 2a5d ffbd a858 ecbc
