maml_model/maml_ActionObjDoor_7_3_300_50.pth (torch, 60324 bytes, 6 tensors)

layer1.weight f4 [64, 151]
0	0xbd2945fe	-0.041326515
1	0x3bc37f2f	0.005966089
2	0x3d3292c5	0.043597
3	0x3d436980	0.047708035
4	0x3dccbb71	0.09996689
5	0xbdf1c30b	-0.118047796
6	0xbcdd1f4a	-0.026992459
7	0xbcecd6b7	-0.028910978
8	0xbddc6786	-0.10761933
9	0x3d96a924	0.0735648
10	0xbc831618	-0.016001746
11	0xbdcadead	-0.09905753
12	0xbd7976d9	-0.060904358
13	0xbe06743d	-0.13130279
14	0xbc11cb95	-0.008898635
15	0xbd9d6ebd	-0.07687137
16	0x3d1a19f5	0.03762241
17	0xbd9aeee5	-0.07565097
18	0xbde4dea1	-0.111752756
19	0x3dbe3ad8	0.09288567
20	0xbe1edff3	-0.15515117
21	0xbd5e93c0	-0.054340124
22	0x3c376658	0.011193834
23	0xbe26817b	-0.1626033
24	0xbcd670cb	-0.02617683
25	0x3e01d2b6	0.12678036
26	0x3e08b4ba	0.13350192
27	0x3dc38fc3	0.09548905
28	0xbd9c343f	-0.07627153
29	0xbe01db9e	-0.12681434
30	0xbd8f14cf	-0.06986391
31	0x3d998d2e	0.07497631
32	0xbd6e56f4	-0.058188394
33	0x3d2aebd1	0.0417288
34	0x3e162dfa	0.14665976
35	0x3e08f508	0.13374722
36	0xbdca274b	-0.09870776
37	0xbd285af5	-0.04110237
38	0x3d4e3407	0.050342586
39	0x3e1f83ca	0.15577617
40	0x3d8c3ef0	0.06847942
41	0x3e103238	0.14081657
42	0xbdaec3d9	-0.08533449
43	0xbcae2054	-0.02125565
44	0xbe1a22ff	-0.15052412
45	0xbdbe0a2b	-0.09279283
46	0x3cd75633	0.02628622
47	0xbd087b76	-0.033320867
48	0xbd56cbe4	-0.05244054
49	0x3e032e79	0.12810697
50	0xbd63eaf2	-0.055643983
51	0x3cc34602	0.023837093
52	0xbd5c5dc6	-0.053800367
53	0xbcf4d77e	-0.029887911
54	0xbe0be00c	-0.13659686
55	0xbde02956	-0.10945384
56	0x3c2903fe	0.010315893
57	0xbdcac1af	-0.099002235
58	0xbdbb68f5	-0.09150878
59	0x3d83fb54	0.064444214
60	0x3dfdedd2	0.12398876
61	0x3e1be4d6	0.15224013
62	0x3e0f85cc	0.14015883
63	0xbe0ab05e	-0.13543841
64	0x3d827a6e	0.06371008
65	0xbdde85a5	-0.108653344
66	0x3da43ef6	0.08019821
67	0xbd92989e	-0.07158016
68	0x3da9b5da	0.082866386
69	0x3c12e997	0.008966825
70	0x3dfae1e1	0.12250114
71	0xbde4d66e	-0.11173712
72	0xbd49fae2	-0.049311526
73	0x3daff379	0.085913606
74	0xbc9ca1f2	-0.01912019
75	0x3d131b55	0.035914738
76	0xbdb0e98a	-0.08638294
77	0x3d1ebb15	0.038752634
78	0x3dbb2b43	0.09139111
79	0x3b27fdcd	0.0025633455
80	0xbdf86def	-0.12130343
81	0x3db6da32	0.08928336
82	0xbdafd784	-0.08586028
83	0x3d6b96db	0.057516914
84	0xbd58c6eb	-0.052924078
85	0x3d91e228	0.07123214
86	0x3d464f75	0.04841562
87	0x3e0d87df	0.13821362
88	0xbddc6233	-0.107609175
89	0xbd7dc386	-0.061954044
90	0xbc7bbcd6	-0.015364846
91	0xbd64e3f8	-0.05588147
92	0xbdcfb0fa	-0.101411775
93	0x3db9677f	0.090529434
94	0x3c669afc	0.014075037
95	0xbd588170	-0.052857816
96	0x3d605ac2	0.054774053
97	0xbe14a181	-0.14514734
98	0xbe15e3f1	-0.14637734
99	0x3d967545	0.07346586
100	0x3d5d7f5e	0.054076545
101	0x3d2a9a96	0.04165133
102	0xbccf0f10	-0.025275737
103	0xbd0165cf	-0.031591233
104	0x3e148a1c	0.1450581
105	0xbca77b71	-0.020444604
106	0xbd151d1c	-0.036404714
107	0x3dd374dc	0.103250235
108	0xbe1fb727	-0.15597211
109	0x3e256a65	0.16153868
110	0x3c69bc75	0.014266123
111	0xbe04a2ed	-0.12952776
112	0x3c51f668	0.0128150955
113	0x3ce496b8	0.0279039
114	0x3de0e142	0.109804645
115	0x3dbb87f7	0.091567926
116	0x3ddd0779	0.10792441
117	0x3dd7960f	0.10526668
118	0x3d99b4f1	0.07505215
119	0x3d8af6e8	0.06785375
120	0x3dcf2d92	0.10116114
121	0x3c3c46ff	0.011491536
122	0x3d1e5fb7	0.0386655
123	0xbd693b31	-0.056941215
124	0x3e20ba7b	0.15696137
125	0x3bdec291	0.0067980965
126	0x3dd805cf	0.10547983
127	0xbd98c611	-0.07459653
128	0x3e04dbc8	0.12974465
129	0xbd81976c	-0.063277096
130	0x3e1b6e85	0.15178879
131	0xbdd3254e	-0.1030985
132	0x3e0bc00d	0.1364748
133	0xbe0bb984	-0.13644987
134	0xbe0d48eb	-0.13797347
135	0xbe238eda	-0.15972462
136	0x3d47a1cc	0.048738286
137	0x3cf10484	0.029421099
138	0x3ca965e9	0.020678477
139	0x3d2e2185	0.042512435
140	0xbe22c3af	-0.1589496
141	0x3e23f10f	0.16009925
142	0xbd6c9b55	-0.057765324
143	0xbd9905fa	-0.07471843
144	0x3df4f1cf	0.11960184
145	0xbdf4e363	-0.11957433
146	0xbd919e0e	-0.07110225
147	0x3d340658	0.043951362
148	0xbd3c7896	-0.046013437
149	0xbdba9af2	-0.09111585
150	0xbccf0875	-0.025272587
151	0x3d4f2653	0.05057366
152	0xbddf0880	-0.10890293
153	0xbde3f3ed	-0.111305095
154	0x3e0e3afc	0.13889688
155	0xbd012d4d	-0.031537343
156	0xbbc71cd4	-0.0060764346
157	0x3e0659a7	0.13120137
158	0x3dc6187d	0.096726395
159	0x3dcf7fc6	0.10131793
160	0x3e029b7b	0.12754624
161	0xbe0f8c8d	-0.1401846
162	0x3e100e50	0.1406796
163	0xbdca6ee2	-0.098844305
164	0x3c800043	0.015625125
165	0xbd98cabf	-0.07460546
166	0x3d93709d	0.07199214
167	0xbd8e21d6	-0.069400474
168	0x3e0f1757	0.13973747
169	0xbd4f5afb	-0.050623875
170	0x3cc238a1	0.023708643
171	0xbd8a9ffa	-0.06768794
172	0x3e02fb13	0.1279109
173	0x3e22229b	0.15833513
174	0x3cff445b	0.031160524
175	0x3d826579	0.063670106
176	0xbd509b3e	-0.0509293
177	0xbdee6dd8	-0.11642045
178	0xbde3fe8f	-0.111325376
179	0xbe03a7fa	-0.12857047
180	0x3db11987	0.08647447
181	0x3acc6213	0.0015593193
182	0xbd44a1f7	-0.048006024
183	0xb9fe2ee4	-0.00048481592
184	0x3e067bd9	0.13133182
185	0x3d197ab3	0.03747053
186	0xbdfef512	-0.12449087
187	0x3cf3fce4	0.029783674
188	0x3dd285e4	0.10279444
189	0x3d5c7d80	0.053830624
190	0xbc7cd8f9	-0.01543259
191	0xbe302c2a	-0.17204347
192	0x3d68b4fb	0.05681322
193	0xbe070f5e	-0.13189456
194	0xbdd7374a	-0.105085924
195	0xbe10060c	-0.14064807
196	0xbe21136b	-0.15730064
197	0x3c176e34	0.009242583
198	0x3e1fcc15	0.15605195
199	0xbdfa61bf	-0.12225675
200	0xbd8efefe	-0.0698223
201	0x3d62034c	0.055178925
202	0x3de61a75	0.11235515
203	0xbc23c429	-0.009995499
204	0x3cf49465	0.029855916
205	0x3cdff091	0.02733639
206	0xbe1ab313	-0.15107374
207	0x3d88de8c	0.066830724
208	0x3e1be83b	0.15225308
209	0xbcdce936	-0.026966672
210	0xbe263f2b	-0.16235034
211	0x3c4ab948	0.012373276
212	0xbc9eb41f	-0.019372998
213	0x3ddf9e0a	0.109188154
214	0xbdedc8a8	-0.11610538
215	0x3e1c1bf4	0.15245038
216	0x3dd571e7	0.10422116
217	0x3dbd5322	0.09244372
218	0xbdf01949	-0.11723573
219	0x3da3610c	0.079774946
220	0xbe1b459d	-0.15163274
221	0x3e2f48ee	0.17117664
222	0xbd78dd43	-0.060757887
223	0x3daad8f4	0.08342162
224	0xbc246d56	-0.010035833
225	0x3dcaa662	0.09895016
226	0x3d4bfa54	0.04979928
227	0xbdc08285	-0.093998946
228	0xbca9c081	-0.020721676
229	0x3e17fb0d	0.14841862
230	0x3d230b7b	0.03980587
231	0xbcec7c5a	-0.02886789
232	0x3daee348	0.08539444
233	0xbdd997b5	-0.10624639
234	0xbe0ccfbb	-0.13751118
235	0xbde10c9b	-0.109887324
236	0x3e26a90a	0.16275421
237	0x3d7e9e49	0.06216267
238	0x3e2e6090	0.17029023
239	0x3dee17aa	0.11625607
240	0xbd93cf7b	-0.07217308
241	0xbc4a3fdf	-0.01234433
242	0x3e2878dc	0.16452354
243	0x3e1f46e9	0.15554394
244	0x3e06ee27	0.13176785
245	0x3d8d0727	0.0688613
246	0xbd18a234	-0.037264064
247	0xbdd79b84	-0.10527709
248	0x3d70de3d	0.058805693
249	0xbc4afb95	-0.012389083
250	0xbddc86d2	-0.107679024
251	0xbd20b96d	-0.039239336
252	0x3da03c29	0.07823975
253	0xbe12df7d	-0.14343067
254	0xbe029e8d	-0.12755795
255	0xbaa6c481	-0.0012723358

layer1.bias f4 [64]
0	0x3c2438a2	0.010023268
1	0xbbe4270b	-0.006962662
2	0xbd18adc8	-0.037275106
3	0xbcdcf5ce	-0.026972678
4	0xbc81c2ac	-0.015839897
5	0xbc1afc8e	-0.009459628
6	0xbcf82c9c	-0.030294709
7	0xbd16cdfb	-0.036817532
8	0xbd297109	-0.041367564
9	0x3cab0827	0.02087791
10	0x3cd7db82	0.026349787
11	0xbcd60827	-0.026126934
12	0xbca28f14	-0.019843616
13	0x3c1d008c	0.00958265
14	0x3c77529b	0.015095378
15	0xbd2171b5	-0.03941508
16	0x3cffd074	0.031227328
17	0xba72ca78	-0.00092617376
18	0xbd7a41d2	-0.061097927
19	0x3cbf948f	0.023386268
20	0xbbf8b1f5	-0.0075895735
21	0x3d257b97	0.040401068
22	0xbd064ade	-0.032786243
23	0x3d0cfb21	0.034419183
24	0xbd121c38	-0.035671443
25	0xbb7fa062	-0.0039005508
26	0x3d1759de	0.03695094
27	0x3d1cd9cd	0.03829365
28	0xbd6f3af3	-0.058405828
29	0x3d222c05	0.03959276
30	0x3d6862eb	0.05673496
31	0x3d042657	0.032263126
32	0x3ac1a1bb	0.0014772931
33	0x3cad5e82	0.021163229
34	0xbc5798a4	-0.013158951
35	0xbd044fbd	-0.032302607
36	0xbc85b46f	-0.016321389
37	0xbd49a92b	-0.049233597
38	0xbc96cd62	-0.018408481
39	0x3b1de620	0.0024093464
40	0x3cb0fe62	0.021605674
41	0x3c83d248	0.01609148
42	0x3cbf809f	0.023376761
43	0xbc47ebe7	-0.01220224
44	0xbd4d8d86	-0.050183795
45	0xbb364ebc	-0.0027817925
46	0xbc1e33a2	-0.009655865
47	0x3ca5b466	0.020227622
48	0x3d1ba110	0.037995398
49	0xbc69e182	-0.014274957
50	0xbd1e9929	-0.038720284
51	0x3cd1b6f4	0.025599934
52	0xbc44a947	-0.0120032495
53	0xbc6a1683	-0.014287594
54	0x3cf9b085	0.030479679
55	0xbd030dcf	-0.03199559
56	0xbc32809c	-0.010894921
57	0xbc517fb3	-0.0127867935
58	0x3c7386eb	0.01486371
59	0x3d52905e	0.05140721
60	0x3c72540f	0.014790549
61	0xba2987cc	-0.00064670737
62	0xbd571482	-0.052509792
63	0x3d496178	0.04916522

layer2.weight f4 [64, 64]
0	0xbd24e8da	-0.040261127
1	0x3e04dae4	0.12974125
2	0x3db66825	0.08906583
3	0x3db8cfde	0.090240225
4	0x3dc74ac1	0.09731055
5	0xbd12b549	-0.03581742
6	0xbc61c112	-0.013778942
7	0xbcd1fdb6	-0.025633674
8	0x3e5afb0e	0.21384832
9	0x3d33ac42	0.04386545
10	0x3d1eb632	0.038747974
11	0x3e270f80	0.16314507
12	0x3d67d6ef	0.05660146
13	0xbe41cb5c	-0.18925232
14	0x3d014972	0.031564184
15	0x3e2f616c	0.17127007
16	0xbe39911d	-0.18121763
17	0xbdc4875d	-0.09596131
18	0x3e25b990	0.16184068
19	0xbd3f2801	-0.04666901
20	0xbd7430d6	-0.059616886
21	0x3dc5cb86	0.0965796
22	0xbd018b75	-0.031627137
23	0xbd92a1a3	-0.07159736
24	0x3e10133b	0.14069836
25	0x3ba55269	0.0050452244
26	0xbd4157fd	-0.047203053
27	0x3e22f3b6	0.15913281
28	0x3d14cc33	0.036327552
29	0x3e5d4908	0.2160989
30	0xbe22a2f1	-0.1588247
31	0x3c867d75	0.016417244
32	0x3d0b0f58	0.03395018
33	0x3d78a659	0.060705516
34	0x3e050848	0.1299144
35	0x3c9f1066	0.019417
36	0xbd4da3d0	-0.050205052
37	0xbdf9c7ee	-0.12196337
38	0x3da670dd	0.08126996
39	0xbe18ab81	-0.14909174
40	0xbe231d84	-0.15929228
41	0x3e1c3ac9	0.152568
42	0x3dcbd7a2	0.09953238
43	0xbe23faac	-0.16013592
44	0x3e30490f	0.1721537
45	0xbe20b5c1	-0.15694334
46	0xbdce78bd	-0.10081623
47	0xbda524d6	-0.080636665
48	0xbdbd2efa	-0.09237476
49	0x3e2c70d5	0.16839917
50	0xbc851549	-0.016245501
51	0xbe411b8b	-0.18858163
52	0x3dd065d1	0.1017567
53	0x3e3848fb	0.1799659
54	0x3e3fb770	0.1872232
55	0x3d412d19	0.04716215
56	0x3baad8bd	0.0052138255
57	0x3e28b94a	0.16476932
58	0xbe476dbc	-0.19475454
59	0x3e552d81	0.2081814
60	0x3e114696	0.14187083
61	0x3e50d88a	0.20395103
62	0x3e26fb68	0.16306841
63	0xbd972ec9	-0.073819704
64	0x3d55d04c	0.0522006
65	0xbda4b7f6	-0.080429
66	0x3e662dd0	0.22478414
67	0xbdb3d548	-0.087809145
68	0xbd9e609a	-0.07733269
69	0xbdf86c19	-0.12129993
70	0x3e0ee17b	0.13953201
71	0xbe4ceb4d	-0.20011635
72	0x3c21ab6c	0.00986753
73	0x3c894a05	0.016758928
74	0x3e488b26	0.19584331
75	0xbc560a0b	-0.013063918
76	0x3e1278fc	0.14303964
77	0x3dba0feb	0.09085067
78	0x3d3f8c85	0.04676487
79	0x3e208198	0.15674436
80	0x3e2390e0	0.15973234
81	0x3dfa54a8	0.12223178
82	0xbdbe0dee	-0.092800006
83	0x3e178799	0.1479782
84	0xbc3e0307	-0.011597401
85	0xbdcc2b1d	-0.09969161
86	0x3e40c710	0.18825936
87	0x3e53b0c6	0.20672902
88	0x3dc76df1	0.097377665
89	0x3a9d0bc6	0.0011981658
90	0xbe28f48e	-0.1649954
91	0xbe39d9fb	-0.18149559
92	0xbe19b0e9	-0.15008892
93	0xbdc2edad	-0.09517989
94	0x3e2018f6	0.15634522
95	0x3dec96ea	0.11552222
96	0x3d8b9f25	0.06817464
97	0x3e0e86de	0.13918635
98	0x3deaaef7	0.11459153
99	0x3df78999	0.120867915
100	0xba974f98	-0.0011544107
101	0x3e445772	0.19173983
102	0x3dc379e3	0.095447324
103	0xbc9b1c35	-0.018934349
104	0x3a76b802	0.00094115746
105	0xbcc76e44	-0.024344571
106	0xbe47e5df	-0.19521283
107	0x3e22b867	0.15890656
108	0xbe033d6f	-0.12816404
109	0xbe3f2a27	-0.18668424
110	0x3e1c313f	0.15253161
111	0xbe58c441	-0.21168615
112	0xbe3d40b5	-0.18481715
113	0xbe5d369f	-0.21602868
114	0xbd939b0e	-0.07207309
115	0xbe070201	-0.13184358
116	0xbce8ec60	-0.028433025
117	0xbd5f0603	-0.054449093
118	0x3e46885b	0.19387953
119	0xbe44d543	-0.19221978
120	0xbdaf2e3b	-0.0855374
121	0xbd59a316	-0.053134046
122	0xbde8fcce	-0.11376344
123	0x3a879222	0.0010343234
124	0x3dcaddcc	0.09905586
125	0xbda3f4bb	-0.08005663
126	0x3d5434a7	0.051808026
127	0xbe13c9c7	-0.1443244
128	0x3b4be273	0.0031110316
129	0xbba85c63	-0.0051379665
130	0x3d2378f5	0.039910275
131	0x3e4f97c5	0.20272739
132	0xbd79e777	-0.061011758
133	0x3d26a829	0.040687714
134	0xbd232488	-0.03982976
135	0x3d9f9cc2	0.07793571
136	0xbd735c72	-0.059414335
137	0x3dfe088a	0.124039724
138	0x3e0b9f60	0.13635015
139	0x3d05b3a4	0.03264202
140	0xbe028038	-0.12744224
141	0x3b8f710e	0.004377491
142	0x3e651398	0.22370756
143	0xbd9bbc33	-0.076042555
144	0x3e0fcce3	0.14043002
145	0xbe1206bd	-0.14260383
146	0x3ddb357e	0.10703562
147	0x3dbcf90c	0.092271894
148	0x3da273fc	0.079322785
149	0x3e438ee0	0.19097471
150	0xbc26a71e	-0.01017168
151	0x3e61de8d	0.22057553
152	0x3df3eeec	0.11910805
153	0x3e1abaab	0.1511027
154	0x3dfe88d3	0.12428441
155	0xbcc63ca6	-0.024198841
156	0x3cc5024a	0.024048943
157	0x3e2af33f	0.16694354
158	0xbdbe24f9	-0.09284396
159	0x3e47b416	0.19502291
160	0xbe19f158	-0.15033472
161	0x3e2dc6e0	0.16970396
162	0x3c64d8fa	0.013967747
163	0xbdc3a9e0	-0.095538855
164	0x3df5f520	0.120096445
165	0xbe2ddd05	-0.16978844
166	0xbe2fe31e	-0.17176482
167	0xbe14cb57	-0.14530693
168	0xbe3c238d	-0.18372937
169	0x3e320786	0.17385682
170	0x3cc3f78e	0.023921754
171	0xbe128df8	-0.1431197
172	0xbe0f5cd0	-0.14000249
173	0xbc2e1303	-0.01062465
174	0xbccd2b53	-0.025045073
175	0xbd2d52f5	-0.042315442
176	0xbda65f53	-0.081236504
177	0xbe12e484	-0.14344984
178	0xbb6a3b9e	-0.00357411
179	0xbc730a7c	-0.014834043
180	0x3de3fe79	0.11132521
181	0xbe5a0be5	-0.212936
182	0xbd2c7c50	-0.04211074
183	0x3e0e3ade	0.13889644
184	0xbd31ddef	-0.043424543
185	0xbcb9d1f4	-0.022683121
186	0xbe307850	-0.17233396
187	0x3d75a1d3	0.05996878
188	0x3c4c120c	0.012455475
189	0xbe627a54	-0.22116977
190	0x3cbf3008	0.023338333
191	0x3c5c872a	0.01345996
192	0xbdbfd85f	-0.093674414
193	0x3e384b80	0.17997551
194	0x3ccf93b3	0.025338983
195	0xbe362f2a	-0.17791429
196	0x3d449914	0.04799755
197	0xbdf6ae45	-0.12044958
198	0xbe3e96f4	-0.18612272
199	0x3e348109	0.17627348
200	0xbbf6d644	-0.0075328667
201	0xbd0b3138	-0.033982486
202	0x3d47000d	0.048584033
203	0x3e3f06b9	0.18654908
204	0x3dfdd0fa	0.12393375
205	0xbc989e46	-0.018630158
206	0xbe2f404b	-0.1711437
207	0x3dfb6076	0.12274258
208	0x3d953a79	0.072865434
209	0x3d6806fb	0.056647282
210	0xbe08dce5	-0.13365515
211	0x3d22a42c	0.039707348
212	0xbcf362fe	-0.02971029
213	0xbd600a00	-0.054697037
214	0xbe43a079	-0.19104184
215	0xbe34ac78	-0.17643917
216	0xbd9fa787	-0.07795625
217	0x3e509885	0.20370682
218	0xbc233a36	-0.009962609
219	0x3e171a84	0.14756209
220	0x3e5c1cb7	0.21495329
221	0x3db6ed3a	0.08931966
222	0x3d9ea552	0.07746376
223	0x3da55a01	0.080738075
224	0xbe4740ca	-0.19458309
225	0xbb7e8d63	-0.0038841597
226	0x3dcb359d	0.09922335
227	0xbdb64c0a	-0.08901222
228	0x3da98b11	0.08278478
229	0x3dbffaff	0.093740456
230	0x3daacbf2	0.08339681
231	0xbb7ac3a0	-0.0038263574
232	0xbe2c88f9	-0.16849126
233	0xbe47df24	-0.19518715
234	0xbd79dffd	-0.061004627
235	0x3e0686d8	0.13137376
236	0x3e4cf5ac	0.20015591
237	0xbbfb75b8	-0.0076739453
238	0xbdae2963	-0.08503988
239	0xbe36fde4	-0.17870289
240	0x3d2951cc	0.041337773
241	0x3e47cee6	0.19512519
242	0x3cf2d345	0.029641757
243	0xbdbe6dcb	-0.09298285
244	0xbd7a32aa	-0.061083473
245	0xbdd9e579	-0.106394716
246	0x3dc14c81	0.0943842
247	0xbb351463	-0.002763056
248	0x3df42384	0.119208366
249	0xbdf8f135	-0.121553816
250	0xbe42e563	-0.19032817
251	0x3cccbce5	0.024992416
252	0xbe174a32	-0.14774397
253	0xbe416fcd	-0.18890305
254	0x3d0d996a	0.034570135
255	0xbddabbd2	-0.10680355

layer2.bias f4 [64]
0	0xbcbbf27a	-0.02294277
1	0xbc6bb7d5	-0.014387091
2	0x3c80e505	0.015734205
3	0xbc8c67ce	-0.017139342
4	0xbb5bebd6	-0.0033557317
5	0xbc455c77	-0.012045971
6	0x3c1dd787	0.009633905
7	0xbb989e31	-0.0046575298
8	0xbcd78e79	-0.026313053
9	0xbc97b926	-0.018520903
10	0x3bc94c32	0.0061431164
11	0x3d4183f8	0.047244996
12	0xba98bb5e	-0.001165252
13	0xbd0f6bed	-0.035015035
14	0xbcdc810d	-0.026917005
15	0x3d38e091	0.04513604
16	0xbcba435d	-0.0227372
17	0xbc1b1269	-0.009464839
18	0xbc93efed	-0.018058741
19	0xbbc07d7d	-0.0058743344
20	0x3d218d7a	0.039441563
21	0xbc08a155	-0.008339246
22	0x3d88ab60	0.06673312
23	0x3c9fb5ca	0.019495863
24	0x3d20a8db	0.039223533
25	0x3c6a82f1	0.014313445
26	0x3b86f836	0.0041189445
27	0x3d7979a7	0.060907032
28	0xbc8f43a0	-0.0174883
29	0xbd76fd2d	-0.06030004
30	0x3bbb452b	0.0057150326
31	0x3aab4d5c	0.001306932
32	0x3c6a03de	0.014283149
33	0x3cdc417b	0.026886692
34	0x3d809155	0.0627772
35	0x3d700a18	0.058603376
36	0xbd884dab	-0.06655439
37	0x3cf55436	0.029947381
38	0xbd4954e2	-0.049153216
39	0x3c2813e2	0.010258647
40	0xbadea68a	-0.0016986888
41	0x3d0a48ea	0.033760943
42	0xbbd4cf5e	-0.0064944467
43	0xbd8cb147	-0.068697505
44	0xbbde9597	-0.006792735
45	0xbc3acbee	-0.01140116
46	0xbc77708a	-0.015102515
47	0xbbf4bf7e	-0.0074691167
48	0xbae11941	-0.0017173664
49	0xbaf148e0	-0.0018408559
50	0x3d749f6c	0.05972235
51	0xbd17293f	-0.03690457
52	0xbd57c0d3	-0.052674126
53	0x3c803e11	0.015654596
54	0xbbdf227f	-0.006809532
55	0x3d42931a	0.04750357
56	0xbd0b8e27	-0.034071114
57	0xbabc77b2	-0.0014378934
58	0xbcd3f655	-0.025874296
59	0xbc05932e	-0.008152766
60	0x3d1d04ea	0.038334765
61	0xbd7c4aec	-0.06159489
62	0x3c462060	0.01209268
63	0x3d8c0012	0.06835951

layer3.weight f4 [7, 64]
0	0xbe5c6d5b	-0.21526091
1	0xbe28d013	-0.16485624
2	0x3d9e1d4c	0.07720432
3	0xbe8507b5	-0.25982442
4	0x3e191ef5	0.14953215
5	0xbe312dde	-0.17302653
6	0x3e30d78d	0.17269726
7	0x3cce312f	0.025169937
8	0x3db0c982	0.086321846
9	0xbe891507	-0.26773855
10	0xbdd1a6a3	-0.102368616
11	0xbdbea4a8	-0.093087494
12	0xbd1ea502	-0.038731582
13	0x3dd0b320	0.101904154
14	0x3e1e9434	0.15486223
15	0x3e369ab7	0.17832457
16	0xbe9f9999	-0.31171873
17	0x3e6ba76d	0.23013087
18	0xbe56f40b	-0.20991533
19	0x3e89242c	0.2678541
20	0xbe245bc6	-0.16050634
21	0xbe367410	-0.17817712
22	0xbd03fcf5	-0.03222366
23	0x3dfc4424	0.12317684
24	0x3e4a45de	0.19753215
25	0x3e0771c1	0.13226987
26	0x3cfafaae	0.030637112
27	0x3de51ade	0.11186765
28	0xbd980877	-0.074234895
29	0xbc4fcb5f	-0.012682765
30	0x3da97b75	0.08275501
31	0xbd78cb26	-0.060740612
32	0x3e6fb2d1	0.23408057
33	0xbd95e978	-0.07319921
34	0xbe8e24b1	-0.27762368
35	0x3d38247c	0.04495667
36	0xbe3a340a	-0.18183914
37	0xbe31058d	-0.17287274
38	0x3d476202	0.048677452
39	0xbeaef6e0	-0.34172726
40	0x3e58f58a	0.21187416
41	0xbe15fb23	-0.14646582
42	0xbde07163	-0.10959127
43	0x3dcaddfb	0.09905621
44	0xbd0dca42	-0.034616716
45	0x3e4d9848	0.20077622
46	0xbe38223f	-0.17981814
47	0xbe37c233	-0.17945175
48	0xbe8de026	-0.27710074
49	0xbdcefd89	-0.10106952
50	0x3db6d1a8	0.089267075
51	0xbdfd28a2	-0.12361266
52	0x3e621081	0.22076608
53	0xbe16cdca	-0.1472694
54	0xbe639293	-0.22223882
55	0x3e9052b1	0.2818809
56	0xbe9b0a02	-0.30281073
57	0x3e9f0abd	0.3106288
58	0x3e3b6071	0.18298508
59	0x3e033867	0.12814485
60	0x3de618a3	0.11235168
61	0x3dbd488c	0.09242353
62	0xbde20401	-0.1103592
63	0xbd8f1107	-0.069856696
64	0x3d43b674	0.047781423
65	0xbcfb3e64	-0.030669399
66	0xbe9fb162	-0.3119002
67	0x3d99a00c	0.0750123
68	0x3e272340	0.1632204
69	0xbe856733	-0.26055297
70	0x3d2be959	0.041970585
71	0x3e1492a0	0.14509058
72	0xbcfa8352	-0.030580197
73	0x3e831357	0.25600693
74	0xbe815e16	-0.25267094
75	0x3e4e320b	0.20136277
76	0xbe2cf5ed	-0.16890688
77	0xbd8b2f0e	-0.06796084
78	0x3cfcdca4	0.030866928
79	0x3deff361	0.11716343
80	0x3e040a9c	0.12894672
81	0xbe7abb91	-0.24485613
82	0xbe05aec5	-0.1305495
83	0x3de8dbfb	0.11370083
84	0x3e5d9c67	0.21641694
85	0xbe41bb63	-0.18919139
86	0x3e8508e1	0.25983337
87	0xbe63da20	-0.22251177
88	0xbe83f055	-0.25769296
89	0x3ca0b368	0.019616798
90	0xbe4ede76	-0.2020205
91	0x3e59b6e8	0.2126118
92	0xbe7d399e	-0.2472901
93	0xbe0fcb16	-0.14042315
94	0x3e9711b8	0.29505706
95	0x3ce89d4a	0.028395314
96	0x3e4c3f06	0.19945917
97	0x3e6c2cc1	0.23063947
98	0x3e8dda83	0.27705774
99	0x3e2c2fa5	0.1681505
100	0xbe31e995	-0.1737426
101	0x3dba189b	0.09086724
102	0xbe3c323e	-0.18378541
103	0xbd3c8b92	-0.046031542
104	0xbdffcba5	-0.12490014
105	0xbdc6746e	-0.09690176
106	0x3e42055e	0.1894736
107	0xbe05b496	-0.1305717
108	0x3da8856b	0.082285725
109	0xbe47e050	-0.19519162
110	0xbe318b24	-0.17338234
111	0xbd5d945c	-0.054096565
112	0x3e10bbfd	0.14134212
113	0xbdd87cfd	-0.105707146
114	0x3eac2978	0.33625388
115	0x3dde39a2	0.10850836
116	0xbde20618	-0.110363185
117	0xbd5dbd49	-0.054135595
118	0xbe00ad03	-0.12565999
119	0x3e1024bd	0.14076515
120	0x3de745f2	0.11292638
121	0xbe5af65f	-0.21383046
122	0xbd4f77e6	-0.050651453
123	0xbe8f7a11	-0.28022817
124	0x3deddc53	0.11614289
125	0xbe18f028	-0.14935362
126	0x3e2f54c9	0.17122187
127	0x3ea1dcd5	0.31613794
128	0xbcd98922	-0.026554648
129	0x3e114b94	0.14188987
130	0x3e3b0e88	0.18267262
131	0x3d6e8f1e	0.058241956
132	0xbd7da21e	-0.061922185
133	0x3d5ccd5d	0.053906787
134	0x3d159af2	0.03652472
135	0xbe5ba6ce	-0.2145035
136	0x3e287d17	0.16453968
137	0xbe8bd147	-0.27308103
138	0x3ea2f087	0.31824133
139	0x3e047448	0.12934983
140	0x3eacadad	0.33726254
141	0xbe7dca22	-0.24784139
142	0xbde42090	-0.11139023
143	0x3e0df874	0.13864309
144	0xbe66aba6	-0.22526416
145	0xbde88867	-0.11354142
146	0x3e7bd766	0.24593887
147	0xbe80ca5d	-0.2515439
148	0x3bcefe2e	0.0063169217
149	0x3e367710	0.17818856
150	0x3c6fb55a	0.01463064
151	0x3e052a4a	0.13004413
152	0x3e46349d	0.19356008
153	0xbe7beb3e	-0.24601457
154	0x3e928c26	0.2862255
155	0x3e80fad0	0.25191355
156	0x3dbae1cc	0.091250986
157	0xbe73a84f	-0.23794673
158	0xbdd8a758	-0.10578793
159	0xbe72900e	-0.23687765
160	0xbe517b0e	-0.20457098
161	0xbe1d072a	-0.15334764
162	0x3e97040e	0.2949528
163	0x3e6c5472	0.23079088
164	0xbeadbcc2	-0.33933073
165	0x3cec17a9	0.028819876
166	0xbe4693a2	-0.19392255
167	0xbc107aee	-0.008818371
168	0x3e826098	0.2546432
169	0x3e01cb88	0.12675297
170	0xbe039991	-0.1285155
171	0xbe750dd4	-0.23931056
172	0xbe23059a	-0.15920106
173	0x3be9bc32	0.0071330303
174	0x3e62a624	0.2213369
175	0x3d125fb0	0.035735786
176	0xbe22833c	-0.15870374
177	0x3e527b02	0.20554736
178	0x3e5160fb	0.20447151
179	0xbe77dba2	-0.24204877
180	0x3d453e9c	0.048155412
181	0x3e4d6ca9	0.20060982
182	0xbe8bca1c	-0.27302635
183	0x3ca20a99	0.019780444
184	0x3da9e489	0.08295543
185	0x3c2cc2eb	0.010544519
186	0xbe8eca5e	-0.2788877
187	0x3dde359b	0.10850068
188	0x3e933791	0.2875333
189	0xbe66dec9	-0.22545923
190	0xbe7c26a2	-0.24624112
191	0x3e82d26e	0.2555117
192	0x3de38fc2	0.11111404
193	0x3c577ed0	0.013152793
194	0xbe64b879	-0.22335996
195	0x3e406f8e	0.18792555
196	0xbd94a7ca	-0.07258566
197	0xbd2a41b9	-0.041566584
198	0x3e54548f	0.20735382
199	0xbdb34f56	-0.087553665
200	0xbe39061a	-0.18068734
201	0x3e9853fc	0.29751575
202	0x3e5993c6	0.21247777
203	0x3df56415	0.1198198
204	0xbcc8777a	-0.024471033
205	0x3da111ee	0.07864748
206	0xbd7b4c7b	-0.061352234
207	0xbe9d951a	-0.30777818
208	0x3cd2f7e6	0.025752973
209	0xbe0d147e	-0.13777348
210	0xbd6f71c8	-0.05845812
211	0x3dd791ac	0.105258316
212	0xbd53f4fc	-0.051747307
213	0x3d3873aa	0.04503218
214	0x3db4ca5d	0.0882766
215	0xba7f4fd8	-0.00097393757
216	0xbe9ba033	-0.3039566
217	0x3e95c7ac	0.292539
218	0x3e002e91	0.12517764
219	0x3dd21209	0.10257346
220	0xbe878e97	-0.26475975
221	0xbd1294b8	-0.03578636
222	0xbd83f18d	-0.064425565
223	0xbe428eda	-0.18999806
224	0xbe7cdf4c	-0.24694556
225	0xbcd85587	-0.02640797
226	0xbad8a7d4	-0.0016529509
227	0xbe626f28	-0.22112715
228	0xbe79f684	-0.24410444
229	0x3e2b9fe3	0.1676021
230	0xbdf4c215	-0.11951081
231	0x3e45ea68	0.193277
232	0xbcf01d11	-0.029310735
233	0xbdf607bd	-0.12013195
234	0x3e4c68b2	0.19961813
235	0xbe882768	-0.26592565
236	0x3dcfd04e	0.10147153
237	0xbe1b11ac	-0.1514346
238	0x3e8697fb	0.26287827
239	0x3e884554	0.26615393
240	0x3e18752f	0.14888452
241	0x3d8827b1	0.066481955
242	0xbe23b878	-0.15988338
243	0xbe9c95d5	-0.30583063
244	0xbe64bbf8	-0.2233733
245	0x3dd5c972	0.10438813
246	0x3e66b617	0.225304
247	0xbd900109	-0.070314474
248	0x3d840c6a	0.0644768
249	0xbe290fa3	-0.16509871
250	0x3d1a48b1	0.03766698
251	0x3e0ea7e1	0.13931228
252	0x3dbf1ecb	0.09332045
253	0x3e644b77	0.22294413
254	0x3e3ca3b9	0.1842183
255	0x3e9cfcc7	0.30661604

layer3.bias f4 [7]
0	0x3cc93bf4	0.02456472
1	0x3daa93f8	0.08329004
2	0x3e02a403	0.12757878
3	0x3c94173c	0.018077485
4	0xbdc8c9ef	-0.09804141
5	0xbd8ae761	-0.06782413
6	0xbdb37eff	-0.08764457
