maml_model/maml_GoToLocal_7_3_300_50.pth (torch, 60284 bytes, 6 tensors)

layer1.weight f4 [64, 151]
00000000: a039 c73d 0539 b43d 5aa8 04bd 81b6 f23d
00000010: 93b5 873c 90a6 9e3d fdd7 f1bd 2c69 e83c
00000020: 64b9 9abd c879 923d bedd c9bd e222 263e
00000030: ce72 df3d 678b b73d f728 293d 78c4 00bd
00000040: 0f0f 453d 1f2d 253d 190f 2fbd 7284 1fbe
00000050: 4f00 3abd cffc 15be 92bf 22be 84b7 213e
00000060: 91f9 5e3d cc2b 5f3b 252a 06be c748 693d
00000070: 86d6 b3bd fc3b 003e f079 2cbd a31d afbd
00000080: dadf 7dbd c8b3 303d 91e3 063e 6434 0d3e
00000090: 73c8 81bd f573 dcbd aec2 e0bd c611 963d
000000a0: 16d7 ba3d 8abc cbbb 09c6 c5bd b2c1 0e3d
000000b0: a29b 5c3c 71d6 c1bd 2044 2a3e 468d 0d3e
000000c0: 8f71 13be a4ce 283e 1643 f4bb dfc3 ba3d
000000d0: c73c 133e fa8e 60bc 6154 12be cb49 b63d
000000e0: c75c 89bd 6289 debc d9df bcbc 936a adbd
000000f0: 122f 023e 0eab 7dbd ee27 c1bd aa5f d4bb
00000100: 008a 2bbd 9ca4 143e 2f25 50bd b40a 323e
00000110: 6b7f 4d3c 0995 233e 5dd0 483d cf85 23bd
00000120: e0e4 18be 471d 433c 3f2c e3bd 65df 26bc
00000130: a7b0 923d cd02 debc 472c c6bd 04bc a03c
00000140: e4fe 90bd b302 8fbd ac36 9dbd c319 dbbd
00000150: be82 713d 9f20 b03c 4b67 82bd 8bf8 19bd
00000160: a692 e3bd 024f f63d a50a 273e a3eb 9e3c
00000170: 62e9 fa3d 0e7b 283e c7ad 9a3c 9a74 d03d
00000180: 55c8 f6bd 84e8 3c3d b694 9ebd 6233 1fbe
00000190: ef28 fb3d b59d 8f3b 4e25 34bc 9a79 91bd
000001a0: d2f4 f3bc 1eea 61bc a27b f03c 6e36 783c
000001b0: 8ba0 813d a60e 98bd 9827 96bd 66d2 0cbd
000001c0: 9dba b9bd 245a da3d 8a3c 0c3e 337c ba3c
000001d0: d0e8 11be f25d 7c3c 488e e53d d440 debd
000001e0: 9d7c 9cbd 602d 003e 20ca 9e3d 6e12 343e
000001f0: 7d77 1c3e 91d9 e2bd 36e8 a8ba 6017 bc3d
00000200: b2d6 1fbe bf28 263d 61a0 233e 7765 b5bd
00000210: 20ad 4d3d 0c77 953d bd03 af3d ba17 433a
00000220: 5348 593c 2fb9 6bbc 07f5 2d3e 0049 4a37
00000230: a922 06be b25f 9bbc c65d 0a3e 39ed a83d
00000240: 85dd af3d ae8c cebc 61fd 32bd b4a9 b6bd
00000250: 730d 11be 1ba3 b1bd f869 e53d 343c dcbc
00000260: e23e 23be 6189 4d3d 7d01 ec3d 563a f0bd
00000270: 6037 17be d91a 68bd 03d6 15be b5fe 1a3e
00000280: fc07 923c ecc2 aabd f957 033e 4614 1dbe
00000290: f6fb ad3c 97bd 93bd 876e e0bd b8a0 d0bd
000002a0: 68af a0bd db2f 3abd 1ade 90bb 230d b1bd
000002b0: 60ff 483d 0ae9 38bb 74ab f03c 80c6 1d3d
000002c0: e27a d9bc 0876 253e cb7a a7bc 1551 fabd
000002d0: bbfa 3f3d c642 903a 27ba 583d 3d8e c63d
000002e0: 5f9c 0b3e 7c47 da3d ab70 2fbc 4c8d ef3d
000002f0: dd0c c23c ec8f 1bbe de13 263e 4256 233d
00000300: b989 23be 3874 123e 3477 13be e44e 1ebe
00000310: 03fc d1bd cace 0ebd 826b 633c 8d53 c73d
00000320: 3ec8 59bd aee0 f53d 093f 92bc a6d4 0cbe
00000330: 9c4d 85bd 196f f1bd 4a65 21bc e2a2 28bd
00000340: a389 a53d f8d4 6e3d 8771 2b3d 310e 9ebc
00000350: 3580 0f3e 766d 18be ebfa f3bb fb47 b43d
00000360: fd03 473c 2cbe f33c 5565 c63d 744b 8e3d
00000370: 9633 d7bd a1b4 24be c06b 62bd 0ca0 25be
00000380: ed9d 27bd 0629 b1bd 5ea7 c2bd 00f0 7a3d
00000390: 151c 92bd c401 f83d d9fb 663d f400 0e3e
000003a0: fac6 09bd 7bf7 383d c29b 01be 8c65 f6bd
000003b0: 6807 08be 638d 1a3e 5052 fb3b 6ae5 ffbd
000003c0: 779b 1cbe e1de 013e 5c6d 5cbd 8c11 283e
000003d0: d7d1 e43d 1023 df3c 1819 db3d d24a 0dbe
000003e0: 14f6 8dbd ac62 aabd c190 0abe 4edc f5bb
000003f0: 2247 ca3d 0174 a8bd bc21 0a3e b0fc 8abd
0.09727788 0.08799938 -0.032387115 0.11851216 0.016566074 0.07746613 -0.118087746 0.028370462
-0.07554892 0.07152134 -0.09856747 0.16224244 0.10910569 0.08962136 0.041298833 -0.031437367
0.048110064 0.040326234 -0.042739008 -0.15577868 -0.04541045 -0.1464722 -0.15893391 0.15792662
0.054437224 0.0034053205 -0.13102014 0.05695417 -0.087811515 0.12522882 -0.042108476 -0.08550575
-0.06198106 0.043140203 0.13172747 0.13789517 -0.06337061 -0.107643045 -0.10974632 0.07327609
0.09123056 -0.006217544 -0.09656913 0.03485269 0.01346484 -0.094647296 0.1662755 0.13823423
-0.14398788 0.16485077 -0.0074542863 0.09119391 0.14378653 -0.013705963 -0.1429 0.08900794
-0.06707149 -0.027165119 -0.023055958 -0.08467593 0.12713268 -0.06193071 -0.09431444 -0.0064811306
-0.041879654 0.14515918 -0.05081671 0.17386895 0.012542586 0.15974821 0.049026836 -0.03992253
-0.14931059 0.011908836 -0.11092424 -0.010185097 0.071626 -0.027100945 -0.09676414 0.019620903
-0.070798665 -0.06982937 -0.076764435 -0.10698273 0.058962576 0.02149993 -0.06367358 -0.037590545
-0.11111955 0.12026788 0.16312654 0.01939947 0.122515455 0.16453192 0.018881692 0.1017849
-0.12049929 0.04612018 -0.07743208 -0.15546945 0.12263667 0.004382814 -0.010995222 -0.07103272
-0.029779825 -0.013788728 0.029355828 0.015149696 0.06329449 -0.07424669 -0.07331771 -0.03438034
-0.09068797 0.10661724 0.13694969 0.0227643 -0.14248967 0.015403258 0.112087786 -0.10852209
-0.076409556 0.12517309 0.07753396 0.17585155 0.15279956 -0.11076654 -0.0012886587 0.09184146
-0.15609244 0.040566202 0.15979148 -0.088572435 0.050213933 0.07298097 0.08545635 0.0007442195
0.013261872 -0.014387413 0.16988002 1.2057135e-05 -0.1309916 -0.01896653 0.13512334 0.08248372
0.08587173 -0.025213566 -0.043698672 -0.08919087 -0.14165287 -0.08673688 0.112018526 -0.026884176
-0.15941957 0.050179843 0.11523721 -0.11729877 -0.14767218 -0.05666623 -0.1463242 0.15136226
0.017826073 -0.0833796 0.12826528 -0.15339765 0.021238308 -0.07213896 -0.109585814 -0.10186905
-0.07845956 -0.045455795 -0.004421008 -0.08645084 0.04907167 -0.0028215074 0.02937863 0.038519382
-0.026547853 0.16158307 -0.020444294 -0.122224964 0.046869975 0.0011006228 0.052911904 0.096950985
0.1363387 0.10658166 -0.0107080145 0.11696872 0.023687774 -0.1519162 0.16218516 0.039877184
-0.15970506 0.14302146 -0.14400941 -0.15459782 -0.102531455 -0.03486518 0.013880612 0.09732733
-0.05316948 0.12005745 -0.017852323 -0.13752994 -0.065089434 -0.11788768 -0.009850809 -0.041170962
0.08082893 0.05830857 0.041856315 -0.019293876 0.14013751 -0.14885506 -0.0074456832 0.08802792
0.012146947 0.029753767 0.09687296 0.06947985 -0.10507886 -0.1608453 -0.05527854 -0.16174334
-0.040922094 -0.08650403 -0.09504579 0.061264038 -0.071342625 0.12109712 0.056392524 0.13867551
-0.033637024 0.04515789 -0.12657073 -0.12031087 -0.13284075 0.15092997 0.0076697245 -0.12494929
-0.1529368 0.12682678 -0.05381523 0.16412944 0.11172836 0.027238399 0.10698146 -0.13798073
-0.06931701 -0.083196014 -0.13531782 -0.007503069 0.09876849 -0.08225251 0.13489431 -0.067864776

layer1.bias f4 [64]
00000000: d2eb 613c ac69 b5bc a710 c03c 1411 10bc
00000010: 878e 45bc d21c 083c cd68 1e3c 5249 933c
00000020: e5a1 613b 4530 4f3c d367 363d 6639 553d
00000030: 5dd9 b7bb 5281 45bc f231 cf3b 6eaf 033c
00000040: a59a 17bd 309e 363d 8907 22bd 4181 2bbc
00000050: 306d 123d 0487 09bd bb92 f9bc 2823 573d
00000060: c65d 01bd 1ff2 85bc 8740 adbc ef46 fe3a
00000070: 7ee9 963c 7f68 e83b 7dcb 8b3c 192e fb3c
00000080: 69fa 163d c040 303b b40a 563d 9af7 20bd
00000090: 7844 dfbc be16 4f3c 49b0 e9bc c156 ef3c
000000a0: dcfe 78bc 5927 b1bb 5ce5 92bc 527f d1bc
000000b0: dfbd a3bd 0022 ef3b 93ff 8c3c 6b4f 703c
000000c0: 15f0 0eba e672 f5bc a943 2bbc c7c0 30bc
000000d0: 0640 5d3c 1b2a 383d e65d cabc b792 1e3c
000000e0: 4f1d 0bbc 4938 313c a457 113d 9f53 0ebd
000000f0: 9675 6a3d f269 3cbd a851 a53c 93dc 4bbc
0.013789134 -0.022145115 0.02344544 -0.008793134 -0.012057907 0.008307653 0.009668541 0.017979298
0.0034428772 0.012645786 0.04453261 0.052056693 -0.0056106285 -0.012054758 0.0063230926 0.008037431
-0.037012715 0.044584453 -0.039557967 -0.010467828 0.03574866 -0.033576027 -0.030465474 0.052523762
-0.03158357 -0.016350804 -0.021148933 0.0019399802 0.018421885 0.007092535 0.017064804 0.03066163
0.036859903 0.0026894063 0.0522563 -0.03929863 -0.027254328 0.0126396995 -0.028526442 0.029216172
-0.015197482 -0.005406302 -0.017931633 -0.025573406 -0.079951994 0.0072977543 0.017211711 0.014667372
-0.0005452645 -0.029962014 -0.010453143 -0.010788149 0.013504034 0.04496203 -0.024702977 0.009678534
-0.008490874 0.010816642 0.03548397 -0.034747716 0.057241045 -0.045999475 0.020180538 -0.012442726

layer2.weight f4 [64, 64]
00000000: f1c7 2cbd 4078 163e 67e1 26be e80e 773d
00000010: 2600 17be a3bd 1a3e 9297 153e a80c 3bbd
00000020: 4927 56be 995a 5b3e 9fb1 8b3d 3c0e bdbd
00000030: 3650 e7bd 9e58 81bd 7bb4 903d b1fc e9bd
00000040: 6c53 84bd 7c17 953c ccce 4cbe e1ff 55be
00000050: 1023 57bd 1c04 09be 065d 4b3e 3fc1 573e
00000060: 7b1f eb3d 4a39 55be 9d41 013e 1ac4 2e3e
00000070: 73af 1b3e bc51 4abe b2e5 3a3e 9526 4cbb
00000080: 3ff2 2a3d 91c4 503e 1f78 533e 1338 5abc
00000090: 1a20 f0bb 2886 de3c 4482 03be 6826 493e
000000a0: 83d6 42be bce5 51bd 79d8 66be 2125 bbbc
000000b0: 0c38 323e 27e4 e1bd 52cf 7a3c 92c5 25be
000000c0: a553 b33c ed59 b9bc aaf7 71bd db8e 3cbc
000000d0: 0852 8b3c 0c1d ce3d fff3 36be c149 0b3d
000000e0: 5676 9c3c d151 373d c7a2 ee3d 9751 61bc
000000f0: 8159 acbd deac 55bd 5c23 22bd c28d b0bc
00000100: e13f 48bd aa0e 403d 1d1e 90bd eb54 2a3e
00000110: 6976 403e de67 7b3d 820c ecbb dd21 dabd
00000120: 875c 183e 58a9 ab3d 4ab3 1abc 2835 35bd
00000130: 5ceb 4f3e 5e52 37be d4c1 61bd 7326 39be
00000140: 4247 1f3e 5a7d 1dbe b54e 773d aa16 a9bd
00000150: ecdb 2fbe 9cc5 383e bb79 c33d 8ea1 54bd
00000160: d1ec 013d 1ed3 963d 128e 753d e51d 223e
00000170: 2037 d63d b025 80bc 7264 4dbe c146 2abd
00000180: 1065 8bbc 2617 033e 9345 09bc 50fd eebd
00000190: f6ab 273e b0d3 863d 694e 29be adf7 7e3e
000001a0: e5fa f33c 6d8e 7f3e 40f2 063e 14e8 703e
000001b0: 99d2 48be 522a de3d f51f 18be 427d 463e
000001c0: 0b11 533d 4394 513e 6fa4 c4bd 7da1 123e
000001d0: a22c 2a3e 8292 00be 3c32 253e a79e d9bd
000001e0: 1b37 6dbe e6c5 29be 6e0b 0bbd e461 773e
000001f0: c1a5 6fbe 0141 3fbe 5ad9 c4bd 3add 9f3d
00000200: ab94 9cbd 50fc 363e 1d5a 30be 821d 253d
00000210: 37b7 54be f58c b93d 938b 32be 0ac3 a63c
00000220: 46a7 813d b0cc ffbd 74c9 3e3e 4d54 efbd
00000230: 849c 35bd a5a2 a3bd b60d 193e 3d1b 8abd
00000240: 725a 863d 3dba 99bd 8097 37bd 29e3 083e
00000250: 1761 603e 2af1 313e 05b1 e13d 3714 5a3e
00000260: fd31 853d 6978 5fbe 979a a1bd 41a9 5e3d
00000270: db9e 30be fe8c 0f3e 04a0 23bd 616c f63b
00000280: 1ff7 603d 125d 14be 48a6 583e 3f13 223c
00000290: 8260 c0bc 0b6e 5bbe 9c73 173e 83a4 953d
000002a0: 11ce c93d ba75 20be 6aee 57be 5b3f 3c3e
000002b0: 867e 483e bdfb 83bd bb67 59be 52a9 4c3b
000002c0: 300f 663e 20b9 0b3e c398 88bd 24fc 96bc
000002d0: ecc1 59bd db8a 013e 4fa9 bd3d 2867 933d
000002e0: 3243 4e3c 1266 6dbe aae6 09be 057c d7bc
000002f0: c8c6 e93b b930 0fbe 9344 233d defd 983d
00000300: 7e64 06be 7b5b 6d3e 8390 573e 760c 653e
00000310: 0ef9 593e 06fa 383e a286 8a3d d095 87bd
00000320: 2d58 f1bc d9c9 743d 78a4 3dba 5c67 ee3d
00000330: cad5 b5bd cb2a 003e 5b31 72bd e22c 78be
00000340: 778a b7bd 54ca 70bc b67c 523e 80db b6bd
00000350: 55ab 62be a80c 1cbe 8b9a 1d3e 74a1 2e3d
00000360: 6e05 353e 2f6e 0cbe ec29 a63d a533 a03a
00000370: d6ba 273e a422 9cbd 9000 d73d 699f dc3d
00000380: 3863 89bd 07a5 11be 7f87 7ebd f01b a9bd
00000390: d456 d7bd c0ec 18be aa3b 083c 50e8 4f3e
000003a0: 101b 843e 3d7e 07be eebd 0abd 621d a53d
000003b0: 1ec5 ec3c 2288 48be 9963 5dbe 030b 75bc
000003c0: 5c6b 5ebe c5fd c83d 9143 7e3e 61d0 843d
000003d0: 1281 5fbe 3d2d 48be 9d3d 803d ea14 03be
000003e0: 23fa 533e bc68 77bd 970e e5bd a8d5 d5bc
000003f0: d549 0abe 18d9 103e 3531 05be 9b1a bc3d
-0.042182866 0.14694309 -0.16296922 0.06031695 -0.1474615 0.15111403 0.146086 -0.045666367
-0.20913424 0.21421279 0.06820988 -0.092312306 -0.11294596 -0.063157305 0.07065674 -0.1142515
-0.06461224 0.018199675 -0.20000762 -0.20898391 -0.052523673 -0.13380474 0.19859704 0.21069811
0.11480614 -0.20822635 0.12622686 0.17066994 0.15203647 -0.19757742 0.18251684 -0.0031150926
0.04173493 0.20387484 0.20651291 -0.013319033 -0.0073280456 0.02716358 -0.12842661 0.19643557
-0.19027142 -0.051244482 -0.22543515 -0.022844853 0.17404193 -0.11029845 0.015308218 -0.16188648
0.02189047 -0.022625888 -0.05907408 -0.011508669 0.017006889 0.10064134 -0.17866515 0.034005884
0.019099396 0.04475576 0.11652141 -0.013752363 -0.08415509 -0.052166812 -0.039584503 -0.02155197
-0.048889045 0.046888985 -0.07036994 0.16633956 0.1879517 0.061378352 -0.0072036395 -0.1065099
0.14879046 0.08381909 -0.00944216 -0.044240147 0.20304626 -0.17902514 -0.05511649 -0.18081073
0.15554526 -0.15379849 0.060377795 -0.08256276 -0.17173737 0.18044132 0.095447026 -0.051911883
0.031719986 0.07364486 0.059949942 0.15831716 0.10459733 -0.01564297 -0.20057848 -0.041571382
-0.017015964 0.12801799 -0.008378404 -0.11669409 0.16374192 0.06583345 -0.16533817 0.24899168
0.029782722 0.24956675 0.13178349 0.23526031 -0.19611587 0.10847916 -0.1485594 0.1938372
0.051529925 0.20466714 -0.09601676 0.14319415 0.16618589 -0.12555888 0.16132444 -0.10625964
-0.23165552 -0.16579399 -0.033946447 0.24158436 -0.23403074 -0.18677141 -0.09611769 0.078058675
-0.07645544 0.17869687 -0.17221875 0.040311344 -0.20773016 0.090600885 -0.17436056 0.020356674
0.06330733 -0.12490213 0.18631536 -0.11686001 -0.044338718 -0.07990006 0.14946637 -0.067434765
0.0656022 -0.07506225 -0.044822216 0.13367905 0.21912037 0.17377153 0.11020092 0.21296774
0.06503675 -0.21823277 -0.07890814 0.05436063 -0.17248099 0.14018628 -0.039947525 0.007520244
0.054923173 -0.14488629 0.21157181 0.009892284 -0.023483519 -0.21428697 0.14790195 0.07306769
0.09853757 -0.15669909 -0.21087041 0.18383543 0.19579515 -0.064445 -0.21230976 0.0031228852
0.22466731 0.13644838 -0.06669762 -0.018430777 -0.053163454 0.12650625 0.09260809 0.0719741
0.012589263 -0.23183468 -0.13466898 -0.026304254 0.0071342923 -0.1398343 0.03986032 0.07470296
-0.13124272 0.23179428 0.2105122 0.22368035 0.21286413 0.18064126 0.067639604 -0.06620371
-0.02946099 0.05976281 -0.00072342856 0.11640808 -0.08878668 0.12516324 -0.0591291 -0.24235871
-0.08961957 -0.014696676 0.20555386 -0.08928585 -0.2213567 -0.15239203 0.15390985 0.042634442
0.17677853 -0.13713907 0.08113465 0.0012222423 0.16379866 -0.07623795 0.10498154 0.107725926
-0.067083776 -0.14223109 -0.062140938 -0.08257282 -0.10514608 -0.14934063 0.008315006 0.20303464
0.25801897 -0.1323175 -0.033872537 0.08062245 0.028902587 -0.1958318 -0.21620025 -0.014956239
-0.21720642 0.09814028 0.24830462 0.064850576 -0.2182658 -0.19548507 0.06261752 -0.12800947
0.20700888 -0.060402617 -0.111844234 -0.026102856 -0.13504727 0.14145315 -0.13007052 0.09184762

layer2.bias f4 [64]
00000000: 9e5d bd3c c43e 46bd e72a 06bd eba0 01bd
00000010: 3bda 41bc 9d30 1e3d bbd3 de3c 2e2d 423d
00000020: a2a3 673c f93e 463c bb78 af3c 9027 87b9
00000030: 4019 0fbd f518 52bd d2f1 e3bc be39 2a3d
00000040: abc3 b03c eae6 183d 80cc 3bbd f230 99bc
00000050: 251a ac3c 3d0b 0ebd 2a9b 093d 4a82 923c
00000060: 14bf ccba 0400 46bd d547 82bb e8e0 783c
00000070: 2387 3fbb 8a28 b53b 2b9e 3cbd 7527 b23c
00000080: b94b 1bbd 34de 6339 9288 d4bc 60d0 413c
00000090: 7949 c0bb 0154 863c 6040 563c 9ca9 e93b
000000a0: 8dbd 073d f804 583c 6772 81bc cf52 d8bc
000000b0: 299a 3e3c c611 383d e821 0b3c 1879 9cbc
000000c0: 0040 cabb d8c7 4abc ca6f 00bd d004 9539
000000d0: ad16 853d a316 3bbd 8d84 9bbd 7c3e c6bc
000000e0: a886 ad3c 8c67 06bd 8f91 13bd f88a 1cbd
000000f0: d67b 15bd e3cd 67bd 8762 f9bc 9bf7 093d
0.02311593 -0.0483997 -0.03275576 -0.031647604 -0.011831815 0.03862058 0.02720057 0.047406368
0.014138134 0.012099975 0.021419873 -0.00025778683 -0.03493619 -0.051293332 -0.02782527 0.041558973
0.021577677 0.03732959 -0.045849323 -0.018700097 0.02100856 -0.034678686 0.03359524 0.017884392
-0.001562091 -0.04833986 -0.003975848 0.015190341 -0.0029224835 0.0055285143 -0.04604928 0.02174733
-0.03791401 0.00021731184 -0.025944028 0.011829466 -0.0058681336 0.016397478 0.013076872 0.0071308147
0.033139754 0.013184778 -0.015801622 -0.026406674 0.011633434 0.044938825 0.008491971 -0.01910071
-0.00617218 -0.012376748 -0.03135661 0.0002842308 0.06498466 -0.045675885 -0.075936414 -0.024199717
0.021182373 -0.032813594 -0.036027487 -0.03821847 -0.036495052 -0.056592833 -0.03044249 0.0336834

layer3.weight f4 [7, 64]
00000000: f3aa 753d 2c88 863e ab8f 87be 5dee a23e
00000010: bf55 533e c6e6 c33c 299d 66be 3007 823e
00000020: e966 293e 80c9 993c 6bb7 b0be 92da ebbd
00000030: 8866 85bc 06c6 403e 9dfb acbc 255d 5e3e
00000040: 54fb 713e b7f3 9b3c a114 623e 0683 b1be
00000050: f0cb 6b3e 6893 d7bc e6cb 5a3d 303c 453e
00000060: 9ac0 acbd f4bd 44bc 9726 88be ff89 34be
00000070: ad2f 26be b11a 2abe 8e88 62be b789 88be
00000080: 0b21 97be f0a0 333d 6f94 a33e b729 d63d
00000090: ad17 5ebe 1c4c 2cbd 5056 87be 68a5 7c3d
000000a0: 1b16 eb3c e7c5 36bc 8c84 33be 9309 53bd
000000b0: 7afd 5c3e 4525 b13e d890 abbe 9481 1dbe
000000c0: 6756 a1bd 40d1 b7bd acae abbd 3313 b43e
000000d0: 2288 de3d 3dfd 2c3e 36a8 40bd b57b 17bd
000000e0: c661 393e e63e 8cbe ba09 9c3d 1637 82be
000000f0: 9780 8a3e 9954 afbd 397b ae3d ea68 393e
00000100: 1c41 e9bd f19b 4b3e cc2b 363e e177 80be
00000110: cdd6 adbc f9f1 cf3c 0964 e73c 5e5f 2dbe
00000120: 5c85 c5be 94f3 63be a9f8 943e f07d e2bd
00000130: 9e8c 383e 87d5 06be a612 a4be bb85 e03c
00000140: 4e58 b6be f912 68be 54db 9abe 52cb 213e
00000150: d790 a83e 70bb 3abe 2695 6abe 4460 bb3e
00000160: c1ba 653e 60a0 1bbe f50d 5dbd 646b d13c
00000170: 3eba 99be f22d a93e 00c2 60be 2535 40be
00000180: 9a23 5ebe 1e4e b13d 900d 223e 788c af3d
00000190: 6878 8fbe 8d9f e93d cea4 21be 2ad8 07bc
000001a0: a10b 933e 1ef8 04be 24b6 10be 28ad 25be
000001b0: 2d98 473e e65e ba3e 95a7 bbbd 1618 e63d
000001c0: 4f31 a7bd ebb7 7c3e 4a12 443d 014a 633e
000001d0: 6c25 903e beac 60be 6975 9fbd f693 57be
000001e0: ecdc 55bd 3ee8 63be b112 b73e 0c3c 023e
000001f0: b80a 7ebe 95b3 72be a672 8ebe 2317 81be
00000200: 14fb 4e3d 0b1e e2be f87f b039 02b6 9bbe
00000210: ffb4 4abe df50 e43e 2ae4 423d 2e4a 4f3d
00000220: 00de 783e c4f7 ebbd d112 063e fb5f c03d
00000230: b101 a33d ae24 3fbe 9f38 5fbd 559c 563d
00000240: 7008 9fbc 3049 463e de0d b0be 4a5c 793e
00000250: 8e8b aa3e 5a48 92be 250b c53e 4e65 6bbe
00000260: eba3 fc3d 9bbc a6be 69e3 f83d 9d21 133d
00000270: 4501 49bd d9cc 5fbe d283 a9be 4aeb 1d3e
00000280: c8e0 afbc 5457 8abe 0d06 04bf 26fe 9bbd
00000290: 1719 b33e 378b 603e f8c4 f23d a2f7 9ebe
000002a0: abc8 a5bc 2051 4f3e 0d8f b33e 42db ad3e
000002b0: 4885 8dbe 171e f2be df44 5a3e 0bdc 903d
000002c0: 3df5 bebd 4b9f 91be c1cf 8abe 9e02 cabe
000002d0: 6efd 653e b7e5 cebe b6c6 5bbe 5562 1dbc
000002e0: e83d 0a3e 5982 afbe 2ddb a6bd dc2a 3ebe
000002f0: 2857 48bd 3e6c 98be e0fc 5dbe d682 7abd
00000300: e637 4cbd 80ea 723e efa7 4fbe 34dd 8fbe
00000310: 3d66 9fbd 9c42 93be 1a05 51be 34c5 87bd
00000320: a367 753e 74c8 aebc c606 9a3e 9aff d33d
00000330: e1e1 4c3e 5e4a 893e b4b8 02bd 6ee0 81be
00000340: dd78 cc3d bf82 7fbe 43d3 943e a3ef 1c3d
00000350: e764 293d 9ebc 7fbe 566b 383b 3764 b9bd
00000360: e1ae ea3d fd73 d4bc 8500 88bb 0a2b 323d
00000370: 4878 49be 09b6 723e 3b4e 80be 96a9 80bd
00000380: 9e96 0bbd 7682 5fbe 399d af3a 1919 febd
00000390: 93ed b53d 9c8c 3abe bff5 9ebe 1cda 0eba
000003a0: 0c01 63be aeb0 4cbe 53ec 433e 5335 ef3d
000003b0: 0587 433e e270 0c3e 76ee 8abe 458d e63d
000003c0: 4dfd 17be b08c afbd d6d1 5ebe 26bb 1abe
000003d0: 2672 8bbe f01b 493e 5bba 653e 5eef eebd
000003e0: b94f 22be 8562 e4bd 51ac 523e 8aaf 14be
000003f0: 74a7 aa3c 9f9c 823e adba 33be fe67 42be
0.059977483 0.26275766 -0.26476797 0.31822482 0.20638178 0.023913752 -0.2252089 0.2539611
0.16543163 0.01877284 -0.34514937 -0.11516298 -0.016284242 0.1882554 -0.021116072 0.2171522
0.2363103 0.01903711 0.22078182 -0.34670275 0.23027015 -0.026315406 0.05341711 0.19261241
-0.08435173 -0.012008179 -0.26591942 -0.17630766 -0.16229124 -0.16611744 -0.22122404 -0.26667568
-0.29517397 0.043854654 0.31949183 0.10457175 -0.21688719 -0.04206477 -0.2643304 0.06168118
0.028697064 -0.011155582 -0.17531031 -0.051522803 0.21581069 0.34598747 -0.33508945 -0.15381461
-0.07877808 -0.08975458 -0.083829254 0.35170898 0.10865809 0.16893478 -0.04703542 -0.03698321
0.18103704 -0.27391738 0.07619043 -0.25432652 0.2705123 -0.085610576 0.085195966 0.18106428
-0.11389372 0.19883706 0.17790145 -0.2509146 -0.021220589 0.025383936 0.028245943 -0.16930911
-0.38578308 -0.22260886 0.29095963 -0.11059177 0.18022391 -0.13167392 -0.32045478 0.027407518
-0.35614246 -0.22663487 -0.3024546 0.15800217 0.32923004 -0.18235564 -0.22908458 0.36596882
0.22434522 -0.15197897 -0.05396839 0.025563903 -0.30024904 0.33042866 -0.21949005 -0.18770273
-0.21693268 0.08657478 0.15825486 0.08571714 -0.2802155 0.11407385 -0.15785524 -0.008291284
0.2871981 -0.12985274 -0.14131981 -0.16179335 0.19491644 0.36400527 -0.09162823 0.11235063
-0.08163702 0.24679534 0.047869004 0.22196199 0.2815355 -0.21940896 -0.07786066 -0.21052536
-0.05221264 -0.22256562 0.35756448 0.12718219 -0.24808776 -0.23701318 -0.27821845 -0.25212964
0.050532416 -0.44163546 0.0003366468 -0.30412298 -0.19795607 0.4459295 0.047580875 0.050607853
0.24303436 -0.11521867 0.13093115 0.09393307 0.07959307 -0.18666336 -0.054497357 0.052395184
-0.019413203 0.19363856 -0.3438558 0.24351612 0.33309597 -0.28570825 0.38485065 -0.22987863
0.12335952 -0.3256577 0.1215275 0.035920728 -0.049073476 -0.21855487 -0.33108383 0.15421787
-0.021469489 -0.2701975 -0.5157173 -0.07616834 0.3498008 0.21928106 0.11853975 -0.31048304
-0.020237288 0.2024579 0.35070077 0.33956343 -0.27640748 -0.47288582 0.21315335 0.0707322
-0.09324119 -0.28441843 -0.2711163 -0.39455122 0.22459957 -0.40409634 -0.21462521 -0.009605964
0.13500178 -0.34279135 -0.08147273 -0.18571037 -0.048911244 -0.29770082 -0.21678495 -0.06115993
-0.049857996 0.23722267 -0.20278905 -0.28098452 -0.07783172 -0.28761756 -0.20412102 -0.066294104
0.23965316 -0.021335818 0.30083293 0.103514865 0.20008041 0.2681455 -0.031914428 -0.2536654
0.0998399 -0.2495222 0.2906743 0.038314473 0.041355994 -0.24974295 0.002814015 -0.090523176
0.11459137 -0.025934214 -0.0041504526 0.043498076 -0.1967479 0.23702253 -0.25059685 -0.06282346
-0.034079187 -0.2182711 0.0013398296 -0.12407131 0.08883204 -0.182177 -0.31046864 -0.0005449371
-0.22168368 -0.19989273 0.1913312 0.11680093 0.19094475 0.13714936 -0.27135056 0.11257414
-0.1484272 -0.08571756 -0.21759734 -0.15110454 -0.27235526 0.19639564 0.2243437 -0.116667494
-0.15850724 -0.111516036 0.20573546 -0.14520088 0.020831801 0.25510117 -0.1755168 -0.18984982

layer3.bias f4 [7]
00000000: 2329 873d 8918 d73c 76d6 0c3e 08bd 80bd
00000010: 575b e3bd b6b3 753c 4f3a 91bd
0.06599643 0.026256816 0.13753685 -0.06286055 -0.11101406 0.01499646 -0.070911996
