maml_model/maml_OpenDoorsOrder_7_3_500_50.pth (torch, 60334 bytes, 6 tensors)

layer1.weight f4 [64, 151]
0.072894946 0.14299363 0.0016411928 0.0018441315 -0.11460274 0.10187993 0.09567982 0.102295384
-0.05704857 0.09677115 0.07950206 -0.03523646 -0.02612239 -0.041252427 0.034919746 0.05866936
0.14238793 -0.1547677 0.08716307 0.018631559 -0.08422807 -0.14414899 -0.16188559 0.06269171
0.07800015 -0.12863289 0.082459286 -0.07854282 0.0820074 0.10705368 0.12891538 0.027786497
-0.11616484 -0.17144574 0.1262338 -0.041413907 -0.1281209 0.10892021 -0.02328598 0.06668174
0.1318688 0.087900124 -0.16263193 0.15925404 -0.13887075 -0.060236026 -0.1374624 0.024388673
0.009527877 -0.021025883 -0.074978314 0.15029982 0.09627338 0.03540197 -0.16009751 0.0539444
-0.12284762 -0.010275867 0.12276325 0.07810431 -0.13820074 -0.055184428 -0.10002257 0.14866586
-0.008688641 0.0129069835 0.16067801 0.1509559 -0.0025087465 0.14883056 0.0030135247 -0.12958962
-0.06386376 -0.15266778 0.1587121 -0.063776135 -0.07488405 0.07677716 0.15672772 0.1674065
-0.16143729 -0.025438387 0.09320119 0.14951994 -0.034920573 0.13624312 -0.10714419 -0.013199993
0.142504 0.08619071 0.13893393 -0.14429204 0.03860266 -0.1115977 0.07825368 0.13959861
-0.12571429 -0.023509832 0.06959903 -0.13964002 0.1277889 -0.16010524 -0.14719412 0.024975453
-0.019616466 0.16750255 -0.014918149 0.0074330023 0.12600109 0.046798058 0.038789943 0.024346262
0.05845545 0.114018545 0.029032899 -0.057858266 0.11160104 0.008057361 0.09076966 0.050076686
-0.017929934 0.029144363 -0.009234484 0.059318163 -0.045203455 -0.12613273 -0.11180958 0.034231056
-0.06862445 0.045263723 -0.092803314 0.017536782 -0.14070396 -0.11377521 0.02176406 -0.012735086
0.020784128 -0.07323728 -0.15939376 0.07746206 0.06980823 -0.15725678 -0.0077633355 0.15873814
0.06923999 -0.08644384 0.116414495 0.12626801 0.011493665 -0.049264263 0.05123426 0.02884076
-0.14868423 -0.038011737 0.015400746 -0.15949434 0.04674767 -0.10057173 0.0849789 -0.05655276
-0.13565391 -0.12278461 0.047639843 -0.124634214 -0.026659623 -0.0035741408 -0.113446645 0.1429216
-0.10543081 -0.15694423 -0.010774642 -0.042835202 0.009120836 -0.13736427 0.01565687 -0.0762657
0.14588201 0.08314587 0.09195581 0.12840658 -0.074392155 0.06953269 -0.15030815 0.079466105
-0.027964434 0.116062805 0.16180684 0.16234688 0.022084478 0.15252955 0.10388455 -0.068877764
0.008160218 0.14495102 0.05302779 0.044586886 0.067137636 0.136954 -0.06763056 -0.03995374
-6.383148e-05 0.024211023 -0.07147228 -0.11354771 0.16247588 -0.01887351 -0.11057722 0.13595335
0.08998303 0.02415716 -0.11936587 -0.1675816 -0.11993963 0.16373052 0.14619274 -0.09884957
-0.08196987 -0.11274475 -0.13356218 -0.036827132 0.03674279 0.101136 0.093996465 -0.14365202
-0.07316618 -0.06803453 -0.11361041 -0.15239856 -0.020404907 0.12730819 -0.031849228 -0.12138083
0.1315772 -0.093055375 0.09197122 0.050895553 0.1200396 -0.06722276 -0.15565583 -0.06320129
-0.014761305 -0.01331915 0.08086615 0.06551773 -0.031225063 -0.081008114 0.08019578 -0.013431384
0.033524085 0.01459692 -0.004379584 -0.00048803602 -0.04590859 -0.13321218 -0.1039937 -0.16175729
00000000: f249 953d ec6c 123e 4b1d d73a c9b6 f13a
00000010: d7b4 eabd 6da6 d03d c8f3 c33d 3e80 d13d
00000020: c3ab 69bd f42f c63d fad1 a23d 1b54 10bd
00000030: 9ffe d5bc 4ef8 28bd 0208 0f3d 484f 703d
00000040: 24ce 113e 6d7b 1ebe 8d82 b23d 36a1 983c
00000050: c47f acbd cb9b 13be 56c5 25be 8364 803d
00000060: 8bbe 9f3d 57b8 03be 6ae0 a83d 0fdb a0bd
00000070: 7ff3 a73d f63e db3d 6502 043e 82a0 e33c
00000080: d5e7 edbd 798f 2fbe 6f43 013e a1a1 29bd
00000090: 2032 03be 8f11 df3d 3dc2 bebc 7090 883d
000000a0: 9d08 073e fb04 b43d fc88 26be 7e13 233e
000000b0: 2234 0ebe 0dba 76bd f2c2 0cbe c1ca c73c
000000c0: d01a 1c3c 793e acbc 3b8e 99bd 32e8 193e
000000d0: fa2a c53d a801 113d 9af0 23be cef4 5c3d
000000e0: 8897 fbbd 1c5c 28bc 4c6b fb3d 27f5 9f3d
000000f0: 7f84 0dbe 1109 62bd a2d8 ccbd dd3b 183e
00000100: cd5a 0ebc d077 533c c788 243e 2f94 1a3e
00000110: c869 24bb 0a67 183e 8e7e 453b 24b3 04be
00000120: 01cb 82bd f154 1cbe 6d85 223e 109d 82bd
00000130: cf5c 99bd 583d 9d3d 3b7d 203e 9c6c 2b3e
00000140: d14f 25be 2a64 d0bc 44e0 be3d c11b 193e
00000150: e008 0fbd 5183 0b3e 6a6e dbbd c944 58bc
00000160: 92ec 113e c184 b03d b244 0e3e 4bc1 13be
00000170: d31d 1e3d 568d e4bd 7743 a03d f0f2 0e3e
00000180: 3fbb 00be b197 c0bc f089 8e3d cbfd 0ebe
00000190: 18db 023e a1f2 23be 0eba 16be 5299 cc3c
000001a0: b6b2 a0bc ca85 2b3e 416b 74bc 8b90 f33b
000001b0: 6e06 013e 52af 3f3d 34e2 1e3d d071 c73c
000001c0: fb6e 6f3d 8e82 e93d 67d6 ed3c cafc 6cbd
000001d0: 168f e43d 0503 043c 72e5 b93d 361d 4d3d
000001e0: cce1 92bc 29c0 ee3c 3c4c 17bc 9af7 723d
000001f0: 4227 39bd f028 01be 6cfc e4bd dd35 0c3d
00000200: fa8a 8cbd 7466 393d aa0f bebd 4ca9 8f3c
00000210: b314 10be fa02 e9bd 8b4a b23c d2a6 50bc
00000220: 7a43 aa3c 6dfd 95bd 1e38 23be 6ea4 9e3d
00000230: 9ef7 8e3d ec07 21be 9463 febb 408c 223e
00000240: b2cd 8d3d 7809 b1bd b96a ee3d 674c 013e
00000250: ed4f 3c3c 53c9 49bd 04db 513d 7543 ec3c
00000260: ae40 18be 32b2 1bbd 6953 7c3c 7c52 23be
00000270: 7c7a 3f3d 8df8 cdbd 6b09 ae3d dea3 67bd
00000280: dce8 0abe 7f76 fbbd ff21 433d 3940 ffbd
00000290: 4865 dabc 223c 6abb b756 e8bd 0a5a 123e
000002a0: 1cec d7bd fdb5 20be 2088 30bc f773 2fbd
000002b0: 8f6f 153c 38a9 0cbe d642 803c 3131 9cbd
000002c0: 1862 153e 6248 aa3d 5453 bc3d 047d 033e
000002d0: ea5a 98bd 2867 8e3d 61ea 19be 20bf a23d
000002e0: ab15 e5bc 56b2 ed3d b1b0 253e 433e 263e
000002f0: 82ea b43c b530 1c3e 6cc1 d43d c90f 8dbd
00000300: 6fb2 053c 0a6e 143e ab33 593d bda0 363d
00000310: 757f 893d ab3d 0c3e e481 8abd 88a6 23bd
00000320: 44dd 85b8 3256 c63c 0f60 92bd b48b e8bd
00000330: 1460 263e 9f9c 9abc 4f76 e2bd 5b37 0b3e
00000340: 0649 b83d 3de5 c53c 1876 f4bd 839a 2bbe
00000350: e9a2 f5bd f9a8 273e 8db3 153e a571 cabd
00000360: d2df a7bd b8e6 e6bd 86c4 08be 0cd8 16bd
00000370: 9c7f 163d 6420 cf3d 3881 c03d 8419 13be
00000380: 26d8 95bd b055 8bbd 93ac e8bd 5e0e 1cbe
00000390: 3128 a7bc 145d 023e 5674 02bd 8396 f8bd
000003a0: 2cbc 063e d193 bebd 685b bc3d db77 503d
000003b0: 52d7 f53d 16ac 89bd 3e64 1fbe ae6f 81bd
000003c0: 67d9 71bc 9038 5abc 279d a53d 292e 863d
000003d0: b4cb ffbc 95e7 a5bd af3d a43d 4f0f 5cbc
000003e0: 8d50 093d ec27 6f3c 9d82 8fbb 16df ffb9
000003f0: a50a 3cbd c668 08be a6fa d4bd b4a3 25be

layer1.bias f4 [64]
-0.06730084 0.03329323 0.0063201976 0.0040818537 0.029108465 -0.025098793 -0.02927051 0.051464994
-0.02534549 -0.003593379 0.01756677 0.00031243113 0.02926284 0.006085836 -0.02008809 0.016298141
0.0196758 -0.052267093 -0.029266126 0.044683743 -0.002088475 0.005358673 -0.03398325 0.012882451
0.03961516 -0.010326864 0.00013385527 0.0026919814 0.02181626 -0.017132917 -0.010860643 0.01022189
-0.008486453 0.0289488 -0.02760406 -0.0030310396 0.012254665 -0.032500327 0.021248983 0.028649818
0.0031543016 -0.005026997 0.032549955 0.0044702357 0.025207357 -0.0143769635 -0.02103526 -0.0010228481
0.020583585 0.013492431 -0.044542942 -0.028049866 -0.002965285 0.02868076 0.012353224 -0.030342447
-0.027171878 0.0052613397 0.011800832 0.013393783 -0.019594982 0.01299135 0.007252061 -0.008671744
00000000: 06d5 89bd 7b5e 083d a919 cf3b 12c1 853b
00000010: e074 ee3c fc9b cdbc b5c8 efbc f5cc 523d
00000020: 58a1 cfbc e57e 6bbb 30e8 8f3c cccd a339
00000030: a0b8 ef3c b16b c73b c78f a4bc ae83 853c
00000040: 252f a13c 0516 56bd 84bf efbc 4d06 373d
00000050: ccde 08bb cf97 af3b 0532 0bbd ea10 533c
00000060: 8243 223d 0232 29bc 805b 0c39 f46b 303b
00000070: 03b8 b23c 555a 8cbc d7f0 31bc b779 273c
00000080: c40a 0bbc 0926 ed3c e921 e2bc 68a4 46bb
00000090: cac7 483c 101f 05bd 5912 ae3c 06b3 ea3c
000000a0: 66b8 4e3b 82b9 a4bb 1a53 053d 0e7b 923b
000000b0: a97f ce3c 5b8d 6bbc 2352 acbc 1611 86ba
000000c0: e89e a83c 5b0f 5d3c a972 36bd d5c8 e5bc
000000d0: 3a55 42bb eaf3 ea3c 2d65 4a3c b990 f8bc
000000e0: 8f97 debc 5167 ac3b 4758 413c 9971 5b3c
000000f0: a885 a0bc acd9 543c b2a2 ed3b ee13 0ebc

layer2.weight f4 [64, 64]
0.16610642 0.06779407 0.017372541 -0.038733643 0.08320973 -0.03247455 -0.15109564 0.14117974
0.20284118 0.11889294 0.1395646 0.17186506 0.079715654 0.006317566 -0.11435715 0.12217996
0.2230053 0.15982555 -0.13581522 -0.11998805 0.093001485 -0.112577535 0.06482451 0.033631995
0.17785086 0.1271143 -0.17652275 -0.10064989 -0.11134762 0.0151782315 -0.14528956 -0.106662236
0.043973368 0.16489868 0.15867394 -0.06526883 -0.08142075 -0.19761457 -0.18231767 0.05824957
-0.08274166 0.19489467 -0.051912393 -0.04133985 0.11893728 -0.011269723 0.1739371 0.16047521
-0.18062496 -0.20208251 -0.18538983 -0.09528829 0.20063235 -0.13271783 0.114631265 0.020724982
0.0042454856 0.025600746 -0.082069814 -0.021884799 -0.18209495 0.10650481 0.12553632 0.19936982
-0.080278456 0.14625119 0.05929874 -0.20012031 -0.21734607 -0.090478376 -0.15056077 0.1789603
0.14197041 -0.1086459 -0.10753801 0.10984384 0.027915517 -0.03531288 0.040577885 -0.17045712
0.01648721 -0.19062848 -0.06953131 0.09182268 0.04921352 -0.10990726 0.19112837 -0.16991343
0.16161282 -0.05830973 0.20629866 -0.08906217 -0.013674866 0.03830444 0.10257767 0.16168009
-0.1614247 0.06716169 -0.19164537 -0.2075655 0.06820001 -0.08081328 -0.15728849 0.07965836
-0.070051916 -0.15192442 -0.2125051 -0.057770092 0.19039793 0.03072781 -0.14759499 -0.014166207
-0.14476639 -0.118624195 -0.1764841 -0.08623658 -0.19156957 0.14907531 -0.11451873 -0.00013183663
-0.0659905 0.20763366 0.06882506 -0.107504085 0.026144153 0.20128198 0.07739809 -0.08304649
-0.051621854 -0.14288366 -0.10258062 -0.20667203 0.15730281 -0.12802753 -0.13764821 -0.09111752
0.15289558 -0.15322845 -0.1849852 -0.19158918 -0.16559403 -0.1832044 0.045860633 0.10348925
-0.05589467 0.09877715 0.21461833 0.20251411 0.06705494 -0.17657173 0.16428076 0.14995335
-0.08646166 -0.16226433 0.056110475 0.15512472 0.12168703 0.026978554 0.003999325 -0.043311443
-0.12627131 0.16505136 -0.18639296 -0.06232118 0.09165726 -0.20999026 0.13256699 -0.030806607
-0.06490855 -0.15742843 0.19944221 -0.12876405 0.19438674 0.00432509 -0.0174319 -0.0074130376
0.17468683 -0.050770417 0.15003796 -0.16908377 -0.15494952 -0.08442848 0.019921225 0.072005235
0.1649035 -0.19166662 0.17936873 -0.08088034 0.105481856 -0.1948989 -0.22374997 0.13067988
0.07692173 0.10023119 -0.050117612 0.016034039 0.13627824 -0.11562577 -0.0069820806 -0.12392493
0.18143512 -0.024780774 -0.19438802 -0.102625415 -0.15607946 0.1892144 0.08561263 -0.123235814
0.15593046 0.16275887 -0.053716462 -0.046010945 -0.09041544 -0.07555109 0.16749947 -0.18821158
-0.21193533 0.18362303 0.21864223 0.1962766 -0.17580111 -0.14870736 -0.12978268 0.19713286
0.072609276 0.087759346 0.21246834 0.018480508 -0.012604253 0.17191198 0.12340831 -0.10159022
-0.0966988 -0.070580885 -0.18528417 0.024954332 0.081172384 0.121555895 -0.008463988 0.09618038
0.053457893 0.07681633 0.12772761 0.12639439 -0.032497194 -0.018837646 0.21154988 0.21228616
0.11792285 -0.18435816 -0.0057486244 0.07546818 -0.09553958 0.09951426 -0.13312937 -0.11020926
00000000: cd17 2a3e 9ed7 8a3d dc50 8e3c 2ba7 1ebd
00000010: dd69 aa3d 0904 05bd d1b8 1abe 6c91 103e
00000020: 99b5 4f3e 247e f33d 06ea 0e3e 65fd 2f3e
00000030: f641 a33d 9603 cf3b 1534 eabd 7d39 fa3d
00000040: 805b 643e 4fa9 233e 2513 0bbe 4bbc f5bd
00000050: 9077 be3d 0d8f e6bd b6c2 843d b4c1 093d
00000060: 891e 363e 402a 023e 61c2 34be 8821 cebd
00000070: 390a e4bd 1eae 783c c9c6 14be bb71 dabd
00000080: 6b1d 343d 33db 283e 6c7b 223e aaab 85bd
00000090: ecbf a6bd 795b 4abe 7cb1 3abe 1a97 6e3d
000000a0: 7674 a9bd 7892 473e 17a2 54bd f953 29bd
000000b0: 6395 f33d a5a4 38bc 911c 323e 9d53 243e
000000c0: c0f5 38be b8ee 4ebe d5d6 3dbe 8226 c3bd
000000d0: 9172 4d3e 2fe7 07be ccc3 ea3d 70c7 a93c
000000e0: b71d 8b3b a8b8 d13c 3814 a8bd c047 b3bc
000000f0: 1977 3abe 321f da3d 988c 003e 9a27 4c3e
00000100: 0869 a4bd dfc2 153e 3ce3 723d 57ec 4cbe
00000110: f88f 5ebe ba4c b9bd 9a2c 1abe 5e41 373e
00000120: b160 113e be81 debd e33c dcbd cff5 e03d
00000130: 15af e43c 3da4 10bd ff34 263d 508c 2ebe
00000140: 2f10 873c 1d34 43be 6e66 8ebd 870d bc3d
00000150: 1e94 493d 0f17 e1bd 28b7 433e c9fd 2dbe
00000160: d57d 253e 2fd6 6ebd f53f 533e 3a66 b6bd
00000170: 8c0c 60bc 1ee5 1c3d 3e14 d23d 778f 253e
00000180: 844c 25be 118c 893d af3e 44be 0d8c 54be
00000190: 72ac 8b3d 6f81 a5bd 3c10 21be ec23 a33d
000001a0: 6177 8fbd 1392 1bbe f09a 59be 55a0 6cbd
000001b0: adf7 423e e3b8 fb3c 2423 17be 6119 68bc
000001c0: a43d 14be 3ef1 f2bd 3fb8 34be ce9c b0bd
000001d0: d02a 44be 33a7 183e cc88 eabd a03d 0ab9
000001e0: 0726 87bd eb9d 543e 27f4 8c3d 1a2b dcbd
000001f0: 432c d63c dd1c 4e3e e482 9e3d 4714 aabd
00000200: 7071 53bd 1850 12be ca15 d2bd d5a1 53be
00000210: fd13 213e a619 03be a7f3 0cbe d39b babd
00000220: a990 1c3e ebe7 1cbe c36c 3dbe f42f 44be
00000230: 7b91 29be ef99 3bbe 5cd8 3b3d 2cf2 d33d
00000240: cff1 64bd ad4b ca3d e8c4 5b3e dc5f 4f3e
00000250: 1a54 893d 38cf 34be 3739 283e 5f8d 193e
00000260: d012 b1bd 9f28 26be 19d4 653d 04d9 1e3e
00000270: 0d37 f93d 2102 dd3c c50c 833b 5767 31bd
00000280: 444d 01be 3903 293e ccdd 3ebe 7e44 7fbd
00000290: cdb6 bb3d b007 57be a4bf 073e 235e fcbc
000002a0: c6ee 84bd eb34 21be 943a 4c3e b9da 03be
000002b0: 510d 473e 7cb9 8d3b 58cd 8ebc 11e9 f2bb
000002c0: 1be1 323e a4f4 4fbd 8da3 193e 4c24 2dbe
000002d0: 16ab 1ebe d7e8 acbd d631 a33c 7b77 933d
000002e0: 77dc 283e 4144 44be 70ac 373e 97a4 a5bd
000002f0: df06 d83d 9493 47be b61e 65be f2d0 053e
00000300: 2489 9d3d 0346 cd3d 2048 4dbd d159 833c
00000310: 868c 0b3e 34cd ecbd f0c9 e4bb 5bcc fdbd
00000320: 21ca 393e 0d01 cbbc a70d 47be 462d d2bd
00000330: 4bd3 1fbe 6bc1 413e ad55 af3d 0f63 fcbd
00000340: 3cac 1f3e 43aa 263e cb05 5cbd f975 3cbd
00000350: bb2b b9bd 88ba 9abd fb84 2b3e 89ba 40be
00000360: 9305 59be ad07 3c3e c0e3 5f3e bcfc 483e
00000370: 3505 34be be46 18be c0e5 04be 32dd 493e
00000380: 2cb4 943d 2cbb b33d 4d91 593e 6f64 973c
00000390: 1282 4ebc b209 303e 7fbd fc3d 890e d0bd
000003a0: 050a c6bd b68c 90bd 22bb 3dbe 076d cc3c
000003b0: b53d a63d 4cf2 f83d 8aac 0abc 38fa c43d
000003c0: aaf6 5a3d e151 9d3d 07cb 023e 886d 013e
000003d0: c71b 05bd 6851 9abc 88a0 583e 8b61 593e
000003e0: 8981 f13d 63c8 3cbe f55e bcbb 108f 9a3d
000003f0: 41aa c3bd 22ce cb3d 1153 08be 64b5 e1bd

layer2.bias f4 [64]
0.019567432 0.028596165 -0.0132311415 -0.06619251 0.010840738 0.021770604 -0.041677605 0.011643334
0.0006560914 -0.00992497 0.03799688 0.008396995 0.021349698 0.0002799763 0.009147867 0.022052107
0.01657781 0.03553162 0.051627982 -0.016021948 -0.001840904 0.027582286 -0.01865434 0.0066742375
-0.015689561 0.034320276 -0.03864537 0.017560858 0.020833177 0.02529077 0.04865565 0.021119474
-0.008819041 -0.03830985 0.011648178 0.011958139 0.0015522243 -0.010929454 -0.0025266064 -0.025525562
-0.011072153 -0.011410504 -0.030591898 0.010487823 -0.007419337 0.014870901 0.0047642486 0.01838329
0.015828393 -0.031458486 0.0057166703 -0.00416649 0.031222822 0.016765011 0.060019877 0.016764935
-0.018659228 -0.042276982 -0.048851427 0.016956536 -0.020506836 0.011217355 0.022196902 -0.025044017
00000000: e14b a03c 8142 ea3c 6ec7 58bc f08f 87bd
00000010: 5a9d 313c 4458 b23c 23b6 2abd afc3 3e3c
00000020: 8cfd 2b3a 579c 22bc 9ea2 1b3d 8d93 093c
00000030: 90e5 ae3c c8c9 9239 efe0 153c 9fa6 b43c
00000040: 30ce 873c 9b89 113d dd77 533d 7640 83bc
00000050: 7d4a f1ba 3ff4 e13c fdd0 98bc 90b3 da3b
00000060: 6587 80bc 6b93 0c3d 9c4a 1ebd cadb 8f3c
00000070: 57aa aa3c 972e cf3c 264b 473d bf02 ad3c
00000080: bd7d 10bc caea 1cbd 00d8 3e3c 12ec 433c
00000090: 0174 cb3a 7411 33bc 6c95 25bb fc1a d1bc
000000a0: fa67 35bc 1ff3 3abc dc9b fabc 1ed5 2b3c
000000b0: e91d f3bb 14a5 733c 6a1d 9c3b 8e98 963c
000000c0: 8caa 813c 9dda 00bd e852 bb3b 0d87 88bb
000000d0: 01c7 ff3c c756 893c 67d7 753d 9e56 893c
000000e0: 3ddb 98bc a12a 2dbd 6f18 48bd 6fe8 8a3c
000000f0: f4fd a7bc ffc8 373c 47d6 b53c 1c29 cdbc

layer3.weight f4 [7, 64]
0.10452372 0.23136282 -0.011225427 -0.100268126 -0.063203275 -0.03978503 -0.07191527 0.22990708
0.15585318 0.104781665 0.14444518 0.20682588 -0.020977188 0.22051518 -0.1847652 -0.046438005
0.14924271 0.033276442 -0.016664093 -0.25768068 0.16168922 -0.095566295 0.07139886 -0.03435173
0.14793557 -0.1615933 0.044648297 0.1973958 -0.12406809 0.14699143 0.32983688 -0.024279417
0.038958814 0.10334224 -0.0110107055 0.2230569 -0.27029592 0.09369582 0.057591513 -0.016160864
-0.02023704 -0.21967019 -0.22592 -0.314099 -0.21125448 0.2620822 -0.22898075 0.22060104
-0.07494432 0.03077092 -0.25035095 -0.04399949 0.2769079 -0.28224424 0.27381578 0.11754737
0.009081527 0.30597052 -0.27665833 -0.04291214 -0.2847921 -0.116633125 -0.056002468 0.078998394
-0.013159916 0.10102362 0.23206498 -0.21955124 0.09778442 -0.0062958333 0.013968206 0.025240563
0.3038865 -0.14222006 -0.104211465 -0.09272263 -0.11633958 -0.16261624 0.2250324 0.12514766
-0.056018792 0.24459977 0.14203824 -0.1444178 -0.24956703 -0.14106084 0.05373141 0.30717742
0.115373686 -0.020051163 0.1701322 0.15450245 0.029857824 0.21742442 0.022161473 -0.13758229
0.22107919 0.28896138 0.04077804 0.0767158 -0.25775376 0.028912246 0.020540526 -0.23221749
0.21763545 0.010653097 -0.049477737 -0.26647672 0.0701216 -0.2127329 -0.2191839 -0.08119286
0.042861763 -0.17512698 -0.118033566 0.21035223 0.09925108 -0.26298222 -0.014949586 0.28785187
-0.2268057 -0.27021122 0.0018654114 -0.14434393 0.15787657 0.13865882 0.2985837 0.12694748
0.21179949 0.0010245774 0.023308236 -0.32761455 0.27685857 0.2660662 -0.01910511 -0.14243312
-0.21722889 -0.117380865 0.28224322 0.2997425 -0.09137023 -0.088268094 0.057645645 0.103999645
0.007361063 0.2335231 0.32178107 -0.16710362 -0.13585298 0.1766766 -0.22337645 0.1807684
-0.23286787 0.24019533 -0.28650624 0.19072206 0.20629993 0.18131477 0.2651043 0.06655941
-0.15939103 -0.23844162 0.25826555 0.12136926 -0.26333156 -0.041791286 -0.065634206 -0.12989025
-0.122639254 0.14639083 -0.056803286 0.27412236 0.0068306345 0.21871224 -0.026671028 0.18746877
0.13785993 -0.00022818707 -0.058601994 0.008719559 0.1075941 0.26774922 0.23550297 0.13242546
-0.23745175 -0.17884922 -0.1822976 0.017755678 -0.06756864 -0.08200076 0.23976709 -0.26424792
0.072331995 0.19965081 0.15074319 -0.17006919 -0.10541504 0.21827465 -0.28906444 -0.06704637
-0.049672566 0.2672511 -0.02257918 0.06170597 0.12214528 0.152194 0.043674257 -0.29282564
-0.14411265 -0.051251 -0.12319862 0.2391173 0.11040146 0.0038233297 -0.198036 -0.000702883
0.18848148 -0.089058094 -0.014175511 -0.20648077 -0.2051181 0.18631855 0.2221888 -0.21202469
-0.11917883 0.19357319 -0.07561285 -0.1152862 -0.09935951 -0.15952295 0.23075628 0.0887749
0.029263899 -0.09315065 -0.124217264 0.062430862 0.2848076 -0.04772675 -0.04122512 -0.00913112
-0.12107667 0.21697961 -0.2621288 -0.03886323 -0.27135178 0.14408569 0.20429622 -0.0008422608
0.1754804 -0.11765688 0.19613221 0.1945998 -0.14163673 -0.03118166 0.15053518 0.1426901
00000000: 8810 d63d 60ea 6c3e daea 37bc 6059 cdbd
00000010: b870 81bd a1f5 22bd 5048 93bd c36c 6b3e
00000020: fa97 1f3e c597 d63d 70e9 133e 2aca 533e
00000030: 5ad8 abbc bbce 613e 1733 3dbe c735 3ebd
00000040: 15d3 183e e14c 083d 2383 88bc b9ee 83be
00000050: dc91 253e 43b8 c3bd 9139 923d 66b4 0cbd
00000060: 6c7c 173e b778 25be 22e1 363d 2022 4a3e
00000070: 6917 febd ec84 163e 61e0 a83e a1e5 c6bc
00000080: 4793 1f3d 19a5 d33d 3f66 34bc 0769 643e
00000090: 3a64 8abe 98e3 bf3d 14e5 6b3d ca63 84bc
000000a0: 26c8 a5bc 39f1 60be 9357 67be 96d1 a0be
000000b0: 1853 58be a32f 863e ee79 6abe 3de5 613e
000000c0: 687c 99bd 4c13 fc3c 002e 80be cf38 34bd
000000d0: dfc6 8d3e 5182 90be 9531 8c3e adbc f03d
000000e0: afca 143c 2ba8 9c3e 29a6 8dbe a4c4 2fbd
000000f0: 45d0 91be 59dd eebd d862 65bd e9c9 a13d
00000100: b09c 57bc 79e5 ce3d 71a2 6d3e 0ad2 60be
00000110: 3343 c83d 474d cebb e7da 643c 4cc5 ce3c
00000120: 0397 9b3e 23a2 11be d26c d5bd 5de5 bdbd
00000130: 7243 eebd df84 26be e56e 663e b526 003e
00000140: f673 65bd 5d78 7a3e 7972 113e 42e2 13be
00000150: 808e 7fbe 4172 10be 7815 5c3d 5c46 9d3e
00000160: 0a49 ec3d 5642 a4bc 2337 2e3e e435 1e3e
00000170: 6598 f43c 82a4 5e3e fa8b b53c 5fe2 0cbe
00000180: 9562 623e bff2 933e e006 273d 2c1d 9d3d
00000190: 4df8 83be 60d9 ec3c 9b44 a83c 6cca 6dbe
000001a0: d4db 5e3e 548a 2e3c 2ba9 4abd a36f 88be
000001b0: ea9b 8f3d a7d6 59be bf71 60be 7148 a6bd
000001c0: d18f 2f3d 7d54 33be 95bb f1bd 9366 573e
000001d0: 2644 cb3d 9ba5 86be 1cef 74bc 5261 933e
000001e0: c13f 68be 2059 8abe d280 f43a e5ce 13be
000001f0: 65aa 213e 94fc 0d3e f6df 983e 85fe 013e
00000200: f7e1 583e 1d4b 863a eaf0 be3c 18bd a7be
00000210: 68c0 8d3e d439 883e 5282 9cbc fdd9 11be
00000220: 4071 5ebe 6165 f0bd 2f82 903e d977 993e
00000230: 5120 bbbd e7c5 b4bd d71d 6c3d c4fd d43d
00000240: 1235 f13b ae20 6f3e 7dc0 a43e 361d 2bbe
00000250: 0b1d 0bbe b6ea 343e ccbc 64be 5a1b 393e
00000260: ea74 6ebe c4f5 753e f2b0 92be a54c 433e
00000270: 4a40 533e 94aa 393e c0bb 873e 4d50 883d
00000280: 6737 23be 0a2a 74be 623b 843e 7290 f83d
00000290: 65d3 86be 572d 2bbd 3a6b 86bd f301 05be
000002a0: 4a2a fbbd 7ae7 153e 90aa 68bd c459 8c3e
000002b0: 84d3 df3b 1af6 5f3e 337d dabc d0f7 3f3e
000002c0: 272b 0d3e 8045 6fb9 a508 70bd 7bdc 0e3c
000002d0: 4c5a dc3d 6d16 893e b127 713e 8a9a 073e
000002e0: 8d26 73be 4024 37be 39ac 3abe 5b74 913c
000002f0: 6d61 8abd 04f0 a7bd 8185 753e 814b 87be
00000300: cc22 943d 4371 4c3e 6c5c 1a3e 9e26 2ebe
00000310: d7e3 d7bd 6483 5f3e 4100 94be 9b4f 89bd
00000320: 7675 4bbd 23d5 883e f9f7 b8bc 66bf 7c3d
00000330: 4e27 fa3d bed8 1b3e c7e3 323d 3eed 95be
00000340: 4492 13be 92ec 51bd 8f4f fcbd 2adb 743e
00000350: 291a e23d d490 7a3b f3c9 4abe ae41 38ba
00000360: 4a01 413e 1764 b6bd 6740 68bc b26f 53be
00000370: 7b0a 52be 4aca 3e3e 7685 633e 001d 59be
00000380: 0814 f4bd 0d38 463e e9da 9abd 2c1b ecbd
00000390: 007d cbbd fc59 23be 604b 6c3e 9dcf b53d
000003a0: d8ba ef3c c5c5 bebd 9f65 febd 81b7 7f3d
000003b0: 4dd2 913e 207d 43bd acdb 28bd b19a 15bc
000003c0: 0cf7 f7bd e72f 5e3e bf35 86be 0d2f 1fbd
000003d0: 9fee 8abe 338b 133e 0733 513e 2acb 5cba
000003e0: 22b1 333e 17f6 f0bd e2d6 483e 2c45 473e
000003f0: 3809 11be ae70 ffbc e525 1a3e 5b1d 123e

layer3.bias f4 [7]
0.026329136 -0.006453937 0.1135108 -0.0015890752 -0.055543795 -0.006226018 -0.07002528
00000000: 33b0 d73c 8c7b d3bb 5a78 e83d 8448 d0ba
00000010: e481 63bd a003 ccbb 6a69 8fbd
