maml_model/maml_PutNextLocal_7_10_800_50_encoder.pth (torch, 25524 bytes, 6 tensors)

net.0.weight f4 [32, 43]
0.11165957 0.10223976 -0.13580824 -0.107794076 0.029973214 -0.12761372 0.0006229119 0.019920582
-0.1310696 -0.08578145 0.011713398 -0.04583806 0.13063394 0.042924456 -0.11455245 0.044058423
0.069987446 0.10123111 -0.067589186 -0.03338915 0.056569252 0.019833304 -0.12949872 0.057995524
-0.10715597 0.12916341 -0.011059526 -0.13417494 -0.08747944 -0.034342013 0.028120004 -0.05694378
0.12209406 -0.14536731 -0.04314335 -0.039042313 0.1133486 0.040221237 0.12827171 0.02748971
0.040751144 0.14768943 -0.13638069 0.13862188 0.0033200213 0.06307204 -0.120910205 -0.1362841
0.012498978 -0.08327102 0.12976456 0.09893028 0.08531119 0.15241261 -0.11870119 0.03644757
-0.07399146 -0.13963434 0.10557514 -0.027182773 0.05034593 0.11550274 -0.095503144 -0.0073463246
-0.007861069 0.1034498 0.13876171 0.06850789 -0.046100713 0.03100245 0.11176279 0.1345797
-0.14746174 0.13582985 0.06308117 -0.08526298 0.026244124 -0.033943035 -0.045988422 -0.12472089
0.10495072 -0.12656726 -0.108774155 0.10084554 0.022087166 -0.034499973 -0.11628026 0.015061615
0.056717467 0.076134175 -0.13538904 0.06762518 -0.099496454 -0.09214715 0.14439279 -0.0149735
0.014153562 0.11812351 0.047384806 -0.032319937 -0.036081824 0.10537169 0.09996349 0.08263462
-0.050686866 -0.11027582 0.15175559 -0.001158527 0.010062685 -0.14645179 0.03195897 0.036424976
0.09161584 -0.0062510977 0.1129381 -0.11850969 0.0828137 0.12606342 -0.0356445 -0.03159071
0.028428396 0.121088706 -0.0904614 0.112219565 0.072566934 -0.14851142 -0.0074633444 -0.018019214
0.055022143 -0.026737908 0.11298264 0.014081336 -0.14244887 0.14172804 -0.14590411 -0.14799741
-0.10481452 -0.082581684 0.08491604 0.12301705 -0.10361876 -0.12395576 0.106957704 -0.008487599
-0.07169875 -0.112655915 -0.050712336 -0.0055157105 0.15062135 0.14590776 0.0820365 -0.09929466
-0.09880364 0.027079152 -0.13377568 0.025692765 -0.058226362 -0.1432193 0.07331468 -0.1363693
-0.060377497 -0.08816442 0.029804602 0.12200525 -0.060695104 0.14284374 -0.083221845 -0.05733131
-0.0024730319 -0.07469387 -0.020409204 -0.021444513 -0.06432056 0.146248 0.12028575 0.024947163
-0.033849265 -0.123245 0.12636895 -0.10632581 -0.07109909 -0.142676 -0.094739325 -0.043215103
0.042260405 0.14390323 -0.09507123 -0.11526093 -0.018579882 -0.08827602 -0.083768256 -0.13292831
0.12406934 0.13962328 0.13466313 -0.09602251 -0.061839342 0.018096404 0.11243866 0.06302183
0.06324767 -0.11177302 -0.09468653 -0.04898158 -0.07180933 -0.13898094 0.12857983 -0.026713876
-0.024755625 -0.035251595 -0.04640738 0.11625223 0.13700911 0.14286067 0.009035122 0.08314193
0.01924746 0.14258485 -0.13149494 -0.061316527 0.13839182 0.10375585 -0.03741298 -0.101657964
-0.1430998 0.14268392 -0.07217874 0.13966568 0.10441101 -0.04656236 0.123335116 -0.11991773
0.05430592 0.025278896 -0.08112062 0.019570632 -0.025517154 -0.1005641 0.0324461 0.060923237
-0.116898224 0.023415014 0.033066776 0.035271265 -0.11864463 0.10854777 -0.011146842 -0.024343846
-0.12663691 0.13540217 0.095333785 -0.12950896 -0.14117736 -0.050999567 -0.07039401 -0.05511633
00000000: c6ad e43d 1463 d13d 5111 0bbe 24c3 dcbd
00000010: 638a f53c 2cad 02be e94a 233a 7d30 a33c
00000020: 1c37 06be 2fae afbd 8de9 3f3c b1c0 3bbd
00000030: e7c4 053e 8ed1 2f3d 7a9a eabd 9b76 343d
00000040: 9455 8f3d 4252 cf3d 336c 8abd 10c3 08bd
00000050: 29b5 673d 7479 a23c 509b 04be b78c 6d3d
00000060: 9774 dbbd 6a43 043e 0433 35bc 2865 09be
00000070: 6c28 b3bd 36aa 0cbd ec5b e63c e23d 69bd
00000080: 730c fa3d 2bdb 14be 15b7 30bd d5ea 1fbd
00000090: 5023 e83d 06bf 243d a959 033e 1a32 e13c
000000a0: acea 263d e63b 173e 61a7 0bbe e5f2 0d3e
000000b0: b794 593b ea2b 813d c59f f7bd 0f8e 0bbe
000000c0: 83c8 4c3c ff89 aabd 00e1 043e f59b ca3d
000000d0: a2b7 ae3d 0d12 1c3e 9c19 f3bd 0c4a 153d
000000e0: d688 97bd 4efc 0ebe c737 d83d 68ae debc
000000f0: 8937 4e3d b38c ec3d 2797 c3bd 70b9 f0bb
00000100: b7cb 00bc 7ddd d33d 8d17 0e3e dd4d 8c3d
00000110: 1ad4 3cbd daf8 fd3c e4e3 e43d 43cf 093e
00000120: 3600 17be fb16 0b3e b330 813d 5b9e aebd
00000130: ebfd d63c da07 0bbd 5b5e 3cbd aa6d ffbd
00000140: 67f0 d63d d99a 01be fcc4 debd 1b88 ce3d
00000150: 25f0 b43c d84f 0dbd 5824 eebd fec4 763c
00000160: 9350 683d 3cec 9b3d 6da3 0abe 127f 8a3d
00000170: ccc4 cbbd a5b7 bcbd b4db 133e 6953 75bc
00000180: 57e4 673c bdea f13d 9216 423d e961 04bd
00000190: 89ca 13bd 1dcd d73d a9b9 cc3d 573c a93d
000001a0: 089d 4fbd 4ad8 e1bd d165 1b3e b7d9 97ba
000001b0: f6dd 243c 75f7 15be 69e7 023d 5b32 153d
000001c0: 16a1 bb3d 02d6 ccbb 174c e73d 35b5 f2bd
000001d0: 3b9a a93d c516 013e f8ff 11bd 4365 01bd
000001e0: abe2 e83c 5bfd f73d d443 b9bd 5fd3 e53d
000001f0: f99d 943d 6113 18be 128f f4bb 089d 93bc
00000200: e65e 613d 7509 dbbc 7163 e73d 67b5 663c
00000210: 1ede 11be 2821 113e e367 15be a28c 17be
00000220: ffa8 d6bd 9620 a9bd 76e8 ad3d 5df0 fb3d
00000230: 1336 d4bd 84dc fdbd a40c db3d 920f 0bbc
00000240: cbd6 92bd 25b8 e6bd bdb7 4fbd 22bd b4bb
00000250: 7c3c 1a3e d868 153e c102 a83d 005b cbbd
00000260: 9059 cabd 19d5 dd3c 7efc 08be a279 d23c
00000270: c47e 6ebd 15a8 12be 0226 963d 65a4 0bbe
00000280: 654e 77bd 8c8f b4bd c828 f43c e3dd f93d
00000290: 6e9b 78bd a145 123e 3770 aabd 3cd4 6abd
000002a0: 9712 22bb 1af9 98bd 3431 a7bc 67ac afbc
000002b0: 7fba 83bd 09c2 153e 6058 f63d fe5d cc3c
000002c0: 87a5 0abd e067 fcbd dd66 013e 59c1 d9bd
000002d0: 669c 91bd a819 12be b106 c2bd 5202 31bd
000002e0: 3f19 2d3d 5e5b 133e b4b4 c2bd ec0d ecbd
000002f0: d634 98bc 0fca b4bd b18e abbd 5c1e 08be
00000300: 1118 fe3d 68f9 0e3e 22e5 093e 73a7 c4bd
00000310: 404b 7dbd e93e 943c 3d46 e63d 9711 813d
00000320: ff87 813d 41e9 e4bd 03eb c1bd e9a0 48bd
00000330: c510 93bd 0551 0ebe 6eaa 033e 0fd7 dabc
00000340: 4fcc cabc fa63 10bd aa15 3ebd a615 ee3d
00000350: 1e4c 0c3e 114a 123e 0c08 143c 5146 aa3d
00000360: d9ac 9d3c c301 123e 9ca6 06be 0a27 7bbd
00000370: 96b6 0d3e f27d d43d 5a3e 19bd 0d32 d0bd
00000380: c188 12be bc1b 123e 72d2 93bd 8504 0f3e
00000390: 71d5 d53d 2cb8 3ebd 1f97 fc3d 6d97 f5bd
000003a0: e26f 5e3d b015 cf3c 9122 a6bd 9752 a03c
000003b0: 5a09 d1bc 8df4 cdbd 34e6 043d a58a 793d
000003c0: 5668 efbd d8d0 bf3c 0771 073d 9a78 103d
000003d0: f5fb f2bd 4b4e de3d 3ea1 36bc bf6c c7bc
000003e0: 1bad 01be dea6 0a3e 5c3e c33d ff9d 04be
000003f0: cc90 10be ece4 50bd bc2a 90bd a9c1 61bd

net.0.bias f4 [32]
0.053542625 0.0997957 0.044141337 0.049116287 -0.04466139 -0.13087025 -0.03520215 0.037937634
-0.033488207 -0.11330072 0.123356365 -0.06354139 0.09619952 0.1148025 -0.011290294 -0.022183426
0.13174562 0.070961274 0.10963902 -0.09361496 -0.14124331 0.08860099 -0.11913522 0.102348834
0.05278726 0.012867489 0.010167307 -0.14675952 -0.13954411 -0.14154656 0.10675608 0.09656254
00000000: 834f 5b3d b061 cc3d 8ccd 343d 292e 493d
00000010: ddee 36bd da02 06be 2130 10bd 7e64 1b3d
00000020: ee2a 09bd 350a e8bd 43a2 fc3d fd21 82bd
00000030: 4104 c53d 931d eb3d edfa 38bc 04ba b5bc
00000040: 53e8 063e 2554 913d 6c8a e03d 33b9 bfbd
00000050: 16a2 10be 7074 b53d 2bfd f3bd 449c d13d
00000060: 7437 583d 29d2 523c c794 263c 2148 16be
00000070: a7e4 0ebe 95f1 10be efa2 da3d 95c2 c53d

net.2.weight f4 [64, 32]
0.17395757 -0.047377124 0.026195763 0.09847921 0.05306969 0.13385318 0.07280651 0.11885253
-0.06354541 -0.01849212 -0.109240815 0.12175965 -0.027165392 0.12935278 0.09104596 -0.08476544
-0.05409548 0.0780261 -0.15827186 -0.018787675 -0.15195133 0.052166186 0.13235754 0.03350021
0.039232645 0.05561268 0.061964843 0.076398134 0.004000263 -0.11475244 0.16392396 0.04154381
0.17566359 -0.07953612 -0.032668337 -0.06349884 -0.1254274 -0.14000194 0.019864062 -0.07737754
-0.16761295 -0.17436408 -0.15413836 0.015325394 -0.063792944 -0.15176776 -0.02061767 0.10568737
-0.045887403 -0.034639567 0.102834895 0.009105447 -0.10269198 -0.05258426 0.07829936 0.045729436
-0.1545538 -0.026742997 0.01572128 0.14218165 0.10635306 0.08386738 0.030070828 0.15606105
-0.16980861 0.11133096 -0.11053656 0.063827336 0.15300128 0.05966843 0.14232868 -0.14977941
-0.15961939 -0.16192596 0.15735033 0.062894374 -0.097807705 0.11561034 -0.103950545 -0.102427565
-0.11211723 -0.13074462 0.067578696 0.07239385 -0.046492547 0.023752278 0.08171106 0.16443993
0.09785134 -0.15466043 0.049374 0.098777816 -0.10654045 -0.088902555 -0.0599356 -0.10199875
0.14786045 -0.09643747 -0.0456302 -0.07474162 -0.092180446 -0.060071208 -0.10238401 -0.10289959
0.13133132 -0.07352094 0.033225834 0.014836913 0.0071332906 -0.12602405 -0.14588746 -0.0015157061
0.07903219 -0.05685734 -0.054512713 0.1508492 -0.012019101 0.07830518 -0.06344747 0.014637326
-0.050850235 0.036126994 0.16756685 0.059335344 0.13268971 -0.16282141 -0.05105903 0.13125917
-0.029152384 -0.107001826 -0.07670564 -0.058405817 -0.104294986 0.11372918 -0.06693952 -0.15431839
-0.07193601 -0.08302027 -0.056060303 -0.10894597 -0.071981736 -0.1541811 0.084621474 -0.11532945
-0.061421886 -0.15394598 -0.15437543 0.056270592 0.0057452684 0.14539936 0.16814993 0.018365467
-0.077388585 0.09733724 -0.17399506 0.119594 -0.095509395 -0.057160903 -0.12937734 0.06063079
-0.008763425 -0.041923005 -0.041286588 0.14272922 0.0051866965 -0.03832999 0.16740821 0.074624516
0.035949405 -0.02542125 0.0034738695 0.16195516 0.10614643 0.14049883 0.021723181 0.1391262
-0.111457616 0.018085191 0.0064908885 0.032928046 -0.12519717 -0.16147673 -0.13832277 0.14193286
0.035732646 -0.17565289 -0.0778977 -0.08798983 0.1706462 0.0731197 -0.07024491 0.14189221
-0.15739863 0.068700686 -0.01883941 -0.09574501 0.104415886 -0.022355193 -0.07586795 0.11599637
0.019994276 0.050211333 -0.14353335 -0.0008750318 -0.040100176 -0.09019634 0.170135 0.16225131
-0.05781673 -0.10588675 -0.033429194 -0.0075833136 -0.027272213 0.14711644 -0.16086128 -0.16038749
0.07137474 0.03431773 0.05893579 0.008949567 0.02143911 0.16898216 -0.06992847 -0.15322742
0.02335007 -0.1523568 0.093831256 -0.114649035 0.16155161 0.16684233 0.06406801 -0.02468619
0.16496263 0.01111876 -0.15366934 -0.13186105 -0.13806315 -0.052183952 0.045318294 0.094762616
0.14665961 0.089183 -0.11353585 0.08413303 0.070943154 0.014604494 -0.04953401 -0.16890265
0.024404036 0.16888028 0.13627924 0.041252177 -0.08839336 0.13764895 0.074553095 0.004815151
00000000: ef21 323e 840e 42bd 7f98 d63c 78af c93d
00000010: 9a5f 593d cf10 093e 941b 953d f568 f33d
00000020: 1924 82bd c97c 97bc a6b9 dfbd 205d f93d
00000030: f589 debc 0e75 043e 4e76 ba3d 8199 adbd
00000040: 3993 5dbd 26cc 9f3d 0512 22be 9ce8 99bc
00000050: 2199 1bbe 36ac 553d bc88 073e 8437 093d
00000060: 69b2 203d 1fca 633d d9ce 7d3d a076 9c3d
00000070: a314 833b 5403 ebbd afdb 273e d829 2a3d
00000080: 28e1 333e d5e3 a2bd 3ccf 05bd ae0b 82bd
00000090: 0a70 00be ab5c 0fbe f5b9 a23c 1e78 9ebd
000000a0: bba2 2bbe 7f8c 32be 72d6 1dbe 5d17 7b3c
000000b0: e0a5 82bd 0269 1bbe 63e6 a8bc 9f72 d83d
000000c0: 6ef4 3bbd 38e2 0dbd 1a9b d23d 032f 153c
000000d0: 2c50 d2bd 9862 57bd 6a5b a03d ca4e 3b3d
000000e0: 5a43 1ebe 2114 dbbc eac9 803c 1198 113e
000000f0: a2cf d93d a9c2 ab3d 1957 f63c 78ce 1f3e
00000100: 4fe2 2dbe 7d01 e43d fe60 e2bd e8b7 823d
00000110: 5eac 1c3e e266 743d 9cbe 113e c65f 19be
00000120: 4473 23be ebcf 25be 7220 213e c4ce 803d
00000130: 684f c8bd 1dc5 ec3d 06e4 d4bd 8bc5 d1bd
00000140: b89d e5bd ebe1 05be b366 8a3d 3a43 943d
00000150: f86e 3ebd 2394 c23c 2158 a73d f162 283e
00000160: 4966 c83d 4e5f 1ebe 643c 4a3d 064c ca3d
00000170: e131 dabd 8b12 b6bd 087f 75bd b8e4 d0bd
00000180: bb68 173e 0281 c5bd bce6 3abd 2212 99bd
00000190: 1ac9 bcbd 3a0d 76bd b5ae d1bd 05bd d2bd
000001a0: b87b 063e 2692 96bd d017 083d 8616 733c
000001b0: 61be e93b 730c 01be 8663 15be a8aa c6ba
000001c0: a1db a13d 3ee3 68bd b948 5fbd 3678 1a3e
000001d0: c3eb 44bc 775e a03d bff0 81bd 65d1 6f3c
000001e0: 5648 50bd e6f9 133d a596 2b3e 9e09 733d
000001f0: d0df 073e a8ba 26be 4623 51bd ce68 063e
00000200: fbd0 eebc c623 dbbd d917 9dbd f03a 6fbd
00000210: 9c98 d5bd d8ea e83d 9617 89bd a405 1ebe
00000220: 3053 93bd 8806 aabd 7d9f 65bd 111f dfbd
00000230: 296b 93bd a6e1 1dbe 064e ad3d d931 ecbd
00000240: 8495 7bbd 04a4 1dbe 9814 1ebe fe7b 663d
00000250: ce42 bc3b 92e3 143e 7f2f 2c3e 2d73 963c
00000260: e87d 9ebd bf58 c73d c32b 32be b3ed f43d
00000270: 6e9a c3bd 8d21 6abd 7e7b 04be fe57 783d
00000280: 7894 0fbc 75b7 2bbd 201c 29bd 9c27 123e
00000290: 2af5 a93b e8ff 1cbd 0f6d 2b3e bdd4 983d
000002a0: af3f 133d 3a40 d0bc dca9 633b 93d7 253e
000002b0: 4d63 d93d edde 0f3e d0f4 b13c 1977 0e3e
000002c0: e443 e4bd 6527 943c 85b1 d43b 8fdf 063d
000002d0: b033 00be 285a 25be 7ca4 0dbe d956 113e
000002e0: 655c 123d 5ade 33be d488 9fbd 0334 b4bd
000002f0: e1bd 2e3e c8bf 953d 90dc 8fbd 314c 113e
00000300: 1b2d 21be f2b2 8c3d 1b55 9abc f615 c4bd
00000310: ffd7 d53d 3d22 b7bc a860 9bbd 818f ed3d
00000320: 09cb a33c 66aa 4d3d 68fa 12be 6462 65ba
00000330: 1540 24bd dcb8 b8bd df37 2e3e 3525 263e
00000340: 3cd1 6cbd 27db d8bd 0ded 08bd 727d f8bb
00000350: fa69 dfbc b1a5 163e d2b8 24be 9e3c 24be
00000360: eb2c 923d c090 0c3d a866 713d 34a1 123c
00000370: 13a1 af3c a909 2d3e a836 8fbd a6e7 1cbe
00000380: a548 bf3c 6c03 1cbe 9a2a c03d 1dcd eabd
00000390: c96d 253e b7d8 2a3e 1736 833d b13a cabc
000003a0: f7eb 283e 762b 363c 7f5b 1dbe 9506 07be
000003b0: 6d60 0dbe d7be 55bd ad9f 393d e712 c23d
000003c0: f02d 163e 94a5 b63d 7c85 e8bd f04d ac3d
000003d0: a54a 913d b047 6f3c 2de4 4abd d1f4 2cbe
000003e0: f9ea c73c f4ee 2c3e c98c 0b3e 0bf8 283d
000003f0: 9407 b5bd d9f3 0c3e 4baf 983d 6ac8 9d3b

net.2.bias f4 [64]
0.17491922 0.07785547 0.052239563 -0.17566001 0.14625394 0.074744314 0.06734858 -0.103063524
-0.047710653 0.074834555 0.070163414 0.08077365 -0.09450423 0.15592642 0.15257081 -0.017084962
-0.057808973 0.11381291 0.1105864 0.17576534 -0.16786006 -0.044359684 0.122243896 0.07251264
0.030620549 -0.0328835 0.1683251 0.008916545 -0.1711213 -0.1612929 -0.16252801 0.15763488
0.07694731 0.09711896 -0.15387674 -0.010228724 0.070330024 -0.08525298 0.051584814 0.0982619
0.15415134 -0.09137531 0.1491914 0.17140491 -0.019627007 -0.1275796 -0.10322829 0.13388686
0.06345912 0.16669744 -0.17574853 -0.0356713 -0.041800212 0.06810996 0.08937317 0.0009960565
-0.016592707 -0.14839351 -0.106626384 0.06418172 0.002565268 0.031525105 0.010621196 -0.17485161
00000000: 061e 333e b072 9f3d 27f9 553d 38e0 33be
00000010: 98c3 153e 8c13 993d 0dee 893d f812 d3bd
00000020: 3f6c 43bd dc42 993d d6b1 8f3d a86c a53d
00000030: 6f8b c1bd 2dab 1f3e 863b 1c3e c3f5 8bbc
00000040: 1ac9 6cbd be16 e93d 1f7b e23d d4fb 333e
00000050: 82e3 2bbe 80b2 35bd 025b fa3d 8281 943d
00000060: f2d7 fa3c d9b0 06bd 6a5d 2c3e b316 123c
00000070: 6c3a 2fbe f729 25be be6d 26be 0a6b 213e
00000080: 8d96 9d3d 4ee6 c63d dd91 1dbe 6196 27bc
00000090: 3009 903d 1d99 aebd 994a 533d 893d c93d
000000a0: d9d9 1d3e fb22 bbbd a1c5 183e c584 2f3e
000000b0: d1c8 a0bc 3aa4 02be 5b69 d3bd a319 093e
000000c0: dbf6 813d bcb2 2a3e 6cf7 33be 121c 12bd
000000d0: b336 2bbd 3c7d 8b3d 4809 b73d 1c8e 823a
000000e0: 6eed 87bc 78f4 17be ef5e dabd b571 833d
000000f0: 0e1e 283b 7820 013d 8604 2e3c 4d0c 33be

net.4.weight f4 [32, 64]
0.052712932 -0.093233764 -0.10013637 -0.08429213 -0.10354969 -0.111759305 -0.09537868 -0.035279766
-0.03091389 0.12361117 0.10819726 0.08873373 0.04484451 -0.013877332 0.039265066 0.085177094
0.052176774 0.012473315 -0.08781783 0.057508558 -0.054406717 0.12100352 -0.050847575 -0.073550776
-0.067283034 -0.06608471 0.017255172 0.06071879 0.005909905 -0.004965991 -0.07852833 0.027768463
0.113471344 -0.052967742 0.04418689 0.107464164 0.02173236 0.063809425 0.101295575 -0.112810045
-0.06744175 -0.04158862 -0.044177726 -0.11011222 0.098916695 0.05054903 0.054084018 0.011433512
-0.1179612 0.10601631 0.08309828 0.0034809262 -0.059038892 -0.054525986 -0.12217027 0.05237472
0.058445588 -0.1151471 0.1153242 0.049060225 0.068510994 0.088034645 -0.0058143735 -0.00011219084
0.106547 0.061038703 -0.04621251 0.093183726 0.057061315 0.0068521798 -0.11105952 0.010198027
-0.05001597 0.05555205 0.052769452 0.11192985 -0.07939069 -0.047066167 -0.10611549 0.022935629
0.049828142 -0.09220058 -0.07682413 -0.086521864 -0.03853208 -0.019852966 -0.02024129 0.12458533
-0.05275987 0.10160653 0.03211023 0.06513862 0.082221314 -0.017339602 0.10909128 0.07623634
0.026894927 -0.039654255 -0.012528151 0.10806693 0.068476856 -0.11956599 -0.07876834 -0.12226236
-0.02495335 0.02466628 0.035030216 0.05721031 0.054935724 -0.0843374 0.057805315 -0.058867186
-0.06482901 -0.06628381 0.061592326 -0.023586288 0.094888434 0.05468577 -0.01437068 -0.053401947
0.0063619465 -0.098450035 -0.119281635 0.049212232 0.07800177 0.005118236 0.021392316 0.005831301
0.059565917 0.034556583 0.11595608 -0.105480805 -0.08477646 -0.09525955 -0.056682184 -0.12237404
-0.0024199337 0.044386655 -0.07780534 0.10263066 -0.10024731 -0.08464742 0.0684572 0.051143527
0.022133052 0.06064777 -0.09965937 -0.03681755 0.02241075 0.023368955 0.083365604 -0.10787149
-0.036712214 -0.12008646 -0.040911943 -0.0068600327 -0.018527165 0.11739668 -0.008475229 -0.09231603
0.03854105 0.06649484 0.060478076 -0.09482588 -0.09059316 -0.00575988 0.08369033 0.118546024
0.06391975 -0.05337864 0.023524404 0.12041591 0.028802454 0.02777201 0.03814487 -0.09813909
0.06252311 0.11319539 0.061909676 -0.1175708 -0.105401605 -0.086212575 0.046134084 -0.0023603141
0.06161551 0.08075087 -0.07456726 0.047921613 0.03160733 0.114917174 -0.09552626 0.07936488
-0.11758639 0.0030819923 0.069462284 0.09575899 0.0057792068 0.07046327 0.02118589 0.007134661
-0.002397865 0.016622663 -0.03637363 -0.048895895 0.11268124 -0.016134366 -0.037616476 0.10611847
-0.12071717 -0.013745278 -0.045283943 0.045222923 -0.05510418 0.030635044 0.05822344 -0.035541296
0.11517212 -0.05617191 -0.0064205676 -0.07544012 0.043085456 -0.07288581 -0.091221094 -0.06462984
-0.07487795 -0.08294161 0.026050031 0.04893957 -0.103540346 -0.059610203 0.123841956 -0.10433152
-0.01425004 -0.065542474 0.10992667 0.08989923 -0.10358888 -0.11692342 0.11300163 0.0355774
-0.07851304 0.10450637 -0.12269008 0.10870306 -0.07303168 0.056928307 0.097047284 -0.1080185
-0.055569366 -0.0034395307 0.06025432 0.049018994 -0.10283263 0.031000793 0.054196432 -0.108564466
00000000: 84e9 573d 58f1 bebd 4c14 cdbd 5aa1 acbd
00000010: dc11 d4bd 10e2 e4bd e655 c3bd 8481 10bd
00000020: 203f fdbc da27 fd3d 8696 dd3d 08ba b53d
00000030: e0ae 373d c05d 63bc 68d4 203d 5471 ae3d
00000040: 50b7 553d e05c 4c3c d6d9 b3bd 188e 6b3d
00000050: 94d9 5ebd b2d0 f73d 8c45 50bd caa1 96bd
00000060: b0cb 89bd 6c57 87bd b85a 8d3c 44b4 783d
00000070: e0a7 c13b c0b9 a2bb 76d3 a0bd b07a e33c
00000080: aa63 e83d b4f4 58bd 50fd 343d 2c16 dc3d
00000090: 1008 b23c 84ae 823d 0e74 cf3d f408 e7bd
000000a0: e61e 8abd d458 2abd b4f3 34bd 8482 e1bd
000000b0: d694 ca3d 800c 4f3d 3487 5d3d a053 3b3c
000000c0: a495 f1bd 141f d93d 6e2f aa3d 4020 643b
000000d0: c4d2 71bd a456 5fbd 6834 fabd e086 563d
000000e0: a464 6f3d 3ed2 ebbd 182f ec3d 60f3 483d
000000f0: 7e4f 8c3d 824b b43d 8086 bebb 0048 ebb8
00000100: 5035 da3d b803 7a3d 5449 3dbd 1cd7 be3d
00000110: 20b9 693d 4088 e03b 2c73 e3bd a015 273c
00000120: 8cdd 4cbd 8c8a 633d c824 583d 7a3b e53d
00000130: 9697 a2bd 74c8 40bd 1453 d9bd 80e3 bb3c
00000140: 9818 4c3d a8d3 bcbd f855 9dbd 6032 b1bd
00000150: d0d3 1dbd b0a2 a2bc 10d1 a5bc 9826 ff3d
00000160: bc1a 58bd 1617 d03d 0486 033d 6667 853d
00000170: a663 a83d c80b 8ebc 406b df3d cc21 9c3d
00000180: c052 dc3c 806c 22bd e042 4dbc 3252 dd3d
00000190: 983d 8c3d 04df f4bd 4c51 a1bd b064 fabd
000001a0: f86a ccbc f010 ca3c d87b 0f3d 5c55 6a3d
000001b0: 4804 613d 16b9 acbd 44c5 6c3d b81e 71bd
000001c0: 12c5 84bd cebf 87bd 3c48 7c3d 0838 c1bc
000001d0: de54 c23d 30fe 5f3d 0073 6bbc 00bc 5abd
000001e0: e077 d03b 2ca0 c9bd ee49 f4bd c492 493d
000001f0: 64bf 9f3d e0b6 a73b f03e af3c 8014 bf3b
00000200: 64fb 733d 348b 0d3d 627a ed3d 5206 d8bd
00000210: 489f adbd 7017 c3bd 942b 68bd 3e9f fabd
00000220: c097 1ebb c8ce 353d 6858 9fbd 0630 d23d
00000230: 764e cdbd a05b adbd 4a33 8c3d e07b 513d
00000240: 6050 b53c cc69 783d 361a ccbd 00ce 16bd
00000250: c096 b73c 4070 bf3c 96bb aa3d baeb dcbd
00000260: 8c5f 16bd e4ef f5bd 4893 27bd 20ca e0bb
00000270: 48c6 97bc ac6d f03d b0db 0abc 3010 bdbd
00000280: 38dd 1d3d 722e 883d dcb7 773d 1234 c2bd
00000290: e888 b9bd 60bd bcbb d665 ab3d 42c8 f23d
000002a0: 5ce8 823d 90a3 5abd 40b6 c03c 9e9c f63d
000002b0: 20f3 eb3c 2082 e33c cc3d 1c3d 26fd c8bd
000002c0: 1e0c 803d fcd2 e73d 0095 7d3d f6c8 f0bd
000002d0: ccdc d7bd 3890 b0bd 18f7 3c3d 80af 1abb
000002e0: 8c60 7c3d b660 a53d b8b6 98bd 7449 443d
000002f0: b076 013d b259 eb3d 46a3 c3bd 0e8a a23d
00000300: 22d1 f0bd 40fb 493b 3e42 8e3d 4a1d c43d
00000310: 805f bd3b 0c4f 903d 088e ad3c e0c9 e93b
00000320: 8025 1dbb 402c 883c 84fc 14bd 1047 48bd
00000330: 6cc5 e63d 382c 84bc bc13 1abd a454 d93d
00000340: 903a f7bd e033 61bc a87b 39bd ac3b 393d
00000350: ecb4 61bd 58f6 fa3c b47b 6e3d c093 11bd
00000360: 5cdf eb3d 8414 66bd a063 d2bb 5a80 9abd
00000370: 607a 303d 2845 95bd 20d2 babd a65c 84bd
00000380: 9c59 99bd 4add a9bd e066 d53c dc74 483d
00000390: f60c d4bd d429 74bd daa0 fd3d c4ab d5bd
000003a0: 0079 69bc 223b 86bd 3c21 e13d 161d b83d
000003b0: 6826 d4bd 8c75 efbd 666d e73d 9cb9 113d
000003c0: 72cb a0bd 7007 d63d f044 fbbd b69f de3d
000003d0: a291 95bd a82d 693d bac0 c63d ce38 ddbd
000003e0: b49c 63bd c069 61bb 3ccd 763d 24c8 483d
000003f0: ea99 d2bd 60f5 fd3c 14fd 5d3d 0c57 debd

net.4.bias f4 [32]
-0.01828593 -0.009103641 0.1142699 -0.06694734 0.113542005 -0.0828318 0.091598004 0.015700117
-0.07355088 -0.05857788 0.07399891 -0.053143904 -0.08645128 0.110774964 -0.0036067069 -0.08346444
-0.070182234 -0.040937334 -0.06524593 -0.0030280799 -0.030151874 -0.030566677 0.087500155 0.031289726
-0.009079888 -0.062325165 0.09306234 -0.10442221 -0.055477157 -0.090687275 -0.046513736 0.07689814
00000000: 60cc 95bc 7027 15bc 5606 ea3d b01b 89bd
00000010: b688 e83d b8a3 a9bd bc97 bb3d 889d 803c
00000020: d8a1 96bd 5cef 6fbd be8c 973d 6cad 59bd
00000030: 5e0d b1bd fcdd e23d 805e 6cbb 68ef aabd
00000040: b4bb 8fbd e8ad 27bd a89f 85bd c072 46bb
00000050: 1001 f7bc f866 fabc 4833 b33d a829 003d
00000060: d0c3 14bc ac48 7fbd 7897 be3d 50db d5bd
00000070: 043c 63bd 40ba b9bd 3085 3ebd c67c 9d3d
