maml_model/maml_ActionObjDoor_7_3_300_50_encoder.pth (torch, 27188 bytes, 6 tensors)

net.0.weight f4 [32, 56]
0.08361484 0.05038151 0.032913808 -0.103659466 -0.08686498 0.1282418 -0.10152003 0.037513215
0.01460653 -0.08837514 -0.08989918 0.028642606 -0.11268152 -0.031413503 -0.0026551664 -0.07417228
-0.052839816 0.12362893 -0.06969466 -0.04368261 -0.03722748 -0.058022805 -0.01771003 0.12261065
0.10245788 -0.03689335 0.0974401 0.029889941 -0.11662313 0.011798403 -0.1100385 0.116212316
0.040182322 0.04478648 -0.005011231 -0.010215677 0.013516933 0.011519692 -0.1279412 0.08245841
-0.05125494 0.09470142 -0.12537076 0.10766569 -0.03101828 0.05556563 0.13245738 0.08450132
-0.015944013 -0.050384395 0.01173642 0.043192487 -0.111320384 -0.022697 0.073071584 0.029099049
0.08192604 0.10428144 0.044440605 0.11923906 -0.046606384 -0.03614784 0.09899353 0.008218341
0.13280828 -0.080366045 0.093355216 -0.009616486 -0.081612475 -0.006259889 0.10338829 0.024877675
-0.072092585 0.087871626 0.103817746 -0.022550572 -0.104094945 0.037923303 0.12237936 -0.06303107
0.115213804 0.016247703 0.027075507 0.024016643 -0.08979763 0.1123894 0.12544967 0.01745096
0.12858064 -0.05998457 0.042132746 -0.056231633 -0.052492954 -0.08597115 0.1042538 0.11858942
0.11398259 -0.023438876 -0.085651174 0.06468956 -0.0772881 -0.09260056 0.06642899 0.11291931
-0.101152524 0.08765587 0.11537547 -0.09420553 0.020013366 -0.08497634 -0.023249963 0.07044477
-0.1270929 -0.012611981 -0.077404656 -0.036906157 -0.039683156 -0.0070645935 -0.02787228 0.07532945
0.020215869 0.10412371 0.034680955 0.12585728 -0.02259403 0.05144132 -0.07571896 0.0026860547
0.06646117 0.113593705 0.05265842 0.13219462 -0.005783088 -0.040928133 -0.100784704 -0.07293114
0.06948262 0.06767269 0.078219905 -0.081121445 -0.048207544 -0.023472378 0.051604554 0.056858286
0.11107259 0.046220798 -0.031079484 0.022047088 0.069603235 0.036105435 -0.0854841 -0.10938203
0.044668388 0.1209693 -0.11634 -0.09597951 -0.014279471 0.045382213 0.11827662 0.096319295
0.080823414 -0.06452581 -0.055229604 0.0727599 0.10512348 -0.080651335 0.10442763 0.0720764
-0.055672172 0.008509732 -0.031060208 -0.09048038 -0.10242822 -0.13266133 -0.11727045 -0.0628301
0.008433332 -0.121442504 0.02334798 -0.024174333 0.03815502 0.01988771 0.008171331 0.030421097
-0.10073402 -0.07678901 0.07513299 -0.006449902 -0.019061644 -0.08167818 0.103828944 -0.08168975
-0.05886735 0.03407122 0.029019255 0.11701165 -0.09043931 -0.10060761 0.13204128 0.083675645
-0.070674576 0.010228086 -0.109381735 0.1281029 0.0434049 0.10939575 -0.1014439 0.06492104
-0.038907744 -0.109296285 -0.108100526 -0.029359473 0.082831584 -0.11800721 0.11935123 0.05312101
0.11563327 0.005139643 -0.05120248 -0.087833665 0.009882103 -0.038594767 0.11357552 0.10464502
0.10421617 -0.0756965 0.06856742 0.023699412 -0.13339347 -0.03430963 -0.071020834 -0.044697475
-0.006647036 -0.08293092 0.1325719 0.024425821 0.025341572 -0.04621116 0.05638496 -0.13073848
0.030221477 -0.1090545 -0.1222943 -0.0012076064 -0.06984158 -0.05072533 -0.126857 -0.037550412
0.09113819 -0.041570462 -0.028200278 0.1297007 -0.0048307283 0.06403809 -0.009340674 0.09474064
00000000: 423e ab3d d85c 4e3d a1d0 063d 6a4b d4bd
00000010: 44e6 b1bd d251 033e bce9 cfbd 75a7 193d
00000020: 3a50 6f3c 07fe b4bd 101d b8bd e6a3 ea3c
00000030: 92c5 e6bd 72ab 00bd 4d02 2ebb a3e7 97bd
00000040: 906e 58bd 2a31 fd3d 13bc 8ebd 89ec 32bd
00000050: d87b 18bd 52a9 6dbd a014 91bc 4b1b fb3d
00000060: 70d5 d13d 7b1d 17bd ad8e c73d c0db f43c
00000070: 1cd8 eebd 174e 413c dd5b e1bd b900 ee3d
00000080: 3896 243d 0772 373d 4135 a4bb a85f 27bc
00000090: 2076 5d3c 17bd 3c3c 0503 03be f4df a83d
000000a0: b3f0 51bd d1f2 c13d 3161 00be d47f dc3d
000000b0: 0c1a febc c998 633d e8a2 073e 070f ad3d
000000c0: 059d 82bc de5f 4ebd 1d4a 403c 9bea 303d
000000d0: f1fb e3bd 0fef b9bc 8ea6 953d 2161 ee3c
000000e0: d7c8 a73d 8291 d53d 5a07 363d 9c33 f43d
000000f0: 56e6 3ebd c20f 14bd 1fbd ca3d 38a6 063c
00000100: e5fe 073e f496 a4bd 0531 bf3d 778e 1dbc
00000110: 7124 a7bd c11f cdbb 3dbd d33d 44cc cb3c
00000120: 47a5 93bd 0af6 b33d 669e d43d fabb b8bc
00000130: bb2f d5bd 7755 1b3d 08a2 fa3d 6f16 81bd
00000140: 37f5 eb3d e719 853c 74cd dd3c 8dbe c43c
00000150: d2e7 b7bd 6a2c e63d e175 003e 51f5 8e3c
00000160: a5aa 033e 61b2 75bd 6393 2c3d 2453 66bd
00000170: da02 57bd a411 b0bd 0483 d53d 03df f23d
00000180: b46f e93d e302 c0bc e269 afbd f67b 843d
00000190: 3949 9ebd 5da5 bdbd ec0b 883d 3d42 e73d
000001a0: 0e29 cfbd ec84 b33d f949 ec3d d4ee c0bd
000001b0: 12f3 a33c 1308 aebd b576 bebc 5945 903d
000001c0: a424 02be 7ba2 4ebc 5586 9ebd e92a 17bd
000001d0: ce8a 22bd 1b7e e7bb 6854 e4bc 5446 9a3d
000001e0: c09b a53c d03e d53d 9e0d 0e3d bbe0 003e
000001f0: 1d17 b9bc 22b4 523d 8b12 9bbd 8508 303b
00000200: cb1c 883d d1a3 e83d 5bb0 573d 075e 073e
00000210: 0f80 bdbb 42a4 27bd 3668 cebd ec5c 95bd
00000220: e74c 8e3d fb97 8a3d c231 a03d 0023 a6bd
00000230: 4675 45bd 2549 c0bc 4c5f 533d 3ce4 683d
00000240: 077a e33d 0552 3d3d 679a febc 189c b43c
00000250: 248c 8e3d 4be3 133d 4a12 afbd b003 e0bd
00000260: 33f6 363d c1be f73d aa43 eebd e890 c4bd
00000270: 71f4 69bc b3e2 393d 033b f23d 0d43 c53d
00000280: bf86 a53d 1c26 84bd 7038 62bd 2403 953d
00000290: fb4a d73d 872c a5bd 27de d53d cb9c 933d
000002a0: 8108 64bd 676c 0b3c fa71 febc c74d b9bd
000002b0: e3c5 d1bd 5fd8 07be 7d2b f0bd 11ad 80bd
000002c0: f52b 0a3c d9b6 f8bd 4344 bf3c 4009 c6bc
000002d0: 7048 1c3d 8deb a23c 0ce1 053c aa35 f93c
000002e0: a34d cebd 8e43 9dbd 53df 993d b359 d3bb
000002f0: 2a27 9cbc e446 a7bd 45a4 d43d f54c a7bd
00000300: e41e 71bd 438e 0b3d cab9 ed3c cea3 ef3d
00000310: 3f38 b9bd 5d0b cebd d435 073e 235e ab3d
00000320: d5bd 90bd b493 273c 8803 e0bd 682d 033e
00000330: 56c9 313d e10a e03d d2c1 cfbd 52f5 843d
00000340: ba5d 1fbd bbd6 dfbd cf63 ddbd 4783 f0bc
00000350: 9ba3 a93d c4ad f1bd 6b6e f43d 6b95 593d
00000360: 23d1 ec3d 736a a83b b1b9 51bd 23e2 b3bd
00000370: 8be8 213c 8c15 1ebd 489a e83d 2150 d63d
00000380: 4a6f d53d c406 9bbd 136d 8c3d 4525 c23c
00000390: 4c98 08be 4188 0cbd 5f73 91bd b314 37bd
000003a0: 61cf d9bb b0d7 a9bd eec0 073e a918 c83c
000003b0: 2199 cf3c ea47 3dbd eaf3 663d 4fe0 05be
000003c0: 0893 f73c f757 dfbd 6f75 fabd 8c48 9eba
000003d0: 1a09 8fbd 5dc5 4fbd cde6 01be 76ce 19bd
000003e0: a9a6 ba3d ca45 2abd 4504 e7bc 43d0 043e
000003f0: 164b 9ebb 6726 833d a009 19bc 6107 c23d

net.0.bias f4 [32]
0.10655935 0.03433663 0.08693719 -0.063190386 0.09414058 -0.11996194 -0.096074566 0.08133972
0.089721695 -0.06439481 -0.08601672 0.010456029 -0.024794808 -0.012288809 -0.10458086 -0.092688024
-0.018230002 -0.023269221 -0.0853516 -0.00879507 -0.034839906 -0.099772096 -0.06393005 -0.018522652
0.12658757 -0.080249645 -0.073085725 -0.08440706 -0.01910601 0.07202411 0.11096728 0.07461241
00000000: ca3b da3d 91a4 0c3d 200c b23d f669 81bd
00000010: c7cc c03d 9bae f5bd bec2 c4bd 7095 a63d
00000020: 02c0 b73d 6de1 83bd 8929 b0bd c44f 2b3c
00000030: 7b1e cbbc 0057 49bc 7d2e d6bd 38d3 bdbd
00000040: 1657 95bc 189f bebc d2cc aebd 3319 10bc
00000050: 4ab4 0ebd 5055 ccbd c2ed 82bd d1bc 97bc
00000060: 2ca0 013e ed59 a4bd f8ad 95bd 9cdd acbd
00000070: 3584 9cbc 6081 933d d042 e33d 64ce 983d

net.2.weight f4 [64, 32]
0.15406652 0.15542032 -0.14075747 -0.16012149 -0.068257555 -0.058290545 0.14869444 0.12236518
-0.09984177 0.16820127 0.15912409 0.019651052 -0.06632318 0.08702239 0.0036002048 -0.11421895
0.12949309 0.037473604 0.055858694 -0.03662437 -0.03384055 -0.0014789118 0.1567075 -0.05093577
0.056268338 0.11190085 -0.1427231 -0.16661674 0.15780792 0.12547016 -0.17043702 -0.15616606
0.16607982 0.12748379 0.027810091 0.1563419 0.0067110634 0.08763722 -0.048847165 0.021285929
-0.14253232 0.015251237 0.17004111 0.061214987 0.11822686 -0.062643915 -0.07659454 -0.17336826
0.02475965 0.15497954 0.034071784 -0.12859213 -0.0015864073 -0.09625628 0.09700776 -0.092477895
0.07753437 -0.06622085 -0.071108036 -0.0136765465 0.033884212 0.05151702 0.14231184 -0.14749807
-0.15856627 -0.038690235 -0.14905316 -0.12311469 -0.11167046 0.069537245 0.17135742 0.03144313
0.108132124 0.0007791056 -0.14274727 0.13110772 -0.10352067 -0.024927521 0.1657806 0.018707236
-0.16551721 -0.1102841 -0.059967253 -0.0011642013 0.11705029 0.074464716 0.06641945 -0.073065795
-0.037668724 0.10370932 0.13500181 0.16769396 -0.15309763 -0.1644558 -0.14062473 -0.09298882
-0.02532543 -0.12805599 -0.17108971 0.12030316 0.015420162 0.13730417 0.0050747334 0.084022984
-0.014312817 -0.11677071 0.0029069735 -0.07581084 0.16835274 -0.08583166 0.038749516 -0.109029405
-0.07224349 -0.01651697 0.16712376 0.04026948 0.14934194 -0.07229329 0.1548314 -0.10324454
-0.047762576 0.09888683 0.04796773 0.06598468 -0.048838146 0.05860089 0.034194097 0.0087751
-0.16162564 -0.13108233 0.10612315 0.16277717 0.056229502 -0.046151176 -0.174399 -0.13792776
0.12780842 -0.027036276 0.10272152 -0.04231965 -0.15558852 0.03278403 0.059162036 0.09551673
-0.016040668 -0.14102797 -0.1007527 0.07624812 0.14511651 -0.04066566 0.019251648 0.065069295
0.12168185 -0.021742674 -0.09329991 0.0750966 -0.122111134 -0.02945559 -0.12920564 0.10338213
-0.025064731 0.020786615 0.10897982 0.015471012 0.10305161 0.0016376579 -0.12421776 -0.1367613
-0.049920496 -0.14946653 0.017330047 0.14144883 -0.1100344 -0.13941534 0.08538953 0.040241092
0.15260354 0.057429947 -0.038207762 -0.04500807 -0.1452188 0.111102566 0.06945265 0.1549159
-0.04709731 -0.07680643 -0.014206607 0.0026939844 0.15608111 0.11458019 0.15110625 0.009067136
0.13739511 -0.07426869 0.021217292 -0.1672647 0.047035523 0.13432156 0.16470756 -0.04207389
0.028335853 -0.15355304 0.17268014 -0.16714047 0.11851392 -0.09112905 0.023834886 0.026384959
-0.08101823 0.09132042 -0.034373704 0.09784983 0.029971592 0.13029096 0.05065267 -0.010190328
-0.03319003 0.11803035 -0.16940415 0.07883376 0.09844789 0.09577001 -0.15262033 0.070492625
0.09331721 -0.0068818005 0.08321764 -0.11403135 -0.07881623 -0.042993326 -0.1482099 -0.023063134
-0.16367227 0.10415609 -0.105089225 -0.16415167 0.029379703 -0.016957974 -0.121991776 0.039856948
-0.09713694 -0.12640154 0.093022496 0.09241948 -0.054410506 -0.15900454 -0.13677661 -0.06460853
0.0031704756 0.05477634 -0.12615134 0.12860607 0.124384284 -0.064404115 0.091998056 -0.055011205
00000000: 9dc3 1d3e 8126 1f3e ba22 10be e3f6 23be
00000010: 9eca 8bbd 11c2 6ebd 5b43 183e 989a fa3d
00000020: d879 ccbd f43c 2c3e 6df1 223e 3efb a03c
00000030: 73d4 87bd cb38 b23d 6af1 6b3b a0eb e9bd
00000040: d699 043e ec7d 193d 16cc 643d 6f03 16bd
00000050: 639c 0abd 0cd8 c1ba ee77 203e 07a2 50bd
00000060: a179 663d 462c e53d 0126 12be 949d 2abe
00000070: 6698 213e 407b 003e 0b87 2ebe ffe9 1fbe
00000080: d410 2a3e 1c8b 023e fdd1 e33c 1718 203e
00000090: 7be8 db3b 257b b33d f713 48bd d45f ae3c
000000a0: fef3 11be 53e0 793c 421f 2e3e 91bc 7a3d
000000b0: ed20 f23d 744b 80bd 99dd 9cbd 7387 31be
000000c0: c0d4 ca3c f5b2 1e3e db8e 0b3d a8ad 03be
000000d0: ffee cfba 0322 c5bd 01ac c63d 0d65 bdbd
000000e0: 57ca 9e3d cc9e 87bd 17a1 91bd 9813 60bc
000000f0: 2cca 0a3d 8303 533d 32ba 113e bc09 17be
00000100: 325f 22be a779 1ebd 64a1 18be 8e23 fcbd
00000110: 7bb3 e4bd 8b69 8e3d 5278 2f3e 83ca 003d
00000120: 6074 dd3d e43c 4c3a 572c 12be 1a41 063e
00000130: a502 d4bd cd34 ccbc 64c2 293e eb3f 993c
00000140: 587d 29be a1dc e1bd 39a0 75bd 1d98 98ba
00000150: 10b8 ef3d f580 983d ec06 883d 85a3 95bd
00000160: 854a 1abd 8d65 d43d ea3d 0a3e f7b7 2b3e
00000170: a0c5 1cbe 1a67 28be eeff 0fbe ec70 bebd
00000180: 4777 cfbc 1c21 03be 2432 2fbe 8161 f63d
00000190: d9a4 7c3c 7799 0c3e f349 a63b 3e14 ac3d
000001a0: 4e80 6abc 7b25 efbd ec82 3e3b b742 9bbd
000001b0: a964 2c3e 82c8 afbd d0b7 1e3d cf4a dfbd
000001c0: 65f4 93bd 994e 87bc 7e22 2b3e 9cf1 243d
000001d0: 18ed 183e 810e 94bd 1f8c 1e3e e071 d3bd
000001e0: b1a2 43bd 2e85 ca3d cf79 443d fa22 873d
000001f0: 820a 48bd 7d07 703d 1c0f 0c3d 70c5 0f3c
00000200: 3181 25be 723a 06be 1857 d93d 0faf 263e
00000210: e850 663d 0409 3dbd a795 32be ef3c 0dbe
00000220: 36e0 023e 2e7b ddbc a95f d23d 5f57 2dbd
00000230: 9952 1fbe 8c48 063d e453 723d 469e c33d
00000240: b867 83bc a369 10be 6e57 cebd f927 9c3d
00000250: 6c99 143e 0991 26bd a2b5 9d3c 0d43 853d
00000260: 5534 f93d b11d b2bc 0614 bfbd 3fcc 993d
00000270: 6715 fabd d94c f1bc 7c4e 04be 03ba d33d
00000280: 8d54 cdbc b148 aa3c d030 df3d 217a 7d3c
00000290: b90c d33d aea6 d63a e265 febd 270b 0cbe
000002a0: 6f79 4cbd c10d 19be bef7 8d3c f6d7 103e
000002b0: b759 e1bd e5c2 0ebe b5e0 ae3d d8d3 243d
000002c0: 1a44 1c3e aa3b 6b3d be7f 1cbd 625a 38bd
000002d0: 3db4 14be be89 e33d 313d 8e3d 46a2 1e3e
000002e0: 1ce9 40bd b14c 9dbd d4c2 68bc 8f8d 303b
000002f0: bad3 1f3e 05a9 ea3d 99bb 1a3e 538e 143c
00000300: 4eb1 0c3e 2f1a 98bd e3cf ad3c 7047 2bbe
00000310: 52a8 403d 978b 093e 19a9 283e ac55 2cbd
00000320: 9720 e83c 023d 1dbe 10d3 303e df26 2bbe
00000330: 6db7 f23d dea1 babd 6141 c33c 4525 d83c
00000340: e3ec a5bd 3306 bb3d 71cb 0cbd 7e65 c83d
00000350: fc86 f53c fe6a 053e 2d79 4f3d 55f5 26bc
00000360: 45f2 07bd e5b9 f13d 4878 2dbe 9873 a13d
00000370: 0c9f c93d 1123 c43d 8148 1cbe 705e 903d
00000380: 181d bf3d ba80 e1bb 036e aa3d 4589 e9bd
00000390: 676a a1bd c519 30bd 56c4 17be e6ee bcbc
000003a0: b499 27be ca4f d53d 0539 d7bd 6017 28be
000003b0: b4ad f03c 73eb 8abc d3d6 f9bd 0a41 233d
000003c0: bbef c6bd 686f 01be 9482 be3d 6d46 bd3d
000003d0: 8ddd 5ebd 16d2 22be 2b0f 0cbe 7a51 84bd
000003e0: c1c7 4f3b 285d 603d d12d 01be 4fb1 033e
000003f0: 30bd fe3d 4ee6 83bd 7a69 bc3d 6e53 61bd

net.2.bias f4 [64]
-0.15919179 0.108592115 0.15480004 -0.08553511 -0.029267803 0.05907631 0.15767932 -0.048353117
0.09244736 -0.12433832 0.11884063 0.0016978015 -0.08647326 -0.15849714 -0.17047302 -0.10645495
-0.04733527 0.14579749 -0.14360276 0.014960656 -0.049074356 -0.09175874 0.06720211 -0.10184086
0.15805003 -0.08185434 0.06302568 -0.053022884 0.16368178 -0.03707915 0.11329302 -0.07949888
0.07619322 0.041547034 -0.14959332 -0.12671745 -0.0044683246 -0.033244528 0.07309125 -0.13088626
-0.12626965 -0.08538026 0.07539049 -0.0036986177 0.0015355151 0.12003123 -0.014333047 -0.04646749
0.0041798293 -0.048626736 -0.1734754 -0.11100084 -0.038870078 -0.14555654 -0.12504044 0.022853876
-0.061254375 0.011868784 0.15175365 0.08879877 -0.0487336 -0.12520805 -0.101546526 0.13695526
00000000: 2c03 23be 8b65 de3d e783 1e3e 082d afbd
00000010: 08c3 efbc 00fa 713d b076 213e eb0d 46bd
00000020: 0b55 bd3d 17a5 febd b762 f33d c488 de3a
00000030: e418 b1bd 134d 22be 7b90 2ebe 0e05 dabd
00000040: a1e2 41bd f04b 153e 9a0c 13be 8a1d 753c
00000050: 3102 49bd 02ec bbbd 43a1 893d f191 d0bd
00000060: ded7 213e 40a3 a7bd 9c13 813d 862e 59bd
00000070: 329c 273e 4fe0 17bd 2c06 e83d 4fd0 a2bd
00000080: 310b 9c3d 392d 2a3d fe2e 19be 38c2 01be
00000090: 066b 92bb 6a2b 08bd deb0 953d 0c07 06be
000000a0: d54c 01be d9db aebd 5466 9a3d 8264 72bb
000000b0: 5643 c93a efd2 f53d 28d5 6abc b254 3ebd
000000c0: f3f6 883b d42c 47bd 89a3 31be 6954 e3bd
000000d0: 3b36 1fbd c60c 15be 9a0a 00be 0d38 bb3c
000000e0: dee5 7abd 4a75 423c 4f65 1b3e 21dc b53d
000000f0: e29c 47bd 8a36 00be a0f7 cfbd 003e 0c3e

net.4.weight f4 [32, 64]
-0.02199705 -0.1052625 0.02219434 0.10009685 -0.042241856 -0.0816586 0.122032255 -0.059864044
-0.057605326 0.101948634 -0.09250492 -0.014837146 -0.03372532 0.03099136 0.09947437 -0.04854861
0.10571821 0.004257843 -0.0054148138 -0.11431518 0.007975683 0.09914096 -0.07088576 -0.10371849
0.009462982 -0.12441616 0.12020914 -0.019706562 -0.04200223 0.0704985 -0.07989374 -0.037768796
0.01685518 -0.024991542 -0.074423164 0.019727722 -0.04341325 0.07422997 -0.056633532 0.08566114
-0.067235306 -0.038792655 -0.05177924 -0.1243263 0.020352527 -0.037668616 0.003928274 -0.11603886
0.08845891 0.12312448 0.12085417 0.08025733 -0.006277412 0.09948726 -0.08816597 -0.011997834
-0.10876612 0.024711356 -0.020595327 -0.044812813 0.054376274 0.081606805 -0.054828435 0.0670992
-0.05087197 -0.04285595 0.037798837 -0.07335085 0.023778096 0.09232435 0.00042882562 -0.038938046
-0.101467416 0.020385489 -0.043351978 0.10354343 0.07158391 -0.09528552 0.041976646 0.11736561
0.10149254 -0.11463 -0.052906916 -0.012253359 0.11279993 0.0045322925 0.081510395 0.012316272
-0.06174679 -0.042374566 -0.08587322 0.091698945 0.10668424 0.049340963 0.044637993 0.07792203
-0.03836292 0.09338282 -0.07377361 -0.025843322 -0.10196364 -0.040377066 -0.026615873 0.02288507
-0.06877415 -0.021454915 0.08304618 0.10837071 -0.07888761 0.026143879 0.11437078 0.0746564
0.05656749 -0.054301754 0.07045345 -0.07745011 -0.08445226 -0.094391614 0.021360978 -0.047690794
-0.073649794 0.047851086 -0.019552201 -0.014702156 -0.121329635 -0.06801027 0.07233271 -0.08804983
-0.069964096 0.12052268 -0.068037 -0.055764347 0.10459654 -0.118672 0.032377705 0.113866135
-0.07165539 0.02921994 -0.12470257 -0.029267296 0.03951484 0.09693113 0.056349084 0.05995907
0.046133205 -0.10470237 -0.09182145 0.107115194 -0.056514874 -0.04813467 -0.101134 0.0098866075
-0.014968604 0.046422184 0.091620356 0.03326346 0.0974143 -0.04270886 -0.122603014 0.054240018
-0.033591986 -0.07579276 -0.06598692 0.08058821 0.11377743 -0.048788548 -0.09574078 -0.0085053295
0.05285564 0.06433503 -0.039858848 -0.10935266 -0.031182662 0.05039625 0.1150548 0.08287096
0.0981444 0.005120203 -0.05976054 -0.012109935 0.11045912 0.026384845 -0.090171754 -0.026197657
0.08238441 0.04543394 0.05632171 -0.030196443 0.05086106 -0.0111347735 0.031251267 -0.020549938
0.06349528 -0.099332556 -0.107191995 0.117447406 -0.124505594 -0.10389736 0.09851235 -0.049269065
-0.056333616 -0.06329706 -0.0089280605 -0.11814225 0.020640284 0.03902231 0.106254965 -0.111263976
-0.10548453 0.10095802 -0.0013578683 0.02535458 0.02490218 -0.0831825 -0.06072019 0.039925948
-0.037967637 0.103817984 -0.107435 -0.07669093 -0.04883285 0.08213398 -0.06646633 0.015605733
0.02023141 -0.039394483 0.10410844 0.095627695 0.05510652 0.015288517 -0.082384005 0.04005176
0.12182456 -0.122174874 -0.06828371 0.11768623 0.050847977 0.109561205 0.063921824 0.09338364
-0.082571566 0.09391633 -0.04093127 0.045807987 -0.121230856 0.0863675 -0.062600106 -0.090237945
0.04885365 -0.044725478 0.06548087 0.10846208 -0.004933819 -0.045957416 -0.008616805 0.09198116
00000000: 2833 b4bc de93 d7bd e8d0 b53c 94ff cc3d
00000010: cc05 2dbd a03c a7bd 0cec f93d 0034 75bd
00000020: 90f3 6bbd 72ca d03d 3873 bdbd 8017 73bc
00000030: 9023 0abd 98e1 fd3c 38b9 cb3d e8da 46bd
00000040: ca82 d83d 6085 8b3b c06e b1bb 141e eabd
00000050: 70ac 023c 6a0a cb3d 8e2c 91bd 5c6a d4bd
00000060: a00a 1b3c e6cd febd 3630 f63d a86f a1bc
00000070: 880a 2cbd 8461 903d 549f a3bd 74b3 1abd
00000080: e013 8a3c 10bb ccbc 2c6b 98bd 089c a13c
00000090: 18d2 31bd e205 983d 90f8 67bd 1c6f af3d
000000a0: aab2 89bd 0ce5 1ebd 7816 54bd ca9e febd
000000b0: 58ba a63c 684a 1abd c0b8 803b c8a5 edbd
000000c0: f229 b53d b028 fc3d 6482 f73d f45d a43d
000000d0: c0b2 cdbb fabf cb3d 5c90 b4bd 9092 44bc
000000e0: c6c0 debd 786f ca3c 88b7 a8bc a48d 37bd
000000f0: a8b9 5e3d 7821 a73d c893 60bd 4e6b 893d
00000100: 205f 50bd b889 2fbd f4d2 1a3d f838 96bd
00000110: 48ca c23c 8c14 bd3d 00d4 e039 807d 1fbd
00000120: 26ce cfbd 78ff a63c d891 31bd 940e d43d
00000130: 969a 923d 0e25 c3bd b4ef 2b3d 625d f03d
00000140: 52db cf3d 22c3 eabd ecb4 58bd 50c2 48bc
00000150: a603 e73d a083 943b ecee a63d 30ca 493c
00000160: 34ea 7cbd f490 2dbd 4cde afbd a8cc bb3d
00000170: 447d da3d c019 4a3d 54d6 363d 9695 9f3d
00000180: 7022 1dbd 7e3f bf3d 9e16 97bd 60b5 d3bc
00000190: 50d2 d0bd 6c62 25bd 8809 dabc 7879 bb3c
000001a0: 76d9 8cbd 38c2 afbc 1e14 aa3d 76f1 dd3d
000001b0: d48f a1bd b02b d63c 3a3b ea3d 74e5 983d
000001c0: 50b3 673d 846b 5ebd e649 903d 2a9e 9ebd
000001d0: 4ef5 acbd 6450 c1bd 38fd ae3c 6c57 43bd
000001e0: b4d5 96bd 80ff 433d f02b a0bc 50e1 70bc
000001f0: ac7b f8bd f848 8bbd 2c23 943d 7853 b4bd
00000200: 5649 8fbd 98d4 f63d fc56 8bbd 2869 64bd
00000210: b636 d63d 4e0a f3bd 7c9e 043d a632 e93d
00000220: 10c0 92bd a85e ef3c 1064 ffbd f8c1 efbc
00000230: 50da 213d d483 c63d 4cce 663d a497 753d
00000240: 2cf6 3c3d 326e d6bd e20c bcbd 365f db3d
00000250: 247c 67bd dc28 45bd 581f cfbd 70fb 213c
00000260: e03e 75bc 3025 3e3d 74a3 bb3d 443f 083d
00000270: 2681 c73d 7cef 2ebd 4a17 fbbd c82a 5e3d
00000280: c097 09bd 3c39 9bbd 2624 87bd 6e0b a53d
00000290: 2404 e93d 80d6 47bd be13 c4bd f059 0bbc
000002a0: 287f 583d 16c2 833d 0843 23bd 4af4 dfbd
000002b0: c872 ffbc 4c6c 4e3d daa1 eb3d 40b8 a93d
000002c0: eeff c83d 60c7 a73b 78c7 74bd c068 46bc
000002d0: 6438 e23d 0825 d83c f8ab b8bd 789c d6bc
000002e0: 28b9 a83d f018 3a3d 98b1 663d 885e f7bc
000002f0: b053 503d a06e 36bc 5401 003d 5858 a8bc
00000300: d009 823d de6e cbbd 7a87 dbbd 4488 f03d
00000310: cafc febd 24c8 d4bd d8c0 c93d 5cce 49bd
00000320: 14be 66bd e4a1 81bd 0047 12bc 90f4 f1bd
00000330: d015 a93c dcd5 1f3d 349c d93d 5ede e3bd
00000340: 4608 d8bd 14c3 ce3d 80fa b1ba 68b4 cf3c
00000350: a8ff cb3c 965b aabd bcb5 78bd 6489 233d
00000360: f483 1bbd 869e d43d e206 dcbd 2210 9dbd
00000370: f404 48bd dc35 a83d 801f 88bd 30af 7f3c
00000380: 58bc a53c 1c5c 21bd ce36 d53d 74d8 c33d
00000390: 60b7 613d b07c 7a3c f2b8 a8bd 500d 243d
000003a0: 287f f93d d236 fabd 54d8 8bbd 7a05 f13d
000003b0: f845 503d a061 e03d 72e9 823d ec3f bf3d
000003c0: 481b a9bd 3457 c03d 8ca7 27bd 28a1 3b3d
000003d0: e247 f8bd 72e1 b03d 7c34 80bd acce b8bd
000003e0: c41a 483d 1032 37bd d61a 863d 5e21 de3d
000003f0: e0ab a1bb d83d 3cbd 802d 0dbc 9e60 bc3d

net.4.bias f4 [32]
0.06618732 -0.03984317 -0.017367288 -0.07805675 0.11292124 -0.11371392 -0.022131354 0.056463584
-0.044934303 0.017226845 -0.023482174 0.081017345 -0.011788562 -0.013131425 -0.04761854 0.10394788
0.04777558 -0.008888468 -0.03494735 0.0809364 -0.029847607 -0.06688629 0.05342865 0.05000101
-0.09312679 -0.024689108 -0.014112875 0.040584236 0.056536034 0.011164263 -0.08313407 -0.019906834
00000000: 388d 873d 9832 23bd d845 8ebc 38dc 9fbd
00000010: 4043 e73d d8e2 e8bd d04c b5bc 5c46 673d
00000020: 080d 38bd 501f 8d3c b05d c0bc 6cec a53d
00000030: d024 41bc 3025 57bc a80b 43bd a0e2 d43d
00000040: 54b0 433d f0a0 11bc f424 0fbd fcc1 a53d
00000050: f882 f4bc aefb 88bd 00d8 5a3d dccd 4c3d
00000060: 42b9 bebd d040 cabc b039 67bc a83b 263d
00000070: 5492 673d 50ea 363c 3242 aabd a813 a3bc
