maml_model/maml_PutNextLocal_7_10_1000_50.pth (torch, 60334 bytes, 6 tensors)

layer1.weight f4 [64, 151]
0.06341993 0.094259955 0.12922387 0.12978302 -0.02984751 0.005177875 -0.07877473 -0.14041407
0.04741071 -0.05619246 0.116965726 -0.07454312 0.13768329 -0.0069837365 0.11842142 -0.008690141
-0.05601523 -0.13574113 -0.09938647 0.016634896 -0.021016069 -0.05440137 0.12290869 -0.103492334
-0.1257823 0.10243221 -0.08639874 0.004621288 0.13232097 0.14043227 0.1328742 0.0070002824
0.16334248 -0.038434714 0.14156368 0.02710431 -0.046424236 0.12022575 0.06364345 0.13139161
0.04781602 -0.12125149 0.042563695 -0.006300786 -0.052778628 0.08742439 -0.04203451 -0.16310586
-0.081821844 0.17659503 -0.07002586 0.07005911 0.12698512 -0.03996431 -0.045734454 0.16837229
-0.06919898 0.00034057623 -0.035116766 -0.077587746 0.107708156 0.121552765 0.10999756 -0.019328685
-0.10145553 0.008534601 0.11623249 0.08745959 -0.102043726 0.09289045 0.12470603 0.09880109
-0.08077872 0.088923655 0.05048762 0.08405855 -0.078022726 -0.09536628 0.06298994 -0.010445036
-0.062404398 0.12555344 0.08818746 -0.0808225 0.038018975 0.1285325 0.027099231 -0.057093095
0.08665716 -0.040096182 -0.1323142 0.00083858275 -0.04550797 0.011116156 -0.058989786 -0.040505685
0.11422332 0.08307258 -0.009641601 0.07611847 0.022151567 -0.107179664 0.15412612 -0.060389698
-0.08953932 -0.118178986 0.16444637 0.053502716 -0.035464518 -0.12773934 0.046188984 -0.06683355
-0.0609103 -0.113629185 0.14570314 -0.14550857 -0.07816176 -0.09488748 -0.11640965 0.039609857
0.0036715157 -0.12555933 0.010235866 0.027364496 0.0994188 0.13099135 -0.0018833814 0.067886606
0.14608957 0.089810595 0.12363796 -0.037079975 0.010541106 0.10634215 0.12187557 -0.0427487
-0.12091339 -0.041447632 0.034084186 0.14972208 -0.11788672 -0.06312078 -0.06191638 -0.0648398
0.11912051 -0.06055683 -0.09259938 0.099038094 0.057205323 -0.050353352 0.11180727 0.1669719
-0.028108133 -0.07037429 -0.028250543 0.15532655 -0.054604217 -0.15118916 -0.11839612 -0.07501879
-0.12731242 0.055618837 0.11729833 -0.13084997 0.04487033 0.024486626 0.04806672 0.06563745
-0.035775263 -0.114337884 -0.038713533 0.1606322 -0.113710396 -0.15554361 -0.13715178 0.052040324
0.00794325 -0.1126155 0.116423815 0.046599306 -0.06164805 0.119464844 0.009059408 -0.16660242
-0.11573844 0.020407652 0.11076857 -0.15396048 0.04108621 0.10301855 0.14385518 0.06262808
0.14971077 -0.088397145 0.046788845 0.15651713 -0.066278145 0.04524526 0.039413042 -0.109433904
-0.013029786 0.03692727 0.11111717 0.11507157 0.047330316 0.086072095 -0.038867313 0.11380515
-0.13966496 -0.04704117 0.10040515 0.05802717 0.1394721 0.16657247 0.08232426 -0.15780246
-0.16618724 -0.021783581 0.0106375655 0.023703594 0.0620983 0.12236702 0.07630907 -0.021141693
0.110391736 0.017986277 -0.10015111 0.021414835 -0.046719283 0.018175626 -0.109463915 -0.078113265
-0.07674071 0.0054161847 0.016075235 -0.13609223 -0.08721031 0.14331236 -0.07834746 0.10016874
-0.09976156 -0.138969 -0.05881056 -0.16254562 -0.121208 -0.04676922 -0.09216899 -0.05210061
-0.12017743 0.08264846 0.1678511 0.106256254 0.103728086 -0.16822544 -0.07799747 -0.07790817
00000000: 4fe2 813d 5d0b c13d 4353 043e d7e5 043e
00000010: c482 f4bc 2aab a93b a554 a1bd b5c8 0fbe
00000020: bc31 423d 112a 66bd ba8b ef3d 10aa 98bd
00000030: d9fc 0c3e d4d7 e4bb ee86 f23d 1861 0ebc
00000040: 3a70 65bd b9ff 0abe 228b cbbd e845 883c
00000050: e429 acbc f9d3 5ebd 8db7 fb3d caf3 d3bd
00000060: 13cd 00be fbc7 d13d d3f1 b0bd 2c6e 973b
00000070: 267f 073e 7acd 0f3e 2d10 083e a062 e53b
00000080: 4043 273e b86d 1dbd 12f6 103e dc09 de3c
00000090: 5727 3ebd eb38 f63d 7f57 823d 868b 063e
000000a0: bbda 433d b452 f8bd 4557 2e3d d376 cebb
000000b0: 672e 58bd 8f0b b33d 612c 2cbd 3905 27be
000000c0: 3692 a7bd 54d5 343e b869 8fbd 277b 8f3d
000000d0: 6308 023e 9eb1 23bd 0d54 3bbd c969 2c3e
000000e0: 32b8 8dbd 5e8f b239 99d6 0fbd 53e6 9ebd
000000f0: 1896 dc3d a8f0 f83d 6746 e13d 3157 9ebc
00000100: ebc7 cfbd b6d4 0b3c 4d0b ee3d 031e b33d
00000110: 4dfc d0bd 593d be3d e065 ff3d 3a58 ca3d
00000120: 506f a5bd 9b1d b63d 1bcc 4e3d e426 ac3d
00000130: 61ca 9fbd 654f c3bd df00 813d a821 2bbc
00000140: c19b 7fbd 1591 003e a19b b43d 4486 a5bd
00000150: c9b9 1b3d 069e 033e 35ff dd3c 73da 69bd
00000160: 4f79 b13d e53b 24bd 607d 07be 56d4 5b3a
00000170: 9166 3abd 8a20 363c 469f 71bd 4ae9 25bd
00000180: eaed e93d f521 aa3d cef7 1dbc 00e4 9b3d
00000190: 3477 b53c 0381 dbbd 3dd3 1d3e 305b 77bd
000001a0: 6460 b7bd d307 f2bd a164 283e aa25 5b3d
000001b0: 3e43 11bd 1ace 02be a930 3d3d 07e0 88bd
000001c0: 147d 79bd 6bb6 e8bd 3433 153e 3300 15be
000001d0: 4613 a0bd 5e54 c2bd 2f68 eebd f23d 223d
000001e0: d09d 703b a092 00be 55b4 273c 822b e03c
000001f0: 159c cb3d 9922 063e cbdb f6ba 2208 8b3d
00000200: 8198 153e 9eee b73d e635 fd3d 2ce1 17bd
00000210: 9ab4 2c3c eac9 d93d e699 f93d 4319 2fbd
00000220: 70a1 f7bd fec4 29bd dc9b 0b3d bf50 193e
00000230: 986e f1bd 7845 81bd 089c 7dbd bbca 84bd
00000240: 74f5 f33d 700a 78bd bea4 bdbd 7cd4 ca3d
00000250: 2150 6a3d 513f 4ebd 36fb e43d affa 2a3e
00000260: 0743 e6bc 6520 90bd af6d e7bc ec0d 1f3e
00000270: aca8 5fbd 55d1 1abe aa79 f2bd 74a3 99bd
00000280: 305e 02be 94d0 633d 1b3a f03d 89fd 05be
00000290: f3c9 373d 2d98 c83c 9ce1 443d ed6c 863d
000002a0: 1589 12bd fb29 eabd 1592 1ebd c47c 243e
000002b0: ffe0 e8bd d346 1fbe 8471 0cbe 3c28 553d
000002c0: 6824 023c f5a2 e6bd 9c6f ee3d eade 3e3d
000002d0: aa82 7cbd fca9 f43d e96d 143c d399 2abe
000002e0: 4608 edbd f32d a73c a2da e23d d1a7 1dbe
000002f0: 044a 283d 64fb d23d c64e 133e 2743 803d
00000300: c84d 193e 9009 b5bd a9a5 3f3d 0746 203e
00000310: d6bc 87bd 1853 393d 926f 213d e21e e0bd
00000320: e27a 55bc 0d41 173d 6691 e33d a5aa eb3d
00000330: 6fdd 413d 9146 b03d 5533 1fbd ad12 e93d
00000340: 5504 0fbe 3eae 40bd 37a1 cd3d e6ad 6d3d
00000350: c6d1 0e3e f991 2a3e 9f99 a83d f896 21be
00000360: fd2c 2abe 7b73 b2bc 2f49 2e3c 0a2e c23c
00000370: c95a 7e3d 8f9b fa3d ee47 9c3d 5831 adbc
00000380: 1015 e23d f557 933c 061c cdbd 2a6e af3c
00000390: b85c 3fbd 0de5 943c 9e2e e0bd d9f9 9fbd
000003a0: 3c2a 9dbd 407a b13b 36b0 833c c35b 0bbe
000003b0: 529b b2bd 7ac0 123e a274 a0bd 4525 cd3d
000003c0: ca4f ccbd e44d 0ebe 57e3 70bd 5c72 26be
000003d0: e63b f8bd 1591 3fbd 18c3 bcbd 7367 55bd
000003e0: 961f f6bd 9943 a93d 29e1 2b3e e19c d93d
000003f0: 646f d43d 4a43 2cbe 23bd 9fbd 528e 9fbd

layer1.bias f4 [64]
0.0058545447 -0.0046324106 -0.017120242 -0.0066875387 -0.007671037 -0.030987756 0.012188024 0.0086653065
0.033497237 0.004264867 -0.024580296 -0.0030327623 -0.024425756 0.008554041 0.0012555147 -0.012772829
-0.019904708 0.018223347 -0.014553714 0.0083200205 0.029656421 0.009288062 0.0055447035 -0.008308291
-0.032290615 0.0136839915 0.024405073 0.006832604 -0.01233313 -0.01817253 -0.01309998 -0.00023399078
-0.0070782127 0.017474156 -0.002419272 -0.009579815 0.055535845 0.026131475 -0.025185274 0.0036367187
-0.019044142 0.023176922 0.027211165 0.00045161933 -0.005126854 -0.026753107 -0.0058066184 -0.0053806026
0.02283385 0.021781038 0.0047597857 -0.012597987 -0.0072570387 0.014287993 -0.015263837 -0.017024895
0.023652017 0.014141736 -0.0025906276 -0.01800518 0.021632118 -0.0016246364 0.03273519 -0.018372709
00000000: 7bd7 bf3b 7acb 97bb c03f 8cbc 2423 dbbb
00000010: 535d fbbb 09da fdbc 47b0 473c eef8 0d3c
00000020: 6634 093d 4cc0 8b3b 9e5c c9bc 4fc1 46bb
00000030: 8618 c8bc 4026 0c3c 1590 a43a 2145 51bc
00000040: 330f a3bc 2149 953c b372 6ebc b250 083c
00000050: 06f2 f23c f52c 183c 58b0 b53b 801f 08bc
00000060: 2a43 04bd d232 603c 26ed c73c 09e4 df3b
00000070: e610 4abc 8fde 94bc 4ca1 56bc 6c5b 75b9
00000080: 5af0 e7bb f625 8f3c a68c 1ebb a8f4 1cbc
00000090: 8e79 633d ad11 d63c 5951 cebc 0456 6e3b
000000a0: 7602 9cbc 87dd bd3c f3e9 de3c 52c7 ec39
000000b0: 2bff a7bb 5529 dbbc 7245 bebb c44f b0bb
000000c0: 0e0e bb3c 266e b23c faf7 9b3b ca67 4ebc
000000d0: 74cc edbb 3018 6a3c 2c15 7abc cb77 8bbc
000000e0: e0c1 c13c bdb2 673c 85c7 29bb 997f 93bc
000000f0: d735 b13c c0f1 d4ba 5615 063d 5d82 96bc

layer2.weight f4 [64, 64]
0.20880392 -0.014681509 0.0075415457 -0.11761541 -0.053372193 0.06381859 0.086373575 0.18771662
0.045180447 0.15087433 0.19582133 0.017787063 0.14990053 -0.21251933 -0.14864655 -0.14212736
0.13622373 -0.1791301 0.14320259 0.08927807 0.09205682 0.088768415 0.0497927 0.19317038
-0.046926446 -0.16761856 -0.13955231 0.09357187 0.16432768 -0.078506015 0.08865401 0.050252195
0.07385029 0.004395103 0.06839549 0.024686716 0.01219268 0.031081416 0.0031798065 0.04127829
-0.050274245 0.07644912 0.05899946 -0.1921444 -0.2126695 -0.17136441 -0.06350811 -0.071691275
0.1888716 -0.049515456 -0.13756944 0.10506254 -0.077126026 -0.2029716 0.10150626 0.06964993
0.15143615 -0.14602453 0.09151461 0.038792547 -0.03114102 -0.14909884 -0.20235862 0.14621294
-0.027638044 0.067501344 0.0015852451 0.15718712 0.121536076 0.120597415 0.19278564 -0.15806933
0.14478962 0.064687036 0.0218157 -0.09776126 -0.007098275 0.039482195 -0.07023075 0.18953192
0.0060815145 0.1375294 -0.017603442 0.17148443 0.11264559 0.03646677 0.045006163 0.17179163
-0.0282167 0.0465112 0.117622904 0.044313584 0.20680119 -0.23335223 -0.03678461 -0.063120335
-0.06355462 0.1275589 0.046384122 -0.17494042 -0.21151188 0.09567593 -0.11863674 -0.103635564
0.07435943 -0.062777035 -0.08255632 -0.0070398916 0.16077024 0.12655355 -0.026389835 -0.18492351
-0.1855099 0.09926932 -0.20028709 0.0875165 0.15004173 -0.1951165 -0.14121154 0.20705763
0.019488815 -0.037362013 -0.20314154 0.083919145 0.03470959 0.13003835 0.05942771 0.18897969
-0.029792737 0.21314746 0.08682997 0.044234365 0.19449675 -0.11069251 0.13820559 -0.1944372
-0.16643898 0.019255232 -0.12625895 0.13474783 -0.13709721 0.21675268 0.15191303 -0.0990969
-0.11899363 -0.12369936 -0.15467735 0.1859819 0.013387865 -0.19782597 -0.16930118 -0.08062841
0.12764753 0.17110457 0.0832345 -0.07332099 -0.11516975 0.0957609 0.007737296 0.09088924
0.13545002 -0.06676804 -0.022198336 -0.18602364 0.19454359 -0.07505447 0.12988958 -0.11831623
0.20280573 -0.01610995 -0.21453191 -0.020574387 -0.07960524 -0.14543465 0.14105439 -0.112097055
-0.14037225 -0.19996853 0.16256706 -0.16394813 -0.12853414 -0.035272606 -0.101301685 -0.18427154
-0.05575678 -0.0031992383 -0.19123311 0.12498098 0.046796434 -0.16019365 -0.028915951 0.20283774
-0.21440345 -0.20000464 0.013601677 0.09461476 0.036403477 -0.028308492 0.067136295 0.043977972
0.18517235 0.20425217 -0.18791819 0.028622247 0.08285661 0.116769426 0.09375581 -0.011940313
0.0047868304 -0.025012864 -0.1292809 -0.113648064 -0.046847396 -0.07944584 0.17734791 -0.12114506
0.1261313 -0.20425487 -0.14645913 0.18664539 -0.11507838 0.14566104 -0.052856278 -0.20908828
-0.025119621 -0.072811164 -0.16733757 -0.0023391237 0.118618034 0.077576876 -0.038579356 0.056019694
-0.06615797 -0.17631614 0.15515646 0.007585548 -0.058399867 -0.12639645 -0.10266192 -0.17624834
-0.021533515 -0.1104098 -0.1619762 -0.1323525 0.17459139 -0.11251014 0.1595487 -0.034194656
0.05584253 0.10382342 -0.019379942 0.10749354 0.14482827 0.032295626 -0.18983817 -0.025420552
00000000: b2d0 553e b68a 70bc 121f f73b 59e0 f0bd
00000010: cd9c 5abd 52b3 823d a1e4 b03d c938 403e
00000020: 220f 393d cd7e 1a3e 6385 483e 2db6 913c
00000030: 867f 193e ab9e 59be cd36 18be d689 11be
00000040: 3c7e 0b3e e26d 37be b3a3 123e 6cd7 b63d
00000050: 4988 bc3d 37cc b53d 6ef3 4b3d 75ce 453e
00000060: f235 40bd 33a4 2bbe cde6 0ebe 9ca2 bf3d
00000070: 8445 283e c3c7 a0bd 3c90 b53d 3fd5 4d3d
00000080: d23e 973d cc04 903b ef12 8c3d cc3b ca3c
00000090: cec3 473c 749e fe3c 4d64 503b 6d13 293d
000000a0: 5eec 4dbd 5b91 9c3d 6ba9 713d 80c1 44be
000000b0: 09c6 59be 277a 2fbe 8a10 82bd e0d2 92bd
000000c0: 8f67 413e b8d0 4abd 01df 0cbe 072b d73d
000000d0: 40f4 9dbd cad7 4fbe 84e2 cf3d 9fa4 8e3d
000000e0: 1412 1b3e 7487 15be 036c bb3d efe4 1e3d
000000f0: 741b ffbc 5ead 18be 1937 4fbe d8b8 153e
00000100: 2e69 e2bc 253e 8a3d 00c8 cf3a a9f5 203e
00000110: e8e7 f83d c7fb f63d 9969 453e eddc 21be
00000120: bb43 143e a37a 843d d7b6 b23c 0e37 c8bd
00000130: a598 e8bb 15b8 213d 24d5 8fbd a814 423e
00000140: 7147 c73b 82d4 0c3e 1835 90bc 9d99 2f3e
00000150: bbb2 e63d 2e5e 153d 6258 383d 25ea 2f3e
00000160: b526 e7bc 8782 3e3d 47e4 f03d 2982 353d
00000170: b1c3 533e e3f3 6ebe 76ab 16bd 3c45 81bd
00000180: ed28 82bd cd9e 023e 47fd 3d3d 9523 33be
00000190: 9296 58be bef1 c33d d2f7 f2bd e23e d4bd
000001a0: c249 983d 3f91 80bd 4a13 a9bd e4ae e6bb
000001b0: f4a0 243e 4197 013e 7f2f d8bc 975c 3dbe
000001c0: 4ff6 3dbe b74d cb3d 0f18 4dbe da3b b33d
000001d0: 8aa4 193e 9fcc 47be c299 10be ea06 543e
000001e0: 02a7 9f3c e908 19bd 5604 50be cddd ab3d
000001f0: a52b 0e3d c628 053e 786a 733d e483 413e
00000200: e60f f4bc 5443 5a3e e9d3 b13d 182f 353d
00000210: 282a 473e c1b2 e2bd c485 0d3e 8c1a 47be
00000220: fb6e 2abe 26bd 9d3c 074a 01be 56fb 093e
00000230: 3663 0cbe 6af4 5d3e 178f 1b3e 51f3 cabd
00000240: efb2 f3bd 1756 fdbd bd63 1ebe 0a72 3e3e
00000250: c758 5b3c e492 4abe 4a5d 2dbe 8220 a5bd
00000260: 09b6 023e 0936 2f3e d976 aa3d 5129 96bd
00000270: 1ede ebbd 4a1e c43d 2589 fd3b 2324 ba3d
00000280: 69b3 0a3e afbd 88bd 49d9 b5bc fb7c 3ebe
00000290: 6f36 473e 28b6 99bd c601 053e c84f f2bd
000002a0: 4eac 4f3e 04f9 83bc 41ae 5bbe 9e8b a8bc
000002b0: 1208 a3bd d2ec 14be 9070 103e 2493 e5bd
000002c0: bebd 0fbe 8dc4 4cbe fb77 263e 05e2 27be
000002d0: 749e 03be 027a 10bd 4277 cfbd aeb1 3cbe
000002e0: 3961 64bd 50aa 51bb 9dd2 43be 07f6 ff3d
000002f0: 9ead 3f3d ce09 24be 25e1 ecbc b2b4 4f3e
00000300: 948c 5bbe 04ce 4cbe 91d9 5e3c 62c5 c13d
00000310: d01b 153d 36e7 e7bc c17e 893d 3f22 343d
00000320: d29d 3d3e 7b27 513e a06d 40be 3479 ea3c
00000330: bab0 a93d cf24 ef3d 0c03 c03d 4da1 43bc
00000340: d8da 9c3b c7e7 ccbc 3662 04be 51c0 e8bd
00000350: 0ee3 3fbd 80b4 a2bd b19a 353e e71a f8bd
00000360: 9028 013e 3028 51be 62f9 15be f81f 3f3e
00000370: 37ae ebbd 2b28 153e d37f 58bd 3d1b 56be
00000380: aac7 cdbc 051e 95bd 8a5a 2bbe fc4b 19bb
00000390: 03ee f23d a0e0 9e3d 6305 1ebd e874 653d
000003a0: d47d 87bd 388c 34be 56e1 1e3e 3090 f83b
000003b0: b334 6fbd 126e 01be 6a40 d2bd 727a 34be
000003c0: 0e67 b0bc 891e e2bd 17dd 25be 6a87 07be
000003d0: 16c8 323e b76b e6bd bc60 233e b20f 0cbd
000003e0: 23bb 643d 60a1 d43d afc2 9ebc 9325 dc3d
000003f0: dd4d 143e 6b48 043d f064 42be c33e d0bc

layer2.bias f4 [64]
-0.02489945 -0.020198904 -0.010890302 0.0012633292 -0.007074868 -0.019880708 0.02185892 -0.032964256
0.0069730836 0.041148253 0.012731897 -0.011858689 0.03113572 0.030975312 0.0062436406 -0.020395735
-0.005416855 0.003368331 0.012878535 -0.0011895468 0.0034408802 -0.044265196 -0.016334727 0.009293872
-0.020128394 -0.019952891 -0.004575591 0.0042944117 -0.016573917 0.0502514 -0.006774651 0.022960402
0.029589346 0.04214837 0.0344361 -0.01002575 -0.0026529117 0.0022813377 0.03911961 -0.008279002
0.004392285 0.0031996213 -0.01232323 -0.014360688 -0.023389842 -0.02136649 -0.0037598736 0.029859137
0.032829486 0.013599702 0.04032028 0.0033212947 -0.010959816 0.043257836 0.018065799 0.020597667
-0.006455072 -0.041189753 0.03134107 0.00065659033 -0.008090189 -0.0060416963 -0.020649567 -0.0037678913
00000000: eef9 cbbc 2c78 a5bc 3d6d 32bc 4b96 a53a
00000010: 4bd4 e7bb dedc a2bc 7a11 b33c 8705 07bd
00000020: 777e e43b 128b 283d 7299 503c f24a 42bc
00000030: 5610 ff3c f0bf fd3c 7497 cc3b f514 a7bc
00000040: e07f b1bb 37bf 5c3b 7e00 533c 91ea 9bba
00000050: 6480 613b 6c4f 35bd 68d0 85bc 5345 183c
00000060: 4de4 a4bc 3f74 a3bc d7ee 95bb 23b8 8c3b
00000070: 06c6 87bc 69d4 4d3d e4fd ddbb 7417 bc3c
00000080: 5b65 f23c c5a3 2c3d de0c 0d3d 0b43 24bc
00000090: 79dc 2dbb 7f82 153b e23b 203d a7a4 07bc
000000a0: 28ed 8f3b bdb0 513b 5fe7 49bc 1749 6bbc
000000b0: 0e9c bfbc c708 afbc 3668 76bb 269b f43c
000000c0: 3678 063d 49d1 5e3c e126 253d 14aa 593b
000000d0: cd90 33bc 212f 313d bafe 933c 70bc a83c
000000e0: 1285 d3bb 96b6 28bd 7e5f 003d 081f 2c3a
000000f0: b68c 04bc 6cf9 c5bb 4829 a9bc baee 76bb

layer3.weight f4 [7, 64]
-0.077081524 -0.0825798 -0.008568705 0.28185102 0.037989467 -0.06765427 0.23127279 0.10768124
-0.039069362 -0.24673286 -0.28775308 -0.05736066 0.013725344 -0.26968458 -0.08052575 0.11751512
0.23501083 0.11595774 -0.32360637 -0.02381136 0.22846085 -0.020343628 -0.2610568 0.024160957
0.24084884 0.17066573 -0.1409521 -0.1891505 0.28022936 -0.110064335 -0.094503105 -0.21538001
-0.261873 -0.100297146 -0.11610411 0.21870136 -0.01883309 0.096981324 0.24841204 -0.2480303
0.13425767 -0.17792368 -0.12334505 0.0718626 -0.23710549 -0.2514011 -0.23422924 -0.011635242
0.25713012 -0.2659293 0.21740699 -0.12291886 -0.1082848 -0.03200359 -0.16452217 0.188938
0.12744236 -0.25181827 -0.18630156 0.15732378 0.16585717 -0.24877204 0.26401895 0.084637016
0.020241683 -0.13417809 0.20403764 0.08448647 -0.09559225 -0.037743744 -0.17458801 -0.17864461
-0.07660062 0.088611126 -0.21146402 0.27333987 -0.11682512 0.019116689 0.22543323 -0.21828797
-0.21609065 0.16799608 -0.096539535 0.09891881 0.18405953 0.17986849 -0.22025734 0.22172813
-0.2039618 -0.15506276 0.1622349 -0.0075320485 -0.021737393 0.036200315 -0.19773825 -0.03094888
0.19049758 -0.26393157 -0.07366749 -0.302422 -0.020081753 0.06903708 -0.24082556 0.17871492
-0.2505758 -0.1531951 -0.19492136 -0.024248626 -0.08989462 -0.14941733 -0.18523146 -0.14845482
0.17173634 -0.27085847 0.23050931 0.26626882 -0.11927382 0.17340092 0.17769116 0.17347446
0.20515418 -0.12064741 -0.202026 5.9047947e-05 -0.05215463 -0.11802648 -0.1443642 -0.0972227
-0.1925569 0.09966997 0.19154282 0.09073063 0.040687814 -0.2711314 0.11511208 0.15062326
-0.3108849 0.20788552 -0.2630788 0.11168302 -0.010866708 0.0029508595 -0.051306475 -0.16486406
0.18721096 -0.183734 0.18052894 -0.13074742 0.087037615 -0.19748625 -0.06299029 0.2106068
-0.2707611 -0.1596915 -0.096366495 -0.27640104 -0.26642913 0.101710446 0.27426395 -0.011216105
-0.023999661 0.27775133 0.09277583 0.23116136 0.27287522 0.15184215 0.13020764 -0.17935957
0.33630162 0.020815238 -0.23019235 0.15378045 -0.11315417 -0.04860729 -0.106386214 0.2448343
0.071641564 -0.091869816 0.09230651 -0.1068224 -0.092681624 0.039845318 0.2619977 0.09080207
-0.15233503 -0.06644139 0.017673545 0.028717529 0.18368225 -0.035908047 -0.2360842 0.2998503
0.23887648 -0.2733447 -0.29953462 0.24231887 -0.23042996 -0.09455307 -0.05023757 -0.30277056
0.047593154 -0.001732798 0.06638524 -0.22127204 0.16208118 -0.0832824 0.101253614 -0.15620258
-0.07395305 -0.13185452 0.108832926 0.18453734 -0.2630875 -0.011378018 0.10775995 -0.22526452
-0.10164219 0.12060407 0.14138807 0.21725506 -0.07796986 0.20563087 0.035432454 0.117359154
0.16231918 0.31564644 0.20239367 -0.17748632 -0.1861133 -0.07240499 0.30101964 -0.021004837
-0.14345847 0.16507202 -0.26277167 -0.0878086 0.06996095 0.15560469 0.12624568 0.20090903
0.09705089 0.010457629 -0.030742634 -0.029141271 -0.28713515 0.125711 -0.32970664 0.2838977
0.13789535 -0.170084 0.0061449404 0.09534905 0.18198651 -0.19430077 0.2553926 -0.06318277
00000000: ebdc 9dbd 991f a9bd c163 0cbc c74e 903e
00000010: d89a 1b3d 528e 8abd c6d2 6c3e fb87 dc3d
00000020: 3207 20bd 8aa7 7cbe 5f54 93be 03f3 6abd
00000030: 44e0 603c 1914 8abe afea a4bd c4ab f03d
00000040: aea6 703e 407b ed3d bcaf a5be 0b10 c3bc
00000050: a4f1 693e aea7 a6bc 3da9 85be 33ed c53c
00000060: 14a1 763e ffc2 2e3e bf55 10be abb0 41be
00000070: 397a 8f3e 6969 e1bd d88a c1bd 948c 5cbe
00000080: 3814 86be 9768 cdbd fec7 edbd 40f3 5f3e
00000090: da47 9abc 259e c63d ba5f 7e3e a8fb 7dbe
000000a0: d87a 093e a031 36be 549c fcbd b32c 933d
000000b0: c8cb 72be a5b7 80be cad9 6fbe bea1 3ebc
000000c0: 8fa6 833e e327 88be f09f 5e3e e2bc fbbd
000000d0: 6cc4 ddbd 3216 03bd 8078 28be f778 413e
000000e0: 4080 023e 53ee 80be d6c5 3ebe 7c19 213e
000000f0: 76d6 293e 19be 7ebe 7e2d 873e 2c56 ad3d
00000100: e3d1 a53c fb65 09be 3eef 503e 3e07 ad3d
00000110: dfc5 c3bd 2f99 1abd 33c7 32be 9dee 36be
00000120: c9e0 9cbd c079 b53d 068a 58be 34f3 8b3e
00000130: 0242 efbd 9a9a 9c3c f8d7 663e e286 5fbe
00000140: de46 5dbe 2a07 2c3e 85b6 c5bd f295 ca3d
00000150: 1a7a 3c3e 722f 383e 248b 61be b30c 633e
00000160: 5ddb 50be c6c8 1ebe e820 263e 67cf f6bb
00000170: 9e12 b2bc c846 143d e57b 4abe 8188 fdbc
00000180: cc11 433e 0a22 87be fbde 96bd 0ed7 9abe
00000190: 7d82 a4bc 5063 8d3d fa9a 76be 0b01 373e
000001a0: 794b 80be 2ddf 1cbe 7799 47be 0ea5 c6bc
000001b0: ac1a b8bd db00 19be 51ad 3dbe 8a04 18be
000001c0: a7db 2f3e f6ad 8abe a20a 6c3e 6354 883e
000001d0: d545 f4bd 0390 313e acf4 353e 4aa3 313e
000001e0: f013 523e fd15 f7bd e7df 4ebe 40aa 7738
000001f0: 18a0 55bd deb7 f1bd 35d4 13be b21c c7bd
00000200: a32d 45be c51f cc3d cd23 443e fbd0 b93d
00000210: 44a8 263d bcd1 8abe e2bf eb3d fc3c 1a3e
00000220: 4e2c 9fbe f1df 543e 44b2 86be 11ba e43d
00000230: 470a 32bc 3563 413b bd26 52bd 20d2 28be
00000240: 3bb4 3f3e c424 3cbe 94dc 383e a7e2 05be
00000250: c740 b23d d639 4abe 0e01 81bd 4fa9 573e
00000260: 33a1 8abe 2b86 23be cc5b c5bd 7084 8dbe
00000270: 6669 88be 914d d03d 536c 8c3e c1c3 37bc
00000280: f09a c4bc 6c35 8e3e 4101 be3d 90b5 6c3e
00000290: 4db6 8b3e 827c 1b3e 2755 053e 09aa 37be
000002a0: ba2f ac3e b884 aa3c 8bb7 6bbe 9f78 1d3e
000002b0: 60bd e7bd 7018 47bd 04e1 d9bd d8b5 7a3e
000002c0: d0b8 923d 3e26 bcbd 320b bd3d b4c5 dabd
000002d0: ddcf bdbd d834 233d 9024 863e 70f6 b93d
000002e0: b7fd 1bbe 6c12 88bd 1cc8 903c 0641 eb3c
000002f0: 3317 3c3e 5114 13bd 0ec0 71be fb85 993e
00000300: 099c 743e d6f3 8bbe 9a5c 99be 7022 783e
00000310: d5f5 6bbe 0aa5 c1bd e9c5 4dbd be04 9bbe
00000320: 0af1 423d 0d1f e3ba fcf4 873d 2395 62be
00000330: 9cf8 253e f78f aabd 0e5e cf3d 92f3 1fbe
00000340: b274 97bd df04 07be cce3 de3d 5bf7 3c3e
00000350: 68b3 86be de6a 3abc 40b1 dc3d beab 66be
00000360: c829 d0bd 44ff f63d 09c8 103e 1c78 5e3e
00000370: a9ae 9fbd e690 523e 9f21 113d ff59 f03d
00000380: 0037 263e 699c a13e 4940 4f3e f9be 35be
00000390: 7c94 3ebe 1149 94bd 3f1f 9a3e 5612 acbc
000003a0: c7e6 12be a408 293e 028a 86be ffd4 b3bd
000003b0: b047 8f3d d656 1f3e 8c46 013e 19bb 4d3e
000003c0: 9ec2 c63d 7a56 2b3c fad7 fbbc adb9 eebc
000003d0: 6103 93be 62ba 003e 4fcf a8be 0a5b 913e
000003e0: 7034 0d3e 802a 2ebe 7f5b c93b 5d46 c33d
000003f0: ac5a 3a3e c8f6 46be d2c2 823e f865 81bd

layer3.bias f4 [7]
-0.003994499 0.02726841 0.05590263 0.05400142 0.0071147853 -0.053637102 -0.086654685
00000000: 49e4 82bb 0062 df3c 28fa 643d 9830 5d3d
00000010: 2523 e93b 94b2 5bbd 0378 b1bd
