maml_model/maml_ActionObjDoor_8_3_300_50.pth (torch, 60324 bytes, 6 tensors)

layer1.weight f4 [64, 151]
-0.08121573 0.024031974 -0.02966828 0.10119763 0.13667075 0.027932743 0.09808815 -0.042808022
0.11256321 -0.008400209 0.018117506 0.0072254348 -0.028864618 0.16974209 0.12277758 0.012318796
-0.16839576 -0.13050298 0.16535936 0.12420606 0.015318431 -0.11688654 0.083581485 0.109388225
0.04009607 -0.08818655 -0.13800327 -0.049858842 0.026978636 0.05305311 0.078284435 -0.04020042
0.13320376 0.110489845 0.030765979 -0.01973852 0.13639577 -0.02490159 0.03820435 -0.0045165024
-0.13900752 0.10367649 0.13963304 -0.092118986 0.049133804 -0.07421018 0.07441834 0.072894275
-0.06346278 0.04634808 0.026998958 -0.09949466 -0.06885452 -0.13875246 -0.13791896 0.14092408
0.16552185 0.08285147 0.0715227 -0.080952935 0.052692603 -0.010446932 -0.1579077 0.117130294
0.070823334 -0.037570626 0.078338206 0.07264063 -0.14374334 -0.058219615 0.16710746 -0.078732185
0.037839025 0.09795084 -0.07037883 0.15347843 -0.019872263 -0.09962728 0.008273149 0.071776874
-0.05126569 0.091665424 0.022715243 0.04705062 -0.12135163 0.077797554 0.16686024 0.1528069
0.06953731 0.031599306 0.15506876 0.012835363 -0.16566584 -0.15171668 -0.12112225 0.12277473
0.0017604283 0.1248265 -0.15457605 -0.15298936 -0.12903231 0.15481742 0.015807522 0.08204506
0.059986625 -0.10698951 0.05629463 0.11572355 -0.14099838 0.15839171 -8.03014e-05 0.07838428
0.14985563 -0.07916197 -0.11238775 0.022997005 0.089178406 -0.08249225 -0.0034045815 0.036188275
0.13397638 0.036266897 -0.13078329 0.150577 -0.13071728 -0.0568902 0.009608287 0.12272429
0.070442654 -0.07693528 -0.10490388 -0.0062712994 -0.10451381 0.1391332 0.0686514 0.033917658
0.05951426 -0.12566458 -0.049889784 -0.07591684 0.042229127 -0.11052986 -0.11959751 -0.011631468
-0.06523284 -0.011330091 -0.011779893 -0.11413471 0.047371272 -0.18160279 -0.05634574 -0.060272343
-0.116405085 -0.0077097807 0.081959136 0.04751632 0.09555604 -0.14490731 -0.08868156 0.009529399
-0.093510896 -0.132144 -0.092055246 -0.030023506 0.020835835 -0.16557507 0.1663933 0.10315744
0.02316091 -0.046922483 -0.14811853 -0.12922718 -0.041925628 0.13612969 0.046147246 -0.027159465
-0.08202278 -0.033459373 -0.010981254 -0.0034318625 0.047416463 0.09304032 -0.14222504 -0.12117942
-0.024744578 0.14071813 -0.13032149 -0.16781102 0.03548754 -0.1364721 -0.019613098 0.13162163
-0.084452204 0.10762203 -0.1099937 0.026473993 0.11374049 0.016674465 0.03720032 0.007552283
-0.022525365 0.07504644 -0.08034544 0.12919776 -0.041051105 0.11734392 0.11652796 0.027039638
-0.12403717 -0.037667006 -0.1522207 0.051362045 -0.08796298 0.1268864 -0.053251427 0.12259344
0.09746348 0.10061748 0.078087635 0.10783603 0.098735526 -0.107618846 -0.14902966 -0.02130855
0.12819172 0.015090251 -0.031808544 -0.11327577 -0.020949414 0.00614391 -0.057886045 -0.046006873
0.024670342 -0.04808971 -0.072400354 -0.078257956 -0.102187596 -0.08972539 -0.0763216 0.096341796
0.06571703 0.08951713 -0.056622606 0.049522035 0.120097466 0.117088735 -0.091082096 -0.043367315
-0.10691262 -0.004676589 -0.09696219 -0.0034531984 0.086409695 0.1296123 0.10061036 0.13423175
00000000: 6f54 a6bd b4de c43c e50a f3bc b440 cf3d
00000010: 6bf3 0b3e 35d3 e43c 71e2 c83d 7757 2fbd
00000020: 8a87 e63d 08a1 09bc 2a6b 943c 57c3 ec3b
00000030: 7e75 ecbc dfd0 2d3e d072 fb3d c6d4 493c
00000040: f06f 2cbe 93a2 05be f753 293e bf5f fe3d
00000050: 28fa 7a3c 3662 efbd c52c ab3d ef06 e03d
00000060: c73b 243d 269b b4bd bb50 0dbe c938 4cbd
00000070: 4d02 dd3c 384e 593d 9753 a03d 32a9 24bd
00000080: 9166 083e 8048 e23d ef08 fc3c adb2 a1bc
00000090: 55ab 0b3e 6bfe cbbc 2a7c 1c3d 2bff 93bb
000000a0: fd57 0ebe 5754 d43d f7fb 0e3e e1a8 bcbd
000000b0: 8740 493d 82fb 97bd a568 983d 9849 953d
000000c0: c6f8 81bd 7cd7 3d3d eb2c dd3c dbc3 cbbd
000000d0: 9903 8dbd 2015 0ebe a13a 0dbe 674e 103e
000000e0: 8f7e 293e 08ae a93d 7e7a 923d a7ca a5bd
000000f0: 33d4 573d 9c29 2bbc 8eb2 21be 02e2 ef3d
00000100: d30b 913d a8e3 19bd c86f a03d 9cc4 943d
00000110: 7431 13be b177 6ebd 381e 2b3e 573e a1bd
00000120: 18fd 1a3d 739a c83d c722 90bd 7329 1d3e
00000130: 28cb a2bc 6309 ccbd 1a8c 073c c1ff 923d
00000140: f9fb 51bd 15bb bb3d 5115 ba3c 27b8 403d
00000150: 3487 f8bd 5354 9f3d 69dd 2a3e 6979 1c3e
00000160: 9469 8e3d 466e 013d 58ca 1e3e 6a4b 523c
00000170: 4ea4 29be 9e5b 1bbe f10e f8bd 5171 fb3d
00000180: 2cbe e63a 09a5 ff3d 2f49 1ebe 3ea9 1cbe
00000190: 0c21 04be 7588 1e3e c77e 813c 3e07 a83d
000001a0: 89b4 753d 511d dbbd 3395 663d 7800 ed3d
000001b0: e161 10be 7031 223e 7c67 a8b8 f087 a03d
000001c0: c173 193e ac1f a2bd 8c2b e6bd 3764 bc3c
000001d0: 2ba3 b63d b2f1 a8bd 661f 5fbb 283a 143d
000001e0: 1b31 093e 998c 143d 0eec 05be db30 1a3e
000001f0: c0da 05be b305 69bd 146c 1d3c df56 fb3d
00000200: 3d44 903d 3e90 9dbd d8d7 d6bd 797f cdbb
00000210: 560b d6bd ef78 0e3e 1b99 8c3d 3eed 0a3d
00000220: 3ac5 733d 37ae 00be 3b59 4cbd 4a7a 9bbd
00000230: 73f8 2c3d 7b5d e2bd 8aef f4bd ea91 3ebc
00000240: cc98 85bd d9a1 39bc 7400 41bc 75bf e9bd
00000250: 6108 423d 15f6 39be caca 66bd 22e0 76bd
00000260: ca65 eebd 54a2 fcbb 31da a73d 79a0 423d
00000270: e3b2 c33d 9562 14be ad9e b5bd 3221 1c3c
00000280: a482 bfbd c250 07be 7687 bcbd dbf3 f5bc
00000290: eaaf aa3c 838c 29be 0163 2a3e 3544 d33d
000002a0: f3bb bd3c ca31 40bd 62ac 17be 2154 04be
000002b0: 35ba 2bbd 9565 0b3e e504 3d3d 877d debc
000002c0: 8ffb a7bd b20c 09bd b8ea 33bc 19e9 60bb
000002d0: c437 423d ec8b be3d 71a3 11be ea2c f8bd
000002e0: 24b5 cabc 6a18 103e ff72 05be a7d6 2bbe
000002f0: 625b 113d 58bf 0bbe a6ab a0bc d2c7 063e
00000300: 47f5 acbd f068 dc3d 6144 e1bd fddf d83c
00000310: c6f0 e83d e398 883c 5d5f 183d 2479 f73b
00000320: 1d87 b8bc f3b1 993d 268c a4bd 6b4c 043e
00000330: 3425 28bd 0252 f03d 36a6 ee3d 3b82 dd3c
00000340: 3307 febd b848 1abd bedf 1bbe 0261 523d
00000350: ef25 b4bd 82ee 013e 2b1e 5abd 4512 fb3d
00000360: ef9a c73d 8a10 ce3d 69ec 9f3d 23d9 dc3d
00000370: da35 ca3d 4567 dcbd 3b9b 18be 458f aebc
00000380: b144 033e 1a3d 773c ad49 02bd 20fd e7bd
00000390: 1b9e abbc da52 c93b eb19 6dbd b471 3cbd
000003a0: 7519 ca3c b7f9 44bd a346 94bd b545 a0bd
000003b0: bb47 d1bd f2c1 b7bd 804e 9cbd d94e c53d
000003c0: a696 863d c254 b73d 1bed 67bd 9ed7 4a3d
000003d0: a9f5 f53d 38cc ef3d 4089 babd eda1 31bd
000003e0: 01f5 dabd 123e 99bb 1d94 c6bd 0e4f 62bb
000003f0: 91f7 b03d 16b9 043e ce0c ce3d 0c74 093e

layer1.bias f4 [64]
0.0051842486 0.02196697 -0.00016907346 -0.014028165 0.021856608 -0.036233395 -0.0033944082 0.013623415
-0.0074916678 -0.007863761 -0.014625271 0.00396995 0.05432079 -0.031971026 -0.02795978 0.052861035
0.047429327 -0.006629796 0.07858421 0.004898633 -0.015009001 0.004958144 0.038602706 -0.035924926
-0.03774927 0.047758006 0.006734822 -0.04827136 -0.022556147 -0.03666465 0.01585982 0.0047203423
-0.029488772 0.01690221 -0.008307767 0.048470344 -0.021083027 0.04345685 -0.0007136174 -0.027856287
0.013031732 0.0071006007 -0.06078581 0.023136761 -0.022522697 0.0024480862 -0.02249613 0.010493749
-0.0150083825 -0.023297744 -0.05560268 -0.007986427 0.010355005 -0.016579373 0.023282023 -0.03162441
0.014366596 0.016719978 0.014047837 -0.052169945 -0.02145097 0.009918529 -0.010697114 0.010144163
00000000: a1e0 a93b 13f4 b33c 5049 31b9 63d6 65bc
00000010: a10c b33c 7869 14bd b874 5ebb be34 5f3c
00000020: aa7c f5bb 01d7 00bc d59e 6fbc 5b16 823b
00000030: 7a7f 5e3d 0df4 02bd e90b e5bc d084 583d
00000040: 4145 423d c23e d9bb c2f0 a03d b684 a03b
00000050: 50e8 75bc ed77 a23b df1d 1e3d 0426 13bd
00000060: fb9e 1abd e69d 433d c8af dc3b 31b8 45bd
00000070: abc7 b8bc ac2d 16bd 74ec 813c 1aad 9a3b
00000080: 7092 f1bc 8176 8a3c 4d1d 08bc d788 463d
00000090: 50b6 acbc cfff 313d 0e12 3bba de32 e4bc
000000a0: 0c83 553c 28ac e83b 8bfa 78bd 4e89 bd3c
000000b0: 8581 b8bc 1270 203b ce49 b8bc f9ed 2b3c
000000c0: b8e5 75bc e9da bebc a3bf 63bd 81d9 02bc
000000d0: 0aa8 293c 77d1 87bc f1b9 be3c 9988 01bd
000000e0: df61 6b3c 56f8 883c e628 663c 27b0 55bd
000000f0: f2b9 afbc 5381 223c f342 2fbc b433 263c

layer2.weight f4 [64, 64]
-0.058373805 0.15999064 -0.08909639 -0.18688038 0.06493686 0.055140987 -0.088477425 -0.17498644
-0.05379396 0.1877624 -0.0098894555 0.12472986 0.20118983 0.043442335 -0.04032996 -0.11590743
0.177479 -0.08098902 -0.11727401 0.11171715 0.02550654 -0.19891503 -0.1954392 -0.21608599
-0.0916956 -0.14793871 0.011774105 0.12957853 0.19465199 0.033448916 0.06485167 0.08047591
-0.07075883 -0.10654381 -0.048435107 0.16395094 -0.19459653 -0.0702869 -0.051321708 0.113572024
-0.05425027 0.044579152 0.06597182 0.09003879 0.09863826 0.18017419 -0.19252446 0.0073720133
-0.046648175 -0.14412227 0.17917326 0.16752765 0.06217344 -0.1997165 -0.018793039 0.08180125
0.012702558 0.17903174 0.051385768 -0.07543896 0.048903167 0.0006853043 -0.10702529 -0.03720104
-0.0045460747 -0.013322643 -0.06422259 0.100727335 0.14794295 0.15884376 0.13240878 -0.014080936
-0.19755165 -0.035626788 0.16571672 0.044822592 0.16328727 0.019478062 -0.050369896 -0.1155887
0.12188181 -0.090978414 0.18259934 0.11871704 -0.07449983 -0.1519409 -0.22090724 0.055441823
-0.1847189 -0.073117524 -0.030740228 -0.06136662 -0.1799327 -0.18950038 -0.16003284 -0.009100777
0.070252985 -0.08275034 0.069137044 -0.04101603 0.034295168 0.0013034713 -0.10008806 -0.04413704
0.12737148 0.2135866 -0.093002364 -0.15101933 -0.20091443 -0.020849548 -0.010534011 -0.20356815
0.032680027 -0.07110209 0.014724329 0.030122845 0.017764645 -0.036264885 0.004583076 -0.11499066
-0.21612471 0.014504929 -0.1587778 -0.010116408 0.08418212 0.093938075 0.19739671 0.1559066
0.12423887 -0.19864446 -0.07447481 0.09547661 -0.1693786 0.10544758 -0.030883644 -0.16148132
0.13662565 -0.18492875 0.071425796 0.031050123 0.07016645 -0.011729413 0.12472527 0.023414994
0.08403703 -0.09323245 0.09316323 -0.007562266 0.11841558 -0.15475513 -0.0050139464 0.17250006
0.13958469 0.049992178 0.04006421 -0.049768023 -0.08794977 -0.15564337 0.11415196 -0.15293972
0.2015093 -0.039650716 -0.1411769 -0.17037173 0.17984806 0.0063398075 -0.14720888 -0.15425785
0.14773524 -0.060159035 -0.06734465 -0.1030704 0.070362866 0.12277869 0.02636603 -0.16610329
0.047709607 0.121847026 -0.115278475 0.019558348 0.19701803 -0.009308675 -0.1292283 -0.03966028
0.12728 -0.14305857 0.08791145 0.19159488 0.14431055 -0.043242894 -0.0071122497 0.16775739
-0.03215179 -0.11739606 -0.009478502 0.1239286 -0.03047704 -0.1471954 0.048743144 -0.06275352
-0.08964621 -0.035978187 -0.13496776 -0.006595265 -0.09417965 -0.008785889 -0.15487984 -0.1924496
0.027324349 0.18285318 0.108584456 -0.15809555 -0.01488777 0.085333064 0.0764599 -0.034903713
0.1549512 -0.18390906 0.04007542 0.0002938466 -0.20107655 -0.1327145 0.13835159 -0.09632413
-0.17662245 0.06992013 -0.02773736 0.19248548 -0.14209543 0.10042992 0.09626759 -0.06705703
-0.152626 -0.012597674 -0.21383667 0.016792595 -0.18295811 0.0456026 -0.025057456 -0.0005890513
0.16389158 -0.15705316 0.18271612 0.19171266 0.1499216 0.15266842 -0.10909449 -0.035521295
-0.21698982 0.056449994 0.17232342 0.06623977 -0.031101277 0.00936754 -0.16447115 0.06241357
00000000: 5f19 6fbd 96d4 233e 2b78 b6bd 925d 3fbe
00000010: 9efd 843d 84db 613d a733 b5bd a52f 33be
00000020: 0e57 5cbd c944 403e 6207 22bc 5e72 ff3d
00000030: b504 4e3e 97f0 313d 0731 25bd e060 edbd
00000040: 0ebd 353e 92dd a5bd 5b2d f0bd f6cb e43d
00000050: 17f3 d03c 62b0 4bbe 3721 48be a545 5dbe
00000060: e7ca bbbd 3f7d 17be 2de8 403c 3cb0 043e
00000070: da52 473e bb01 093d f4d0 843d 8ed0 a43d
00000080: 01ea 90bd a433 dabd e463 46bd c1e2 273e
00000090: 5044 47be 94f2 8fbd b636 52bd 7398 e83d
000000a0: 8835 5ebd a198 363d 3c1c 873d 4266 b83d
000000b0: db02 ca3d 957f 383e 2225 45be ee90 f13b
000000c0: 2812 3fbd ca94 13be 3279 373e 5e8c 2b3e
000000d0: 94a9 7e3d 7b82 4cbe dcf3 99bc 6a87 a73d
000000e0: 641e 503c 1954 373e e279 523d be7f 9abd
000000f0: b04e 483d fea5 333a 1330 dbbd 1e60 18bd
00000100: 3df7 94bb 3747 5abc 2287 83bd 224a ce3d
00000110: 5b7e 173e f0a7 223e 2b96 073e bab3 66bc
00000120: fb4a 4abe 65ed 11bd a5b1 293e e597 373d
00000130: c734 273e 7590 9f3c aa50 4ebd c5b9 ecbd
00000140: 2c9d f93d e452 babd 52fb 3a3e eb21 f33d
00000150: 5e93 98bd 6596 1bbe 8235 62be f716 633d
00000160: f426 3dbe a4be 95bd eed2 fbbc 915b 7bbd
00000170: 4740 38be 630c 42be a6df 23be 6d1b 15bc
00000180: cce0 8f3d 0379 a9bd b997 8d3d 6d00 28bd
00000190: 1779 0c3d 3dd9 aa3a f8fa ccbd 0ac9 34bd
000001a0: ab6d 023e 72b6 5a3e 0678 bebd d0a4 1abe
000001b0: 83bc 4dbe accc aabc d896 2cbc 2b74 50be
000001c0: 7edb 053d f99d 91bd 503e 713c 2fc4 f63c
000001d0: 2987 913c 7d8a 14bd a12d 963b 3980 ebbd
000001e0: cc4f 5dbe 15a6 6d3c a696 22be 4abf 25bc
000001f0: ad67 ac3d 9b62 c03d 5d22 4a3e fba5 1f3e
00000200: f370 fe3d 7469 4bbe 4086 98bd 3e89 c33d
00000210: 9571 2dbe e7f4 d73d b2ff fcbc 5c5b 25be
00000220: 98e7 0b3e f65d 3dbe b047 923d d45c fe3c
00000230: 6eb3 8f3d b92c 40bc f66f ff3d cdd0 bf3c
00000240: 9b1b ac3d a8f0 bebd 5dcc be3d e3cc f7bb
00000250: de83 f23d 2178 1ebe 084c a4bb dba3 303e
00000260: 4aef 0e3e 99c4 4c3d 5e1a 243d 8ed9 4bbd
00000270: 021f b4bd fa60 1fbe 81c8 e93d 3b9c 1cbe
00000280: 7458 4e3e ca68 22bd ad90 10be ed75 2ebe
00000290: 172a 383e 29be cf3b edbd 16be c5f5 1dbe
000002a0: e847 173e 5269 76bd feeb 89bd 9316 d3bd
000002b0: 681a 903d 6573 fb3d 93fd d73c fb16 2abe
000002c0: 266b 433d ef8a f93d 1f17 ecbd d438 a03c
000002d0: 18bf 493e 6a83 18bc 6c54 04be d172 22bd
000002e0: b055 023e f27d 12be eb0a b43d 7331 443e
000002f0: 25c6 133e 761f 31bd e00d e9bb 98c8 2b3e
00000300: 98b1 03bd 586d f0bd b84b 1bbc 47ce fd3d
00000310: fcaa f9bc 64ba 16be e4a6 473d eb84 80bd
00000320: 6f98 b7bd dd5d 13bd fd34 0abe 181d d8bb
00000330: 43e1 c0bd b0f2 0fbc d298 1ebe 8211 45be
00000340: 50d7 df3c dd3d 3b3e 8761 de3d cde3 21be
00000350: d5eb 73bc 1ac3 ae3d 0297 9c3d 32f7 0ebd
00000360: 87ab 1e3e a852 3cbe 2026 243d 6c0f 9a39
00000370: 03e7 4dbe 4fe6 07be 0aac 0d3e 9645 c5bd
00000380: 84dc 34be 4932 8f3d 7639 e3bc ea1a 453e
00000390: 7781 11be 34ae cd3d f127 c53d 3255 89bd
000003a0: fd49 1cbe 7966 4ebc 00f8 5abe a090 893c
000003b0: 5f59 3bbe cbc9 3a3d 4b45 cdbc 906a 1aba
000003c0: 32d3 273e 8bd2 20be ef19 3b3e 5350 443e
000003d0: 0c85 193e 1c55 1c3e ef6c dfbd c77e 11bd
000003e0: 9432 5ebe 1c38 673d 8d75 303e b7a8 873d
000003f0: 1bc8 febc 4f7a 193c 206b 28be 5fa5 7f3d

layer2.bias f4 [64]
0.010730318 -0.008451876 -0.015539321 0.02442154 -0.035260413 0.0138099445 -0.0014556875 0.07286727
-0.0021120529 0.0076472214 -0.040274486 -0.036795866 0.0019961013 -0.023949161 0.026065633 -0.06599986
0.03900535 -0.027054625 -0.045628548 0.06503432 -0.029510878 0.051881496 0.028724581 0.019549679
0.0057278764 -0.019438446 0.04085902 0.0133966375 0.02610725 -0.010297956 -0.043298878 0.0069228895
-0.04118219 -0.0024766487 -0.015549627 -0.07394252 -0.009831051 0.021220012 -0.014140856 0.041168958
-0.012711558 0.008520804 -0.00093906675 -0.0021475581 -0.03952918 -0.027306661 0.05585954 -0.010131259
0.007858877 0.003065766 0.023405412 0.013356507 0.0048194365 0.022602525 -0.0034714567 -0.0026410236
-0.01246573 -0.048396755 -0.076361544 0.004443452 0.0072276522 -0.019512363 -0.042274605 -0.004329417
00000000: 37ce 2f3c bd79 0abc a398 7ebc ae0f c83c
00000010: 396d 10bd 1b43 623c c4cc beba 6f3b 953d
00000020: 5e6a 0abb 8b95 fa3b dcf6 24bd 43b7 16bd
00000030: 06d1 023b 0831 c4bc 9887 d53c ef2a 87bd
00000040: 13c4 1f3d a9a1 ddbc 00e5 3abd b730 853d
00000050: ccc0 f1bc b181 543d d04f eb3c a626 a03c
00000060: e9b0 bb3b 603d 9fbc ca5b 273d 927d 5b3c
00000070: dfde d53c c2b8 28bc 2a5a 31bd 68d9 e23b
00000080: a8ae 28bd 454f 22bb ddc3 7ebc 2d6f 97bd
00000090: 6b12 21bc 97d5 ad3c 0daf 67bc c8a0 283d
000000a0: 2344 50bc d89a 0b3c b42b 76ba 0cbe 0cbb
000000b0: 59e9 21bd 38b2 dfbc f9cc 643d 95fd 25bc
000000c0: 85c2 003c 05eb 483b b5bc bf3c 40d5 5a3c
000000d0: 5dec 9d3b ee28 b93c 6181 63bb 0615 2dbb
000000e0: 103d 4cbc ad3b 46bd 7163 9cbd 619a 913b
000000f0: f1d5 ec3b 64d8 9fbc 2328 2dbd c8dd 8dbb

layer3.weight f4 [7, 64]
0.00709253 0.23829362 0.08975472 0.106721245 0.09356096 0.26896137 -0.055207003 0.22167441
0.11262003 -0.07273828 -0.25346255 0.18133695 -0.18296863 0.041988794 -0.017927535 0.013757079
0.18428019 0.19567265 0.2465117 0.23479316 -0.19401298 -0.037141483 -0.043575678 0.11008474
0.2903084 -0.19108003 0.16099213 -0.28741905 -0.0582214 -0.31052777 -0.14396824 0.035558056
0.22273064 0.26232737 -0.10220309 -0.2722959 0.22638533 -0.3033714 0.114238136 -0.21676575
0.122386046 -0.20719367 0.14646213 0.30436182 -0.2763551 0.06543552 -0.18857837 -0.039142635
0.19827878 -0.14485775 -0.051271617 -0.2143059 0.091966785 -0.19570217 -0.14609118 -0.105202205
-0.1281465 0.10447787 -0.048347905 0.054956775 0.24145067 0.02598598 0.22237624 -0.038376782
-0.06510022 0.07098682 -0.07455658 -0.17683561 0.013965703 -0.14108813 -0.113323964 0.13769254
0.08760401 0.177327 0.028864058 0.045357034 0.3098078 0.30331293 -0.22650947 -0.093554
-0.046593577 -0.060005568 -0.19291617 -0.04877775 -0.27834713 0.12700373 -0.072547056 0.13172205
-0.28448722 -0.21178849 -0.25173956 0.19067319 0.057767138 0.08167341 0.1785558 0.00016932772
-0.25395918 -0.15710138 -0.17483252 0.07540764 0.12372225 -0.29338512 -0.17500278 -0.13297445
-0.14162733 0.21971212 -0.18195999 -0.12465511 -0.23838708 -0.029209878 0.17991814 0.08862013
-0.00039371382 -0.2491528 -0.23623535 -0.24296612 0.011317585 0.1055523 -0.24220435 -0.16855876
-0.19130616 -0.1612087 -0.09697319 -0.22322941 0.04754368 -0.14508325 -0.34208897 -0.008571284
-0.08519321 -0.0034045237 -0.0055213645 0.1575167 -0.3188966 0.071649045 0.20741673 0.34229994
0.058191866 -0.071445405 -0.13797808 -0.11512817 0.2943423 -0.3392719 0.01767434 -0.2606078
0.14318642 -0.051881146 -0.32889712 0.17915232 0.05055951 0.18259865 0.1670176 -0.1354772
0.25224167 0.0254456 0.2738141 0.012728757 0.2744727 -0.063339144 -0.18231766 -0.25162104
-0.26650763 0.038598474 0.19428754 -0.24278007 -0.17840031 0.2635109 0.12289048 0.20467596
0.24237168 -0.24147241 0.16748568 -0.08852613 -0.115070626 -0.17731765 0.1638935 0.32598668
0.21332431 -0.014277057 0.11309197 0.20123896 0.036601394 -0.038403854 -0.26030812 0.2255997
0.07189373 -0.12756112 -0.28017017 -0.06142784 -0.054731946 -0.18781391 -0.03917196 -0.19821969
-0.049995437 -0.19287585 -0.09116026 0.23451898 0.21328591 0.15991771 0.049387045 0.11993444
-0.09071465 0.05005528 0.09378708 -0.24804917 -0.32415056 -0.09368581 0.11579135 -0.009085727
-0.2834361 -0.25013664 0.070365064 0.032727934 0.10014054 0.031560894 0.13712008 0.11794502
0.13907044 0.32527035 0.053936295 0.07132495 -0.27891964 0.27856177 0.007518798 -0.15317227
-0.24084531 0.1173988 -0.1965368 0.08413324 0.15518624 0.2425971 0.037736926 0.2751742
-0.18253933 0.007089934 -0.15112941 0.010603666 -0.23734654 -0.2911912 -0.27217084 -0.28179795
-0.09850549 0.15982033 -0.0897084 -0.007954017 0.18293282 -0.045082584 0.10092159 0.008116946
-0.01869942 -0.033608194 0.105912 -0.26669273 -0.017395291 0.117075294 0.2500023 -0.022927666
00000000: 7468 e83b 3e03 743e 53d1 b73d ab90 da3d
00000010: e39c bf3d 4eb5 893e bd20 62bd 9efe 623e
00000020: 55a5 e63d cff7 94bd d8c5 81be 65b0 393e
00000030: 215c 3bbe 71fc 2b3d c4dc 92bc 5f65 613c
00000040: f2b3 3c3e 695e 483e 906d 7c3e 9e6d 703e
00000050: 57ab 46be ab21 18bd 697c 32bd 1c74 e13d
00000060: 4da3 943e 7caa 43be 1fdb 243e 9728 93be
00000070: 9079 6ebd 7ffd 9ebe 696c 13be 53a5 113d
00000080: 8013 643e c64f 863e db4f d1bd 5e6a 8bbe
00000090: 8ed1 673e 7f53 9bbe aff5 e93d d7f7 5dbe
000000a0: 89a5 fa3d 942a 54be 2bfa 153e 50d5 9b3e
000000b0: 6a7e 8dbe 0f03 863d b01a 41be 0754 20bd
000000c0: 9809 4b3e 9755 14be 3002 52bd 0173 5bbe
000000d0: 1559 bc3d 2666 48be ed98 15be 4174 d7bd
000000e0: d638 03be 7ef8 d53d 7408 46bd 5b1a 613d
000000f0: d83e 773e 8de0 d43c 99b6 633e f930 1dbd
00000100: 4453 85bd 8a61 913d 1fb1 98bd 6514 35be
00000110: 67d0 643c 6879 10be 6516 e8bd 46ff 0c3e
00000120: bb69 b33d 3695 353e 5174 ec3c 4cc8 393d
00000130: 219f 9e3e d54b 9b3e 19f2 67be 3d99 bfbd
00000140: e8d8 3ebd 66c8 75bd d18b 45be 2ecb 47bd
00000150: 8483 8ebe 440d 023e 8d93 94bd 25e2 063e
00000160: 4fa8 91be 15df 58be 02e4 80be d53f 433e
00000170: 3c9d 6c3d 6444 a73d 55d7 363e 908d 3139
00000180: f006 82be 2fdf 20be 4c07 33be 526f 9a3d
00000190: 1762 fd3d 9336 96be ee33 33be 742a 08be
000001a0: c106 11be 37fc 603e b853 3abe 2e4b ffbd
000001b0: be1b 74be 8e49 efbc 763c 383e 797e b53d
000001c0: 606b ceb9 e921 7fbe aee7 71be 1ccc 78be
000001d0: 646d 393c ce2b d83d 6b04 78be ab9a 2cbe
000001e0: c3e5 43be e513 25be e199 c6bd 4096 64be
000001f0: 29bd 423d b490 14be 4926 afbe 926e 0cbc
00000200: c779 aebd 6e1e 5fbb 90ec b4bb 0f4c 213e
00000210: 6a46 a3be bcbc 923d 0d65 543e f041 af3e
00000220: 985a 6e3d f851 92bd 204a 0dbe 51c8 ebbd
00000230: 09b4 963e 0cb5 adbe c7c9 903c 636e 85be
00000240: 769f 123e 5381 54bd 3465 a8be b573 373e
00000250: 7d17 4f3d 24fb 3a3e a906 2b3e 89ba 0abe
00000260: d225 813e 4a73 d03c 5d31 8c3e 478c 503c
00000270: b087 8c3e f4b7 81bd 7bb1 3abe 79d4 80be
00000280: b073 88be 6f19 1e3d 50f3 463e 579b 78be
00000290: 92ae 36be e7ea 863e 01ae fb3d 9396 513e
000002a0: 4830 783e 8b44 77be 5e81 2b3e 304d b5bd
000002b0: 26aa ebbd c292 35be b3d3 273e bae7 a63e
000002c0: b071 5a3e 51ea 69bc c39c e73d 9611 4e3e
000002d0: 58eb 153d 5c4d 1dbd 1b47 85be 9c03 673e
000002e0: 053d 933d 629f 02be 7772 8fbe c29b 7bbd
000002f0: 9b2e 60bd 4a52 40be c772 20bd 1afa 4abe
00000300: 04c8 4cbd 3f81 45be 3bb2 babd be25 703e
00000310: 9f67 5a3e 78c1 233e 124a 4a3d 30a0 f53d
00000320: 9ac8 b9bd c406 4d3d 7113 c03d 9a00 7ebe
00000330: 10f7 a5be 59de bfbd 0424 ed3d 4ddc 14bc
00000340: 891e 91be e911 80be 8f1b 903d ba0d 063d
00000350: 7c16 cd3d ff45 013d 3569 0c3e 298d f13d
00000360: 7b68 0e3e d689 a63e 4eec 5c3d d112 923d
00000370: 8ece 8ebe a69f 8e3e 4060 f63b 31d9 1cbe
00000380: 27a0 76be c86e f03d f140 49be 0c4e ac3d
00000390: 24e9 1e3e 606b 783e 0992 1a3d a2e3 8c3e
000003a0: 97eb 3abe ad52 e83b abc1 1abe 00bb 2d3c
000003b0: f90a 73be 0317 95be fa59 8bbe d247 90be
000003c0: 3fbd c9bd f1a7 233e 0ab9 b7bd 9151 02bc
000003d0: be52 3b3e 84a8 38bd fbaf ce3d f0fc 043c
000003e0: 872f 99bc bfa8 09bd 64e8 d83d f38b 88be
000003f0: 9280 8ebc 2cc5 ef3d 4d00 803e cdd2 bbbc

layer3.bias f4 [7]
0.0033965406 0.05835327 0.13880461 0.018007085 -0.11147487 -0.007555943 -0.0995314
00000000: 7f98 5e3b d703 6f3d cc22 0e3e 9883 933c
00000010: f04c e4bd d897 f7bb 1ed7 cbbd
