maml_model/maml_OpenDoorsOrder_7_3_500_50_encoder.pth (torch, 23870 bytes, 6 tensors)

net.0.weight f4 [32, 30]
-0.031815883 -0.08973933 -0.006072306 0.08995486 -0.09908222 0.047212094 0.005745294 0.08850994
0.03429323 0.12921156 0.08642185 0.032443028 0.13135535 0.0015122219 0.020383688 -0.17596519
-0.10540505 -0.09926795 0.012777025 -0.07594155 -0.10158944 -0.04226349 0.0037306596 -0.029860273
0.12588933 0.14442329 -0.1723637 0.15601847 0.09446038 0.1646065 0.1732237 0.16475399
0.11482727 0.013945171 0.044782106 -0.11539537 -0.1665591 0.02136886 -0.014812423 0.13027203
0.050272144 -0.054960314 -0.118058674 0.15232219 -0.032784708 -0.17645513 -0.10536853 -0.16874598
-0.0032149272 0.1684655 0.088154174 0.014402248 -0.05176321 0.13262221 0.10391333 0.06335206
0.13578174 0.03235834 -0.17189725 -0.15176378 -0.1704504 -0.16263704 0.012304712 -0.043012757
-0.065570354 -0.15009561 -0.08555137 -0.15202774 -0.13022113 -0.05969582 0.066536434 -0.094525196
0.091515884 0.0776177 0.028553443 -0.080043964 0.15502417 -0.07518771 0.08499433 0.10571013
0.14888912 0.09749201 0.07309024 0.05599008 -0.16241525 0.11602878 0.0016687525 0.17796493
0.0044860416 -0.04099775 0.06592237 0.005281557 0.12474787 -0.012590176 0.018132342 0.026286362
0.17561181 -0.14942633 0.11878746 -0.05612615 0.13743418 -0.17721114 0.14949252 -0.15049466
0.02741753 -0.004131867 0.11731319 0.09261777 -0.010720254 -0.013946977 0.013983259 -0.14976792
-0.036203288 -0.010897548 -0.180862 0.029308127 0.055959698 0.117978446 0.044928778 0.16945167
0.18251792 0.06719063 0.11474746 0.03672583 0.027673218 0.11925291 -0.1692886 -0.09276719
0.15812664 0.109917015 0.06505506 -0.00025087985 0.041322414 -0.17332025 -0.03799303 -0.03314726
-0.040469397 0.03768926 -0.06406814 0.026240852 0.09140532 0.13867842 -0.05285205 -0.15999928
0.118066505 0.019794457 -0.047287226 0.12091797 -0.17047027 0.08280301 0.17815115 -0.1146804
0.17722517 0.17811209 -0.12296853 -0.0052045975 0.13485432 -0.09163687 0.08433859 0.17534803
0.08180748 -0.1616385 -0.1078289 0.04603975 -0.042725965 -0.0043275957 0.09112823 -0.10598033
-0.07541382 0.073848665 0.13002636 -0.16819187 0.040598135 -0.038256682 0.08377619 -0.15350667
0.019789755 0.15061013 -0.042628482 0.08731191 -0.07547078 0.040150806 0.1458462 0.07072567
0.17005345 0.16934767 -0.12040476 -0.0104383165 -0.16816847 0.04678899 -0.100099094 0.13440455
0.13530372 -0.076309584 0.08443226 -0.095853746 0.06741052 0.08684399 0.0034695503 0.04412166
-0.12635814 0.06856208 0.13775557 -0.10775405 -0.13568625 -0.018562082 0.08011496 0.007286245
-0.16511738 -0.094041675 0.051124424 0.057724368 0.014560847 -0.122363046 0.1618096 -0.13421784
0.06425079 -0.03100648 0.009065344 -0.06520445 -0.06619504 -0.17450327 0.15324153 -0.0010790641
-0.08515409 -0.088869266 0.09362206 0.17149372 -0.16042775 -0.13930754 0.17402314 -0.13472861
0.18235162 0.1334711 -0.10716691 0.11414149 0.12528634 0.093397096 0.045803796 -0.092690095
-0.006732642 -0.04141028 0.14075471 -0.10292328 -0.071275644 0.17513558 0.1343227 -0.0039110007
0.14646007 0.06702144 -0.025684984 -0.15508606 -0.059875835 -0.17536741 -0.13633999 -0.056004945
00000000: 5f51 02bd 41c9 b7bd 32fa c6bb 413a b83d
00000010: 9eeb cabd 7861 413d 0543 bc3b b344 b53d
00000020: 0f77 0c3d 0950 043e f0fd b03d fbe2 043d
00000030: 0482 063e bf35 c63a b1fb a63c 3830 34be
00000040: 9ade d7bd ff4c cbbd ba56 513c 3e87 9bbd
00000050: 200e d0bd 7b1c 2dbd 157e 743b 889d f4bc
00000060: 22e9 003e b3e3 133e 1c80 30be 4ec3 1f3e
00000070: 7274 c13d 9b8e 283e 8e61 313e 45b5 283e
00000080: 8f2a eb3d 497a 643c 716d 373d 6854 ecbd
00000090: 788e 2abe bf0d af3c ceaf 72bc 0866 053e
000000a0: 2aea 4d3d 111e 61bd bfc8 f1bd 59fa 1b3e
000000b0: 4249 06bd a7b0 34be 75cb d7bd bfcb 2cbe
000000c0: 87b1 52bb 3882 2c3e 2d8a b43d 68f7 6b3c
000000d0: a905 54bd 1ece 073e 83d0 d43d babe 813d
000000e0: 5e0a 0b3e 2e8a 043d d505 30be f767 1bbe
000000f0: 8d8a 2ebe 538a 26be b499 493c 252e 30bd
00000100: c049 86bd aab2 19be 8f35 afbd 29ad 1bbe
00000110: b058 05be 9b83 74bd 4144 883d 6d96 c1bd
00000120: ae6c bb3d 07f6 9e3d e9e8 e93c 17ee a3bd
00000130: a8be 1e3e 04fc 99bd 8211 ae3d 8d7e d83d
00000140: 6476 183e e4a9 c73d 56b0 953d db55 653d
00000150: 2f50 26be 7fa0 ed3d 0bba da3a 703c 363e
00000160: a5ff 923b 42ed 27bd 4f02 873d e910 ad3b
00000170: d07b ff3d 0747 4ebc 478a 943c 7f56 d73c
00000180: 95d3 333e 3703 19be d746 f33d 89e4 65bd
00000190: 8cbb 0c3e d676 35be 9114 193e 461b 1abe
000001a0: ba9a e03c 9d64 87bb e641 f03d 63ae bd3d
000001b0: 01a4 2fbc dd81 64bc 0a1a 653c c35c 19be
000001c0: e649 14bd a18b 32bc e333 39be 9917 f03c
000001d0: ff35 653d af9e f13d 3d07 383d bd84 2d3e
000001e0: fae5 3a3e 3e9b 893d b700 eb3d d36d 163d
000001f0: f2b2 e23c df3a f43d fe59 2dbe b9fc bdbd
00000200: f3eb 213e 2c1c e13d 963b 853d 8688 83b9
00000210: b141 293d dd7a 31be 949e 1bbd 6cc5 07bd
00000220: 3dc3 25bd 0e60 1a3d 2836 83bd 0ef7 d63c
00000230: b632 bb3d b701 0e3e 647b 58bd dad6 23be
00000240: dacc f13d fc27 a23c 40b0 41bd d7a3 f73d
00000250: c28f 2ebe a094 a93d 416d 363e 8fdd eabd
00000260: 847a 353e 0463 363e edd6 fbbd 548b aabb
00000270: 4017 0a3e 1cac bbbd b6b9 ac3d 6f8e 333e
00000280: ae8a a73d 9084 25be 66d5 dcbd 2d94 3c3d
00000290: 6c01 2fbd 81ce 8dbb 70a1 ba3d 370c d9bd
000002a0: 9072 9abd f83d 973d a125 053e 7d3a 2cbe
000002b0: 3b4a 263d 0ab3 1cbd da92 ab3d da30 1dbe
000002c0: 201e a23c 8b39 1a3e 349b 2ebd 96d0 b23d
000002d0: 6d90 9abd 2c75 243d b558 153e 9fd8 903d
000002e0: 7e22 2e3e 7a69 2d3e c596 f6bd 7905 2bbc
000002f0: 5b34 2cbe d0a5 3f3d c100 cdbd 59a1 093e
00000300: 0f8d 0a3e 3348 9cbd d2ea ac3d f84e c4bd
00000310: 870e 8a3d 43db b13d 6561 633b eab8 343d
00000320: 0764 01be 476a 8c3d cc0f 0d3e 28ae dcbd
00000330: 56f1 0abe 820f 98bc 5013 a43d 74c1 ee3b
00000340: 8814 29be ec98 c0bd d867 513d 6370 6c3d
00000350: 9e90 6e3c 7a99 fabd 6ab1 253e 6770 09be
00000360: eb95 833d 4d01 febc cf86 143c e989 85bd
00000370: 4491 87bd fcb0 32be 59eb 1c3e 626f 8dba
00000380: 4465 aebd 1701 b6bd ecbc bf3d 0d9c 2f3e
00000390: 2c47 24be a3a6 0ebe 1f33 323e 4cf6 09be
000003a0: 62ba 3a3e a6ac 083e 537a dbbd 03c3 e93d
000003b0: 104b 003e fa46 bf3d c39c 3b3d 4ed4 bdbd
000003c0: 7f9d dcbb d39d 29bd 0122 103e 71c9 d2bd
000003d0: f7f8 91bd be56 333e e48b 093e da27 80bb
000003e0: a1f9 153e 8942 893d 5169 d2bc e1ce 1ebe
000003f0: 5d40 75bd 8493 33be b69c 0bbe 7165 65bd

net.0.bias f4 [32]
0.0036046864 0.0007593865 0.13634863 -0.040265527 0.15384795 0.14718644 -0.1680791 0.11452522
-0.114575 0.11022346 0.046151508 0.17215711 -0.17406242 0.10085883 0.08737422 -0.1788149
-0.017273426 0.05215358 0.039091963 -0.17852996 0.17121176 -0.002886609 0.03261932 0.04976699
-0.17090636 -0.030764023 -0.04493143 -0.016640382 -0.100134596 -0.17670397 -0.030954333 0.019066127
00000000: 9a3c 6c3b 9111 473a fa9e 0b3e 77ed 24bd
00000010: 518a 1d3e 0bb8 163e ed1c 2cbe 338c ea3d
00000020: 4ca6 eabd d6bc e13d 5d09 3d3d f449 303e
00000030: 6b3d 32be 138f ce3d 41f1 b23d 411b 37be
00000040: 0081 8dbc fe9e 553d e51e 203d 8fd0 36be
00000050: 2352 2f3e 432d 3dbb d69b 053d 79d8 4b3d
00000060: 1402 2fbe d504 fcbc 050a 38bd 6951 88bc
00000070: 5e13 cdbd e3f1 34be f193 fdbc 9130 9c3c

net.2.weight f4 [64, 32]
-0.1484963 0.15769161 -0.1034267 0.06761098 0.067568876 -0.11881495 -0.12415338 -0.1553046
0.039070003 -0.029664595 0.08409942 0.015868584 -0.1287715 0.13301791 0.14994171 0.111804925
-0.10413017 0.15884064 -0.01950065 -0.023697572 -0.022524877 -0.05068034 0.062533826 -0.09932969
-0.16524959 -0.12062108 0.090920866 0.012140779 -0.078449294 0.11808472 0.14478181 0.02024783
0.16436382 0.17359865 0.04073657 -0.16646874 0.075976774 -0.10269695 -0.12754616 0.08887637
-0.01921047 0.022010159 0.16684555 0.01832781 -0.15269515 -0.008514063 -0.08325855 -0.056011938
-0.13839301 -0.06836301 0.008663896 -0.021325609 0.13958958 -0.10541508 -0.012991218 -0.028016463
-0.06883588 0.17371635 -0.081475064 0.14747822 0.018176965 0.14430997 -0.10676876 0.0007601395
-0.01735034 -0.041260943 -0.06250133 0.03553639 -0.014842497 -0.1185438 -0.1477909 -0.09595861
-0.15494521 -0.16531418 0.17340614 -0.07847195 -0.1452577 -0.114161715 0.063715205 0.05140432
-0.06333563 0.025624441 0.062112104 -0.03843464 -0.08182777 -0.046431582 0.099896334 -0.13506386
0.12992536 0.054525126 -0.1405174 0.0962002 0.02407078 -0.14541166 0.15207057 -0.16894697
-0.050442044 -0.0371244 -0.07507862 0.1262359 0.14214785 -0.15768105 0.10730802 0.03201439
-0.003998324 -0.059231937 0.13112776 -0.014002953 -0.14157519 -0.08542793 0.019662326 -0.03673001
-0.04941699 -0.16495413 -0.1477278 0.098710045 0.14533176 0.038233556 0.17639075 -0.15334196
-0.1027593 0.12775038 -0.044160306 0.11784337 0.032901242 0.021998294 0.10387647 0.028947594
-0.006376544 0.044004746 -0.12305381 -0.006428785 0.0075341915 0.008914522 0.019202357 0.13259695
-0.16279079 0.13942418 -0.07632889 -0.17456573 0.011503413 0.10194307 -0.08750295 0.011241091
0.12323753 -0.006015261 -0.11774552 -0.14581749 0.0045949756 0.15537791 -0.1036368 0.15069713
0.076000966 0.08631706 0.103589006 0.092284314 0.1351555 -0.14094415 -0.0708789 -0.06008693
-0.14471531 0.045712598 0.10486629 0.039100137 0.058438122 0.15904303 -0.14544022 -0.10892177
-0.09735871 0.17361188 -0.05706447 0.1722284 -0.013401391 -0.13829859 0.051121175 0.06350927
-0.045226287 -0.139347 0.076381765 0.024622146 0.11378374 0.1365415 -0.14641057 0.068132676
0.1662357 0.028823365 -0.08325336 0.14544328 0.022727666 -0.10794427 -0.047627434 0.10469612
-0.16332158 -0.006496452 -0.11270889 0.15903667 0.044717427 0.06577066 -0.13519096 0.06454933
0.1499967 -0.07697336 -0.14730148 0.04120202 -0.023935953 -0.15604955 0.08644622 -0.13867575
0.02217118 -0.1548895 0.11300082 -0.10280508 0.06712899 -0.15393287 -0.059875246 -0.16063413
-0.053161547 0.058738712 0.16571085 0.10799938 0.06523321 0.11092778 0.16100907 0.087904416
0.051711336 0.06395647 -0.09598 0.02459492 -0.15067865 0.03705066 0.093669094 0.1285626
0.019269433 0.17301205 -0.13892259 -0.12908877 0.15788746 0.031122306 -0.06119499 -0.007538027
-0.13537899 0.15048939 0.08793677 0.029118689 -0.02911163 -0.12893656 0.11261648 0.13850716
0.0427368 0.04931729 -0.059690833 -0.14765511 -0.09607275 -0.1735884 0.10582024 -0.09784336
00000000: 6a0f 18be e979 213e 61d1 d3bd a077 8a3d
00000010: 8d61 8a3d 4155 f3bd 2144 febd 2b08 1fbe
00000020: de07 203d 2a03 f3bc 513c ac3d d5fe 813c
00000030: addc 03be d935 083e 528a 193e fbf9 e43d
00000040: 3342 d5bd 1fa7 223e d4bf 9fbc 6921 c2bc
00000050: 1786 b8bc 3096 4fbd bc11 803d 5d6d cbbd
00000060: 3037 29be 2f08 f7bd b834 ba3d 1eea 463c
00000070: 06aa a0bd 67d6 f13d af41 143e c7de a53c
00000080: fd4e 283e d8c3 313e 64db 263d c876 2abe
00000090: b699 9b3d c752 d2bd 769b 02be d004 b63d
000000a0: 475f 9dbc a64e b43c 8fd9 2a3e 3424 963c
000000b0: 1e5c 1cbe 927e 0bbc 7583 aabd c66c 65bd
000000c0: e6b6 0dbe e801 8cbd 03f3 0d3c 0bb3 aebc
000000d0: 92f0 0e3e dde3 d7bd 1ed9 54bc c882 e5bc
000000e0: d3f9 8cbd b3e2 313e 66dc a6bd 8804 173e
000000f0: dce7 943c fec5 133e 94a9 dabd 1944 473a
00000100: 4d22 8ebc 3c01 29bd b300 80bd 9b8e 113d
00000110: f22d 73bc 18c7 f2bd 7f56 17be f385 c4bd
00000120: f5a9 1ebe 1f48 29be 6191 313e e7b5 a0bd
00000130: 6fbe 14be 9ecd e9bd 1e7d 823d 568d 523d
00000140: 1cb6 81bd 59ea d13c 4369 7e3d a46d 1dbd
00000150: 5195 a7bd 0b2f 3ebd 7396 cc3d 2e4e 0abe
00000160: 270b 053e bd55 5f3d cbe3 0fbe 9c04 c53d
00000170: 1630 c53c cbe6 14be 63b8 1b3e 6f00 2dbe
00000180: 519c 4ebd c10f 18bd d2c2 99bd fc43 013e
00000190: 358f 113e 2477 21be 4fc4 db3d 8521 033d
000001a0: 5f04 83bb 309d 72bd 5b46 063e a46c 65bc
000001b0: 16f9 10be d7f4 aebd e312 a13c 3572 16bd
000001c0: 7869 4abd bce9 28be f545 17be 7e28 ca3d
000001d0: d9d1 143e ca9a 1c3d c79f 343e ad05 1dbe
000001e0: 7873 d2bd ffd0 023e 70e1 34bd dd57 f13d
000001f0: 74c3 063d c435 b43c 30bd d43d 8123 ed3c
00000200: 54f2 d0bb 523e 343d a303 fcbd 8fa8 d2bb
00000210: 61e1 f63b 370e 123c 434e 9d3c 7fc7 073e
00000220: a1b2 26be 36c5 0e3e 5252 9cbd 5cc1 32be
00000230: d078 3c3c 87c7 d03d bf34 b3bd 8e2c 383c
00000240: f563 fc3d ab1b c5bb 9024 f1bd 2e51 15be
00000250: 7391 963b 631b 1f3e 883f d4bd 5950 1a3e
00000260: 65a6 9b3d 00c7 b03d 7926 d43d 8fff bc3d
00000270: 3466 0a3e aa53 10be f528 91bd b61d 76bd
00000280: 4030 14be 223d 3b3d 23c4 d63d 7727 203d
00000290: d05c 6f3d 2ddc 223e 48ee 14be 6012 dfbd
000002a0: 0164 c7bd 50c7 313e 6fbc 69bd a45c 303e
000002b0: 8291 5bbc 259e 0dbe 7064 513d 2611 823d
000002c0: 333f 39bd fbb0 0ebe 0b6e 9c3d 62b4 c93c
000002d0: 7307 e93d 89d1 0b3e a7ec 15be 2589 8b3d
000002e0: b139 2a3e fa1e ec3c bd80 aabd 15ef 143e
000002f0: 5f2f ba3c e311 ddbd fc14 43bd eb6a d63d
00000300: c63d 27be 30e0 d4bb ebd3 e6bd 82da 223e
00000310: 9f29 373d c5b2 863d 806f 0abe 7032 843d
00000320: bc98 193e 35a4 9dbd 33d6 16be 73c3 283d
00000330: 5515 c4bc 74cb 1fbe b70a b13d 0401 0ebe
00000340: 56a0 b53c 5a9b 1ebe f96c e73d 788b d2bd
00000350: ed7a 893d 94a0 1dbe bf3f 75bd 467d 24be
00000360: ecbf 59bd 0198 703d 1bb0 293e c72e dd3d
00000370: fd98 853d 1b2e e33d 90df 243e 3b07 b43d
00000380: 44cf 533d 9cfb 823d 2a91 c4bd 497b c93c
00000390: 814b 1abe 6fc2 173d 95d5 bf3d eaa5 033e
000003a0: eeda 9d3c 122a 313e b941 0ebe d92f 04be
000003b0: 40ad 213e 35f4 fe3c 99a7 7abd 8e01 f7bb
000003c0: caa0 0abe e419 1a3e 3118 b43d 518a ee3c
000003d0: 837b eebc f207 04be 78a3 e63d d2d4 0d3e
000003e0: c80c 2f3d ed00 4a3d 607e 74bd e732 17be
000003f0: cac1 c4bd 28c1 31be 48b8 d83d 1962 c8bd

net.2.bias f4 [64]
0.15091349 0.16999103 -0.007687311 0.10935967 -0.14850265 -0.019688226 0.0050862185 -0.100310996
-0.13493344 -0.06958699 -0.14031161 0.123601764 0.13294226 0.1039631 0.008746335 0.056881785
0.13970405 -0.08851945 0.12273744 0.1458097 0.1575427 -0.092422344 0.14829625 -0.17252815
0.13631485 -0.10239465 -0.10270059 -0.17145935 0.12340186 0.005590716 -0.03529866 -0.14832549
-0.07875429 0.089284115 0.022629023 -0.050317246 -0.07881895 -0.069476716 -0.057682768 -0.050905343
0.08773853 -0.1489987 -0.03459196 -0.021891894 -0.08501384 -0.05580207 -0.13425252 -0.096778415
-0.12263578 -0.11829476 0.056256138 0.120734975 -0.082998544 -0.11264461 -0.13152313 0.15222941
-0.110213056 0.044746064 -0.1527724 0.098345414 0.0590659 -0.16985907 0.15108718 0.029284474
00000000: 1189 1a3e 2112 2e3e d7e5 fbbb f6f7 df3d
00000010: 1411 18be 3449 a1bc 4baa a63b da6f cdbd
00000020: fe2b 0abe a083 8ebd d9ad 0fbe ec22 fd3d
00000030: 0422 083e 9bea d43d ca4c 0f3c e0fc 683d
00000040: 940e 0f3e af49 b5bd c45d fb3d 234f 153e
00000050: e052 213e ed47 bdbd f9da 173e 38ab 30be
00000060: 1f96 0b3e 49b4 d1bd b054 d2bd 0a93 2fbe
00000070: 1dba fc3d 5332 b73b 5495 10bd a3e2 17be
00000080: ee49 a1bd 97da b63d 8060 b93c 7519 4ebd
00000090: d46b a1bd cf49 8ebd c444 6cbd 1f82 50bd
000000a0: 42b0 b33d 1d93 18be 4db0 0dbd a156 b3bc
000000b0: bc1b aebd b690 64bd 7e79 09be c333 c6bd
000000c0: 7828 fbbd 8644 f2bd d66c 663d e643 f73d
000000d0: 24fb a9bd 38b2 e6bd 00ae 06be 07e2 1b3e
000000e0: 62b7 e1bd a647 373d 5e70 1cbe 5269 c93d
000000f0: 16ef 713d 89ef 2dbe 99b6 1a3e fee5 ef3c

net.4.weight f4 [32, 64]
-0.04722105 0.06788607 0.034283563 0.11404961 -0.04290533 -0.079667166 0.084247544 0.1133789
0.011791781 -0.023048833 0.12262757 0.037852407 0.028416067 0.073455766 -0.09904875 -0.08183268
-0.122241035 0.05438456 -0.0137512535 0.053115338 -0.102823496 0.07559936 -0.1014892 0.12478317
0.122381955 0.002474755 0.028560698 0.056284755 -0.086453035 0.059767917 0.00043137372 -0.018779814
-0.03401418 -0.12140302 -0.013819218 -0.08053669 0.028519735 0.015264809 -0.07504161 0.012152478
0.04779528 0.008930564 0.0021935403 0.11698848 0.08616105 -0.10340959 0.075258404 -0.020008504
-0.10340321 -0.055706814 -0.041703105 -0.098019436 -0.1193956 0.0125412345 0.081301525 -0.10166338
-0.11021386 -0.12035835 0.00015488267 -0.117422625 0.111616254 -0.10275923 -0.047969252 -2.43932e-05
0.0892625 0.06443705 -0.024219915 0.026518092 0.013287067 0.017608836 -0.011257738 0.046650857
0.058250174 -0.037219048 -0.047294572 0.0574148 -0.105728954 -0.08774105 0.11604467 0.070479915
-0.056079462 0.016654924 0.07085012 -0.031878933 -0.0486937 -0.020525515 -0.013703197 0.029163882
0.09061472 -0.075031936 -0.04932171 -0.07599677 -0.06388107 -0.06199424 0.015357882 -0.070752636
-0.011978164 0.06659044 0.099657446 0.038737595 0.04422337 -0.067506626 0.105778575 0.10382266
-0.0016093105 0.010212079 -0.040614963 -0.09954508 0.06323126 -0.04147844 -0.037538394 0.044567928
0.03898728 0.042369604 0.07119343 -0.118380696 -0.12330581 -0.046378896 0.029936478 0.10596751
0.10407837 -0.0007659495 -0.061465785 0.09712121 -0.06636481 0.111313075 0.06243165 0.078029364
0.032594338 -0.03396456 -0.05166407 -0.09836747 0.063013345 0.030037194 0.10881181 0.09100461
-0.102048025 -0.03727691 -0.017982498 0.12478942 0.09837629 -0.11294378 0.013969868 -0.059179053
-0.02186425 -0.06793228 -0.003772378 0.09761526 -0.08418271 0.040276185 0.102620766 0.08717124
-0.10285792 -0.03162697 0.12042643 0.09165342 0.0061296076 -0.016805485 0.10102104 -0.09177603
-0.120510146 0.09903087 0.0057183206 -0.035836205 0.010451406 0.019074827 -0.114237145 -0.026572883
0.10068032 -0.0066469163 -0.11924638 0.020837367 0.018192798 0.004543841 -0.095633775 -0.1001948
0.02016437 -0.06413509 0.07211389 0.024755329 -0.05251892 -0.058757395 -0.057709187 0.06233716
-0.116010725 -0.04972069 0.0651332 -0.05261457 -0.080276385 -0.06667271 0.048881948 0.09956904
-0.077335626 -0.10489114 -0.079231516 -0.099908724 0.0014201552 0.046595827 -0.029760644 -0.0063274503
0.12411213 -0.04835783 0.007037729 -0.11501667 0.100864485 -0.124344185 -0.068132564 0.025796384
-0.01726973 0.08129971 0.09279746 -0.07585712 -0.048232883 0.033659056 -0.1093719 0.10887906
0.024982065 -0.095784456 -0.029476196 0.059441492 -0.099182755 0.05191669 0.025389075 -0.044561014
-0.03570792 0.016081393 0.03770864 -0.1144357 0.1047668 0.098755896 0.02867882 -0.11551052
-0.052372456 0.10673714 0.010999873 -0.06810595 -0.059298977 -0.09682742 -0.09078477 0.10044238
0.048115283 0.11313099 0.106194496 0.071398005 -0.092169285 -0.066953525 -0.01793395 -0.10539766
0.02763012 0.086964086 0.06566626 -0.07277322 -0.07811487 0.04994458 -0.08675726 0.015226841
00000000: dc6a 41bd da07 8b3d ec6c 0c3d d892 e93d
00000010: 80bd 2fbd 8a28 a3bd fa89 ac3d 3233 e83d
00000020: 5032 413c e8d0 bcbc 2a24 fb3d 200b 1b3d
00000030: d0c8 e83c fa6f 963d 12da cabd e497 a7bd
00000040: 8259 fabd 58c2 5e3d f04c 61bc 788f 593d
00000050: 2095 d2bd d6d3 9a3d 92d9 cfbd 528e ff3d
00000060: 64a3 fa3d 802f 223b 20f8 e93c d88a 663d
00000070: 4a0e b1bd 34cf 743d 002a e239 20d8 99bc
00000080: 7452 0bbd 26a2 f8bd 006a 62bc 6cf0 a4bd
00000090: 38a2 e93c 4019 7a3c 6aaf 99bd 301b 473c
000000a0: fcc4 433d 8051 123c 80c1 0f3b a897 ef3d
000000b0: 3475 b03d 68c8 d3bd 1421 9a3d e0e8 a3bc
000000c0: 10c5 d3bd d42c 64bd e0d0 2abd 6abe c8bd
000000d0: ae85 f4bd c079 4d3c 6a81 a63d e434 d0bd
000000e0: ceb7 e1bd 707e f6bd 0068 2239 467b f0bd
000000f0: 1097 e43d 6e73 d2bd 687b 44bd 00a0 ccb7
00000100: 42cf b63d 92f7 833d d868 c6bc 783c d93c
00000110: 00b2 593c 6840 903c 6072 38bc f814 3f3d
00000120: bc97 6e3d 0073 18bd f4b7 41bd c82b 6b3d
00000130: 6c88 d8bd 94b1 b3bd d4a8 ed3d c657 903d
00000140: 94b3 65bd e86f 883c de19 913d 7c93 02bd
00000150: 0c73 47bd 2025 a8bc 6083 60bc 18e9 ee3c
00000160: 3694 b93d 58aa 99bd 9005 4abd 32a4 9bbd
00000170: 14d4 82bd aced 7dbd a09f 7b3c c2e6 90bd
00000180: 1040 44bc 9260 883d 3419 cc3d 50ab 1e3d
00000190: 9023 353d ea40 8abd 70a2 d83d faa0 d43d
000001a0: 80ef d2ba 9050 273c e05b 26bd 4ade cbbd
000001b0: 647f 813d 4ce5 29bd dcc1 19bd dc8c 363d
000001c0: 20b1 1f3d c08b 2d3d dccd 913d 9471 f2bd
000001d0: c287 fcbd ccf7 3dbd 583d f53c 7e05 d93d
000001e0: 0a27 d53d 00ca 48ba 8cc3 7bbd 7ce7 c63d
000001f0: 46ea 87bd 1cf8 e33d 54b8 7f3d dccd 9f3d
00000200: a481 053d 6c1e 0bbd b49d 53bd e274 c9bd
00000210: 240d 813d 9010 f63c bad8 de3d a060 ba3d
00000220: 8efe d0bd acaf 18bd 0850 93bc 9891 ff3d
00000230: 8279 c93d 124f e7bd e0e1 643c bc65 72bd
00000240: a81c b3bc 1420 8bbd 003a 77bb 82ea c73d
00000250: fc67 acbd a4f8 243d d62a d23d d686 b23d
00000260: 2ca7 d2bd 488b 01bd 22a2 f63d cab4 bb3d
00000270: e0da c83b a8ab 89bc 1ee4 ce3d 12f5 bbbd
00000280: 06ce f6bd b2d0 ca3d c060 bb3b fcc8 12bd
00000290: 603c 2b3c d042 9c3c 2af5 e9bd 60af d9bc
000002a0: 7c31 ce3d 60ce d9bb 7237 f4bd 20b3 aa3c
000002b0: 1009 953c 80e4 943b a4db c3bd ee32 cdbd
000002c0: c02f a53c 4259 83bd 72b0 933d b0cb ca3c
000002d0: 141e 57bd 98ab 70bd 7860 6cbd 4055 7f3d
000002e0: 0897 edbd eca7 4bbd 8e64 853d 6082 57bd
000002f0: f267 a4bd b48b 88bd 7038 483d daea cb3d
00000300: 2462 9ebd 2ad1 d6bd 2244 a2bd f29c ccbd
00000310: 8024 ba3a 44db 3e3d 98cc f3bc 8056 cfbb
00000320: 802e fe3d dc12 46bd c09c e63b dc8d ebbd
00000330: 0a92 ce3d 2aa8 febd 1689 8bbd f052 d33c
00000340: 4079 8dbc 7680 a63d 980c be3d fa5a 9bbd
00000350: d88f 45bd 14de 093d 60fe dfbd fcfb de3d
00000360: 30a7 cc3c a42a c4bd 1078 f1bc ec78 733d
00000370: 5420 cbbd 98a6 543d c0fc cf3c 9c85 36bd
00000380: 7842 12bd 20bd 833c 6074 1a3d 445d eabd
00000390: fa8f d63d 8840 ca3d d8ef ea3c c890 ecbd
000003a0: 8084 56bd 0099 da3d d038 343c 227b 8bbd
000003b0: 7ce3 72bd 744d c6bd 5eed b9bd bcb4 cd3d
000003c0: 8814 453d 38b1 e73d 807c d93d 1e39 923d
000003d0: 40c3 bcbd ee1e 89bd 38ea 92bc bada d7bd
000003e0: 9058 e23c 3a1a b23d 087c 863d 200a 95bd
000003f0: b0fa 9fbd b092 4c3d caad b1bd 007a 793c

net.4.bias f4 [32]
-0.010908991 -0.09645657 -0.04084398 0.08180003 0.06545046 0.054574594 0.08371571 -0.09058623
0.027398229 0.10904382 0.012502208 -0.03449464 -0.02820766 0.06697957 0.084247515 -0.09879525
-0.05103965 0.023063153 0.08050759 0.12167537 0.021847159 -0.10652301 -0.004658878 -0.07848431
-0.0010470897 -0.032185003 0.041916832 0.058670014 0.03302312 0.006871417 0.029534012 0.022801965
00000000: a0bb 32bc 068b c5bd 044c 27bd c686 a73d
00000010: e40a 863d 9c89 5f3d 2473 ab3d 4685 b9bd
00000020: 4072 e03c 5e52 df3d 10d6 4c3c 404a 0dbd
00000030: c013 e7bc 962c 893d f689 ac3d 2a55 cabd
00000040: f40e 51bd f0ee bc3c 2ae1 a43d f030 f93d
00000050: d0f8 b23c bc28 dabd 80a9 98bb 62bc a0bd
00000060: 803e 89ba 6cd4 03bd fcb0 2b3d f84f 703d
00000070: 4043 073d a029 e13b 50f1 f13c 30cb ba3c
