maml_model/maml_OpenDoor_7_3_500_50_encoder.pth (torch, 22786 bytes, 6 tensors)

net.0.weight f4 [32, 22]
0	0xbdf34e53	-0.118801735
1	0xbe29af6a	-0.16570821
2	0x3e2b54a0	0.167315
3	0x3cc99920	0.024609149
4	0x3e221098	0.15826643
5	0x3e1d7b1e	0.15378997
6	0xbdf54f3f	-0.119780056
7	0xbc83d4b7	-0.016092641
8	0x3e3f3a4f	0.18674587
9	0x3c54a106	0.012977844
10	0xbe00998e	-0.12558576
11	0xbd60616b	-0.054780405
12	0x3cb5fc4d	0.022215033
13	0x3dbe5ed9	0.092954345
14	0x3e40e525	0.18837412
15	0x3e54e10b	0.20788972
16	0xbc1e60cf	-0.009666636
17	0x3e2cb99f	0.16867684
18	0x3e138279	0.1440524
19	0xbd3695ac	-0.044576332
20	0xbd09fc22	-0.03368772
21	0xbcceb901	-0.025234701
22	0xbd79be0c	-0.06097226
23	0xbe564a10	-0.2092669
24	0x3e326646	0.17421827
25	0xbde7b17b	-0.113131486
26	0x3e52433a	0.20533457
27	0x3e2a66c2	0.16640761
28	0xbe0be0b1	-0.13659932
29	0x3e17adbc	0.14812368
30	0xbd986ac5	-0.0744224
31	0x3dd3dc73	0.10344782
32	0xbdf80ad3	-0.121114396
33	0x3bdf9f61	0.0068244194
34	0x3d9dc917	0.077043705
35	0x3dfd3252	0.123631135
36	0x3dde6533	0.10859146
37	0xbe21d59c	-0.15804142
38	0xbd97d370	-0.074133754
39	0xbe4c8dd2	-0.19975975
40	0xbe241738	-0.16024482
41	0x3e0c7117	0.13715015
42	0x3e47af1e	0.19500396
43	0x3e34307e	0.17596623
44	0x3d9406ef	0.07227885
45	0x3d2274d3	0.039662194
46	0x3e374637	0.17897879
47	0xbdd45453	-0.10367646
48	0xbc689771	-0.014196263
49	0x3e0032fc	0.12519449
50	0xbdaa7046	-0.08322196
51	0xbe0c413a	-0.13696757
52	0xbe1a7ea5	-0.15087374
53	0x3e11a033	0.14221267
54	0x3e22f3a9	0.15913261
55	0xbd08704d	-0.033310223
56	0x3e31a533	0.17348175
57	0x3b62c621	0.0034602957
58	0xbe3f0bac	-0.18656796
59	0xbcbf7b60	-0.02337426
60	0xbdccf7ec	-0.10008225
61	0x3e4746d6	0.19460616
62	0xbaa8312a	-0.0012832035
63	0xbe5599d2	-0.20859459
64	0x3dc67333	0.09689941
65	0xbdc48089	-0.09594829
66	0x3d8804d9	0.066415496
67	0x3dca2d8a	0.09871967
68	0xbdc582fd	-0.09644125
69	0xbdf92649	-0.121655054
70	0xbd1842ed	-0.0371732
71	0xbe45b4a2	-0.19307187
72	0xbe0ab1d7	-0.13544403
73	0xbe439058	-0.19098032
74	0xbe492804	-0.19644171
75	0x3d51239b	0.051059347
76	0xbde7032d	-0.112799026
77	0x3dc8297d	0.09773538
78	0x3db610b0	0.08889902
79	0xbe33f0a7	-0.1757227
80	0xbd0b1729	-0.033957634
81	0xbd2b2d92	-0.041791506
82	0xbdf09b02	-0.117483154
83	0x3d675a11	0.05648238
84	0xbdf1dc24	-0.118095666
85	0xbe02fdba	-0.12792102
86	0x3e0c7f3f	0.13720416
87	0x3d52c4c9	0.0514572
88	0x3e38446b	0.1799485
89	0x3db5a2c2	0.08868934
90	0xbe4b1a2a	-0.198342
91	0xbdd1a5d8	-0.1023671
92	0x3e2f7432	0.17134169
93	0xbe4a7803	-0.19772343
94	0x3de54be3	0.11196115
95	0x3e489e8a	0.19591728
96	0xbcddbbf2	-0.027067158
97	0xbbf1654b	-0.0073668114
98	0x3e337bb0	0.17527652
99	0xbc1708e9	-0.009218433
100	0x3dd6f9f1	0.10496891
101	0xbe124b28	-0.14286482
102	0xbde7793f	-0.11302423
103	0xbe44b30f	-0.1920893
104	0x3cc3819d	0.023865515
105	0x3e1042e7	0.14088021
106	0x3e5358a9	0.2063929
107	0xbe460a53	-0.19339876
108	0xbd8c4351	-0.06848777
109	0x3da5aa6f	0.08089148
110	0x3da804d2	0.082040444
111	0x3e0cce33	0.13750534
112	0x3e308a9c	0.17240375
113	0xbde5ee2c	-0.11227068
114	0x3c9a00dd	0.01879924
115	0xbd8da6ac	-0.06916556
116	0x3da57928	0.08079749
117	0xbdbbd38f	-0.09171211
118	0x3db18333	0.086676024
119	0xbe0ba6fa	-0.13637915
120	0xbd00576e	-0.03133338
121	0xbe0fa3e3	-0.14027362
122	0xbe457577	-0.1928309
123	0x3cf3d75c	0.029765777
124	0x3dcdf1a2	0.100558534
125	0x3d07b12b	0.033127945
126	0xbe2c772a	-0.16842332
127	0x3e1b5574	0.15169317
128	0xbe1f94c3	-0.15584092
129	0x3da1eedb	0.07906886
130	0xbdc22365	-0.09479407
131	0xbe3fd25e	-0.18732592
132	0xbd306d82	-0.043073185
133	0xbd2d03eb	-0.042240065
134	0xbd020b3d	-0.031749
135	0xbc6e6d8e	-0.014552487
136	0x3e3b09ec	0.18265504
137	0x3d922faf	0.07138001
138	0xbcaf1012	-0.021369968
139	0xbd7dea95	-0.061991293
140	0xbdff9ef6	-0.12481491
141	0x3e373fbc	0.17895406
142	0x3dcdc1fb	0.100467645
143	0xbdb25404	-0.08707431
144	0x3e0431c8	0.12909615
145	0x3e3a72ff	0.1820793
146	0x3e174ffe	0.14776608
147	0xbd27e255	-0.04098733
148	0xbd321c77	-0.043484177
149	0xbdd089d5	-0.101825394
150	0x3d88cac7	0.06679302
151	0xbe3f934a	-0.1870853
152	0x3e360895	0.17776711
153	0xbe2e1c2f	-0.17002939
154	0x3b47360a	0.00303972
155	0xbd6d8065	-0.057983775
156	0xbd5b8b3a	-0.053599574
157	0xbe2be09b	-0.16784899
158	0xbd45077b	-0.048102837
159	0xbe128f65	-0.14312513
160	0x3da94e1f	0.082668535
161	0xbd634547	-0.05548599
162	0x3cfe9946	0.031078946
163	0xbda6397a	-0.081164315
164	0xbdae96ae	-0.085248336
165	0xbe3d5165	-0.18488081
166	0xbdd25bee	-0.102714404
167	0x3e3d143d	0.18464752
168	0xbd37ad64	-0.044843093
169	0x3e09ed62	0.1346946
170	0xbdb2ade8	-0.08724576
171	0x3e1bb9ad	0.15207548
172	0x3da85565	0.08219413
173	0xbe40b6ac	-0.18819684
174	0x3dcf4017	0.10119646
175	0x3e1319ff	0.14365385
176	0xbd6aa7f8	-0.057289094
177	0xbe41f720	-0.18941927
178	0xbde4062c	-0.1113399
179	0x3e227917	0.15866505
180	0x3de5ad93	0.11214747
181	0x3e3dbc13	0.18528776
182	0xbe03f53f	-0.12886523
183	0xbce95738	-0.028483972
184	0x3e084ec0	0.1331129
185	0xbcecc549	-0.028902667
186	0x3e073d3d	0.13206954
187	0x3e039f18	0.12853658
188	0xbe4ff216	-0.20307192
189	0xbe200313	-0.15626173
190	0xbe328d76	-0.17436776
191	0x3e1c2779	0.15249433
192	0xbd92ae75	-0.07162181
193	0xbd9a4373	-0.07532396
194	0x3cbf05be	0.023318168
195	0xbe57aea8	-0.2106272
196	0x3d3b6c6c	0.045757696
197	0x3d9a357c	0.075297326
198	0x3cb515ac	0.02210506
199	0xbe11602c	-0.14196843
200	0x3e19f394	0.15034324
201	0x3d013db0	0.03155297
202	0xbe03d01e	-0.12872359
203	0xbdc55fe1	-0.09637428
204	0x3e30d397	0.17268215
205	0x3dc796af	0.097455375
206	0xbcdd83e0	-0.027040422
207	0xbda8442e	-0.08216129
208	0xbe59d34f	-0.21272014
209	0x3db45bab	0.08806547
210	0xbdf3d51f	-0.11905884
211	0x3deab5a4	0.114604264
212	0xbe2541bf	-0.16138361
213	0x3d1970e0	0.03746116
214	0x3de34acb	0.1109825
215	0x3b699091	0.0035639147
216	0xbd86831a	-0.065679744
217	0x3c9bf72a	0.019038755
218	0x3e54309d	0.2072167
219	0x3dab6a03	0.083698295
220	0xbe42090e	-0.18948767
221	0x3cfcf426	0.030878138
222	0x3d08bd00	0.03338337
223	0x3c9aa82c	0.018879019
224	0xbe371a86	-0.17881212
225	0x3d621977	0.055200066
226	0xbd9094ed	-0.07059655
227	0xbe2c157e	-0.16805074
228	0x3e050259	0.12989177
229	0x3c69fd9f	0.014281659
230	0xbd86ca42	-0.06581546
231	0x3d0a9b73	0.033839654
232	0x3e2c844f	0.16847347
233	0xbe4652fb	-0.19367592
234	0x3d99d266	0.075108334
235	0xbbe0b93b	-0.0068580187
236	0xbe103c6d	-0.1408555
237	0x3e562786	0.20913514
238	0xbddef81f	-0.10887169
239	0x3d2184f9	0.039433453
240	0x3dd39c32	0.10332526
241	0x3e30805e	0.17236468
242	0xbd22ca22	-0.03974355
243	0x3e383c08	0.1799165
244	0xbdbf74b0	-0.09348428
245	0xbe4de143	-0.20105462
246	0xbd8c67b9	-0.06855721
247	0x3e187018	0.1488651
248	0xbca586c3	-0.020205861
249	0x3e26d29f	0.16291283
250	0x3e46394f	0.19357799
251	0xbd1b3335	-0.03789063
252	0x3e1d2410	0.15345788
253	0xba2adc42	-0.00065178063
254	0x3d7b1073	0.061294984
255	0x3e4423c3	0.19154267

net.0.bias f4 [32]
0	0x3cd1772e	0.025569525
1	0xbdf62664	-0.12019041
2	0x3e36896f	0.17825864
3	0xbdff8fc2	-0.124785915
4	0xbcc4b2f9	-0.024011122
5	0x3b93b1de	0.0045072874
6	0xbe04370e	-0.12911627
7	0x3e385746	0.18002042
8	0xbda5843b	-0.080818616
9	0x3cef7dc2	0.02923477
10	0xbe2e5a09	-0.17026533
11	0xbd10e41a	-0.035373785
12	0x3dc10af4	0.09425917
13	0x3e1eaff0	0.15496802
14	0x3cdce237	0.026963336
15	0xbdbed5cc	-0.09318122
16	0xbe54e951	-0.20792128
17	0xbe034011	-0.12817408
18	0x3e50be79	0.2038516
19	0xbd988e6d	-0.074490406
20	0x3d14dcc7	0.036343362
21	0xbd12c959	-0.03583655
22	0xbc5a826f	-0.013336762
23	0xbdb886e2	-0.09010102
24	0x3c8de4b6	0.017320972
25	0xbcc13668	-0.023585513
26	0xbe1c576e	-0.15267727
27	0xbd311c47	-0.043239858
28	0x3e4ec9e8	0.20194209
29	0xbe16350e	-0.14668676
30	0x3e0dc043	0.13842873
31	0x3e29309e	0.16522452

net.2.weight f4 [64, 32]
0	0xbd2cca2b	-0.04218499
1	0xbcf2f834	-0.029659368
2	0x3cf83d0e	0.03030255
3	0xbc32e1d3	-0.0109180985
4	0x3de11aba	0.10991426
5	0x3d01e7f0	0.031715333
6	0x3d88e748	0.066847384
7	0xbbd9d353	-0.0066475063
8	0x3d9505ea	0.07276519
9	0x3e2c8b74	0.16850072
10	0x3e11fd2f	0.14256738
11	0x3ccbf7d0	0.02489844
12	0x3e2d414d	0.16919442
13	0xbdf022bf	-0.11725377
14	0x3dfff6c1	0.124982364
15	0x3e25906f	0.16168378
16	0xbe2fcd4d	-0.1716816
17	0xbca35514	-0.01993803
18	0xbe1e3ec4	-0.1545363
19	0x3dce1c5d	0.100640036
20	0xbd8d9593	-0.06913295
21	0xbd4e40e6	-0.05035486
22	0xbd495027	-0.049148705
23	0x3d0be9be	0.03415846
24	0xbd5be213	-0.053682398
25	0x3e05c059	0.13061656
26	0x3dd3786a	0.103257015
27	0xbe0b02bc	-0.13575262
28	0x3da36cd5	0.079797424
29	0xbdaf21bd	-0.08551357
30	0xbcfe6f8a	-0.031059045
31	0xbd4b4419	-0.04962549
32	0xbe01dd9a	-0.1268219
33	0xbe09affe	-0.13446042
34	0xbd498b98	-0.049205393
35	0xbc4dcf69	-0.0125616575
36	0x3df57a2b	0.11986192
37	0xbcccd0f0	-0.025001973
38	0x3dc664d1	0.09687198
39	0x3d9902f4	0.074712664
40	0x3e0c8e55	0.1372617
41	0xbd982680	-0.07429218
42	0x3d0b928c	0.034075305
43	0x3da9705f	0.08273386
44	0x3d2a9db8	0.04165432
45	0x3d4c0ecb	0.049818795
46	0xbc18992d	-0.009313864
47	0xbe30fcc9	-0.1728393
48	0xbd8c6a07	-0.068561606
49	0xbdcfff0d	-0.10156069
50	0xbdfb1a9a	-0.12260933
51	0xbe150973	-0.14554386
52	0x3d61fea9	0.055174503
53	0x3e04cda6	0.12969074
54	0x3e1a0f7a	0.15044966
55	0xbe05039e	-0.12989661
56	0x3d9d7614	0.07688537
57	0x3dd07bd8	0.10179871
58	0x3c6bc631	0.014390514
59	0x3d1fc0a0	0.03900206
60	0x3d966e6d	0.07345281
61	0x3d7504e6	0.059819125
62	0xbbb43ec8	-0.005500648
63	0xbcebd483	-0.028787857
64	0x3db2ae68	0.087246716
65	0x3dab8c18	0.0837633
66	0x3d92e30e	0.071722135
67	0xbde126b1	-0.10993708
68	0xbd60c0cb	-0.05487136
69	0x3d6d1fb9	0.05789158
70	0xbe0587ac	-0.13040036
71	0x3d6e7262	0.058214553
72	0xbc4740a6	-0.0121614095
73	0xbdac4c9d	-0.0841305
74	0xbd958d6c	-0.07302365
75	0xbda2fa67	-0.07957917
76	0xbe098171	-0.13428284
77	0x3df5e1ed	0.120059825
78	0x3c079cff	0.008277177
79	0xbe0b056f	-0.13576292
80	0x3d6e2999	0.05814514
81	0x3c89ce22	0.016821925
82	0xbd1c7f0e	-0.038207106
83	0xbd9b860e	-0.07593928
84	0x3d972cf8	0.07381624
85	0xbe04263e	-0.12905213
86	0x3dc32ad7	0.095296554
87	0x3e2b1ee6	0.16711006
88	0xbc829375	-0.015939454
89	0x3cdb6463	0.026781267
90	0xbdc8ffc9	-0.09814412
91	0x3dd21ad4	0.10259023
92	0xbca714ab	-0.020395597
93	0x3e14f90d	0.1454813
94	0xbdb3a5f8	-0.087718904
95	0x3d17cd43	0.037060987
96	0x3ce1b3d1	0.027551563
97	0x3c774ea1	0.01509443
98	0xbcca9f8a	-0.024734277
99	0x3e23f0fc	0.16009897
100	0x3dd497b3	0.10380497
101	0x3e286c9f	0.16447686
102	0xbdabae88	-0.083828986
103	0xbe2a094f	-0.16605113
104	0x3e3238fe	0.17404553
105	0xbe15cddf	-0.14629315
106	0xbe12682b	-0.1429755
107	0xbca6e71a	-0.02037387
108	0xbe11dcb8	-0.14244354
109	0xbd85dd6f	-0.06536376
110	0x3bb8b65a	0.0056369724
111	0x3d258eeb	0.0404195
112	0xbdc0eb4c	-0.09419879
113	0x3e25042d	0.16114874
114	0xbd0d0cf0	-0.034436166
115	0x3e09029d	0.13379903
116	0x3e310dc2	0.17290404
117	0xbe0ac1e5	-0.13550527
118	0x3d30aaba	0.043131568
119	0xbaf65a25	-0.0018795176
120	0x3e1a60e0	0.15076017
121	0xbe1aa2e0	-0.15101194
122	0x3e09ce22	0.1345754
123	0x3dfeb6cd	0.1243721
124	0x3e06ef73	0.1317728
125	0x3d8d1008	0.06887823
126	0xbda257ef	-0.07926928
127	0xbe044e33	-0.12920456
128	0xbda63676	-0.08115856
129	0x3de532e1	0.11191345
130	0x3d4cb7c0	0.049979925
131	0x3e32b639	0.17452325
132	0xbd3d5bba	-0.046230055
133	0xbe2f8e01	-0.17144014
134	0x3d9f2417	0.077705555
135	0xbe10e750	-0.14150739
136	0xbd7c5376	-0.061603032
137	0xbdebc9ea	-0.115131214
138	0x3cff787b	0.03118538
139	0xbd61c0b8	-0.05511543
140	0xbdd0f0cb	-0.102021776
141	0xbd4f0a01	-0.05054665
142	0xbd6718c6	-0.05642011
143	0xbde6f0c7	-0.112763934
144	0xbd8411f8	-0.0644874
145	0x3d854bca	0.06508596
146	0xbd031766	-0.032004736
147	0x3dacc215	0.08435456
148	0xbe32755d	-0.17427583
149	0xbe289097	-0.16461407
150	0xbe231789	-0.15926947
151	0x3d3bdd1e	0.04586517
152	0xbd511040	-0.051040888
153	0x3d7aff5e	0.061278693
154	0xbe2ed0c3	-0.17071824
155	0x3d37f955	0.044915516
156	0x3e2616e9	0.16219677
157	0x3c8dbc63	0.017301744
158	0xbe3432af	-0.1759746
159	0x3e3478a9	0.17624153
160	0x3e1b0427	0.15138303
161	0xbd7690f8	-0.060196847
162	0x3dec632e	0.115423545
163	0xbd9944f2	-0.074838534
164	0x3b88f8e5	0.004180061
165	0xbd808d17	-0.06276911
166	0x3e0c4f94	0.13702232
167	0xbddc492e	-0.107561454
168	0xbe13349f	-0.14375542
169	0x3dc9b21c	0.09848425
170	0xbe157ad3	-0.14597635
171	0x3e209c16	0.15684542
172	0xbdb5e0a1	-0.08880735
173	0xbd855fc7	-0.06512409
174	0xbd4f5a43	-0.05062319
175	0xbd783b22	-0.06060327
176	0x3ddea0cb	0.108705126
177	0x3e0ecdd6	0.13945708
178	0x3d82e1fd	0.0639076
179	0xbc6f8277	-0.014618508
180	0x3e1af282	0.15131572
181	0xbd9410f7	-0.07229798
182	0xbd36cb6c	-0.044627592
183	0x3ceccace	0.028905299
184	0x3dd82e02	0.1055565
185	0xbe239a34	-0.15976793
186	0xbe152f20	-0.14568758
187	0xbe16841d	-0.14698835
188	0x3d81844d	0.063240625
189	0xbe2e81e5	-0.17041738
190	0x3d94fea5	0.07275132
191	0x3e08197e	0.13290974
192	0x3e07b33a	0.13251963
193	0x3d614648	0.054998666
194	0x3d677c14	0.056514814
195	0x3dc9a43e	0.0984578
196	0x3e285bbd	0.16441245
197	0xbe1f87da	-0.15579167
198	0x3df651ac	0.120272964
199	0x3e0fd1ff	0.14044951
200	0x3c260069	0.010131934
201	0x3e3460f5	0.17615111
202	0x3d214a76	0.039377652
203	0xbe0819c8	-0.13291085
204	0xbdf3f8c3	-0.11912682
205	0xbc7d5e76	-0.015464416
206	0x3e20fb4b	0.1572086
207	0x3e1f92e4	0.15583378
208	0x3da6f5ff	0.08152389
209	0xbdab099f	-0.083514445
210	0x3e1e5174	0.1546076
211	0xbd8c1379	-0.068396516
212	0xbe03d02b	-0.12872379
213	0x3dc76588	0.097361624
214	0x3dc07311	0.09396947
215	0x3d147df3	0.036252927
216	0xbc6542d6	-0.013992986
217	0xbe0e20e7	-0.13879739
218	0x3cfbe91c	0.030750804
219	0xbd6c2cd0	-0.057659924
220	0x3d80dff2	0.06292714
221	0xbe0ad331	-0.13557126
222	0xbd30813a	-0.04309199
223	0xbe2f1773	-0.17098789
224	0xbe2fd853	-0.17172365
225	0x3da2b340	0.079443455
226	0x3cc4a880	0.024006128
227	0x3e014f53	0.12627916
228	0x3d314a5b	0.0432838
229	0xbcc3be67	-0.023894502
230	0x3d4f0465	0.0505413
231	0xbe332189	-0.17493261
232	0xbd7ec89c	-0.062203035
233	0x3d819738	0.06327671
234	0xbd4b7ded	-0.04968064
235	0x3d2f4ab8	0.042795867
236	0xbe0800fb	-0.13281624
237	0x3e257130	0.16156459
238	0x3e0d80e3	0.13818698
239	0xbdc14c51	-0.09438384
240	0xbde83579	-0.11338324
241	0x3e2de3fa	0.16981497
242	0x3e22a896	0.15884623
243	0x3c09f2db	0.008419718
244	0x3e05b1d3	0.13056116
245	0x3e0e3f5e	0.1389136
246	0xbd8b504d	-0.068024255
247	0x3c0c2f2c	0.0085561685
248	0x3cc9e784	0.024646528
249	0x3d841951	0.06450141
250	0x3dc65efe	0.09686087
251	0x3e0c66d7	0.13711105
252	0xbdd4c80c	-0.103897184
253	0x3d783b4a	0.060603417
254	0x3df93241	0.12167788
255	0x3c5231ad	0.012829226

net.2.bias f4 [64]
0	0x3d3b008b	0.045654815
1	0x3e18d3fc	0.14924616
2	0xbc96fd5f	-0.018431364
3	0xbdb329d1	-0.0874821
4	0x3d0191df	0.031633254
5	0xbd9bfc38	-0.07616466
6	0x3d86194b	0.06547793
7	0xbd8a3707	-0.06748777
8	0x3d017224	0.031602994
9	0xbdb2864a	-0.0871702
10	0xbcda0b24	-0.02661664
11	0x3da7ba7f	0.08189868
12	0x3d533dd9	0.051572654
13	0xbda4fca6	-0.08056001
14	0x3cf11a55	0.029431501
15	0x3e108753	0.14114122
16	0xbdac7904	-0.084215194
17	0x3db7e9c7	0.08980136
18	0x3d2d3b21	0.042292718
19	0x3e0d95f0	0.13826728
20	0x3cd15de6	0.02555747
21	0xbd87c7d5	-0.06629912
22	0x3dd6f8ce	0.104966745
23	0x3cccb3d1	0.024988087
24	0xbe262a03	-0.16226964
25	0x3d43b886	0.047783397
26	0x3da8b2ef	0.08237254
27	0xbd82cb8d	-0.063864805
28	0x3d02dd3d	0.03194927
29	0xbde5193a	-0.11186452
30	0x3b7aeff1	0.003828999
31	0xbd49ff01	-0.049315456
32	0xbde40257	-0.11133259
33	0x3d5e10d8	0.054215282
34	0x3dc46e49	0.09591348
35	0xbd7001ec	-0.058595583
36	0xbdcadb20	-0.09905076
37	0xbd5ddc62	-0.05416525
38	0x3ddec413	0.10877242
39	0x3cf37fd6	0.029724043
40	0xbd5b03f4	-0.053470567
41	0x3d953c84	0.07286933
42	0x3db7c0b0	0.08972299
43	0xbc8726b1	-0.016497942
44	0x3d022d1a	0.031781293
45	0xbd4ee838	-0.05051443
46	0xbe139e37	-0.14415823
47	0x3e05ee4f	0.13079189
48	0xbcc19b1a	-0.023633529
49	0xbde92397	-0.11383741
50	0xbc30656e	-0.01076637
51	0xbd71a0f9	-0.058991406
52	0xbdc5edc5	-0.096644916
53	0xbe14bdd9	-0.14525546
54	0xbe0d1c32	-0.13780287
55	0x3db63669	0.08897097
56	0xbe13338b	-0.14375131
57	0x3e034266	0.12818298
58	0x3d2764a3	0.04086746
59	0xbe235898	-0.15951765
60	0xbe29607c	-0.16540712
61	0xbe2df7af	-0.16989015
62	0xbda139ca	-0.078723505
63	0x3e05380b	0.1300966

net.4.weight f4 [32, 64]
0	0xbd573564	-0.05254115
1	0xbdd6c7c6	-0.104873225
2	0xbd89d3e8	-0.06729871
3	0xbd73c654	-0.059515312
4	0xbda0e098	-0.07855338
5	0x3dad96fe	0.08476065
6	0xbc9967a0	-0.01872617
7	0xbd7d06e0	-0.061774135
8	0xbdd6c18a	-0.104861334
9	0x3cd3ccc8	0.025854483
10	0x3d9dfd2e	0.07714306
11	0xbb3b21c0	-0.0028554052
12	0xbbe29f40	-0.0069159567
13	0xbdc2c4ca	-0.09510191
14	0x3cfacd70	0.030615538
15	0x3ccfcc08	0.025365844
16	0xbdbedbb4	-0.09319249
17	0x3c73e220	0.014885455
18	0x3c8d0490	0.01721409
19	0xbd6088b0	-0.054817855
20	0xbac39100	-0.0014920533
21	0xbda80840	-0.082046986
22	0xbd744fd8	-0.059646457
23	0x3d289c60	0.041164756
24	0xbdc7f0ce	-0.09762727
25	0x3d9e4344	0.07727674
26	0x3cecc858	0.028904125
27	0x3dbac1b0	0.09118974
28	0xbd083804	-0.033256546
29	0x3cae58d8	0.021282598
30	0x3db5e588	0.0888167
31	0xbcd5e5a8	-0.026110485
32	0x3db208ce	0.086930856
33	0x3d654c04	0.055980697
34	0xbd73a74c	-0.05948572
35	0x3d0f5da0	0.035001397
36	0x3ba21740	0.0049466193
37	0x3c4684f0	0.012116656
38	0xbdd246a6	-0.10267381
39	0x3dded130	0.10879743
40	0x3d19c77c	0.03754376
41	0x3df3da78	0.11906904
42	0xbd194194	-0.037416056
43	0x3dac08a2	0.08400084
44	0x3db9b300	0.09067345
45	0xbd9e729a	-0.07736702
46	0xbde81df6	-0.113338396
47	0xbd0c2430	-0.0342142
48	0xbdcbb942	-0.099474445
49	0xbd88c374	-0.06677905
50	0xbd08239c	-0.033237085
51	0x3dea9ce0	0.11455703
52	0x3d9dc10e	0.07702838
53	0x3dbebc26	0.0931323
54	0xbdc726e2	-0.09724213
55	0x3da441d8	0.08020371
56	0x3de86af6	0.11348526
57	0xbd08c76c	-0.03339331
58	0xbd313efc	-0.043272957
59	0x3dc823ec	0.097724766
60	0x3de7e162	0.11322285
61	0xbda62b4c	-0.08113727
62	0x3d94d4d2	0.07267155
63	0xbc94e680	-0.018176317
64	0xbd8f4152	-0.06994881
65	0x3bc60760	0.0060433596
66	0xbcb3a0b8	-0.021927223
67	0x3da7263c	0.081615895
68	0x3d312bc0	0.043254614
69	0xbd0362b4	-0.032076553
70	0x3d63c68c	0.05560927
71	0x3d591038	0.052993983
72	0x3d85e2ec	0.065374225
73	0xbcbbfe88	-0.022948518
74	0xbde25cb4	-0.11052838
75	0xbdd62046	-0.104553744
76	0xbd254cec	-0.04035656
77	0x3debc20a	0.115116194
78	0xbd42eccc	-0.04758911
79	0xbce47828	-0.027889326
80	0xbda4ce7e	-0.08047198
81	0xbcaa8b88	-0.020818487
82	0xbdf72c5e	-0.12069009
83	0xbc521890	-0.012823239
84	0x3c0beed0	0.008540824
85	0xbda7d3fe	-0.08194731
86	0xbd97b878	-0.074082315
87	0x3db9f2dc	0.09079525
88	0xbdc6981e	-0.09696983
89	0x3cf419e0	0.029797494
90	0xbdfa7780	-0.12229824
91	0xbd9e69d0	-0.07735026
92	0x3dc3c7ec	0.095596164
93	0xbc7e53e0	-0.015522927
94	0x3d571c30	0.052517116
95	0x3d942df2	0.07235326
96	0x3da591f4	0.08084479
97	0xbdfe41d4	-0.124148995
98	0xbd84e406	-0.064888045
99	0xbdfaa29c	-0.122380465
100	0xbdd5e2a4	-0.10443619
101	0x3dcb3054	0.09921327
102	0x3dc159b8	0.094409406
103	0x3dc6281e	0.096756205
104	0xbdb1511e	-0.0865805
105	0x3cc53c08	0.024076477
106	0x3d13ab98	0.036052316
107	0xbd82153e	-0.06351708
108	0xbcf6d148	-0.03012909
109	0x3d5af54c	0.05345659
110	0xbd99dc4a	-0.0751272
111	0x3d9c3038	0.076263845
112	0xbc526c60	-0.012843221
113	0xbd151700	-0.036398888
114	0x3dbed1fc	0.09317395
115	0x3d88bba2	0.06676413
116	0xbdea4fc6	-0.11440997
117	0xbd353694	-0.044241503
118	0x3ceb1148	0.028694764
119	0xbd692e34	-0.05692883
120	0xbd97557e	-0.07389353
121	0x3dd27330	0.102758765
122	0xbdd240ac	-0.102662414
123	0xbdf4f176	-0.119601175
124	0xbd7b6fbc	-0.061385855
125	0x3ba8e5c0	0.0051543415
126	0x3d3fb484	0.046803012
127	0xbd794ef0	-0.060866296
128	0xbcd993a0	-0.02655965
129	0x3c959c28	0.018262938
130	0x3d3accc0	0.04560542
131	0xbd93f5ce	-0.07224618
132	0x3de20ad4	0.110372216
133	0x3b5df300	0.0033866763
134	0x3de774fe	0.11301611
135	0xbdfbf2dc	-0.12302181
136	0x3c4276e0	0.011869162
137	0xbd97cc42	-0.07412006
138	0xbc368640	-0.011140406
139	0x3c063150	0.008190468
140	0xbd2dfdb0	-0.042478263
141	0xbc319cd0	-0.01084061
142	0x3cd20748	0.025638238
143	0xbdd4ee52	-0.103970185
144	0x3d108be8	0.035289675
145	0xbd317d0c	-0.043332145
146	0xbdb0113a	-0.08597036
147	0x3dd0e792	0.102004185
148	0x3d0976ac	0.03356044
149	0xbd47d7a4	-0.048789635
150	0xbd9ffec2	-0.07812263
151	0x3d3a1480	0.045429707
152	0xbda33b8a	-0.079703405
153	0x3cd9ef60	0.0266034
154	0x3de22e54	0.11043993
155	0xbc436630	-0.011926219
156	0xbdf9a9f6	-0.121906206
157	0x3db13e3a	0.08654447
158	0xbdb0e81a	-0.0863802
159	0x3da107ba	0.07862802
160	0xbdf7e200	-0.12103653
161	0xbd106efc	-0.035262093
162	0x3d1ab2f4	0.03776832
163	0xbda9359a	-0.08262177
164	0x3c386c30	0.011256263
165	0xbce04aa8	-0.027379349
166	0xbda5bc2e	-0.08092533
167	0xbdbac244	-0.091190845
168	0xbd9954c0	-0.07486868
169	0xbd8a06fc	-0.067396134
170	0x3d816932	0.063188925
171	0xbdad4f76	-0.084624216
172	0x3c978980	0.018498182
173	0x3dae0f46	0.08499007
174	0xbd82fc58	-0.06395787
175	0xbddb403c	-0.10705611
176	0x3de15560	0.11002612
177	0xbab8ea80	-0.0014107972
178	0xbd1121ac	-0.035432503
179	0xbda8b0de	-0.0823686
180	0x3c595860	0.013265699
181	0xbd3caedc	-0.046065196
182	0xbcd33738	-0.025783166
183	0x3db048fe	0.08607672
184	0xbb060e40	-0.002045527
185	0x3cb33da0	0.021879971
186	0xba593200	-0.00082853436
187	0x3d86711a	0.06564541
188	0xbbf66c20	-0.0075202137
189	0xbd8cab06	-0.06868558
190	0xbdb98910	-0.09059346
191	0xbd8eff2e	-0.069822654
192	0x3bb6c1a0	0.005577281
193	0x3dda6d44	0.10665372
194	0xbdc08984	-0.09401229
195	0xbd6ed210	-0.0583058
196	0xbda2808a	-0.07934673
197	0xbd503730	-0.05083388
198	0x3cbedb28	0.023297861
199	0x3d95d176	0.07315342
200	0x3cbb9968	0.022900298
201	0x3da4897a	0.08034034
202	0xbcd248d0	-0.025669485
203	0xbc384a10	-0.011248127
204	0x3dae4c42	0.08510639
205	0x3ca8eae0	0.02061981
206	0x3d945c02	0.072441116
207	0xbcc0fc40	-0.023557782
208	0x3d31aa54	0.04337533
209	0x3ada1d80	0.0016640872
210	0x3dd034ee	0.101663455
211	0x3dac5c5c	0.08416054
212	0x3d5602c0	0.052248716
213	0x3dfed732	0.12443389
214	0xbcd18ab0	-0.025578827
215	0x3c2740c0	0.010208309
216	0x3cd1ffe8	0.02563472
217	0xbc89b190	-0.016808301
218	0xbd039954	-0.032128647
219	0x3bf2fc80	0.0074153543
220	0x3ce20df8	0.027594551
221	0xbdaa79ae	-0.0832399
222	0xbdbf52b6	-0.09341948
223	0x3d00bd18	0.031430334
224	0x3d8202ca	0.06348188
225	0x3d86f150	0.065889955
226	0x3d7f85dc	0.062383518
227	0xbdbd69ea	-0.09248717
228	0x3bef63e0	0.007305607
229	0xbde5d68e	-0.11222564
230	0xbdfe1fde	-0.12408422
231	0x3dd773cc	0.105201334
232	0xbd922cde	-0.07137464
233	0xbdb5ddda	-0.088802055
234	0xbda1b590	-0.078959584
235	0x3d73eb24	0.05955042
236	0x3df3e548	0.11908966
237	0x3d868708	0.06568724
238	0x3d708914	0.058724478
239	0x3cd4e838	0.025989637
240	0xbd8e22e2	-0.06940247
241	0xbde5519e	-0.11197208
242	0x3cb3eb40	0.021962762
243	0xbca97a70	-0.020688266
244	0xbde89c0a	-0.11357887
245	0x3dc68418	0.09693164
246	0xbdf67a36	-0.12035029
247	0x3dd6c0ba	0.104859784
248	0xbdcee3bc	-0.10102031
249	0x3c6f0b30	0.01459007
250	0x3d707a08	0.058710128
251	0xbcccc7b8	-0.024997577
252	0x3cb60210	0.02221778
253	0xbd7d5d3c	-0.061856493
254	0xbd6fd6fc	-0.058554634
255	0x3bf30d60	0.007417366

net.4.bias f4 [32]
0	0xbdc355e6	-0.09537868
1	0x3d9d8808	0.076919615
2	0x3df6732a	0.120336846
3	0xbd7b24a4	-0.06131424
4	0xbd368160	-0.044556975
5	0xbc23fbb0	-0.010008737
6	0xbdd66b26	-0.10469656
7	0x3db30cf2	0.087427035
8	0x3dabdb0e	0.08391391
9	0x3cc744b8	0.02432476
10	0xbda9c370	-0.0828923
11	0x3d287008	0.041122466
12	0x3c3e46b0	0.011613533
13	0xbdd0cdd8	-0.101955116
14	0x3d5ca1b0	0.053865135
15	0xbcfdd1b8	-0.03098379
16	0xbdf65296	-0.12027471
17	0xbdda65fc	-0.10663983
18	0xbbe88140	-0.007095486
19	0xbcf5baf0	-0.029996365
20	0xbdb3abfa	-0.08773036
21	0x3dde783c	0.10862777
22	0x3dd18918	0.10231227
23	0x3dbbc846	0.091690585
24	0x3dde1730	0.108442664
25	0xbd274e18	-0.04084596
26	0x3cd37650	0.025813252
27	0x3ceab620	0.028651297
28	0xbd5f13d8	-0.054462284
29	0x3dc3f6f6	0.095685884
30	0x3dfe41ec	0.12414917
31	0x3df821b4	0.12115803
