maml_model/maml_GoToOpen_8_12_600_50.pth (torch, 60284 bytes, 6 tensors)

layer1.weight f4 [64, 151]
000000 13 bd f1 bd 7a 0d 93 3d 39 93 8b 3b 37 8d 28 bc
       -0.11803641 0.07180305 0.0042594937 -0.0102875745
000010 c8 ca 11 bd e0 4d ee 3d a2 e1 0a 3e cd 32 cc 3c
       -0.035593778 0.11635947 0.13562635 0.024926567
000020 98 e6 34 bd 27 60 c1 3d 61 c1 23 be a3 9c 03 be
       -0.044165224 0.09442168 -0.15991737 -0.12852721
000030 12 62 be bd c1 d7 f4 3d da 1b 83 bd dd 87 0a bd
       -0.09296049 0.11955214 -0.06401797 -0.033820976
000040 5c 90 55 bd 9e 3f 63 bd fd 40 10 be 1d 97 55 3d
       -0.052139625 -0.055480592 -0.14087291 0.052146066
000050 97 03 22 3d 79 50 e8 3d 5a e0 06 3e 87 3b 19 3e
       0.039554205 0.11343474 0.13171521 0.14964114
000060 bc e8 16 3e c9 87 fd 3d ba e4 0f bd a5 1e 6d bb
       0.14737219 0.123794146 -0.03513024 -0.0036181596
000070 6d 35 de bd 7b 71 eb bc 39 80 ec bd 20 1f 23 be
       -0.10850034 -0.028740635 -0.11547894 -0.15929842
000080 f4 27 87 bd 37 b6 39 3d 64 54 bf bc 9f e3 09 be
       -0.06599417 0.04533979 -0.02335567 -0.13465737
000090 9e d3 e1 3d 6d e1 1c 3e ef 72 11 3e a0 be 9e 3d
       0.11026691 0.15320368 0.14204 0.077512026
0000a0 e4 66 2b 3b 0b 46 a7 bd 84 2c 2c 3d 17 4b d5 bd
       0.0026153857 -0.081676565 0.04203464 -0.10414713
0000b0 28 d6 8d 3d 7e 51 2c be 59 9c e3 3d 4f 21 60 bd
       0.06925613 -0.16827962 0.11113805 -0.054719266
0000c0 26 44 2a bd 00 ae 03 be fc e8 c4 bd 1a 15 89 bd
       -0.041568898 -0.12859344 -0.09614751 -0.06693478
0000d0 45 8d 1c be 48 96 9e bd b3 98 22 bd ba 07 f3 bd
       -0.15288265 -0.077435076 -0.039696407 -0.11866708
0000e0 eb a8 91 bb 34 0a 90 bd ef 1a f8 bd 73 ee 16 be
       -0.0044451854 -0.07033196 -0.12114512 -0.14739399
0000f0 ee e3 57 3d e0 89 24 bd 8c 8f a1 bd 1b 00 1c be
       0.052707605 -0.04017055 -0.078887075 -0.15234415
000100 10 90 3e bd 98 db 09 bd 82 92 b0 3d e0 4a d9 3d
       -0.046524107 -0.033656687 0.08621694 0.106099844
000110 79 ea 18 be df 09 b1 3d 8c dc d0 3d 62 86 4b 3d
       -0.14933194 0.08644461 0.10198316 0.049688704
000120 5a 1b cd 3d d9 51 c2 3b dc 5a 03 be fe 11 30 3e
       0.100149825 0.005930167 -0.12827629 0.17194363
000130 6d 9f 8f 3d d2 97 1c 3e dd 34 e1 3d 41 c8 a1 3d
       0.0701283 0.1529229 0.10996411 0.078995235
000140 a9 0f 0d 3d 92 4c 95 3d e6 fb 0b be 16 a4 25 be
       0.034438763 0.07289995 -0.1367031 -0.16175875
000150 e3 87 75 3c a7 bd 33 3e 6d 14 ff 3d 79 f8 07 3e
       0.014986011 0.17552815 0.12455068 0.13278379
000160 58 38 36 3d 79 c6 02 be ee 06 eb ba 71 a7 07 be
       0.044487327 -0.12771024 -0.0017931142 -0.13247468
000170 c5 ce 3d bd 99 07 fe 3d ca 9d b3 3d 6a 4d ae bc
       -0.04633977 0.12403793 0.0877033 -0.021277148
000180 b1 12 a7 3d 8a 54 0a be fe e9 17 be 3f 1c 6c 3d
       0.08157862 -0.13508812 -0.14835355 0.057644125
000190 31 b4 7d bd 7d ba 67 3d 4c 9b 12 be 6b de 82 3d
       -0.061939422 0.056574333 -0.14317054 0.06390079
0001a0 66 87 57 bd a7 3d 01 3c 1e be 24 3e 46 d5 17 be
       -0.05261936 0.007888234 0.16088149 -0.14827451
0001b0 65 22 aa bb 1f 89 43 3d f7 10 24 3e 7f 04 f0 3d
       -0.0051920884 0.04773819 0.16022097 0.117196076
0001c0 7c 99 0a be d5 72 06 3e 15 b2 1b be c6 78 0e be
       -0.13535112 0.13129742 -0.15204652 -0.13913259
0001d0 6a b4 6f bd 2d 6c fe bd bc 5e 00 be 17 2f 27 bd
       -0.058521666 -0.12422977 -0.12536138 -0.040816393
0001e0 b6 b4 c2 bc 6f 95 24 3d 70 5c d0 bc 6b 79 32 be
       -0.02376781 0.040181573 -0.025434703 -0.1742913
0001f0 f4 fa c6 3d 41 e8 d7 3d 68 89 dc 3d a6 8f 0b be
       0.09715834 0.10542346 0.10768396 -0.13629016
000200 33 00 cb 3c 53 89 90 3d 79 7b 8b 3d 86 8a d2 3b
       0.024780368 0.070574425 0.0681066 0.0064252047
000210 8f b0 88 bd 66 ba 05 3e 4e b3 d8 bd d7 e0 76 3d
       -0.06674301 0.13059387 -0.10581075 0.060273018
000220 db 21 88 3d 61 2b 0b 3e 3e 26 f2 3d a1 b0 13 3e
       0.066470824 0.13590766 0.118237 0.14422847
000230 1e 1e eb 3d c3 72 e3 3d 05 70 02 3e b7 f0 9f bd
       0.11480354 0.111058734 0.12738045 -0.078095846
000240 b9 bc 37 be c8 16 00 be ba 9a 29 bd 89 9b 46 3e
       -0.17943086 -0.1250869 -0.041407324 0.1939527
000250 37 3f 26 3b 78 f8 dc bd e4 49 f6 3d 17 24 17 3e
       0.0025367269 -0.10789579 0.12025812 0.14759861
000260 fe 61 a4 bc 5b 71 84 bc e9 70 77 bb 97 1c bf 3d
       -0.020066258 -0.016167333 -0.0037756509 0.09331625
000270 f0 d4 14 3e dc cb c1 3d 38 e3 a2 bd 16 9a 03 bd
       0.14534354 0.09462711 -0.07953495 -0.03212937
000280 62 68 cb bb f4 fd 7e 3d 0b bd e8 bc 6b 26 84 bc
       -0.0062075118 0.062253907 -0.028410455 -0.0161316
000290 09 a9 a6 bd f5 2f a3 bd 8d ed 39 be d5 d2 94 3c
       -0.0813771 -0.079681315 -0.18157025 0.018166939
0002a0 d3 c0 e6 3d d9 ba 04 3e cf 8e 1d be bc d9 b3 bd
       0.11267247 0.12961902 -0.15386508 -0.08781764
0002b0 f9 ed 0c be 87 cc 1a be 37 1c a4 bb bf c6 ad 3c
       -0.13762654 -0.15117083 -0.0050082463 0.021212934
0002c0 53 ce c5 bd c2 b1 35 bc e2 be c7 bd c9 b8 0b be
       -0.09658494 -0.011089744 -0.09753205 -0.13644709
0002d0 2a 41 d8 bd 23 9b 4f bc 12 43 06 be df f1 14 be
       -0.10559304 -0.012671265 -0.13111523 -0.14545391
0002e0 7b fb 0d 3e 24 ae ab bd 70 6d dd 3b ff f4 0e 3e
       0.13865463 -0.08382824 0.0067574307 0.13960646
0002f0 bf 2f 33 be a0 8e 05 3e a9 4c c1 3c 88 db 00 3e
       -0.17498682 0.13042688 0.023596125 0.12583745
000300 6e 4c 09 3e b0 b7 a1 bc d2 55 95 bd 6d b0 a1 3c
       0.13408062 -0.01974091 -0.072917596 0.019737447
000310 35 62 b9 3d 32 d4 40 3e db 23 01 3e 20 f6 f0 bd
       0.09051935 0.18830946 0.12611334 -0.117656946
000320 1a fb 51 3c b3 b1 bf 3c 0a e9 09 be c8 6d 23 3e
       0.012816215 0.023400163 -0.13467804 0.15959847
000330 ce 86 10 be 99 65 bc 3d 48 65 2c be a2 9b 8a 3a
       -0.14113924 0.09199066 -0.1683551 0.0010574947
000340 4b 7b c0 bd 49 c0 35 3d 84 5c 70 bd b5 64 ae 3b
       -0.09398516 0.04437283 -0.05868198 0.005322064
000350 47 dd 00 3e 55 18 2a bc c5 5c 05 3e 4c a0 23 3e
       0.1258441 -0.010381778 0.1302367 0.15979117
000360 84 b3 0c bc c4 bf 12 bd 32 ec dd bd d3 2a 0d be
       -0.008587722 -0.035827413 -0.10836066 -0.13785867
000370 92 7e 7e 3d c4 25 96 b8 cf 14 08 3d 22 d9 da 3d
       0.062132426 -7.159592e-05 0.03322297 0.10685946
000380 35 65 d6 3d a2 39 ab bd 7d dd d0 3d 4f b9 c1 bd
       0.104685225 -0.08360602 0.101984955 -0.09459173
000390 ec 4e 26 3e 75 c4 18 3d 3b a4 13 be 40 2e bf bd
       0.16241044 0.03729673 -0.14418118 -0.09334993
0003a0 d5 90 e8 bc fc 74 5f 3d 5d 16 8c bd 10 18 1f be
       -0.028389374 0.054554924 -0.06840203 -0.15536523
0003b0 96 52 9e 3d 97 cd 95 3c 3b e3 15 3e 51 bd 41 3e
       0.07730596 0.01828651 0.14637463 0.18919875
0003c0 30 11 b5 3d bd 9f 20 3e 38 97 1e 3e f7 17 14 be
       0.08841169 0.15685935 0.15487373 -0.14462267
0003d0 9e 8b 18 be 99 90 80 bd d4 6e a4 3c 14 d9 dd 3d
       -0.1489701 -0.0627758 0.020072378 0.1083242
0003e0 16 c7 df 3c cf 65 20 3e ea 28 2f bd 0d c8 1a 3d
       0.027316611 0.15663837 -0.042763628 0.03778844
0003f0 a4 66 24 bd 5f 30 69 bd 05 05 d8 3d d9 94 e0 bd
       -0.04013695 -0.056930896 0.105478324 -0.109658904

layer1.bias f4 [64]
000000 d0 44 48 39 80 49 1a bd cc bb 3c 3c a2 72 49 3d
       0.00019099121 -0.03766775 0.011519384 0.049181588
000010 d0 ca 16 bd 68 fe cb bc 07 a2 88 bc 63 fe a3 bb
       -0.03681451 -0.024901584 -0.016678823 -0.0050046905
000020 85 01 dc bc d9 e6 90 bc 12 e9 0a 3c 89 15 5b bc
       -0.026856193 -0.017688202 0.00847842 -0.013371834
000030 0c 07 43 3d 12 64 ae 3c 43 55 10 3a ac a7 05 3c
       0.047614142 0.021287952 0.0005505869 0.008157652
000040 6c 36 a6 3c ea ed 97 3b 5f ba 70 bc a6 f1 ac ba
       0.020289622 0.004636516 -0.014692872 -0.0013194575
000050 52 f2 7f 3d be d1 e0 3a 3c 48 2d 3d 15 b1 1e 3d
       0.062486954 0.0017152352 0.042305216 0.038743097
000060 91 83 ad 3c d0 dc fa 3c 43 81 d0 bc 8f db 14 3d
       0.0211809 0.03062287 -0.025452262 0.0363422
000070 c0 3f 51 39 14 a4 4b bd 7c bd 6a 3c 22 e8 e9 3b
       0.00019955542 -0.049717024 0.014327403 0.007138268
000080 36 25 fc bc ef 5f 9c bc f6 b3 49 3c a1 78 46 bd
       -0.030779462 -0.019088713 0.012310972 -0.048454884
000090 c6 6a 55 3c 0d fd f4 3c a1 f9 72 bb 6e 33 c6 3c
       0.013025945 0.02990582 -0.003707506 0.024194445
0000a0 a7 dc e4 bc c3 e9 00 3b e7 62 08 3d 29 1a ee bc
       -0.027937246 0.0019670583 0.033297446 -0.029065209
0000b0 da 34 34 3c f2 b2 3b bd 30 0a ac bd b4 e0 d2 3c
       0.010998929 -0.045824952 -0.084003806 0.025741912
0000c0 17 75 8f 3a 1c fc 95 3c 52 3e f9 3b a5 f8 01 bc
       0.001094493 0.018308692 0.007606306 -0.007932817
0000d0 a1 1f cf bc 71 98 9a 3d f2 b6 20 bc cf 53 44 bd
       -0.025283637 0.07548607 -0.009809243 -0.04793149
0000e0 d0 cf a2 bc 94 c2 cd bc 0f 50 68 3d 46 a3 a7 bc
       -0.019874483 -0.025117196 0.056716975 -0.020463597
0000f0 ff e6 97 ba bf b4 58 bd 24 c9 9e bd 70 25 5f bc
       -0.0011589228 -0.052906748 -0.07753208 -0.013619766

layer2.weight f4 [64, 64]
000000 96 8d 40 3e 23 6b 01 be 7d cd 6e 3e a7 3c e2 3d
       0.18804011 -0.12638526 0.23320575 0.11046725
000010 31 01 27 3e da c1 03 3b 8f 3f 88 bc b9 5d 9d 3d
       0.16309048 0.0020104558 -0.01663187 0.07683892
000020 ce 18 8f bd ef fe aa bd bd d3 16 3e fd e1 3c 3e
       -0.06987153 -0.08349406 0.14729209 0.18445583
000030 b5 1b b4 3c bf 0d 3e bd 16 e7 2a 3e b9 01 45 be
       0.021985868 -0.046399828 0.16689715 -0.19238938
000040 84 d0 01 3e f2 d9 f4 bc 83 66 19 3e 8b 8a b3 bd
       0.12677199 -0.02988908 0.14980511 -0.08766659
000050 82 b5 3a 3e a0 36 ac bd ba 15 a2 bd 09 60 71 3d
       0.18233302 -0.084088564 -0.079143 0.058929477
000060 6c 20 8b bb 00 ce e7 bd b7 ea 2b 3d 34 cf 36 be
       -0.0042458083 -0.11318588 0.04197189 -0.17852479
000070 84 04 c0 bd 9a 99 f3 bc a3 88 47 be 80 c0 17 3d
       -0.09375861 -0.029736329 -0.19485717 0.037048817
000080 c3 97 9b 3d d0 90 ba 3b 15 2e 0a 3e 2e b5 34 3d
       0.075973056 0.0056935325 0.13494141 0.0441181
000090 cb ed 1a be 4d 92 11 be 3d 05 03 be 8f 84 d4 bc
       -0.15129773 -0.14215966 -0.12794967 -0.025942115
0000a0 ec b3 37 3e cc c9 5c be 62 5e 90 bd ac 1e 1e be
       0.17939728 -0.21561354 -0.07049252 -0.15441388
0000b0 3c 26 00 3c c4 1b 40 be 2c b5 3d 3d 81 6f 50 3e
       0.007821616 -0.18760592 0.046315357 0.20355035
0000c0 8e a6 d4 bd ea b9 f5 bd a4 53 62 3e ec 41 34 bc
       -0.1038333 -0.11998351 0.22102219 -0.011002045
0000d0 45 38 3e bd 66 fa 09 be be fb d8 bc ea 08 ea ba
       -0.04644038 -0.13474426 -0.026487228 -0.001785544
0000e0 32 de 23 be 64 a9 d8 bc ec bf aa 3d e7 02 dc 3d
       -0.1600273 -0.02644796 0.083373874 0.10742741
0000f0 2d 41 d6 3d 7c fb 61 bd b1 87 97 bd 38 98 58 3e
       0.1046165 -0.055171475 -0.07398928 0.21151817
000100 ec 0e 58 be b8 b4 68 bc 9b 6b 7b bd e3 1e 07 3e
       -0.21099442 -0.014203243 -0.061381917 0.13195376
000110 04 f7 54 3e ac 36 7a bd 5b 79 f1 bd d0 cf 33 3e
       0.20797354 -0.061087295 -0.11790725 0.17559743
000120 34 1e b1 bd 8e 12 29 be de 57 03 be 5e 6a 90 bd
       -0.08648339 -0.16510984 -0.12826487 -0.07051538
000130 2a 0e 82 bd 63 47 6d bd 37 f6 43 3e e5 c9 a6 3d
       -0.06350358 -0.057929408 0.19136892 0.08143977
000140 a7 a9 a7 bd e6 e1 1a bc bb 29 a4 bd 8f e4 d8 bd
       -0.081866555 -0.009453272 -0.08015772 -0.10590469
000150 b7 5f 2d 3d 1c 05 f3 3d a9 44 0f be cc cd 9a 3d
       0.04232761 0.11866209 -0.13991036 0.07558784
000160 fd da c9 bc 25 68 90 3b 9c 14 4b 3e 38 25 ea 3c
       -0.024640555 0.0044069462 0.1983208 0.0285822
000170 80 b9 60 3e 5b 33 f5 3d 0c fa e5 3d f0 43 23 3c
       0.21945763 0.11972686 0.11229333 0.009964928
000180 b9 5e 7f 3e b2 8f 90 3d e8 0b 03 be c5 09 15 3e
       0.24938478 0.07058658 -0.1279751 0.14554508
000190 da 0c b0 bd a9 39 1b 3e 87 48 76 3e 65 a7 23 be
       -0.08596201 0.15158714 0.24051104 -0.15981825
0001a0 71 34 0d 3e ac 40 4e 3e f4 a1 1b bd 76 ba 0b 3e
       0.13789536 0.20141858 -0.037996247 0.13645348
0001b0 fb 85 44 be b0 6e ca 3c 6c e1 19 be 71 27 d0 3d
       -0.19191734 0.024710983 -0.15027398 0.10163773
0001c0 ad 3e 90 3d bd fb 58 be 99 f4 bc bd ef d4 9e 3d
       0.070432045 -0.2118978 -0.09226341 0.077554576
0001d0 df 4e c7 bd 41 fa 2c 3d 47 f2 5f bc 26 4b 2e be
       -0.0973184 0.04223085 -0.013668603 -0.17020854
0001e0 06 ae 45 be 2b b0 44 be fb d3 e2 3d 0d 13 e2 bc
       -0.19304666 -0.19207828 0.11075588 -0.027596975
0001f0 56 40 99 3d 30 58 23 3e 59 63 cf 3d 1b e8 da bd
       0.07482974 0.1595161 0.10126371 -0.10688802
000200 07 11 82 3d 77 32 0c be 85 67 20 be 88 ca f2 3d
       0.06350904 -0.13691126 -0.1566449 0.11855036
000210 e9 32 75 3d 78 46 43 bd 19 d3 36 bd 1b 15 0f 3d
       0.059863005 -0.047674626 -0.044634912 0.034932237
000220 ba 15 50 3d ab 6c 05 3c 32 90 24 be d8 44 4c be
       0.05080197 0.008143584 -0.16070631 -0.19948137
000230 a6 e1 39 3e b1 35 9c bd e8 88 93 bd 16 53 d3 3c
       0.18152484 -0.07627428 -0.07203847 0.025796454
000240 d5 ad 2a bb 36 8b 46 3e 35 95 5e 3e 6f 7a 2e be
       -0.0026043553 0.19389042 0.21736605 -0.17038892
000250 df a8 df bd 55 5a d3 bd 7d 5f 4e 3c 12 2c 50 3e
       -0.109208815 -0.10319964 0.012596008 0.20329311
000260 65 68 1c be 08 81 89 bd ee 63 b1 3d 4f 77 3e 3e
       -0.15274198 -0.06714064 0.08661638 0.186002
000270 ab 10 a0 3d 3c bb 00 be c5 d5 1e 3d d4 cd 91 3d
       0.07815679 -0.12571424 0.038778085 0.07119337
000280 52 40 53 3e e3 3e 02 3e 52 04 3b 3e 12 40 86 bd
       0.20630005 0.12719302 0.18263367 -0.06555189
000290 ec 75 d5 bd 5e c8 d3 3d 8a 54 c6 bc ad 7b 15 be
       -0.104228824 0.103409514 -0.024210233 -0.1459796
0002a0 28 a1 72 3d 4a 2e db bd 45 c9 0d 3d 00 94 ff 3d
       0.05923572 -0.10702188 0.034615774 0.12479401
0002b0 3f be e8 bd 41 0e 20 be 3f 5d e9 3d da e3 fb bd
       -0.113644116 -0.15630437 0.113947384 -0.122993186
0002c0 43 b6 08 3e d0 c9 a7 bd 13 9a 1e be 63 e0 79 bc
       0.13350777 -0.081927896 -0.15488462 -0.015251252
0002d0 28 21 cd bd ea 62 2d 3e 31 a4 49 3e 1a c0 43 be
       -0.1001609 0.16932264 0.1969154 -0.1911625
0002e0 21 6b 18 bc 83 62 8a 3d 5c b5 1a 3e d5 b3 17 3e
       -0.009302885 0.06757071 0.15108246 0.14814694
0002f0 a5 6e 3d be 1c b0 23 be 9c 3b 2a be a6 4c c2 bd
       -0.18499239 -0.15985149 -0.16624302 -0.09487276
000300 b0 1c 14 be c7 bc 51 bd 1b fe b6 3d bb 09 eb bb
       -0.14464068 -0.051205423 0.089351855 -0.007172791
000310 d8 00 d7 bd 79 81 a5 3d 60 36 dc 3d b7 54 5e 3c
       -0.10498208 0.080813356 0.10752559 0.013570002
000320 65 73 26 be b2 7e 00 3e b1 87 36 be 79 03 70 bd
       -0.16254957 0.1254833 -0.178252 -0.05859706
000330 bd ab 82 3d ea 59 30 3e a0 87 86 3d 2d 9f 35 3b
       0.06380413 0.172218 0.06568837 0.0027713284
000340 c4 e3 f6 3d 68 4c b5 3d 71 f4 bb 3c f7 64 f6 3b
       0.120551616 0.08852464 0.022943707 0.00751936
000350 11 ae b5 3d d5 30 59 3e 15 5c d9 3d 29 05 d8 3c
       0.08871091 0.21210034 0.106132664 0.026369648
000360 0a 38 11 3e db 43 31 3e c3 7a 0b be 73 d7 2e bc
       0.14181533 0.17311041 -0.13621049 -0.010671484
000370 6e e1 d4 bd e6 53 23 be f3 cb 3b 3e e4 01 cd bd
       -0.1039456 -0.15949973 0.18339519 -0.10010126
000380 11 ad e4 bd 04 93 1f be c1 51 da 3d e4 42 33 3e
       -0.11165822 -0.15583426 0.106601246 0.17505985
000390 5c cf a9 3d 10 07 bd bc 72 6d f6 3d 18 92 af bd
       0.08291504 -0.023074657 0.12032594 -0.08572787
0003a0 9b d4 23 3e da 4e 82 bd d3 e0 dd bc 8d 48 34 be
       0.15999071 -0.06362696 -0.027084744 -0.17605801
0003b0 1b a3 16 be d7 d8 53 3e 93 46 e3 3d 83 ef 22 be
       -0.14710657 0.20688187 0.11097445 -0.15911679
0003c0 cc 12 1f bd 4b d5 2f be 95 71 1d 3e 20 57 1c bd
       -0.038836285 -0.17171209 0.1537536 -0.038169026
0003d0 19 36 ec bd ba 00 42 3e b4 eb 85 bc 60 d8 66 bd
       -0.11533756 0.1894559 -0.016347744 -0.056358695
0003e0 f1 6b 04 be 87 db 22 3e b8 8b 46 be e6 d9 2a 3e
       -0.12931801 0.15904056 -0.19389236 0.16684684
0003f0 32 73 85 bd ef 81 b8 bd e9 8d c7 bd 8e 5d 83 bd
       -0.065161124 -0.09009158 -0.09743864 -0.064143285

layer2.bias f4 [64]
000000 4d 1f 25 3d cb 63 62 bc 86 24 00 3d 40 2b b8 3c
       0.040313054 -0.013817738 0.03128483 0.02248156
000010 c7 b8 20 bd e4 70 15 bb 02 02 9e 3c e7 f1 45 bd
       -0.039238717 -0.0022802884 0.019288067 -0.0483264
000020 bb 88 5f bd d5 53 e9 3c 66 48 1c 3d e6 92 07 bc
       -0.054573756 0.028482357 0.038154982 -0.008274769
000030 cd 37 9d bd a2 6b b6 ba 86 f8 41 3c 09 f5 f1 bc
       -0.07676659 -0.0013917575 0.011839038 -0.029535787
000040 37 d8 9b bb 47 da 17 bc 8b 69 a0 3b c4 31 ad 3c
       -0.0047559994 -0.00926835 0.004895394 0.021141894
000050 e0 6f 21 bc d4 77 f4 bc 69 7a 1b bd 73 54 1d bc
       -0.009853333 -0.029842295 -0.037958536 -0.009602654
000060 fa c0 80 3d dd bd 88 bc f9 fa 0d bc 50 b4 a4 bc
       0.06286807 -0.016692096 -0.008665794 -0.020105511
000070 e1 3d b8 3c 5b d0 8f 3d ae 82 44 3b 4a 8e 20 bc
       0.022490444 0.070221625 0.0029985118 -0.009799549
000080 b1 1a 8e ba be ed 46 3d 7a 3b 37 bd 51 f6 0d bd
       -0.0010841695 0.048566572 -0.044734456 -0.034658734
000090 ae b6 4e bb 8d c1 4d bd 40 34 00 39 13 6d c1 bc
       -0.003154199 -0.050233413 0.00012226496 -0.023611581
0000a0 d4 b1 26 bd b6 1c 77 3d fe fc 6c bb bb 44 11 3c
       -0.040696934 0.060330115 -0.0036161537 0.008866484
0000b0 00 14 49 3c 3b e3 35 3c b1 05 f1 3c 74 ae ff bb
       0.012272835 0.011101539 0.02942166 -0.007802779
0000c0 77 00 39 bb 30 67 0c 3b ea 43 00 bd 7f ec 1f bd
       -0.0028229037 0.002142381 -0.031314768 -0.0390439
0000d0 00 ec 29 bd 1d 90 4c bd 26 1a be bb 80 b7 6d ba
       -0.041484833 -0.049942125 -0.005801457 -0.0009068176
0000e0 ac 6a 79 3c 9b fc a8 3c 35 a4 dc bb ef 40 06 bd
       0.015223186 0.020628264 -0.006733442 -0.03277677
0000f0 ed 54 7f 3d b0 7a 8e 3c 06 6e 32 bd f3 0c e4 bc
       0.06233685 0.017392486 -0.043561958 -0.027838206

layer3.weight f4 [7, 64]
000000 15 cf 12 3d 4d 65 14 bc da 3d a5 3e e0 82 68 3e
       0.03584202 -0.009057355 0.32273751 0.22706175
000010 84 ec 95 bd 99 9f ba 3d 75 d2 10 be f8 37 61 3e
       -0.073205024 0.09112472 -0.14142783 0.21994007
000020 b4 d0 5d 3d 10 04 a4 3d 07 58 56 3d ae bb 3c bd
       0.054154113 0.08008587 0.052330043 -0.046077423
000030 99 95 5d be 17 e4 69 3e 5b 5c 37 3e 7f cf 07 be
       -0.21639098 0.22840916 0.17906325 -0.13262747
000040 d4 96 3c be 48 48 56 be 89 fd f3 bc 2d ae de 3b
       -0.18416911 -0.2092601 -0.02978398 0.0067956657
000050 24 22 bb be 60 c2 87 be d1 95 4e bd 68 ac 88 be
       -0.36549485 -0.26515484 -0.050435845 -0.26694036
000060 b0 36 a1 be fd fb 0b 3e 3f 9a 6e 3e 18 98 81 3e
       -0.31487036 0.13670345 0.23301028 0.2531135
000070 9f 93 61 3e c5 dd 9a 3e 86 b8 c3 bb 24 f2 eb bd
       0.22028969 0.30247322 -0.0059729246 -0.11520794
000080 cb 60 9e 3e 33 09 40 be e0 a8 ab bc 0f 2b 37 3e
       0.30933222 -0.18753509 -0.02095455 0.1788752
000090 d8 7a ff 3d 14 73 37 be ba 9a a9 3d 7d 80 7b be
       0.124746025 -0.17914993 0.08281465 -0.24560733
0000a0 cc e1 8e be bf db 72 3e 9e 58 33 3e d2 39 08 3d
       -0.27906644 0.23716639 0.17514274 0.033258267
0000b0 6b 57 59 3e c5 3a ee bd 95 92 01 be 64 fc 3b 3e
       0.21224754 -0.11632303 -0.12653573 0.18357998
0000c0 e5 48 9d 3e 5e a4 9e bc e5 d4 31 3e 08 6d 87 be
       0.30719677 -0.019365486 0.17366369 -0.26450372
0000d0 89 fd 29 be 58 57 50 be ed ad 3f be 26 a4 a3 3d
       -0.16600622 -0.20345819 -0.18718691 0.07990293
0000e0 43 ab 3d be 39 1d 4b be 1d e9 7b be 62 6e 8b bd
       -0.18522362 -0.19835366 -0.24600644 -0.06808163
0000f0 23 74 46 3e 63 fb 83 bd e7 8f 32 be e0 f1 83 3c
       0.1938024 -0.064444326 -0.17437707 0.016106546
000100 bd d7 8a bd 30 5e 30 3e 79 0a 72 3e d3 50 7b bd
       -0.0677943 0.1722343 0.23636808 -0.061356377
000110 65 f4 eb 3c 0a a5 6b bc c5 e9 7c be 56 73 c1 3c
       0.02880306 -0.01438261 -0.24698551 0.023614567
000120 2e 19 8e 3b 69 42 f2 3d 0c aa 1d 3d dc 33 84 3e
       0.0043364977 0.11829073 0.038492247 0.25820816
000130 dc 08 8a be 81 6f 51 be b5 64 94 be 88 b2 8a 3d
       -0.26959884 -0.20452692 -0.28983083 0.067723334
000140 c0 a2 84 3e ea 81 3b be c3 09 37 be 28 42 97 bd
       0.25905418 -0.18311277 -0.17874818 -0.07385665
000150 2d 96 9e 3e 2e 86 06 3e 0c 5f 52 3e 25 57 99 3e
       0.3097395 0.13137123 0.2054407 0.29949299
000160 ad f6 27 3e 70 a6 6c bb 8a 31 5c 3d 0d 35 36 be
       0.16402693 -0.0036109947 0.05375818 -0.17793675
000170 1d 0e 90 3e 4b 09 74 bd 09 1a ec bd 2d 00 fd 3d
       0.28135768 -0.059579175 -0.11528403 0.12353549
000180 e5 d7 9b be 11 17 99 3e 49 68 15 3d 7e f4 06 3d
       -0.30438152 0.2990041 0.036476407 0.03294801
000190 f1 b1 0f bd e4 87 99 bc b4 7b 8d 3d c2 26 89 3e
       -0.035081808 -0.018741556 0.0690836 0.26787382
0001a0 0b 7f 40 3e 73 ef 12 3e 2c 7c 80 3e 67 4c 81 3e
       0.18798463 0.14349155 0.25094736 0.25253603
0001b0 6b e6 2f be 71 50 99 bd 56 5d 65 3c 93 a0 c8 3d
       -0.17177741 -0.07486046 0.013999304 0.09796252
0001c0 cc 97 07 3e 01 d8 21 3e 18 f4 69 be 34 9a 61 bc
       0.132415 0.15805055 -0.2284702 -0.013769675
0001d0 a5 72 5a 3e f2 a9 93 3e d1 6b 8b be f2 cf 52 be
       0.21332796 0.28840595 -0.27230695 -0.20587137
0001e0 5d 1b 97 be 5d 31 6c be 05 93 83 3e de ba d8 bd
       -0.29513064 -0.23065706 0.25698105 -0.10582517
0001f0 d6 5f 7e 3e 6b b0 d7 3c fe 44 a2 bc d8 cd 71 be
       0.24841246 0.02632924 -0.019808289 -0.2361368
000200 4e 18 94 3e 7b 9c ab be 26 67 15 3e af 97 4e bc
       0.28924793 -0.33517823 0.1459013 -0.012609406
000210 f7 26 9c 3d 31 5b af bd b5 ad 62 3e b7 3a 64 be
       0.076246195 -0.08562315 0.22136576 -0.22288023
000220 3b e4 98 be c0 ef 5a 3e e7 5f 4b 3e 47 16 2a be
       -0.29861626 0.2138052 0.19860803 -0.1661006
000230 10 09 c6 bd 21 63 82 be 6b 65 95 3d 85 b1 6f be
       -0.09669697 -0.25466254 0.072947346 -0.23407562
000240 1d 10 d6 3d 5f dc 9e 3e 6d 38 27 3d c4 33 61 3d
       0.10452292 0.31027505 0.040825296 0.05498101
000250 1f 4f 8d 3e cf c0 f9 bd cd fb 33 be 9c fb 52 be
       0.27599427 -0.121949784 -0.17576523 -0.20603794
000260 eb 7f 81 3e 75 54 69 bd 60 e6 25 be c3 b5 c6 bd
       0.25292906 -0.05696531 -0.16201162 -0.09702637
000270 19 2b fa 3d 28 de a4 3e 2d 22 ce 3d 80 4b 60 3d
       0.122152515 0.32200742 0.10065112 0.054759502
000280 1e 8a 0e bd 91 b4 9b 3e 00 23 af be 93 34 66 be
       -0.034799688 0.304112 -0.3420639 -0.22480993
000290 1f 82 d1 bd 75 e2 1d 3d 39 d4 ff 3d 23 e1 98 bc
       -0.10229897 0.038546044 0.1249165 -0.018662041
0002a0 70 3d 8a be 10 d1 a3 3e 0d 59 82 bd 11 3e 6a be
       -0.26999998 0.3199544 -0.06364641 -0.22875239
0002b0 a3 ed 20 3e 0f f8 f6 3d 6d 5f 7c 3e 60 90 7c be
       0.15715651 0.12059032 0.24645777 -0.2466445
0002c0 7c d8 f3 bc 8a d6 b3 bd b4 ca ff bd b2 67 58 be
       -0.029766314 -0.087811545 -0.124898344 -0.21133307
0002d0 a6 e6 84 be 6f 98 a5 be 42 5d a0 3e ff 63 92 3d
       -0.2595722 -0.3234286 0.3132115 0.07147979
0002e0 4f 88 c8 3d 43 4c bb 3e c6 de d0 bd 2c f7 03 3d
       0.09791624 0.3658162 -0.10198741 0.032218143
0002f0 2a 0b 74 3e be e8 88 3e 0a ab 80 bd 3f 00 85 3d
       0.23832384 0.26740068 -0.06282623 0.064941876
000300 9a aa af 3d 07 5d 41 3e d6 a3 67 3d e3 f4 68 be
       0.085774615 0.18883143 0.05655273 -0.22749667
000310 8d 93 23 3e 48 64 48 bd 96 fc 8b 3d 43 bb 10 be
       0.15974255 -0.04892376 0.06835286 -0.14133935
000320 29 13 10 bd 30 aa 03 3e 27 25 de bd a7 ac 87 be
       -0.035174523 0.1285789 -0.1084693 -0.2649891
000330 0a 6f 80 3e 95 88 70 3e 0c 39 d5 3d cc ff 6e be
       0.25084716 0.23489602 0.104112715 -0.23339766
000340 46 85 b1 3c 07 60 99 3e 5e 7a 06 3e b9 94 82 be
       0.021669995 0.29956076 0.13132617 -0.2550409
000350 d2 d2 85 3d fe 38 f9 3d f3 2c 3f 3e eb 71 20 3d
       0.065343514 0.121690735 0.1866949 0.03917114
000360 ce dd 02 bd 9c a9 64 3e 41 2d 96 bd 24 6c cc bc
       -0.03194981 0.22330326 -0.0733285 -0.02495391
000370 e0 34 22 3d 2d 53 09 be 8e b2 d1 bd 8a bc cb 3d
       0.039601207 -0.13410635 -0.10239135 0.0994807
000380 ef 26 a8 3d 2d 49 83 be e3 41 8b bd c9 69 12 3e
       0.08210551 -0.25641766 -0.06799676 0.14298166
000390 54 10 df 3d b0 59 cf bd f7 b3 bf bd 4d 62 28 be
       0.10891786 -0.101245284 -0.093604974 -0.16443749
0003a0 0f 09 3a be ff 29 46 3e 71 ce 0e 3e 2f db 1c 3d
       -0.18167518 0.19351958 0.13945939 0.038294967
0003b0 14 3f 0e be 3c 05 81 be 49 f2 50 be 9c 95 db 3a
       -0.1389125 -0.25199306 -0.20404924 0.0016752961
0003c0 2d 28 cd 3c aa f7 01 be ec 53 6c 3d 37 db 50 3e
       0.025043571 -0.12692133 0.05769722 0.20396124
0003d0 d5 dc a7 3d 3a f0 f0 3d ce d6 54 3e 34 2f 7e bd
       0.08196417 0.117645696 0.20785066 -0.062056735
0003e0 92 02 48 bd aa af 48 be fc 05 4f be c7 3c 0f 3e
       -0.048830576 -0.1959826 -0.20217127 0.13988028
0003f0 3c 49 33 3d 10 ff bf bd be 6e 1e 3e 10 8f 29 bd
       0.043771014 -0.09374821 0.15471932 -0.0413962

layer3.bias f4 [7]
000000 7d 80 19 3d a0 da 38 3d c7 30 1c 3e 6a f4 da bb
       0.03747605 0.045130372 0.15252982 -0.0066819685
000010 cf 34 6d bd 0c e9 64 bd 84 d0 ea bd
       -0.05791169 -0.055886313 -0.114655524
