maml_model/maml_PutNextLocal_7_10_800_50.pth (torch, 60324 bytes, 6 tensors)

layer1.weight f4 [64, 151]
00000000: 2951 adbd 1a36 213e acfe bb3d 06bf 233e
00000010: 98a4 aa3d 0988 033d 9482 3abd 8051 2c3e
00000020: a861 42bd 7550 843d 17e2 8cbd 1441 4a3c
00000030: 73b0 f13d 9f0c ee3d aca0 fbbd ec5e 1f3d
00000040: 754e 08bd 53ad bfbd 8afc 113c 79e2 e33c
00000050: 7e8c 9fbd 432b 1c3e 60a5 173e 1b16 99bd
00000060: c0d6 d2bd 44d6 303d 212a 05bd d426 0ebd
00000070: 539e 5cbd 4042 743b 8ed7 163e 760f 4c3c
00000080: 9c41 d13c 6061 d63d 66ae 9dbd 89d6 3ebd
00000090: 23c8 113e 6650 11be aef1 1e3e 3e8c 04be
000000a0: 7ec6 a43d 6970 43bd 395e c53c 40e9 81bd
000000b0: af4f b7bd caf2 133e 21e2 a03c bc50 083e
000000c0: 88f2 aa3d 5dc2 fa3d 0b0f 633b dada 98bd
000000d0: db92 063e f1a7 4a3d bc7f 04be 4a54 a73d
000000e0: 3e1c 0bbd 88f2 893d b9d7 393d f455 a83c
000000f0: 337b 893c e2d2 13be 2bbe f93c eab6 843d
00000100: c8b0 663d f87b ec3b f7e0 8a3d 7226 05be
00000110: 6c83 d83d 8627 023e b7ae 4d3d 2fff cc3d
00000120: dc85 c3bd 2d5c e1bd 3991 b53c 5c41 93bb
00000130: a664 1bbd 4fb6 cd3d de22 23bd 6c7b 83bb
00000140: 20ee c83c 5832 1d3e dad2 933d 2a67 19be
00000150: d49b ce3c 02e1 a6ba 0c5c 08bd 4b66 14be
00000160: a644 a3bc 8ea3 ca3c ea63 bd3d 26c8 57bd
00000170: 2610 253e 5628 7f3d 0085 093e a6d4 f6bc
00000180: 0b4b 9c3d 678f 203e f0fd f03d ccbe 99bd
00000190: 093f a53c 379a 193c 2001 c23d 140e 28be
000001a0: 23e1 7a3d 2dc5 8abd a54d bd3a 4b47 efba
000001b0: 4836 7bbc 1f0f 943d 8a5d e1bd c1b1 2f3d
000001c0: 41f9 0c3e f252 c63d 35f9 f2bd af00 0cbe
000001d0: 9507 843c 5b4b 293e 8b81 dfbd 94d2 8fbd
000001e0: 1a14 073d 4281 bcbd f4d1 cf3d 0463 9dbd
000001f0: 077c b53c 35b0 1bbe 9e70 82bd 3272 083e
00000200: 876c 2cbd 3637 de3d 6378 2c3e e5bf 27be
00000210: 1c52 62bd b4de f53d 6298 b93d f959 0dbe
00000220: 0ef5 bcbc e56c ec3c cf44 143e f4ee 0dbe
00000230: 76d3 0f3e eeb9 6dbd 3ba3 f3bd 1d34 833d
00000240: fca3 443c 41c5 d3bd 63cb e23b ce37 58bd
00000250: 114f 87bd 529e dabd 42e4 62bd 25fe 1abd
00000260: 16c4 103e d260 b03d 5f53 6d3d 5997 533d
00000270: a02b 24be 8f85 98bd 458c 7cbd bbc6 06bd
00000280: b82d ffbd 589f 50bd 595e 6fbb 7837 3a3d
00000290: 3f9b 103e 359f 113d 2150 66bc c225 633d
000002a0: 1c6a 76bc 08a7 df3c d74b 9b3d f62c 10be
000002b0: 185e 20be 3801 bbbd 3831 b63c 4bce 563c
000002c0: 3990 37be 3a13 59bd bd0c aebc c9e9 04bd
000002d0: 8458 53bd a592 20ba 58c6 1c3d 69e2 9cbb
000002e0: aab1 eabd 7bbe 50bc 3cd1 b3bd 7e56 ef3d
000002f0: 07a8 0fbe 7173 0f3d 776e a1bd 92ca 003e
00000300: f0d1 c0bc 0dc7 0ebe cc6e 883d 2dc0 9abd
00000310: 2a45 f73d 677c 923d e7fe b4bd 96da aa3d
00000320: 4a33 2ebe f694 cb3d f883 5abd 0248 14be
00000330: 8d8f 4a3d ec03 113e b39e aa3d d946 ec39
00000340: e061 24b9 1f5a a23d 5699 233e 2a58 b2bc
00000350: bd5b 14be f956 16be 5da8 a7bd dce2 0a3d
00000360: 8299 a4bd 3823 07be 8f9d 44be 1142 a53d
00000370: 119b 3f3d 36d0 a5bd 4097 173d 757c 44bd
00000380: 71ad ae3d dbf0 ec3d 059f d33c 4733 303e
00000390: fd74 8e3d 7355 f4bd 2cf2 19bc 690b 0d3d
000003a0: 586e 65bd 9735 f83d 8545 06be 5bb6 90bb
000003b0: 0c1c 1abe 5fde 1dbe 23ab 2dbd d8ed 82bd
000003c0: 6774 a7bd 9880 26bd bff0 92bd c307 d93b
000003d0: 5454 fbbd cac1 e8bc 076f e23d e1db 4c3c
000003e0: d5ba f1bc f4d2 29be 2115 c2ba 5a1b 843c
000003f0: c2a1 a4bd 7325 2c3e eb39 b9bd cddd a7bd
-0.08462746 0.15743294 0.09179434 0.15990838 0.08332175 0.032112155 -0.045534685 0.16827965
-0.047456414 0.064606585 -0.06879061 0.012344617 0.11801233 0.11623501 -0.12286505 0.038908884
-0.033277947 -0.09359231 0.008910308 0.027817952 -0.07790469 0.15250878 0.1480918 -0.074749194
-0.102948666 0.04317309 -0.03251088 -0.034704998 -0.053861927 0.0037270933 0.14730665 0.012454858
0.02554398 0.104677916 -0.076992795 -0.046591315 0.14236502 -0.14190826 0.15521881 -0.12944123
0.08045672 -0.047714625 0.02409278 -0.06343317 -0.08950745 0.14448085 0.019639077 0.13312048
0.083470404 0.12244103 0.0034646417 -0.074636176 0.13141958 0.049476568 -0.12939352 0.08170374
-0.03396248 0.06735712 0.045371745 0.020548798 0.016782379 -0.14435914 0.030486187 0.064802006
0.056320935 0.0072169267 0.0678119 -0.13002947 0.10571942 0.1271039 0.05021545 0.1000961
-0.09547016 -0.11003909 0.022163974 -0.0044938754 -0.037937783 0.10044538 -0.039828174 -0.004012516
0.02452761 0.15351236 0.07217951 -0.1498076 0.025220789 -0.0012731852 -0.033290908 -0.14492147
-0.019930195 0.024736192 0.09247573 -0.05268111 0.16119441 0.062294327 0.13429642 -0.030130696
0.07631501 0.15679704 0.11767185 -0.07507095 0.020171659 0.009375147 0.09472871 -0.1641162
0.061249863 -0.067758895 0.0014442696 -0.00182555 -0.015332766 0.072294466 -0.11004169 0.04289413
0.13766958 0.09683789 -0.11863939 -0.13672136 0.016116897 0.16532652 -0.1091338 -0.070225865
0.032978155 -0.092043415 0.10147467 -0.07684901 0.022153867 -0.15203936 -0.06369136 0.13324812
-0.042095687 0.108503744 0.16842799 -0.16381796 -0.055254087 0.12005368 0.09062268 -0.13803853
-0.02306607 0.028860519 0.14479373 -0.13860685 0.1404551 -0.058038644 -0.11896368 0.06406424
0.012001988 -0.103403576 0.0069212182 -0.052787594 -0.066068776 -0.106747285 -0.055393465 -0.037840027
0.14137301 0.08612217 0.057940837 0.05165801 -0.16032267 -0.07447349 -0.06165721 -0.032904368
-0.12459892 -0.050933212 -0.0036524741 0.045463055 0.14121722 0.035552222 -0.01405719 0.05545593
-0.015039947 0.027301326 0.07582825 -0.14079651 -0.15660894 -0.09131092 0.022240266 0.0131107075
-0.1792611 -0.05299685 -0.021246308 -0.032449517 -0.051598087 -0.00061253674 0.038275093 -0.0047877324
-0.11459668 -0.012740727 -0.08780143 0.11686419 -0.14028941 0.035022203 -0.078823976 0.12577274
-0.023537606 -0.1394312 0.06661758 -0.07556186 0.12073739 0.07152634 -0.08837681 0.08342473
-0.17011753 0.099405214 -0.05334851 -0.14480594 0.049453307 0.14161652 0.08331051 0.00045066213
-0.0001567672 0.079273455 0.15976462 -0.021770556 -0.1448812 -0.14681615 -0.081864096 0.033907756
-0.08037092 -0.13197029 -0.19200729 0.08069242 0.046778742 -0.08096354 0.037009478 -0.047970254
0.08529175 0.11569377 0.025832662 0.17207061 0.069559075 -0.11930361 -0.009396117 0.03443471
-0.056013435 0.121195965 -0.13112457 -0.0044162697 -0.15049762 -0.15416859 -0.042399537 -0.06393021
-0.08176499 -0.04064998 -0.07174825 0.0066232397 -0.12271944 -0.028412718 0.11056333 0.012503595
-0.029508034 -0.16584378 -0.0014807322 0.016126323 -0.08038665 0.1681116 -0.0904425 -0.08196602

layer1.bias f4 [64]
00000000: 592f c33c 429f a2bc 6435 81bd c3b1 c3bb
00000010: 195d b43c f1cd 23bc b23c 593d 414f cf3c
00000020: 7921 bcbc 4f2b 88bc 5add 7f3b f5e4 583c
00000030: 21f6 e5bc c106 2dbd 8968 3f3c 98b4 9d3c
00000040: acda e739 be42 4d3c 2b31 0cbd daed 65bc
00000050: 3be2 1eba 58da 223c c738 d73c 63a9 b3bc
00000060: d60e b4bc 47c8 08bd f06e c2bc b89c 46bc
00000070: e64c 773c 7b31 22bd 6a1f 02bd 4c7e f2bb
00000080: 23d7 5b3c 6998 9dbb 4f78 1a3d 6033 383c
00000090: a1ba 0abc 6fea 503c 3405 d5bb fc38 65bb
000000a0: f480 7d3c 6458 c9bc 649b 0a3d f045 df3b
000000b0: 208f d2bc 11b7 a4bc cce3 d7bb d76e 82bc
000000c0: 1363 13bc 947c 1ebd 0330 aebc b15c d739
000000d0: a41f f9bb e2f7 1bbc 85d2 e73c cb4c f0bc
000000e0: e1e1 22bb 54c3 74bc 2f31 7abc 7f59 5a3a
000000f0: f2f8 cd3c 8618 dc3b 8172 16bc cd47 45bc
0.023826288 -0.01985133 -0.063090116 -0.0059721186 0.022017049 -0.009997831 0.0530364 0.025306346
-0.02296518 -0.016622214 0.0039041848 0.013238181 -0.028071465 -0.04224277 0.011682638 0.019251153
0.00044222677 0.01252812 -0.034226578 -0.014033759 -0.00060609326 0.0099397525 0.02627219 -0.021931356
-0.02197973 -0.033394124 -0.02373454 -0.012122326 0.015094018 -0.03959797 -0.03176824 -0.0074003097
0.013417992 -0.0048094285 0.03771239 0.0112427175 -0.008467347 0.012751206 -0.0065008644 -0.0034976592
0.015472639 -0.02457828 0.0338396 0.006813757 -0.025703013 -0.020106824 -0.006588435 -0.015921993
-0.008995789 -0.038693026 -0.021263128 0.00041077056 -0.007602649 -0.009519549 0.028298626 -0.029333493
-0.0024853873 -0.014939148 -0.015270515 0.0008329376 0.02514312 0.0067167906 -0.009182573 -0.012041044

layer2.weight f4 [64, 64]
00000000: c86a 7b3a c2de fbbd 6df7 e23d 0a05 14bd
00000010: 1f83 7dbd 87f1 873d 05b9 473e c9f7 203e
00000020: 9033 47bd 8461 353e 2a64 f43d bbaa 483e
00000030: b5d2 363e d606 3a3e 3b2f edbd 2ed2 54be
00000040: 8123 38be e96a 703d 65ff 233e 24ea ddbd
00000050: 1c9e 3e3c 0874 44be 88db 633c f0d9 ebbc
00000060: b8ad 4c3e 04f0 fe3d 5f50 7bbd 012f 213e
00000070: 707e 17be b3ea 27bc 01f9 243e 4efa 4f3e
00000080: db0b 29be fb24 15be c5d1 3dbe c3bb c8bd
00000090: 40c4 d1bd a8a3 203d 8d5a 3abd fff8 2f3e
000000a0: f8ed 183e 6f65 883d 5ced 023e 89bd 1bbe
000000b0: 7e02 8f3d 4780 cd3d b6d6 403e 38c2 47be
000000c0: 2bb4 2bbe 5887 36bd 5bb2 8e3d 8a64 5f3c
000000d0: c902 d43d a097 363e a753 353e 0988 9e3d
000000e0: 3a38 973c e764 62bd 3950 3abe ddf3 2bbe
000000f0: 3406 213e 403a 46be ac57 cabc eaac 16be
00000100: 6963 20be 9692 5b3c 3817 ad3d 6756 3bbe
00000110: 4f87 c33d c829 bb3d a8fd 153e e03b c13d
00000120: d9c0 a2bd ea0a cdbd 3af9 3c3e da09 fd3c
00000130: 9e5f 09be 8f4c 31be b47f 523e 5682 7dbd
00000140: c6d8 fb3c e23c 293e 8f6d 5abe a4fa db3c
00000150: 3587 483e f9ad 51bd c2f5 2ebe 9e33 fdbd
00000160: 9ca3 38be eadd 573d d8a5 3cbd 9f37 b03d
00000170: 5428 fd3d cc81 003e 98de 423e 1173 753d
00000180: 374b 1e3e ce75 38bd f3a9 66bd d2b2 e33a
00000190: 8dc6 503d 2015 44be bcbc 863c fb4a b43d
000001a0: 0184 d3bd 82c5 e53b 3351 3abc 5020 d23c
000001b0: 4750 383e 2f71 11be 79c3 65bc f676 d03d
000001c0: 91c6 04be e468 033e 59a0 d83d ac78 b03d
000001d0: 2a82 67bd 575e a03d 4e2b 82bc 8977 5abd
000001e0: d0ef cfbc 6784 05bd af23 533e 8fee 92bc
000001f0: 3c4a 103e 17e9 1c3d a589 56be c54f d0bd
00000200: 4403 693e 9e41 163e 1fbe 0e3e ce0e 17be
00000210: 7d1b 003e d99b 1f3d 5bfd f7bd a5f5 743e
00000220: b36d 3b3e 02fe b33d ac4d 923d caeb 0c3e
00000230: 1332 b5bd 82ae 4a3d 6e5b 00bd def7 a33d
00000240: cdae e53d 55b9 013e ba46 3d3e d7c1 4b3e
00000250: 55a1 283e 8107 443e b8c3 063e c733 f23d
00000260: baee dc3b fa07 c3bd bb6c 95bd 8838 573d
00000270: cda8 7c3d 54cd 9abd 1638 e0bd 7b3f 4ebd
00000280: 4597 4fbe 0920 28be 2356 aabd f1c3 243e
00000290: 792a 403e f7f2 b13d 6a33 83bd c1d8 c4bc
000002a0: a750 c4bd 0a63 45be 4f59 483e 70c2 4fbe
000002b0: 557d 683e c731 3cbe 04ed 3e3d 1117 2f3d
000002c0: 224f 9a3b e8e4 f83d 6157 3dbe 8179 42be
000002d0: 2c81 623c 889f 3a3e ef47 92bc f9cd 2b3d
000002e0: 5fce 043d a510 2ebe acb3 4e3e 334f c6bd
000002f0: 64ba 89bd 1e7a 0fbe e054 60bd a597 6b3e
00000300: 3132 d9bc 616e 2cbb 5edf 9cbd 569e bcbd
00000310: c662 b13d bfe0 063c e69f 1ebe 7cba 42bc
00000320: b92e 4c3e f21c c9bd 4ec3 04be 3453 9cbc
00000330: 74ee d23d 45e3 edbd c129 5e3e af1b a53d
00000340: 779f 35be 90b0 3bbe 0e62 883d 1a59 77bd
00000350: 0996 f13c b5e0 6f3e 2d5a c43d e404 2d3e
00000360: aa9c 40be a77f 54be 5ad7 71bc 0fc8 91bd
00000370: 28e5 363d 7959 133d 03e9 983d d958 aabd
00000380: 8a99 02be cf75 6cbb a8f3 8abd 4818 a33d
00000390: 257d 09be f908 54be f6fc 05be 9d41 323e
000003a0: 8754 bd3c 9d34 f4bd 1663 66be 927c 1dbe
000003b0: 4a12 32bd c54a 103e bf28 1d3e 5e8a 343e
000003c0: c646 323d 70e6 5abe e6ef 223b d735 85bd
000003d0: ea43 843d ec90 dbbd 462b 8dbd a84d 023a
000003e0: 0270 f53d eefd 193e 3b62 dc3d 9dd7 13be
000003f0: aacd b93d 73e4 bbbd 2a9b 48be c6eb 4c3e
0.0009590802 -0.12298347 0.11082349 -0.036137618 -0.061892625 0.066378646 0.19504173 0.15719523
-0.04863316 0.1771298 0.11933167 0.19596379 0.17853816 0.1816667 -0.11581274 -0.20783302
-0.17982294 0.058695707 0.16015394 -0.108356744 0.011634376 -0.19184887 0.013907321 -0.028790444
0.19988143 0.12448123 -0.061355945 0.15740587 -0.14794326 -0.010248828 0.16110612 0.20310327
-0.16508429 -0.14564888 -0.18537052 -0.09801438 -0.1024251 0.039218575 -0.045496512 0.17184828
0.14934528 0.06659972 0.12785858 -0.1520902 0.06982897 0.100342326 0.18831906 -0.19507682
-0.16767947 -0.044562668 0.06967612 0.01363481 0.10352094 0.17831278 0.17707692 0.077407904
0.018459428 -0.05527201 -0.18194665 -0.16792245 0.15725023 -0.19358158 -0.024700008 -0.14714399
-0.15662922 0.013401648 0.08451694 -0.18294679 0.095472924 0.091388285 0.14647543 0.094352484
-0.07946939 -0.10011847 0.18454447 0.030888487 -0.13415381 -0.17314361 0.20556527 -0.061891876
0.030743014 0.16527131 -0.21330856 0.026852913 0.19582827 -0.051191304 -0.17085937 -0.12363361
-0.18031162 0.052701868 -0.0460566 0.08604359 0.123612076 0.12549514 0.19030225 0.05992419
0.1545838 -0.045034222 -0.05631442 0.0017372018 0.050970603 -0.19148684 0.016447417 0.08803364
-0.10327912 0.00701207 -0.011371898 0.025650173 0.17999373 -0.14203332 -0.014023655 0.1017894
-0.12966372 0.12832981 0.10577459 0.08616766 -0.05652062 0.07830494 -0.01588979 -0.053336654
-0.025382906 -0.03259697 0.20619081 -0.01793602 0.14090818 0.03830823 -0.20950945 -0.10171465
0.22755152 0.14673468 0.13939713 -0.14751741 0.12510486 0.038966987 -0.121088706 0.23921831
0.18303566 0.087886825 0.07143721 0.13761821 -0.088474415 0.04948283 -0.031337194 0.08006261
0.11214981 0.12668355 0.18484011 0.19898163 0.16467793 0.19143488 0.13160598 0.11826282
0.0067423256 -0.09523006 -0.07296129 0.052544147 0.06168442 -0.075586945 -0.109481975 -0.05035351
-0.20272548 -0.1641847 -0.083172105 0.1609037 0.18766202 0.0868892 -0.06406291 -0.024029138
-0.09585696 -0.19276062 0.19565319 -0.20289016 0.2270406 -0.18378364 0.046612754 0.042746607
0.0047091404 0.121530354 -0.18490364 -0.18991663 0.013824742 0.18224919 -0.017856566 0.041944478
0.032423373 -0.16998537 0.20185727 -0.09683075 -0.06725004 -0.14011428 -0.054768443 0.23007067
-0.026513191 -0.0026310908 -0.076597914 -0.09209888 0.08661418 0.008232295 -0.15490684 -0.011885282
0.19939698 -0.09819974 -0.12965128 -0.019082643 0.102993876 -0.11615614 0.21695615 0.08061921
-0.17736612 -0.18329072 0.066593274 -0.06038771 0.029490488 0.23425563 0.09587512 0.16896397
-0.18809763 -0.2075182 -0.0147608165 -0.07118236 0.044652134 0.035974 0.074663185 -0.083177276
-0.12753883 -0.0036080962 -0.06784755 0.07963616 -0.13426645 -0.20706548 -0.13084778 0.17407842
0.023111595 -0.11924098 -0.22498736 -0.15379551 -0.043474473 0.14091022 0.15347575 0.17630908
0.043524526 -0.21376967 0.002486223 -0.0650441 0.06458266 -0.10721001 -0.068930194 0.0004970678
0.119842544 0.15038273 0.107609235 -0.14437719 0.090724304 -0.091744326 -0.1959044 0.20011815

layer2.bias f4 [64]
00000000: c795 e33b 6abf ca3c 3a63 c53c ea8c 1a3c
00000010: b928 833c 98e0 9abb 8eca 893c f3ea e9bc
00000020: 2e2d 523d 6edd 4fbc 82c5 553c e372 0e3d
00000030: 1f2b f13c 9429 23bd 2a2e f9bb 46a7 8a3d
00000040: 394b d7bb 7cb4 08bd 9ffb 09bd 4c00 013d
00000050: 0292 aebc 46f8 3dbc 5770 f33c 2db8 a93c
00000060: 6e86 06bd 30b7 adb9 c5f4 06bc 8439 37bc
00000070: f296 eb3c c370 0a3d d6a1 88bc 6bcd 763c
00000080: 50ad 18bc b93c e33b 5a4f ba3c 6b05 523c
00000090: 7069 a4bc 2eed 953b c399 debb 4d27 e33c
000000a0: 25ac bbbc 7d2e bfbc 2425 bf3c e573 bc3c
000000b0: d4e1 c6bb c35b 13bc c1ad 9b3c 4f1f 2abd
000000c0: 52c4 14bc 8df4 083d a18e 1b3c ada0 a43c
000000d0: 3696 623c 1831 263d f6fd a5bd fde7 f4bb
000000e0: 16f9 00bd fdb5 e5bc ef2f 123c 586b c1bc
000000f0: 0e5a d63c 351c d1bc 1e5d 05ba 2803 f43a
0.006945345 0.024749476 0.024095166 0.009433011 0.016010629 -0.0047264807 0.016820218 -0.028554415
0.051312618 -0.01268707 0.013047578 0.034777533 0.029439507 -0.039834574 -0.00760438 0.06770186
-0.0065702465 -0.03337525 -0.03368723 0.031494424 -0.021309856 -0.0115948375 0.029716654 0.020717705
-0.032843046 -0.00033133617 -0.008237069 -0.011183146 0.0287585 0.033798944 -0.016678732 0.015063624
-0.009318665 0.006934729 0.022742916 0.012818675 -0.020069808 0.004575393 -0.006793232 0.027728701
-0.022909233 -0.023337597 0.02333314 0.023004482 -0.0060694013 -0.008994046 0.01900375 -0.041533764
-0.00908001 0.033436347 0.009494455 0.020096147 0.013829758 0.040574163 -0.0810508 -0.007473944
-0.031487547 -0.02804088 0.008922561 -0.023610756 0.026165988 -0.025526145 -0.0005087423 0.0018616663

layer3.weight f4 [7, 64]
00000000: a8f6 5e3e 8b8e 193d 75f7 6ebe c983 8cbd
00000010: 5bd2 cfbc fec4 5abe 432b 6fbe 5c05 2c3e
00000020: 1241 27bd 8a22 043e cf42 28bb 58b5 59be
00000030: e6a0 80be 5406 dd3d 6636 483e 6ad5 9dbe
00000040: 0e12 d1bc 45bb 863e 64ce dd3c 0bdd 46be
00000050: 2514 3e3e 76cc 513e 2daf 95bd c144 293e
00000060: 736e 053e 1fdc e93d e8ae 693e b5e5 dcbb
00000070: 699f 5fbd 94b5 b2b9 884c 1b3e 3b18 b0bb
00000080: 92c6 58be a05a 5d3e 91a9 153e c91d aabd
00000090: 4ca5 283e 7aab 7dbe c2cb e9bd b037 d4bd
000000a0: 252b 603e 99a8 06bd e57d 133c 55de 163d
000000b0: 8674 673b f2bb cc3d beff 61be d2b0 23bc
000000c0: e588 7d3e 65cd 87be cd21 25be 9b12 98be
000000d0: a230 14be cc09 08be 97bc 953e 8300 ee3c
000000e0: bf88 7d3d 7a14 473e 8461 7e3e e2bb cdbc
000000f0: 1aca 86be da20 343c 08b0 133e 3197 703e
00000100: e9aa f03d d749 3fbe 2fb8 46be 5566 15bd
00000110: 4898 1e3e 7ad5 dcbd 9378 353d 3dfc f9bd
00000120: 9bfa 09bd a81e c4bd 202c bb3a 3db5 573e
00000130: 3a5d 573e e271 f8bd a9f3 833d 7e0e 7d3e
00000140: dc51 bebd cdac 74be 38bb b33e aa20 babd
00000150: 3ec0 3abe c2cc 89bc e4f9 1ebe e58d 683e
00000160: 05fb b6bd eaea 97be 0f09 a23d aa8b b8be
00000170: b6e2 04be 9ec9 61bd 13bf 5bbe c125 1e3e
00000180: 73dd 5dbe 0568 ad3e 2967 b7bd 69ca 7f3c
00000190: 7c80 e4bd dca4 12be 3ccc 0ebe d515 a13e
000001a0: 7629 b4bd 2245 5a3d 89a6 19bd 0988 50bd
000001b0: bf9d 753e fda5 1e3e 341d 3d3e a79b 11be
000001c0: 4797 d33d b7d7 81be abd1 17bd 7e87 86be
000001d0: e24c 433e 3c32 933e 786d a7be d93f c3bd
000001e0: 6944 c4bd 48d0 93be ddc9 b83d c342 fabd
000001f0: 59a2 363e a06b 84bd dcea 253e 8e87 fa3b
00000200: 7549 ee3d d4f0 973d a5ea ff3d 6beb 3b3e
00000210: 0e86 a3bd 8bab b93d 6b32 90be b2ec 95bd
00000220: 78ea 6b3e b1bb 55bd 4d97 b1bc 733c fd3c
00000230: 2514 873c 3459 3a3e c6fd 883e f34a 963e
00000240: 50ae 23be 695e 6ebd b909 90be d239 9a3e
00000250: 6335 12be f354 083e c2bc 8d3e 7870 f03d
00000260: d96b acbd cd35 703e 2a0a c13c b96c ed3d
00000270: 21c8 883e c32f ec3d ccc7 b43d a9ed 27be
00000280: c8d9 d63c a136 d93d 5b31 423e b99d bb3d
00000290: 669c 9fbd a913 963d 8761 47be b944 b5bd
000002a0: 9507 413e 8f73 07be 9a5f 1b3e bc79 593e
000002b0: bc6a 283e 8f4f 21be f04d 0c3e 6e18 03be
000002c0: a8fb 0c3e 1abc 473b 5e98 03bd 2224 833e
000002d0: 59cc c2bc 2c25 a93d 7861 65bd 4df8 bf3d
000002e0: 7163 973e 57b7 aa3d 922e 61be 4de4 4abe
000002f0: 06d1 993e fa36 9c3d fe99 543e 3832 323e
00000300: acef 263e 1ce5 683e 777e e4bd 1f1f 7b3e
00000310: a88b 71bd 6407 9fbd 3139 893e e2aa a7bd
00000320: 137c 8b3e 2414 a4bc 330a 943e 8487 7e3c
00000330: 1bea c6bd 5e3d 54be c3ee edbd b7a8 6d3e
00000340: 23be a2bd cbe8 e53c f164 9bbe 3477 aa3e
00000350: 0fd5 bcbc 83c7 6ebe e46f e53d 1a24 983e
00000360: e33d 56be 2b2d 813e 161d 113e b24a f23c
00000370: 3257 1e3e 4a68 b93d 4a30 553d 1b0b 3b3e
00000380: f990 31be 28f9 12be 4118 363e 5ec8 143d
00000390: 1b9f f0bd 93eb 6ebe 0bcb 4f3d 5a13 593d
000003a0: a3bf 153e 07c0 1cbe 8218 8c3e 23ea 533e
000003b0: 6426 80be 59e9 0c3e 47d7 96be 1b72 31be
000003c0: 27e9 303e 59ed 9f3e 5349 8a3d ad8e 00bd
000003d0: 4e7e 0c3e e469 35bc 30cd 8dbe 767f 26be
000003e0: cefa 1cbe 84d2 be3d a18a 933e c7af 05be
000003f0: 992e eabd 1bab 3ebe e9b1 383d b7db e33d
0.2177378 0.037489455 -0.23336585 -0.068610735 -0.02536886 -0.21364209 -0.23356347 0.1679892
-0.04083354 0.129038 -0.0025674587 -0.21260583 -0.25122756 0.107922226 0.19552001 -0.30826885
-0.025521304 0.2631475 0.027075954 -0.19420259 0.18562372 0.20488152 -0.07308803 0.16530134
0.13030414 0.11418938 0.22820628 -0.0067412504 -0.054595385 -0.00034086092 0.15165913 -0.0053739822
-0.21169499 0.21616602 0.14615466 -0.08306462 0.16469306 -0.24772444 -0.11415817 -0.10362184
0.21891458 -0.03287563 0.009002184 0.036833126 0.0035317256 0.09996785 -0.22070214 -0.009990888
0.24759252 -0.2652389 -0.16126175 -0.29701695 -0.14471677 -0.13284987 0.29245445 0.029052978
0.06189799 0.19441405 0.24841887 -0.025114004 -0.26326066 0.010994161 0.1442262 0.23495175
0.117513485 -0.18680511 -0.19406198 -0.036474545 0.15487778 -0.10782905 0.04430444 -0.12206314
-0.03368626 -0.0957616 0.0014280118 0.2106523 0.21031657 -0.121310964 0.06442959 0.2471256
-0.09292957 -0.23894043 0.35103774 -0.090882614 -0.18237397 -0.016821269 -0.15525013 0.22710378
-0.08934597 -0.29671413 0.07911884 -0.36044055 -0.12977108 -0.055123918 -0.21459608 0.1544409
-0.21666507 0.33868423 -0.08955223 0.015612223 -0.11157319 -0.14320701 -0.13945097 0.3146197
-0.087969705 0.053288586 -0.037512336 -0.050910983 0.23985957 0.15493007 0.18468171 -0.14219533
0.10331588 -0.2535989 -0.03706519 -0.26275247 0.19072297 0.28749263 -0.32700706 -0.09533662
-0.09583361 -0.28869843 0.09022877 -0.12219765 0.17835368 -0.0646584 0.16202873 0.007645554
0.116351046 0.07418981 0.12495927 0.18351524 -0.07984553 0.09065922 -0.28163466 -0.07320537
0.23038661 -0.05218095 -0.021678591 0.030912613 0.016489098 0.18198091 0.26756114 0.29354057
-0.15984464 -0.058195505 -0.28132418 0.30122238 -0.14278178 0.13313656 0.27683073 0.11740202
-0.08419008 0.23458023 0.023564417 0.11593003 0.26715186 0.11532547 0.08827171 -0.16399254
0.026226893 0.10606123 0.1896414 0.091609426 -0.077935025 0.073279686 -0.19470797 -0.088509984
0.18850549 -0.13227676 0.15173188 0.21237844 0.16446966 -0.15753005 0.13701606 -0.12802288
0.13767874 0.0030477108 -0.03212773 0.25613505 -0.023779081 0.08259043 -0.056001157 0.093735315
0.29568055 0.083357506 -0.21990421 -0.19813652 0.30042285 0.076276734 0.20761868 0.1740197
0.16302365 0.22743648 -0.11156934 0.2452359 -0.058971077 -0.077650815 0.26801446 -0.0818689
0.272431 -0.020029135 0.2891403 0.015535239 -0.09712621 -0.20726535 -0.11617806 0.23208891
-0.07946422 0.028065106 -0.3035045 0.3329407 -0.023050813 -0.23318295 0.11202982 0.29715043
-0.20922045 0.25229773 0.14171252 0.029576633 0.1546295 0.09053095 0.052048005 0.18265955
-0.17340459 -0.14352858 0.1778269 0.036323898 -0.11749097 -0.23332052 0.050730746 0.05299697
0.14623885 -0.15307628 0.27362448 0.20694785 -0.2502929 0.1376089 -0.2946112 -0.17328684
0.1727644 0.3123577 0.06752267 -0.031386066 0.13720056 -0.01107261 -0.27695608 -0.1625956
-0.1533005 0.093174964 0.28816703 -0.13055335 -0.11434669 -0.18619959 0.045091543 0.11125892

layer3.bias f4 [7]
00000000: 995f bfbd f84a 463d ce94 903d aeb2 ae3d
00000010: b389 debc 87a6 59bc d734 90bd
-0.09344406 0.04841134 0.07059632 0.08530174 -0.02716527 -0.013284332 -0.070413284
