maml_model/maml_GoToObjDoor_7_3_300_50_encoder.pth (torch, 25760 bytes, 6 tensors)

net.0.weight f4 [32, 45]
00000000: ea1f 0abe bbf3 1dbd f96b fdbc ee99 bdbd
00000010: 059b 06be eb54 183e 264d 863c 7854 8e3d
00000020: e047 dc3d 2acf 0e3e ee38 06bd 6c43 15be
00000030: 59f6 1cbd d5c2 52bc 9639 3f3d 8b44 3f3d
00000040: b63e 97bc 5b54 9dbc f256 e4bd 8583 74bd
00000050: f42d d1ba 1255 a13b f393 a0bd 3fe0 cebd
00000060: 4266 b43b de6c e9bd f671 e6bc 80e2 ce3c
00000070: be04 993d 0452 50bd d0de 06be cda6 103e
00000080: 7379 d63d 96a5 0bbc 7ce3 a83d 84a7 8c3c
00000090: 2bfb a9bd fc6b a83d 632b c0bd 0f38 103e
000000a0: 633d 493d ab0d e43d bf43 f5bb 8c11 7fbd
000000b0: abe2 d83d 3e58 183e 17bf 313b c957 b6bd
000000c0: 712f 2c3d 2ebb 04bd 551e 9a3d 0911 81bd
000000d0: ca6f f53d e984 fb3d 9b9a 073e 46ba bc3b
000000e0: d765 213c a1c5 9b3d 5ccc 6fbd ca0f e8bd
000000f0: d037 10be 6015 8e3d 1115 06be 4d21 8e3b
00000100: fb3c ad3c 9605 dc3c da48 0a3e a199 dabd
00000110: fb53 2cbd 8125 a3bc ebb3 a13c 0169 c7bd
00000120: e96b 9dbc 5f7f d53d 96f6 6cbd b3f6 bfbd
00000130: e3b6 08be 27ca 9ebd 5e9d 8fbd f8ad 3d3d
00000140: 0ade 4a3d 9c91 a4bc 8a3c c5bd 483e 833d
00000150: 30ef 073e 0e50 853d fcd9 8b3d 1bb0 143e
00000160: 7d37 8c3d a4f2 8e3d 25be fbbd 7c84 773d
00000170: 7b01 a6bc a43a d4bd fd68 963d bafd 5f3c
00000180: 3c85 163e 2058 903d 963f debd 7e8e ac3d
00000190: 69e7 b03d 8915 e63c ed4d dabd c655 fe3d
000001a0: 9934 5c3d eb18 17be 8654 123e b0e0 ea3d
000001b0: 4b34 923d 73d0 eabd dfbb 333d e952 f83d
000001c0: 898b 9f3c 577b adbd 26cd 44bd 8237 d43b
000001d0: 29b2 efbd f7a6 9a3d f1a4 1bba 6bb3 8abc
000001e0: 8e2c c7bd 656f 0a3e 4cab 483d 724a d2bd
000001f0: 140a 143e b914 e53d dfc0 85bc 0987 703d
00000200: 70e5 133d 58b8 f8bd 4ae3 12be e11b 14be
00000210: f76f 993d 997e 84bd a64e 523d f1d4 5cbd
00000220: 8283 b53d ff98 993d c67c 18bd 39db ae3d
00000230: f73c 2fbd dd15 4e3d ac6a 003e 8d2d a8bb
00000240: 3dac 963d c9da e73b cd91 c1bd 46aa 0e3e
00000250: f3b6 9ebd ebd1 debd cc9a ab3c 219f 8cbc
00000260: 4022 5b3d 7426 15be 1022 debd 7aaf 063e
00000270: 8606 0cbe 3055 753b 0132 2dbd 1d9c d03d
00000280: 5cc1 083e 9926 4e3d c5a6 113e 6d7e 753d
00000290: 537e 303d dbc6 11be 029f e13d 33c9 173d
000002a0: 01be 8b3d a457 e7bd dd41 9abd 434f 5cbd
000002b0: f221 b9bc 900a 3bbb 535c dc3d ad3a 07be
000002c0: ea46 d7bc 6588 dcbc 9d0f e93d 840e 54bd
000002d0: a96c 143e 2410 ae3d 4c9b 6abd d8b1 0a3e
000002e0: f63c 14be 6bf7 c5bd 1ec8 a6bd c49f eebd
000002f0: 866d d73d 1eb8 57bd 2ba1 9fbd a073 8ebd
00000300: 7f4d babd afbf 163e 9516 7c3d 5cee 2abc
00000310: 8e76 fc3d 28d1 7d3c 9360 20bd 3b36 a03d
00000320: 2c0e c73d dc97 70bd b38f f53c be3b e5bd
00000330: 1151 f33c 1076 883d 0f56 0b3e c087 51bd
00000340: 0eb9 073e 5e6a aa3d f466 2c3d ff58 6fbd
00000350: 17ff 85bd 0d5e 09be f327 453d bfc8 ad3d
00000360: e219 8e3d 77a5 bebc 7ea2 ce3d 7ca3 c1bd
00000370: 6099 543c bc67 163e ceb1 b7bd 0f1a 13be
00000380: 85ff adbc 3c6d 063c d45a 8dbd 8f38 a93d
00000390: daa5 f33c c9e6 06be 7f7f 4c3c ce0a b53d
000003a0: a986 0dbe d079 9ebd 9741 87bd 4698 dd3d
000003b0: 987a bd3d 5b4a 303d 1f6e afbd 6c00 db3d
000003c0: 09aa 8e3d 8638 12bc 19e4 0b3e 0ae9 1f3c
000003d0: f4ad 8b3d 2887 b83d 507a 973d a808 37bb
000003e0: 27dc d13d 69f1 b5bc 26c2 8f3d a4c6 653d
000003f0: d14c cebd 22d2 9d3c a92b 163e 9a37 3b3d
-0.13488737 -0.038562518 -0.030935274 -0.092578754 -0.13145073 0.14876144 0.01639421 0.06949705
0.107558966 0.13946214 -0.032769136 -0.145765 -0.038320873 -0.012863834 0.046685778 0.046696227
-0.01846252 -0.019205263 -0.11149396 -0.05969574 -0.001595913 0.0049234712 -0.07840719 -0.10101365
0.005505354 -0.11397718 -0.028130513 0.025254488 0.074716076 -0.050859466 -0.13170934 0.1412613
0.10472383 -0.0085233655 0.08246514 0.017169721 -0.082998596 0.082237214 -0.09383275 0.14083885
0.04913081 0.111354195 -0.0074848826 -0.062272593 0.105901085 0.14877412 0.0027121955 -0.089034624
0.04203743 -0.03240507 0.075253166 -0.06302077 0.11984213 0.1228121 0.13242571 0.00575951
0.009850941 0.07606054 -0.0585445 -0.113311365 -0.14083791 0.06937671 -0.13093974 0.004337466
0.021147242 0.026858132 0.13504353 -0.10673834 -0.042072278 -0.019915344 0.019739112 -0.09736825
-0.019216495 0.10424685 -0.05785235 -0.09373226 -0.13351016 -0.07753401 -0.07012437 0.046308488
0.04952816 -0.020088963 -0.096306875 0.064083636 0.13274837 0.0650941 0.068286866 0.14520304
0.06846521 0.06979874 -0.122921266 0.06042908 -0.020264378 -0.10362747 0.07344244 0.013671333
0.14699262 0.070480585 -0.10851972 0.08425616 0.08637888 0.02808644 -0.106593944 0.12418704
0.0537611 -0.14755599 0.14290056 0.11468637 0.0713888 -0.1146554 0.04388034 0.12125189
0.019475715 -0.08470791 -0.048047207 0.0064763436 -0.11703903 0.07551377 -0.0005937359 -0.016931256
-0.09725295 0.13519056 0.048991486 -0.102681056 0.1445697 0.11185593 -0.01632732 0.05872253
0.03610748 -0.12144536 -0.14344516 -0.1446376 0.07492059 -0.06469459 0.051344536 -0.053914014
0.08862974 0.07499885 -0.03722837 0.08537907 -0.04278275 0.05031382 0.12540692 -0.005132383
0.073570706 0.007075642 -0.094516374 0.13932142 -0.077497385 -0.108798824 0.020947836 -0.017165722
0.05349946 -0.1456545 -0.10846341 0.13152876 -0.13674363 0.003743481 -0.042284016 0.10186026
0.13355011 0.05032978 0.14223774 0.059935022 0.043089222 -0.14236014 0.110166565 0.037057113
0.0682335 -0.11296013 -0.07532094 -0.053786527 -0.022599194 -0.0028540231 0.10759797 -0.13205977
-0.026278932 -0.026920507 0.11379931 -0.051771656 0.14494576 0.08499172 -0.05727701 0.13544405
-0.1447638 -0.09666332 -0.08143638 -0.116515666 0.10518937 -0.052665822 -0.07794412 -0.069556475
-0.090968125 0.14721559 0.061544973 -0.010432806 0.123273 0.015491761 -0.0391546 0.07822844
0.097195 -0.058738574 0.029975748 -0.111930355 0.029701741 0.06663144 0.13607047 -0.051154852
0.13254187 0.08321069 0.04209037 -0.058434483 -0.06542795 -0.13414784 0.0481338 0.08485555
0.069385305 -0.02327226 0.10089587 -0.0945501 0.012976021 0.14688009 -0.089694604 -0.1436541
-0.021240005 0.008204754 -0.0690209 0.08262741 0.02974217 -0.13173975 0.012481569 0.088399515
-0.138209 -0.07738078 -0.06604307 0.108200595 0.092518985 0.04303966 -0.08565926 0.1069344
0.069660254 -0.008924609 0.13661231 0.009760151 0.06820288 0.09010154 0.07396376 -0.0027928744
0.10247069 -0.02220984 0.07019453 0.05609764 -0.10073245 0.019265238 0.14665093 0.045707323

net.0.bias f4 [32]
00000000: b08d 02bd 0a61 c73d 3040 4d3d 930f 77bd
00000010: dc23 083e cc00 903d ea2a 833d f422 a03d
00000020: 5eab 853d 7001 8bbd e68f 173e f206 7abd
00000030: 3c96 8dbd 12da 4f3c 91a7 b13d 70ee 0cbc
00000040: d787 acbd d4bb 97bd 1a77 90bd aa6d 8abd
00000050: f0ff 22bd 7715 d4bd af3f 3cbd 0781 7b3d
00000060: dda7 b7b5 22b1 0dbe 732a d5bd 00cc afba
00000070: 1584 d7bd 282f 99bd d295 c83d 5d5b b8bd
-0.031873405 0.097353056 0.050110042 -0.060317587 0.1329493 0.07031402 0.064046696 0.07819167
0.06526826 -0.067873836 0.14800987 -0.06104178 -0.069134206 0.012686269 0.08674539 -0.00860177
-0.08424347 -0.07408872 -0.07053967 -0.06759198 -0.039794862 -0.103556566 -0.04595917 0.061402347
-1.3683417e-06 -0.13837102 -0.10408487 -0.0013412237 -0.105232395 -0.074796975 0.09794201 -0.09001801

net.2.weight f4 [64, 32]
00000000: 4a11 dd3d 8254 043e 64a7 863d 0910 7ebb
00000010: 33f1 7fbd 8cec 87bb 9cef f8bd 489a 933d
00000020: 4496 dc3d 5e51 c53c d8bc 303e 28c6 95bb
00000030: 8984 e4bd b2b6 bcbd fff0 32be 0df9 94bd
00000040: 51bc dabb 1eaf 53bd 5a10 dfbb 0bc1 2fbe
00000050: 7259 cd3d 3071 c03b 62d4 163e f76d 9ebc
00000060: 4d76 f33d 9f55 36bc e471 9dbd 2bf1 e73b
00000070: 0c66 86bd 37e8 abbd a126 2abe 071a ba3d
00000080: d770 e53c 0446 3fbd 6897 1ebe c008 2fbe
00000090: 756e 1dbd 34d1 cabd 5bc5 17be 490b a3bd
000000a0: ec0c d33d ac21 a1bd eb11 2d3d dc35 34be
000000b0: 9b74 323e d1d7 1dbe 7e2c 803d 6294 933d
000000c0: 52bf e7bb 038d 2ebe f366 af3d e5c5 0abe
000000d0: a55c 1c3e 1baf ad3d d725 8f3d c7c7 0cbe
000000e0: 8760 16be e4d4 e23d a3db 95bc e602 073e
000000f0: d03f f33d f28b 8abc 6b69 603c a065 9e3d
00000100: 49e2 203e 79fe 033e a661 8f3c b2ba c0bd
00000110: 9b4f a6bd 8f72 1b3e 196d f53d 4780 e9bd
00000120: 666a 243d d027 c73a f99e a3bc b5c8 253e
00000130: 96f4 dabd 6ea3 743d 1331 16be 6c07 b3bd
00000140: bf3e 22bb 2328 f93d bb38 963d f962 1bbe
00000150: 05c2 0e3c 22e7 853d ada9 88bd 29ef 9b3d
00000160: 29c6 2e3d eb25 1e3e 040e fbbd 0b36 5cbd
00000170: db7f 3d3d 5a74 8d3d c095 d53d 6680 dc3d
00000180: 4d64 04be 95bf d23c 7cc3 2d3e 1d50 823d
00000190: 3ecb 60bd 9d4a d23d ef09 e13c aa5c 8bbd
000001a0: b8f1 b7bd 3e23 13be adae 08be 0b0e eebd
000001b0: 3de9 293e f16e 133e bdb0 11be 2b74 053e
000001c0: 3ef6 b2bd cc86 253e 1911 4fbd db5c 80bd
000001d0: d2d7 22be b6f3 31be e0ca 6b3a 1d92 2abe
000001e0: 9c86 e43c f1eb ca3d 2113 fc3d 633d 13be
000001f0: 1169 533c a12f af3d 582c 47bd f9e8 2e3e
00000200: bc67 503c 7f73 9f3d 62c5 b53d 023f 813d
00000210: a0da adbd 87d5 fe3d 8f7d 823d c053 78bd
00000220: 8368 2fbe 4100 323e 2652 19bd 0b0d a1bd
00000230: ba2e 2abe 4c4e 18be d4fc 103e 710a 323e
00000240: 968c c5bc d685 ae3c aa20 18be 3da0 aabc
00000250: bab6 b2bd 38f4 183e 12ca 2e3e f346 0cbe
00000260: 3c38 ec3d db35 f7bd d0ac 54bd fb60 f5bc
00000270: 2da4 233e 6921 2ebe 3103 833d 26ab 00be
00000280: 8362 13be 5fbf bb3d 4511 2a3c 4796 283e
00000290: ea61 023e 831a 0bbe 9986 063d e378 09be
000002a0: 503d 713d 57c0 b83d c968 0c3e 8f5a 1cbe
000002b0: 4b36 1ebe 12d9 bbbd 50e9 2abd 657d a13d
000002c0: 9fec e6bd c439 843d 6e5b c7bb 800c 9dbd
000002d0: dee7 06be 26cc ae3d 7133 bb3d 79ba 0cbc
000002e0: b7ff 773d 058a 56bd 11a7 cc3d de4e cebb
000002f0: 10de fdbd 459b 1f3e 2bfa b63d 64db 2fbe
00000300: 40d7 15be 0ce8 c93d 56fb bf3d e97d cabd
00000310: faa3 e03c 1f49 673d 5b4c e33d d582 9f3d
00000320: fe90 843d 3657 d63d 0926 bcbc f848 86bc
00000330: 07c1 0a3e 817f 86bd 1f83 833c 78b6 e1bd
00000340: 832c b33c f8f6 0bbe e5d8 0ebe b03f 2abe
00000350: 4add b33d dfe4 b53d c903 b4bd 20e4 9fbd
00000360: 42e2 b6bd 5b38 16bd b1c7 cabd 514d 74bd
00000370: d403 b0bd 1fd8 933d 1771 02be 6edd c93d
00000380: 4b51 fdbc 2a79 16be 854e 9a3b b8d2 35bd
00000390: b47a 2f3e 33b1 2ebe c780 75bd 20fb c3bd
000003a0: 61ef f23d a65c 13be 5ad4 0b3e 3048 3a3d
000003b0: 2c34 74bd 989a 633d 7d0f c03d 9d51 8b3d
000003c0: 2c48 30bc 4ab6 34be 9d8e 2bbe 0cc9 063e
000003d0: ae2d 923b 7c1a 113e 2e5f 4d3d 6b9a c9bd
000003e0: e756 24be 39f9 2a3e 5d97 83bd 8edc 153e
000003f0: e4d2 c2bd 198c aa3d c6f0 dabd a2f2 96bd
0.10794313 0.12922862 0.06574896 -0.0038766882 -0.062485885 -0.0041480716 -0.12155077 0.07207161
0.107708484 0.02408665 0.17259538 -0.004570741 -0.111580916 -0.09214534 -0.17474745 -0.07274065
-0.006675281 -0.051680677 -0.006807369 -0.17163484 0.10026826 0.005872868 0.14729455 -0.019339545
0.118877985 -0.011128812 -0.076877385 0.00707831 -0.06562433 -0.08393901 -0.16616298 0.090869956
0.028007908 -0.04669763 -0.15487444 -0.17093182 -0.03843542 -0.099031836 -0.14821379 -0.07961137
0.10305199 -0.078677505 0.042253416 -0.1759867 0.17427294 -0.15414359 0.06258486 0.07206036
-0.0070723677 -0.17045979 0.08564558 -0.13552053 0.15269716 0.08480664 0.06989639 -0.13748084
-0.1468526 0.11075762 -0.018293208 0.131847 0.11877406 -0.016912434 0.013697009 0.07734227
0.15711321 0.12890042 0.017502617 -0.09410609 -0.08120652 0.1518042 0.11983699 -0.1140142
0.040140532 0.001519436 -0.019973265 0.16189845 -0.10691182 0.05972617 -0.14667158 -0.0874165
-0.0024756638 0.121658586 0.07335039 -0.15174474 0.00871325 0.06538226 -0.06672988 0.076139756
0.04266945 0.15444152 -0.12258533 -0.053762477 0.04626451 0.06906958 0.10428953 0.107666776
-0.12928887 0.025726119 0.16969103 0.06362937 -0.054881327 0.102681376 0.027470557 -0.06804784
-0.08981651 -0.14368913 -0.13347884 -0.11623772 0.1659288 0.1439779 -0.14227577 0.13032596
-0.08738373 0.16164702 -0.050553415 -0.06267711 -0.15902641 -0.17378125 0.00089947693 -0.166573
0.027896218 0.099082835 0.12308336 -0.14378886 0.012903468 0.08554006 -0.048626274 0.1708106
0.012720045 0.07785701 0.088755384 0.06310846 -0.08488965 0.12443071 0.06371605 -0.060626745
-0.17129712 0.1738291 -0.03743186 -0.07863816 -0.16619387 -0.14873618 0.14158946 0.17386796
-0.024114888 0.021304052 -0.1485621 -0.02082836 -0.087262586 0.14936912 0.17069271 -0.1369894
0.11534163 -0.12070819 -0.05192262 -0.02995347 0.15980597 -0.17004932 0.06397093 -0.12565288
-0.14393048 0.091673605 0.010380094 0.16463576 0.12732664 -0.13584332 0.032843206 -0.13425021
0.058896363 0.09021061 0.13711847 -0.1526892 -0.15450399 -0.09172262 -0.04172641 0.07885245
-0.11275601 0.064563304 -0.0060838973 -0.076684 -0.13174388 0.08535032 0.09140671 -0.00858938
0.060546603 -0.05237772 0.09992803 -0.006296023 -0.12395871 0.15586574 0.089344345 -0.17173535
-0.14632893 0.098587126 0.093741104 -0.09887297 0.02742194 0.056466218 0.11098548 0.07788626
0.064729676 0.10465853 -0.022967355 -0.016392216 0.13550197 -0.06567288 0.016053734 -0.11021131
0.02187181 -0.1366843 -0.13949926 -0.16625857 0.08782442 0.08881544 -0.087897845 -0.07807183
-0.08929874 -0.03667484 -0.09901369 -0.059644047 -0.0859448 0.07218956 -0.12738453 0.098566875
-0.030922553 -0.14694658 0.0047090673 -0.04439041 0.17136651 -0.17059784 -0.059937265 -0.09569383
0.11862064 -0.14390811 0.13655224 0.045479 -0.059620067 0.055567354 0.09377954 0.06802676
-0.010759395 -0.17647663 -0.16753621 0.13162631 0.004461012 0.14170259 0.0501396 -0.09843906
-0.16048776 0.16696633 -0.06425355 0.14634916 -0.095128804 0.08327503 -0.10690455 -0.07370497

net.2.bias f4 [64]
00000000: 8377 1ebd 969b 22be fb92 143e 03f0 c9bd
00000010: d01d 2fbe d022 223d 453b 8ebc 83c3 c23a
00000020: 39ea 11be 674c 82bd 05a5 303e 3588 a6bd
00000030: 0ccc d0bd 83d5 08be 7747 febd 1cea d8bc
00000040: 4c25 29be 00d9 c03d 19b4 01be acce 03be
00000050: 2e25 7e3d debb 1a3e 010d dd3d 3770 143e
00000060: 3f5f 27bd d412 28bc 593a 2a3d 0b99 02be
00000070: 553e 4fbd 46d2 42bc 315b afbd 8c9f a9bd
00000080: af72 743c a12a eb3c 876d e53b 5ef0 2bbe
00000090: 9d1a 943d d690 2abe 1b98 b7bc 4c58 043e
000000a0: 262e 0dbe 7d03 2dbd 077d 06be 5ac0 15be
000000b0: 59ff f1bc ffb6 4cbd 15e3 723c c5f6 0d3d
000000c0: 1443 43bd b75c 983c ef21 febd 7bc4 1fbe
000000d0: dcbb bf3d 33f7 1c3e c524 0dbe e4f8 d2bd
000000e0: a5e8 0e3e 5529 f2bd 8675 ddbb 9739 efbc
000000f0: d6e5 f13d 65c4 683d 42c7 2ebe da73 ff3d
-0.038688194 -0.15879664 0.14509194 -0.09860232 -0.17101216 0.03958398 -0.017362246 0.0014859292
-0.14249505 -0.06362229 0.1725045 -0.08131448 -0.10195169 -0.13362698 -0.124159746 -0.02647882
-0.16518134 0.094163895 -0.12666358 -0.12871808 0.062047176 0.15110728 0.10793496 0.14495932
-0.040862318 -0.010258395 0.04155955 -0.12753694 -0.050596554 -0.011890953 -0.08562315 -0.08282384
0.014919921 0.02870685 0.007001582 -0.16790912 0.072316386 -0.16656813 -0.022411397 0.12924308
-0.13787135 -0.042239655 -0.13133632 -0.14624158 -0.029540705 -0.049979206 0.014824648 0.034659166
-0.047671393 0.018598897 -0.12408816 -0.15602295 0.09362003 0.15328674 -0.13783558 -0.10301378
0.13955934 -0.1182429 -0.0067583947 -0.029202266 0.11811416 0.05682792 -0.17068198 0.12473269

net.4.weight f4 [32, 64]
00000000: 8807 473d 5ae7 8cbd c0e4 71bc 0e64 c9bd
00000010: 005f f03a d0a7 573c d8e2 513d ee34 ea3d
00000020: ecf7 493d ae47 83bd a6d6 91bd 1003 fb3c
00000030: a035 6ebd 32fc a63d 5c4e 8f3d 2052 753d
00000040: 3a6e e33d e482 1b3d fc40 86bd 487b cd3d
00000050: 20a8 bdbd 5040 cf3c 00ce 48bb 40a4 b4bc
00000060: d0f6 4e3d 30d3 5d3d 76fb c93d 5cb1 7bbd
00000070: 888f 2d3d 22b2 9d3d 76d0 e63d 00b4 673b
00000080: fc86 15bd c0c5 afbb 5e8a dabd 6c62 27bd
00000090: 98fb 4b3d 541f d4bd 7627 833d c0fd 13bc
000000a0: 9441 44bd e407 77bd 8640 9b3d 04ef 7bbd
000000b0: 623c f4bd c013 6b3c 3080 9b3d 5857 c53d
000000c0: a2d6 debd baee cdbd ce0b 853d 300f ecbd
000000d0: 60d4 873b 7a80 9fbd 5eeb eb3d 7883 a33d
000000e0: 60d4 d2bd a41a 98bd ee21 b4bd e0f9 163c
000000f0: 7827 ba3d 9043 a6bd 8ca1 e93d 201f d2bb
00000100: c87d 46bd 508f a73c 5085 ad3d 8284 e83d
00000110: d673 eabd 0056 2d3c b808 dcbd b04b 65bd
00000120: 2c26 18bd cafc b0bd 06bb c03d e0cb 1fbd
00000130: 9495 41bd c0dc 8ebc a6e7 ebbd 48a0 f43d
00000140: 84ed e2bd 7edb 8f3d b2bc f4bd 2c6f 7a3d
00000150: 9ae4 97bd 78de a0bd e671 e83d b461 31bd
00000160: e034 cbbb c855 f93c a03d bbbc 90af 3b3d
00000170: 743b 123d c406 11bd fcbd 94bd 4cae e43d
00000180: da5f 87bd 68d7 e5bc 904d 3e3c 4e7a f53d
00000190: 74b0 6b3d a09a f5bc 60a2 193c 5060 173d
000001a0: a0ba e1bb c0a6 6f3b 60a3 84bb caa6 873d
000001b0: 8e02 c43d 06ee cdbd 68db 4dbd d476 a53d
000001c0: 8e63 8d3d 62d3 c93d ea8a c53d 7cbc d7bd
000001d0: b8a8 fabd 00e1 c63b 1cf4 dc3d cc1f f9bd
000001e0: 909a acbd 8077 0cbc 3aa9 c4bd 0012 36bd
000001f0: 4831 683d 0059 743c 40a1 e73d 6003 c53b
00000200: 1453 603d 28c5 b0bd eeec b8bd 5484 e93d
00000210: d05e 67bd e090 293c 80ec c7bb b8e2 783d
00000220: a010 aabd 14d4 5b3d 440a 80bd 5c5b 3b3d
00000230: ded8 92bd f055 233c d42c 47bd 00b9 f9bd
00000240: 7028 1a3c e8ec 7d3d c666 f6bd bcf0 e93d
00000250: 008c cb3a f4f4 533d 7816 d2bc e0ad 223c
00000260: d82a 9cbc 1e96 bd3d d0d7 343c 6429 d6bd
00000270: 505d 483d c0dc ca3d 30a2 dabd 0400 7ebd
00000280: 28d9 babd acd7 973d 6424 dbbd 1045 8e3c
00000290: b804 8b3d 1011 b83d 00cb 44bc 8c94 eebd
000002a0: 0cd3 74bd be95 f63d 08c9 eabc 7072 87bd
000002b0: b2f8 c1bd 2023 b83d a4c1 babd 801a c7ba
000002c0: ae06 c4bd da30 e0bd 6ec1 aa3d 3098 df3c
000002d0: 08fd 8ebd 5cb3 5a3d 1445 7fbd dc3e e0bd
000002e0: 8095 fd3c 80a5 29bd 00f1 87ba 101b a53c
000002f0: 0c43 4fbd e47b 8abd f4db 313d 3051 72bc
00000300: e895 243d e2d3 afbd 60f8 363d 2e74 b03d
00000310: 12b0 c7bd a4db f73d 9a9f cabd d478 733d
00000320: 1082 413d 3666 e33d 16ce 893d ba10 df3d
00000330: 348c e93d 68ca ebbd e878 c7bc 00c0 9b39
00000340: 7a96 e2bd 78af c9bd 601b cfbd 948e 43bd
00000350: 82d9 f33d 883c 60bd d0cc 5abc 0e22 9c3d
00000360: 701b 3f3c 206a a2bd c820 96bc 00a9 6b3b
00000370: 7e1c dd3d e42f 753d 205f 03bc 84da a3bd
00000380: 20d0 a93d da06 c63d b2cd 8c3d 6231 99bd
00000390: 609f 5fbd a074 873b a6fb 9e3d 40ee bcbd
000003a0: 2004 b1bb 10f6 33bd f071 063d d080 733c
000003b0: 3ec5 a2bd 80cd 473d 720b 803d a4a6 c03d
000003c0: 0426 943d 0079 24ba 20d5 ed3b 546c f9bd
000003d0: 08d6 52bd 189f d73d 1458 79bd 50b3 cebc
000003e0: c827 e7bc 905f 41bc 4a7c febd 4874 fa3d
000003f0: 603c 7b3d 50f7 77bc 7c96 423d b0f2 cebc
0.048591167 -0.06880064 -0.014764011 -0.09833537 0.0018338859 0.013162568 0.051241726 0.11435877
0.049308702 -0.06410156 -0.07121019 0.030641109 -0.05815661 0.08153571 0.06997368 0.059892774
0.111050084 0.037966624 -0.065553635 0.1003328 -0.09260583 0.025299221 -0.0030640364 -0.022050977
0.050528347 0.054156482 0.098624155 -0.06144844 0.04237321 0.07699992 0.112702295 0.003535509
-0.036505684 -0.00536415 -0.10670923 -0.040865347 0.049800485 -0.10357538 0.06404011 -0.009032667
-0.047914103 -0.06031026 0.07580666 -0.06150724 -0.119255796 0.0143479705 0.07592809 0.096358
-0.10880782 -0.10055299 0.06496392 -0.11526334 0.00414519 -0.07788177 0.11519502 0.0798406
-0.102944136 -0.07426956 -0.08795534 0.009214848 0.09089559 -0.08118355 0.11407766 -0.006412402
-0.048459798 0.020454079 0.08472693 0.11353399 -0.11447875 0.010579586 -0.107438505 -0.055980384
-0.03714578 -0.08641966 0.09410672 -0.03901279 -0.04726179 -0.017439246 -0.11518793 0.11944634
-0.11080459 0.07024287 -0.11950053 0.061141178 -0.07416649 -0.078549325 0.113498494 -0.043306068
-0.0062013716 0.030436411 -0.022856534 0.045821726 0.03570123 -0.035406843 -0.07262799 0.11166057
-0.06610079 -0.028056815 0.011615172 0.119862184 0.057541326 -0.029980958 0.009377092 0.036957085
-0.0068887025 0.0036567897 -0.004047796 0.06623609 0.095708 -0.10055165 -0.05025807 0.08079305
0.06903754 0.09854771 0.096456364 -0.105339974 -0.12239212 0.0060693026 0.10788748 -0.12164268
-0.08427918 -0.008573413 -0.0960259 -0.04445076 0.056687623 0.014913797 0.11310053 0.006012365
0.05476673 -0.086313546 -0.09029566 0.11402193 -0.056486905 0.010349482 -0.006101191 0.06076309
-0.08303952 0.05366905 -0.06251958 0.045741424 -0.071702704 0.00996922 -0.048626736 -0.12193489
0.009409055 0.06199351 -0.12031321 0.114228696 0.0015529394 0.051747277 -0.02564548 0.00992915
-0.019063398 0.09257148 0.011037782 -0.104571134 0.048917115 0.09905386 -0.10675466 -0.062011734
-0.091234505 0.07414183 -0.107003 0.017366916 0.067880094 0.089876294 -0.01201129 -0.11649427
-0.059771582 0.1204028 -0.028660312 -0.06613624 -0.09471263 0.089910746 -0.09118965 -0.0015190393
-0.095715865 -0.10946818 0.08337675 0.027294248 -0.06981856 0.053393707 -0.062321737 -0.109494895
0.030955076 -0.0414176 -0.0010371506 0.020154506 -0.05060105 -0.067619115 0.043422654 -0.014789864
0.040182024 -0.08585335 0.044670463 0.086159095 -0.097503796 0.1210244 -0.09893723 0.059441403
0.047243178 0.111034796 0.06728761 0.10891862 0.11403695 -0.11513215 -0.024349645 0.00029706955
-0.110638574 -0.09847921 -0.10112643 -0.047743395 0.11906721 -0.054745227 -0.013354495 0.07623683
0.011664256 -0.07930398 -0.018326178 0.0035958886 0.1079645 0.059860125 -0.008018285 -0.08000663
0.0829165 0.096692756 0.06875171 -0.07480122 -0.05459535 0.004133776 0.07762842 -0.0922513
-0.005402103 -0.043935835 0.032823503 0.014862254 -0.07947777 0.048779964 0.06252183 0.09406784
0.072338134 -0.0006274134 0.0072580725 -0.12178865 -0.051473647 0.105283916 -0.060875013 -0.025231987
-0.028217211 -0.011802569 -0.1242605 0.1222921 0.061336875 -0.0151346475 0.047506794 -0.025262207

net.4.bias f4 [32]
00000000: a822 32bd 009d bdbb 26d3 903d feda c4bd
00000010: 2661 e33d 50d6 e83c a0d2 ccbd 103b 273d
00000020: 3010 a5bc 3042 b8bc e800 1bbd 2038 68bc
00000030: 6a17 bf3d d437 26bd b0e5 78bc 1c56 f7bd
00000040: 7217 abbd 2c2a 653d 3665 b0bd 0e07 9c3d
00000050: ca70 d3bd 604c d3bd 409d d53c 7a95 fc3d
00000060: 5cb7 693d 3a0d 9f3d 7804 d03c 1467 dcbd
00000070: 0087 d33d ba42 cc3d fcf8 b7bd ca6f 9f3d
-0.043490082 -0.005786538 0.07071523 -0.09612082 0.11102514 0.028422505 -0.10001111 0.04082781
-0.02014932 -0.022492498 -0.03784266 -0.0141735375 0.09330638 -0.040580586 -0.0151914805 -0.12076971
-0.08354081 0.05594842 -0.086130545 0.07618533 -0.10324247 -0.10317302 0.02607596 0.12333198
0.05705963 0.07766195 0.025392756 -0.10761848 0.103284836 0.099736646 -0.08983037 0.07784994
