maml_model/maml_GoToOpen_8_12_600_50_encoder.pth (torch, 24844 bytes, 6 tensors)

net.0.weight f4 [32, 38]
0	0xbdc598f8	-0.09648317
1	0x3dea8068	0.11450273
2	0xbc853f5a	-0.01626556
3	0x3dd53498	0.10410422
4	0xbd1cbf7a	-0.038268544
5	0x3e1b5bce	0.1517174
6	0xbd2a5cd3	-0.04159243
7	0x3d962b31	0.07332457
8	0x3d58ff34	0.052977756
9	0xbe166b13	-0.14689283
10	0xbe11e3a3	-0.14246993
11	0xbe011314	-0.12604934
12	0x3d2edc2b	0.042690437
13	0x3c3209cf	0.010866596
14	0x3d9d9366	0.0769413
15	0x3cd19368	0.025582984
16	0xbdbcf64e	-0.092266664
17	0x3e036e5c	0.12835068
18	0x3e1643cb	0.14674298
19	0xbd8078fe	-0.062730774
20	0x3e1719b6	0.14755902
21	0x3d3ad97b	0.04561756
22	0xbe22a8ba	-0.15884677
23	0x3da6fcd7	0.08153694
24	0x3cd005d8	0.025393412
25	0x3e0bf3a2	0.13667157
26	0xbd81d01f	-0.06338524
27	0xbe1dabb3	-0.1539753
28	0x3ce2aa08	0.027668968
29	0x3dfcbf52	0.12341179
30	0x3d552130	0.052033603
31	0xbd3cc24b	-0.04608373
32	0x3dbb02b4	0.09131375
33	0xbdce18f2	-0.10063352
34	0x3c7bfbac	0.0153798275
35	0x3dda4699	0.10657997
36	0xbdb94702	-0.09046747
37	0xbe242143	-0.16028313
38	0xbe185ba9	-0.14878716
39	0xbe1b380d	-0.151581
40	0xbc53295e	-0.012888281
41	0xbda35c92	-0.07976641
42	0x3846f6ee	4.743685e-05
43	0x3d92a5fb	0.071605645
44	0xbd61d8bf	-0.055138346
45	0x3e13cff3	0.14434795
46	0xbe0b4e78	-0.13604152
47	0x3de181f0	0.11011112
48	0xbcd951ac	-0.026528202
49	0x3da2ec0d	0.07955179
50	0x3e238757	0.15969597
51	0xbe1d6352	-0.15369919
52	0x3c23a62b	0.009988348
53	0xbb517f60	-0.003196679
54	0xbdb92f7c	-0.0904226
55	0xbdbd39dc	-0.092395514
56	0xbd4b7257	-0.04966959
57	0xbdb233ed	-0.0870131
58	0xbd8df5e3	-0.06931665
59	0x3debbe91	0.11510957
60	0xbb73f4f9	-0.0037224873
61	0xbde1a66e	-0.11018072
62	0x3e10b1c4	0.14130312
63	0xbb8df71d	-0.0043324367
64	0x3da8bb82	0.08238889
65	0xbcd62e6f	-0.026145188
66	0xbdda48f3	-0.10658445
67	0x3d80829d	0.062749125
68	0x3ab9e9d1	0.0014184063
69	0x3d9d1ba8	0.07671291
70	0xbdd0dd3e	-0.101984486
71	0xbdba9afc	-0.09111592
72	0x3d55944d	0.052143384
73	0x3e0d30f7	0.1378821
74	0x3d971582	0.07377149
75	0xbca39f46	-0.019973408
76	0xbe1ee0a9	-0.15515389
77	0xbdee1180	-0.116244316
78	0x3d6d0deb	0.0578746
79	0xbb6678e7	-0.0035167278
80	0x3e1d5371	0.15363862
81	0xbd269752	-0.040671654
82	0xbd56c5fd	-0.05243491
83	0xbe0a8bf3	-0.13529949
84	0x3d6049af	0.05475777
85	0xbd96b3dd	-0.07358525
86	0x3dc2d7f9	0.0951385
87	0xbe0b095a	-0.13577786
88	0x3c588b85	0.013216858
89	0xbe14d1ca	-0.14533153
90	0x3d6e9227	0.05824485
91	0x3c256840	0.010095656
92	0x3d5294ea	0.051411547
93	0x3e127b59	0.14304866
94	0x3dee853f	0.116465084
95	0x3e1b421a	0.15161934
96	0x3d84cafd	0.064840294
97	0x3d7e9695	0.062155325
98	0x3e0f8230	0.14014506
99	0x3d5d73d3	0.054065537
100	0xbda5218e	-0.08063041
101	0x3c8e5fbf	0.01737964
102	0xbdaa57c1	-0.08317519
103	0x3e0a9d7d	0.1353664
104	0xbe13f94d	-0.1445057
105	0xbe0827de	-0.13296458
106	0x3d5d8b0a	0.054087676
107	0xbd3af7e0	-0.04564655
108	0xbcd3cc32	-0.025854204
109	0xbb19aee9	-0.0023450202
110	0x3de2471c	0.11048719
111	0x3e25286f	0.16128705
112	0xbe0177b5	-0.12643321
113	0x3cc8c24d	0.024506712
114	0xbdc0675a	-0.09394713
115	0x3be3724c	0.0069411155
116	0x3e12d2b0	0.14338183
117	0x3c8f07f8	0.017459854
118	0xbdd02309	-0.101629324
119	0xbe25468b	-0.16140191
120	0x3df941ea	0.12170775
121	0xbd90afed	-0.07064805
122	0x3d050acb	0.032480996
123	0x3d119c5a	0.0355495
124	0x3da14127	0.07873755
125	0x3dd9ebd0	0.10640681
126	0xbdd14c3c	-0.10219619
127	0xbe1b1290	-0.151438
128	0x3e0e63f0	0.1390531
129	0x3d5a40f3	0.053284597
130	0xbdc98da5	-0.0984147
131	0x3d907f7e	0.07055567
132	0xbde08da7	-0.10964518
133	0xbc07fe2d	-0.008300346
134	0xbdf8b09e	-0.12143062
135	0x3e237d8e	0.15965864
136	0xbde17cfe	-0.110101685
137	0xbdccfdeb	-0.100093685
138	0x3d57614c	0.052583024
139	0x3d477e29	0.0487043
140	0x3d0eb34a	0.034838952
141	0x3bf9cd4e	0.007623351
142	0x3e00845d	0.12550493
143	0x3dda5955	0.1066157
144	0xbdad5c8e	-0.08464919
145	0x3d8a9a75	0.067677416
146	0x3e044529	0.12917008
147	0xbd655a71	-0.055994455
148	0x3ba2c71d	0.004967584
149	0xbce96cc6	-0.02849425
150	0x3d676f70	0.05650276
151	0xbd3a0cfb	-0.045422535
152	0x3d84633d	0.06464241
153	0xbc398759	-0.011323773
154	0xbd2a375f	-0.041556712
155	0xbdf55278	-0.1197862
156	0xbe132ee5	-0.14373358
157	0x3db0b677	0.086285524
158	0xbd64cd6e	-0.055859976
159	0xbc72a8fd	-0.014810798
160	0x3d52160f	0.051290568
161	0xbdee7158	-0.11642712
162	0x3d2fb779	0.042899583
163	0xbd6cd09e	-0.05781614
164	0x3ba6963a	0.0050838264
165	0xbc6fd2e3	-0.014637682
166	0xbc300e4d	-0.010745597
167	0x3e14fa8d	0.14548703
168	0xbd859953	-0.06523385
169	0x3e0859ce	0.13315508
170	0xbd474913	-0.048653673
171	0x3e13a42c	0.14418095
172	0x3de15c55	0.11003939
173	0x3a57efde	0.0008237342
174	0x3d094306	0.033511184
175	0xbd7d2367	-0.06180134
176	0x3cccd735	0.025004962
177	0xbda51611	-0.080608495
178	0xbe17f5e7	-0.14839898
179	0x3dd43e5a	0.10363455
180	0xbdacdd31	-0.084406264
181	0xbcb51642	-0.02210534
182	0x3db7bc9b	0.089715205
183	0x3d02aef1	0.03190512
184	0x3cfa713b	0.03057157
185	0xbdee88d3	-0.11647191
186	0x3dbb07b6	0.0913233
187	0xbe23083b	-0.15921108
188	0x3e0982ed	0.1342885
189	0x3d2ef7aa	0.04271666
190	0xbd80c263	-0.06287076
191	0xbd510dbd	-0.051038492
192	0xbdfebda9	-0.124385186
193	0x3d0dce9e	0.034620874
194	0xbda6da16	-0.08147065
195	0xbd714364	-0.05890216
196	0x3e228708	0.15871823
197	0x3df0c9bc	0.11757228
198	0xbde91179	-0.11380286
199	0x3d0f293f	0.034951445
200	0xbbbdc15e	-0.0057908734
201	0x3e1cd0eb	0.15314071
202	0xbde2c16a	-0.11072047
203	0x3d98bd2c	0.07457957
204	0xbd8ac7f6	-0.06776421
205	0x3dfc6371	0.123236544
206	0xbd4de89d	-0.050270665
207	0x3e1628b9	0.14663972
208	0xbe0d0931	-0.13773037
209	0xbdc30594	-0.09522548
210	0xbd95c10f	-0.07312214
211	0xbd984105	-0.074342765
212	0x3dee6fd3	0.116424225
213	0x3e08b8ec	0.13351792
214	0x3c7d6474	0.015465844
215	0x3e0283f8	0.12745655
216	0xbe231823	-0.15927176
217	0x3df0d856	0.11760013
218	0x3dd90563	0.105967306
219	0xbcaed70a	-0.021342773
220	0x3be70825	0.0070505315
221	0xbd5605b7	-0.052251544
222	0x3d4d3693	0.050100874
223	0x3dffb6f9	0.12486071
224	0xbe11e44c	-0.14247245
225	0x3dab5452	0.08365692
226	0x3ca6edaa	0.020376999
227	0x3cf67469	0.030084806
228	0xbce81fe5	-0.028335521
229	0xbd2c3a90	-0.042048037
230	0x3dad28a2	0.08455016
231	0x3d93d589	0.07218463
232	0xbdebb50b	-0.115091406
233	0x3c233cb9	0.009963208
234	0xbe1b4152	-0.15161636
235	0x3d022b96	0.031779848
236	0x3d3895f7	0.045064893
237	0x3e04c58f	0.12965988
238	0x3e22f056	0.15911993
239	0x3e03af47	0.12859832
240	0xbddd10a0	-0.107941866
241	0xbaea912d	-0.0017896049
242	0x3da7457c	0.0816755
243	0xbde92d70	-0.1138562
244	0xbdf50bf7	-0.11965173
245	0xbe168f01	-0.14702989
246	0x3d25afd0	0.04045087
247	0x3df85bac	0.1212686
248	0x3df2c009	0.11853034
249	0xbddacf52	-0.106840745
250	0x3e1c1733	0.15243225
251	0xbe0aa2e8	-0.13538706
252	0x3cc1101f	0.023567257
253	0x3b231262	0.0024882783
254	0x3dc364cb	0.09540709
255	0x3c1cf9fa	0.009581083

net.0.bias f4 [32]
0	0xbdabacce	-0.08382569
1	0x3dae0809	0.08497626
2	0x3d6636cc	0.056204602
3	0x3e23faf7	0.16013704
4	0xbd841972	-0.06450166
5	0xbe1ee92f	-0.1551864
6	0xbe10e152	-0.14148453
7	0xbd9e1a75	-0.0771989
8	0x3dfd20b2	0.12359752
9	0xbe0c8209	-0.1372148
10	0xbe1dbf96	-0.15405115
11	0x3e07bff4	0.13256818
12	0x3d4fa7ad	0.050697017
13	0xbd909e50	-0.07061446
14	0x3e1f60eb	0.15564315
15	0xbc803ed1	-0.015654953
16	0x3daa3089	0.083100386
17	0xbde53b15	-0.1119291
18	0x3d3ec215	0.04657181
19	0xbe13ab80	-0.14420891
20	0x3d8fbc47	0.07018333
21	0x3da644a9	0.08118565
22	0xbdfac738	-0.12245029
23	0xbd507d19	-0.050900552
24	0xbdf50afb	-0.11964985
25	0xbaf2a1ee	-0.0018511394
26	0x3c609ad0	0.013708785
27	0xbdea32eb	-0.11435493
28	0xbd04752a	-0.0323383
29	0x3d03df2b	0.03219525
30	0xbe1bf8ba	-0.152316
31	0xbd809447	-0.06278282

net.2.weight f4 [64, 32]
0	0x3d74688b	0.059670012
1	0x3e1b373f	0.15157793
2	0xbdf0150c	-0.117227644
3	0xbd08d24a	-0.033403672
4	0x3e30e040	0.17273045
5	0x3dc3f929	0.09569008
6	0x3d7b9abb	0.06142686
7	0x3d604fda	0.054763652
8	0x3c4e70a1	0.012600095
9	0x3e1e97f4	0.15487653
10	0x3e29868d	0.16555233
11	0xbd66715e	-0.05626046
12	0xbde6553c	-0.11246726
13	0x3d9e101c	0.07717916
14	0xbe2855a9	-0.16438927
15	0x3de4bb4d	0.11168537
16	0x3d826bfe	0.06368254
17	0xbdff6a90	-0.12471497
18	0xbe07c0e4	-0.13257176
19	0xbd719b12	-0.058985777
20	0xbda2322f	-0.07919728
21	0xbdddf24b	-0.10837229
22	0x3de8d405	0.113685645
23	0x3e172207	0.14759074
24	0xbdb81caa	-0.08989842
25	0xbcee0276	-0.029053908
26	0x3c0833e0	0.008313149
27	0x3e31d29b	0.17365496
28	0x3cf7a8b2	0.030231807
29	0xbdffdc35	-0.12493173
30	0xbdf0a637	-0.11750453
31	0x3de95590	0.11393273
32	0xbe051a71	-0.12998368
33	0xbe1a1ade	-0.15049312
34	0x3dab8212	0.08374418
35	0xbdce5a9c	-0.10075876
36	0x3d8cc6db	0.06873866
37	0x3d3bb020	0.045822263
38	0xbabdafda	-0.0014471964
39	0x3d67c3b7	0.056583133
40	0x3e2c3325	0.16816385
41	0x3b879ae0	0.0041383356
42	0xbddb37c0	-0.10703993
43	0xbd38a34e	-0.045077614
44	0xbd998b45	-0.07497267
45	0xbc358a27	-0.011080301
46	0xbc38fccc	-0.01129074
47	0x3d27caba	0.04096482
48	0x3df79622	0.120891824
49	0x3d9b404e	0.075806245
50	0xbe05fbe6	-0.13084373
51	0xbe272999	-0.16324462
52	0xbdc4d5ee	-0.09611116
53	0xbe1adfe7	-0.15124474
54	0xbda75d88	-0.081721365
55	0x3ddf7b8e	0.10912238
56	0x3cfe82f0	0.031068295
57	0xbdb6cdda	-0.08925982
58	0xbd988878	-0.07447904
59	0x3de64830	0.112442374
60	0xbdfb9409	-0.12284095
61	0xbd5723af	-0.052524265
62	0xbd0631a8	-0.0327622
63	0x3dab710e	0.08371173
64	0x3dd2baa8	0.10289508
65	0x3d8e4b26	0.06947927
66	0xbe2f900c	-0.17144793
67	0x3db0ef97	0.08639448
68	0xbe1f2170	-0.15540099
69	0xbdcec417	-0.10095995
70	0xbdd1ae5a	-0.10238333
71	0x3cd07c99	0.025450038
72	0xbe0b6d94	-0.1361602
73	0xbe2e1413	-0.16999845
74	0xbd7a3479	-0.061085198
75	0x3dd9cc49	0.106346674
76	0xbe2c02f1	-0.16797997
77	0x3e14d84a	0.14535633
78	0x3de8bd0f	0.11364185
79	0x3da3a33d	0.079901196
80	0x3d7cc4f4	0.061711267
81	0xbe337c87	-0.17527972
82	0xbd27c55b	-0.040959697
83	0x3e05d0fa	0.13068
84	0xbdb1f12d	-0.08688579
85	0xbe06874b	-0.13137548
86	0x3dfab971	0.122424014
87	0xbdd9bb86	-0.106314704
88	0xbdec48b8	-0.115373075
89	0x3e0c2ed1	0.13689734
90	0x3d5b6a76	0.053568326
91	0xbdb49972	-0.0881833
92	0xbd6a0c84	-0.057140842
93	0x3df6d000	0.120513916
94	0x3e2e5cb6	0.17027554
95	0x3dea8670	0.11451423
96	0x3de7d1a0	0.1131928
97	0x3cbbcca2	0.022924725
98	0xbcf7a901	-0.030231955
99	0xbd550638	-0.052007884
100	0x3dbe4ac9	0.09291608
101	0xbdfe427e	-0.12415026
102	0x3dff5ad4	0.12468496
103	0xbdbb1718	-0.09135264
104	0xbd0f0636	-0.034918033
105	0xbcc7d267	-0.02439232
106	0x3da0608b	0.07830914
107	0xbd29e0fd	-0.04147433
108	0x3d53e333	0.051730346
109	0x3da1a189	0.078921385
110	0x3dd77ee7	0.105222516
111	0xbd3e91a3	-0.04652561
112	0x3e05cf16	0.13067278
113	0xbdc747c7	-0.09730487
114	0xbdb96173	-0.0905179
115	0xbdc54be8	-0.096336186
116	0xbbf1c810	-0.0073785856
117	0xbe22be1d	-0.15892835
118	0x3e20d811	0.15707423
119	0x3e26298e	0.1622679
120	0x3ca4599b	0.020062258
121	0x3d738146	0.059449457
122	0x3db21b02	0.086965576
123	0xbdd45335	-0.10367433
124	0xbe2ef92d	-0.1708724
125	0x3d0e5d7a	0.034757115
126	0x3d8a1b7b	0.06743523
127	0x3d1d07b4	0.038337424
128	0x3d5a7924	0.053338185
129	0xbdc18e5a	-0.094509795
130	0x3d308206	0.04309275
131	0x3cad2579	0.021136032
132	0x3e1f8cd6	0.15581068
133	0x3d3309ab	0.043710392
134	0xbd2cd91b	-0.042199235
135	0xbd736c2c	-0.059429333
136	0x3c83ded3	0.016097462
137	0xbe08cda6	-0.13359699
138	0xbddaa046	-0.10675101
139	0x3d7c49eb	0.06159393
140	0xbd8cc818	-0.06874102
141	0x3e0fce04	0.14043432
142	0xbdf3424f	-0.11877882
143	0xbe0c7cd2	-0.1371949
144	0xbddbcef0	-0.107328296
145	0x3db25cd3	0.08709111
146	0x3dae1e41	0.08501864
147	0xbdf83ba7	-0.12120753
148	0x3dc2990e	0.09501849
149	0x3da80521	0.08204103
150	0xbcc0873e	-0.023501989
151	0x3ce522f8	0.027970776
152	0x3daa89db	0.08327075
153	0xbde65b78	-0.11247915
154	0xbe00a7ab	-0.1256396
155	0x3d420e13	0.047376703
156	0xbdbe717d	-0.0929899
157	0xbbd921aa	-0.0066263275
158	0x3d998447	0.07495933
159	0x3db71b3c	0.089407414
160	0x3d8b4261	0.0679977
161	0x3d7a93d8	0.06117615
162	0xbda6e3c7	-0.08148914
163	0x3e09f9ef	0.13474248
164	0x3d9cdd31	0.076593764
165	0xbdd36739	-0.103224225
166	0x3bd4d4e0	0.0064951032
167	0xbe262d4a	-0.16228214
168	0x3db88f3a	0.09011693
169	0xbe2b29c4	-0.16715151
170	0x3befdeeb	0.007320275
171	0xbd420717	-0.047370043
172	0x3e0bbbba	0.13645831
173	0x3dbd1a41	0.09233523
174	0x3a59fe48	0.0008315784
175	0xbe150628	-0.1455313
176	0x3d96230b	0.07330903
177	0xbdcf107e	-0.101105675
178	0xbc553499	-0.013013029
179	0xbdacc9d6	-0.08436935
180	0x3c1e7adf	0.009672849
181	0x3e2c6e2e	0.16838905
182	0xbe0822bc	-0.132945
183	0xbd33cf64	-0.043898955
184	0x3dd7657d	0.10517404
185	0xbda8d6e2	-0.08244111
186	0x3e1b695e	0.15176913
187	0x3da96ffc	0.082733124
188	0xbda2c359	-0.07947416
189	0x3d8af60b	0.0678521
190	0x3db0b18e	0.08627616
191	0xbdd20735	-0.10255281
192	0x3caa4122	0.02078301
193	0xbd8d941b	-0.069130145
194	0xbe1b93bf	-0.1519308
195	0xbbed44d3	-0.0072408705
196	0x3e2957e7	0.16537438
197	0x3dd1683d	0.1022496
198	0xbd9a5f0c	-0.0753766
199	0x3def25de	0.116771445
200	0xbd571963	-0.052514445
201	0xbe1f5b37	-0.1556214
202	0x3da23e94	0.07922092
203	0x3d008909	0.031380687
204	0x3d17c2ad	0.03705089
205	0x3d737579	0.059438203
206	0xbe2c9cc8	-0.16856682
207	0xbdc33013	-0.09530654
208	0x3d453f88	0.04815629
209	0x3dba6446	0.09101157
210	0x3e2f89b6	0.17142376
211	0xbe097b5b	-0.13425963
212	0x3c1b4d58	0.009478889
213	0x3e1de153	0.15417986
214	0x3de2389c	0.11045954
215	0xbe031a99	-0.12803115
216	0x3d67124c	0.056413934
217	0xbda538bb	-0.08067461
218	0xbe1b3ea6	-0.15160617
219	0x3e0c7bf4	0.1371916
220	0xbdafb5c5	-0.08579592
221	0xbc021a3b	-0.007940824
222	0x3e22f535	0.15913852
223	0x3e2aef15	0.16692765
224	0x3dd5beda	0.10436793
225	0x3dd81105	0.10550121
226	0xbd3c5602	-0.04598046
227	0x3c936474	0.017992236
228	0xbde4b00b	-0.1116639
229	0xbd00ee38	-0.031477183
230	0xbd17ad33	-0.03703041
231	0xbce7b620	-0.028285086
232	0x3c1b6f5f	0.009487002
233	0x3bd51d88	0.0065037645
234	0x3e267525	0.16255625
235	0x3e0380fd	0.12842174
236	0xbce14d82	-0.027502779
237	0x3db288bb	0.087174855
238	0xbd410b4b	-0.04712991
239	0x3c60ee9f	0.013728767
240	0x3e331fc6	0.1749259
241	0x3bb9dece	0.0056723123
242	0xbd8fa993	-0.070147656
243	0x3e1a6bf4	0.15080243
244	0x3d0af37e	0.03392362
245	0xbe282b0d	-0.16422673
246	0xbe309ddc	-0.17247719
247	0x3e06df7a	0.13171187
248	0x3cbad8b9	0.02280842
249	0xbdf969da	-0.12178393
250	0x3dedb41b	0.11606618
251	0xbd557049	-0.052109037
252	0xbc9f9a16	-0.019482654
253	0xbb079291	-0.0020686726
254	0xbe0c7101	-0.13714983
255	0xbd71e6ff	-0.059058186

net.2.bias f4 [64]
0	0x3dd9d249	0.10635812
1	0xbe315b1b	-0.1731991
2	0xbb3e9603	-0.0029081113
3	0x3e203ccb	0.1564819
4	0x3dda1ec1	0.10650397
5	0x3d989a42	0.07451297
6	0x3e33a6cf	0.17544101
7	0x3dac9a0d	0.0842782
8	0xbd835707	-0.064130835
9	0xbde121da	-0.10992785
10	0xbe2c639e	-0.16834876
11	0xbd1de913	-0.038552355
12	0xbdcdc13f	-0.100466244
13	0xbd129951	-0.035790745
14	0x3def9d8e	0.11699973
15	0xbdcda75c	-0.10041687
16	0xbe1cc43d	-0.15309234
17	0x3c10b27f	0.008831619
18	0xbde28d08	-0.11062056
19	0xbdb15fe1	-0.086608656
20	0x3dcb1bf8	0.09917444
21	0xbb2d2bb5	-0.0026423756
22	0xbd6e9464	-0.058246985
23	0xbd2f428b	-0.04278807
24	0x3e1a678a	0.1507856
25	0x3da1879b	0.07887193
26	0x3e08d47f	0.13362311
27	0xbd037a6a	-0.032099165
28	0x3cc7cae4	0.024388738
29	0xbdd44733	-0.10365143
30	0xbd092390	-0.03348118
31	0xbca2af5a	-0.019859005
32	0x3af3bc84	0.0018595611
33	0x3d4c4ae0	0.049876094
34	0x3d1ef2b4	0.03880568
35	0x3d2d603b	0.0423281
36	0x3d95c7c8	0.07313496
37	0x3db91c7f	0.09038638
38	0xbcf13fad	-0.029449308
39	0xbdecc4eb	-0.115609966
40	0xbdb27165	-0.087130345
41	0xbe014ccd	-0.12626953
42	0x3dcf314b	0.10116824
43	0xbcfd5c08	-0.030927673
44	0x3dbee705	0.09321407
45	0xbd9c933e	-0.07645272
46	0x3c48f232	0.012264775
47	0x3e0f8695	0.14016183
48	0xbb4e34b4	-0.003146452
49	0xbbec2ab0	-0.007207237
50	0xbe2da746	-0.16958341
51	0xbdf53c1c	-0.119743556
52	0xbd94477e	-0.072401986
53	0xbcfef0ac	-0.03112062
54	0xbce1378b	-0.027492305
55	0xbd827db4	-0.06371632
56	0xbdb4b20a	-0.08823021
57	0x3c5c82e6	0.013458943
58	0xbe00fa2f	-0.12595437
59	0xbc488070	-0.012237653
60	0x3e097bbe	0.1342611
61	0x3e0eeb91	0.13957049
62	0xbcebeff5	-0.028800944
63	0x3e0ab921	0.13547184

net.4.weight f4 [32, 64]
0	0x3df9d21c	0.12198278
1	0x3c6b00a0	0.014343411
2	0x3dd38444	0.10327962
3	0xbd1df254	-0.03856118
4	0xbd19bb3c	-0.037532076
5	0xbb252340	-0.0025198013
6	0x3d1765cc	0.036962315
7	0xbdf17464	-0.11789778
8	0xbd58d0d0	-0.052933514
9	0xbd90a28c	-0.07062253
10	0x3dbcb050	0.092133164
11	0x3d8fceba	0.07021852
12	0x3b985fe0	0.004650101
13	0xbde88f78	-0.113554895
14	0x3ccd56c0	0.02506578
15	0xbd9ec686	-0.07752709
16	0x3ded4606	0.115856215
17	0x3d81b0b8	0.063325346
18	0x3db13028	0.08651763
19	0x3da759be	0.08171414
20	0xbdd59dae	-0.10430466
21	0xbd853380	-0.065039635
22	0x3de0638e	0.109564885
23	0x3df7073c	0.12061927
24	0x3d9a62cc	0.07538375
25	0x3db6c10a	0.08923538
26	0xbd5ee988	-0.05442193
27	0x3df4bffe	0.11950682
28	0xbde70bcc	-0.11281547
29	0xbdb248e2	-0.087053075
30	0xbc4ef210	-0.012630954
31	0xbd81f632	-0.06345786
32	0x3d7412e8	0.059588343
33	0xbd1f14b0	-0.03883809
34	0xbd241200	-0.04005623
35	0x3dad151c	0.08451292
36	0xbdc71f7c	-0.09722802
37	0xbd74f0ec	-0.059800074
38	0x3b07d300	0.002072513
39	0x3ce00680	0.02734685
40	0x3d25f6dc	0.040518627
41	0xbd5b50dc	-0.05354391
42	0xbcacb5b0	-0.02108273
43	0x3d3f3304	0.04667951
44	0x3ce3ae90	0.027793199
45	0x3d9ac43c	0.0755696
46	0xbd2fb320	-0.042895436
47	0x3dd2c526	0.10291509
48	0xbd8f8b68	-0.070090115
49	0xbbd9ab40	-0.006642729
50	0x3d7d0fc4	0.061782613
51	0x3dd26792	0.10273661
52	0x3dfb4ece	0.1227089
53	0x3db0c6c4	0.086316615
54	0xbdf69970	-0.12040985
55	0x3df22bc2	0.118247524
56	0x3dba68a8	0.09101993
57	0xbd932b6e	-0.07186018
58	0x3dfb2438	0.122627676
59	0x3cd86318	0.02641444
60	0x3bccabe0	0.006246075
61	0xbd508a3c	-0.05091308
62	0x3d430cfc	0.047619805
63	0x3dda2d3c	0.10653159
64	0x3dc50b3a	0.09621282
65	0xbc34c3d0	-0.011033013
66	0xba6a3400	-0.000893414
67	0xbcf85858	-0.030315563
68	0x3dbb94c2	0.09159233
69	0x3d83c900	0.06434822
70	0x3df5e7f8	0.12007135
71	0xbdbf6606	-0.09345631
72	0xbd24e3dc	-0.040256366
73	0x3d8e7cea	0.06957419
74	0x3dd44e0c	0.10366449
75	0xbda31500	-0.0796299
76	0xbdedba82	-0.11607839
77	0xbd632d74	-0.05546327
78	0x3c811ff8	0.015762314
79	0xbdc9589e	-0.098313555
80	0x3da2b236	0.07944147
81	0x3dbc7ddc	0.09203693
82	0xbca53cc8	-0.020170584
83	0xbce5ed68	-0.028067306
84	0xbdf9db96	-0.12200086
85	0x3d514ac0	0.051096678
86	0x3df65102	0.1202717
87	0xbcf52d10	-0.029928714
88	0x3b1fabc0	0.0024363846
89	0xbdb8969a	-0.090131
90	0x3d70c00c	0.0587769
91	0x3d55f3e0	0.05223453
92	0xbd7a2644	-0.06107165
93	0x3dd85ed0	0.10564959
94	0xbda91b58	-0.082571685
95	0xbdebd18c	-0.11514577
96	0xbcf5ecf8	-0.030020222
97	0x3c0196b0	0.007909462
98	0xbda17c40	-0.07885027
99	0xbdc2533c	-0.09488532
100	0x3d0a6190	0.03378445
101	0x3d551e9c	0.052031144
102	0x3d905a94	0.070485264
103	0xbdeb813e	-0.1149926
104	0x3de748ee	0.11293207
105	0xbb297380	-0.0025856197
106	0x3d2f9c38	0.04287359
107	0x3d7139bc	0.05889295
108	0x3d778a1c	0.060434446
109	0xbdb360a8	-0.0875867
110	0x3dea12ea	0.11429389
111	0xbdf93f9a	-0.12170334
112	0x3dc88944	0.09791806
113	0x3de3ebf2	0.11128987
114	0xbdbccef0	-0.09219158
115	0xbdab4268	-0.08362275
116	0xbdf5e850	-0.12007201
117	0x3ddfc6e6	0.10926609
118	0x3c96dc10	0.01841548
119	0xbdd8034a	-0.10547502
120	0x3df6fee4	0.12060335
121	0x3dcd7890	0.10032761
122	0xbda73eb4	-0.081662565
123	0xbc013b50	-0.007887676
124	0x3df0b8cc	0.11753997
125	0x3defe384	0.11713317
126	0x3d462e54	0.048384026
127	0x3da5eb8c	0.081015676
128	0x3cdf44a8	0.027254418
129	0xbcb84010	-0.022491485
130	0xbd769ec0	-0.06020999
131	0xbd9ef634	-0.07761803
132	0x3d752934	0.059853747
133	0x3def7f46	0.11694197
134	0x3dcc4172	0.0997342
135	0x3cf24080	0.029571772
136	0xbd54e608	-0.051977187
137	0xbcb2a078	-0.021805033
138	0xbd5b07d0	-0.053474247
139	0xbdeb2ef8	-0.11483568
140	0x3c99d628	0.018778875
141	0xbd835044	-0.06411794
142	0x3da4f31e	0.080541834
143	0x3dfa8482	0.12232305
144	0xbde1d9d6	-0.11027877
145	0x3de9d662	0.114178434
146	0xbc8dc748	-0.017306939
147	0x3d3c6b04	0.046000496
148	0x3d8ab4c2	0.06772758
149	0xbd4accf8	-0.04951188
150	0xbd704cb8	-0.058666915
151	0x3d54de44	0.05196978
152	0x3c3bdaf0	0.011465773
153	0x3d9d1c96	0.07671468
154	0xbd644c14	-0.055736616
155	0xbce6ab50	-0.02815786
156	0xbdf4d8da	-0.11955424
157	0x3dd15d3a	0.1022286
158	0x3cfb2ad0	0.030660063
159	0x3d201a8c	0.039087817
160	0xbd98f8bc	-0.07469317
161	0x3dfe0a9e	0.12404369
162	0xbdc0309e	-0.09384273
163	0xbb90cd00	-0.004418969
164	0x3d1a2a34	0.037637904
165	0xbdb51ee0	-0.088437796
166	0x3ddb196e	0.1069821
167	0xbd0f0540	-0.034917116
168	0xbd0838c8	-0.033257276
169	0xbdfc2ffe	-0.12313841
170	0xbdfc2976	-0.123125955
171	0xbcf29a98	-0.029614732
172	0x3c2fea10	0.010736957
173	0xbdf233fa	-0.1182632
174	0x3dccebcc	0.10005912
175	0xbd2082c4	-0.039187208
176	0xbda543bc	-0.0806956
177	0xbcf26f28	-0.029594019
178	0x3d273254	0.04081948
179	0x3d6287bc	0.055305228
180	0x3de78e66	0.11306457
181	0x3cee43a0	0.02908498
182	0x3d059cf4	0.032620385
183	0xbd999692	-0.07499422
184	0x3ddd47ce	0.10804711
185	0x3db5f53e	0.08884667
186	0x3d34a65c	0.044103965
187	0x3daa8466	0.08326034
188	0xbcb11fb0	-0.021621555
189	0xbdfe792c	-0.124254555
190	0xbd0f9ca4	-0.035061494
191	0x3d1ef588	0.038808376
192	0xbde35a20	-0.11101174
193	0x3d265804	0.040611282
194	0x3d5b36d8	0.0535191
195	0x3d4b1580	0.04958105
196	0x3da8728e	0.082249746
197	0xbde96246	-0.11395697
198	0x3c58e230	0.013237521
199	0xbddd286a	-0.10798724
200	0x3d3b72d0	0.04576379
201	0x3d332258	0.043733925
202	0x3d974dfa	0.0738792
203	0xbd9d1d9a	-0.07671662
204	0x3ddd5920	0.10808015
205	0x3d950284	0.072758704
206	0x3de10d94	0.10988918
207	0x3df6be34	0.12047997
208	0x3c991670	0.018687457
209	0x3d252420	0.040317655
210	0x3b685280	0.0035449564
211	0x3bc55820	0.006022468
212	0x3c289550	0.010289505
213	0x3dbd480c	0.092422575
214	0x3d113860	0.035454154
215	0xbdfa6118	-0.122255504
216	0xbcdbfb78	-0.026853308
217	0x3ba257c0	0.0049543083
218	0xbc82bd90	-0.015959531
219	0x3de8dd70	0.11370361
220	0xbdda5222	-0.10660197
221	0xbcf7c320	-0.03024441
222	0x3cf17148	0.029472962
223	0x3cee7bf0	0.029111832
224	0x3d6c5c18	0.057705015
225	0xbd69c988	-0.05707696
226	0x3d1058dc	0.035240993
227	0x3d6134e4	0.05498208
228	0xbddd1726	-0.10795431
229	0xba0b3400	-0.0005310178
230	0x3da3e4ee	0.08002649
231	0x3d0e1ad8	0.03469357
232	0x3d3cf174	0.046128705
233	0xbc563710	-0.013074651
234	0xbdfc1a16	-0.12309663
235	0xbd430b08	-0.047617942
236	0xbdcfcc9e	-0.101464495
237	0xbca62af0	-0.020284146
238	0xbcd5dfe0	-0.026107728
239	0x3d89716c	0.06711087
240	0x3df79c10	0.120903134
241	0xbdefb398	-0.11704177
242	0xbceb61c8	-0.02873315
243	0xbc2149b0	-0.009844229
244	0x3c6c7fe0	0.014434785
245	0xbdef2374	-0.11676684
246	0x3dfaf3ca	0.1225353
247	0xbdc5d740	-0.09660196
248	0xbd803246	-0.06259589
249	0x3b873b40	0.004126936
250	0xbcfeb460	-0.031091869
251	0xbdad02e2	-0.084478155
252	0xbd3112a0	-0.043230653
253	0xbcec3980	-0.028836012
254	0xbc487f10	-0.012237325
255	0x3d92338e	0.071387395

net.4.bias f4 [32]
0	0x3df7465e	0.12073968
1	0xbd2474e4	-0.040150538
2	0xbd974252	-0.073856965
3	0xbd11b010	-0.035568297
4	0x3d92c542	0.0716653
5	0xbd5c7d88	-0.053830653
6	0x3c626460	0.013817877
7	0xbc731ed0	-0.014838889
8	0xbc2b8600	-0.01046896
9	0xbdbfdd96	-0.09368436
10	0xbd156630	-0.036474407
11	0xbd8cb930	-0.06871259
12	0xbd93b2a0	-0.072118044
13	0xbb1bcdc0	-0.002377376
14	0x3c3a3570	0.01136528
15	0x3dc8a8c0	0.097978115
16	0x3cc60688	0.024173036
17	0xbcab36b0	-0.0209001
18	0xbcdf91d0	-0.027291209
19	0x3c07fdd0	0.00830026
20	0xbcb88018	-0.022522017
21	0x3c509400	0.012730598
22	0x3dd0ae1a	0.10189457
23	0x39851200	0.00025381148
24	0xbdd4a04e	-0.10382138
25	0x3df3e496	0.11908834
26	0xbda5dcb4	-0.080987364
27	0x3d1e29f0	0.038614213
28	0x3dad1ca6	0.0845273
29	0x3dbf86e4	0.093519
30	0xbb1616c0	-0.0022901744
31	0x3b2b7100	0.0026159883
